Results/UCI-HAR/Ablation experiments/Baseline/best.pth (torch, 531195 bytes, 88 tensors)

exp_avg f4 [27, 9]
0	0xaa308810	-1.5679146e-13
1	0xa9fed7c3	-1.13172946e-13
2	0x29cc8ded	9.08404e-14
3	0xa99499dd	-6.599211e-14
4	0xab6aae60	-8.3375494e-13
5	0x2a148627	1.3191584e-13
6	0xab99f04f	-1.0938003e-12
7	0x2b9ee873	1.1291093e-12
8	0x2be95d62	1.6581565e-12
9	0xb0240f64	-5.9684724e-10
10	0xaf8355da	-2.3889762e-10
11	0x30052f06	4.845194e-10
12	0xafda6e29	-3.9732242e-10
13	0xb1271279	-2.43122e-09
14	0x2fd710d5	3.9120232e-10
15	0xb1b60b14	-5.2981566e-09
16	0x31855c97	3.8813357e-09
17	0x31c2eae9	5.6728493e-09
18	0x2402a7cc	2.8331386e-17
19	0x22cf5989	5.620226e-18
20	0xa3a014cb	-1.7356041e-17
21	0x2398b08b	1.6554642e-17
22	0x24e97a04	1.01254345e-16
23	0xa381a033	-1.4054055e-17
24	0x254af13f	1.7602444e-16
25	0xa52608b8	-1.4401159e-16
26	0xa55e6464	-1.9289444e-16
27	0x24bf64d0	8.300383e-17
28	0x2434bbc3	3.919032e-17
29	0xa4114b41	-3.1505606e-17
30	0x24348de1	3.9151454e-17
31	0x259544bf	2.5893964e-16
32	0xa480d04f	-5.586404e-17
33	0x2636abed	6.337694e-16
34	0xa5d49805	-3.687915e-16
35	0xa61c59a0	-5.4244837e-16
36	0xb451fc4f	-1.9556431e-07
37	0x348bfca7	2.6074596e-07
38	0xb27c60c2	-1.4690331e-08
39	0x34d3e324	3.946708e-07
40	0xb644d23a	-2.9328644e-06
41	0x34c1eb92	3.612045e-07
42	0xb645f83b	-2.9499777e-06
43	0x36406938	2.8671475e-06
44	0x3618e926	2.2785475e-06
45	0x04063377	1.5775256e-36
46	0x03567762	6.3025993e-37
47	0x8381c3cd	-7.626892e-37
48	0x02109c50	1.0624309e-37
49	0x04cdfc36	4.8426888e-36
50	0x839b693d	-9.134243e-37
51	0x044825a1	2.3527165e-36
52	0x8505b10c	-6.286148e-36
53	0x854ca511	-9.622352e-36
54	0x8cd05bc3	-3.2102701e-31
55	0x8b9b475e	-5.981121e-32
56	0x0bb897ba	7.1102515e-32
57	0x0c0f9117	1.1059981e-31
58	0x8dafb353	-1.0828378e-30
59	0x0cf02610	3.7000763e-31
60	0x8ec22929	-4.786433e-30
61	0x0e00e362	1.5886699e-30
62	0x0e555d8c	2.6299318e-30
63	0xb57eb1bf	-9.488103e-07
64	0xb42a7d95	-1.587817e-07
65	0x34cd2664	3.8212158e-07
66	0xb4bc6e49	-3.5097972e-07
67	0xb63ccea4	-2.8134464e-06
68	0x34c813e2	3.726737e-07
69	0xb5f4e8a6	-1.8247126e-06
70	0x368561ba	3.9750857e-06
71	0x36c9e81e	6.017289e-06
72	0x2496cd45	6.539987e-17
73	0x2438eaf1	4.0097643e-17
74	0xa4dbf515	-9.5391295e-17
75	0xa5957b17	-2.593079e-16
76	0x25b18ec1	3.080134e-16
77	0xa4e0cd4a	-9.749229e-17
78	0x268f3e7a	9.939553e-16
79	0xa63be4fc	-6.518899e-16
80	0xa675d73b	-8.529314e-16
81	0x2c915814	4.1309265e-12
82	0xabe26026	-1.6084952e-12
83	0xaa8ac8e9	-2.4653134e-13
84	0x2d43999b	1.1118574e-11
85	0xac9afb63	-4.404853e-12
86	0xabe5cc73	-1.6328175e-12
87	0xac80496a	-3.6461294e-12
88	0x2bfb7b97	1.7868926e-12
89	0x2b2d1cc6	6.150188e-13
90	0x3229e823	9.8898765e-09
91	0xb1b8303a	-5.3605875e-09
92	0xaffcf529	-4.601273e-10
93	0x330a7568	3.223741e-08
94	0xb240bf3f	-1.1219355e-08
95	0xb1a13f4c	-4.6929127e-09
96	0xb289d408	-1.604532e-08
97	0x3210a885	8.42022e-09
98	0x31a56a9b	4.8142517e-09
99	0xa5fbae8b	-4.3659834e-16
100	0x2537360c	1.5891032e-16
101	0x241e9d8b	3.4394233e-17
102	0xa6a8c660	-1.1711111e-15
103	0x25ea8a95	4.0686436e-16
104	0x2557f37e	1.8730776e-16
105	0x2623574c	5.6670295e-16
106	0xa5afdfc4	-3.050929e-16
107	0xa5373eec	-1.5894039e-16
108	0xa6bb38d6	-1.2991137e-15
109	0x25e1a95d	3.9146043e-16
110	0x24c77f50	8.651817e-17
111	0xa76478b2	-3.1706785e-15
112	0x26a0819f	1.1137364e-15
113	0x26109fb1	5.017646e-16
114	0x26a6008a	1.151871e-15
115	0xa634a1ce	-6.266933e-16
116	0xa5bd1116	-3.2797852e-16
117	0x36e04a69	6.6843827e-06
118	0xb62f8d5c	-2.6159314e-06
119	0xb2e9e206	-2.7227554e-08
120	0x37d0b13a	2.487806e-05
121	0xb73ca5ba	-1.1244259e-05
122	0xb685a850	-3.983303e-06
123	0xb76496d1	-1.3624974e-05
124	0x36d2d355	6.28309e-06
125	0x3681c051	3.866888e-06
126	0x85f6523f	-2.3163941e-35
127	0x0551e2c2	9.8687816e-36
128	0x038f455f	8.420711e-37
129	0x86a60f25	-6.246451e-35
130	0x060d8245	2.661486e-35
131	0x0545b052	9.2952804e-36
132	0x05d23a53	1.976973e-35
133	0x856034e6	-1.0542145e-35
134	0x84c0cca0	-4.53269e-36
135	0x0f2116d2	7.942308e-30
136	0x8e3e3df9	-2.3449147e-30
137	0x8d1cc568	-4.830883e-31
138	0x0fcb532c	2.0049382e-29
139	0x8f1d5e4e	-7.75886e-30
140	0x8e7f0f6f	-3.1438608e-30
141	0x8edf90ab	-5.5113055e-30
142	0x0e8550d7	3.2864877e-30
143	0x0de8dc25	1.4351102e-30
144	0x371012f9	8.587486e-06
145	0xb6959002	-4.4573108e-06
146	0xb48c0385	-2.6079593e-07
147	0x37e4d11a	2.7277089e-05
148	0xb7125e99	-8.724303e-06
149	0xb67bb9b7	-3.7510015e-06
150	0xb776c9df	-1.4709744e-05
151	0x36f71904	7.364086e-06
152	0x369208cb	4.3521627e-06
153	0xa6df6b9a	-1.5502899e-15
154	0x265cb451	7.6572207e-16
155	0x225f89c2	3.0295064e-18
156	0xa7926189	-4.062889e-15
157	0x26f2c23b	1.684477e-15
158	0x2616d057	5.232406e-16
159	0x26b5351e	1.2573795e-15
160	0xa5b1d311	-3.084763e-16
161	0xa4663eba	-4.992643e-17
162	0xb8e37d42	-0.000108475346
163	0x376dcdb4	1.4174195e-05
164	0xb7d2203e	-2.5048965e-05
165	0xb8e60378	-0.00010967901
166	0x38844d28	6.308622e-05
167	0x38b8e58f	8.816562e-05
168	0xbc0436e6	-0.008069729
169	0x38562579	5.1056475e-05
170	0xba195a67	-0.0005849958
171	0xb9f08a23	-0.00045879287
172	0x3a2fc305	0.00067047804
173	0xb7393db8	-1.1041229e-05
174	0x3aa3473f	0.0012457146
175	0x3a9234b4	0.0011154623
176	0x391173e6	0.00013871453
177	0x3e383b32	0.17991331
178	0x3b541af1	0.003236469
179	0x3bd593e5	0.0065178745
180	0xb9cc275a	-0.0003893923
181	0xb89943d8	-7.3082454e-05
182	0x377b4161	1.4975988e-05
183	0xb9e330a1	-0.00043333045
184	0x3a58252d	0.0008245286
185	0x3a50b992	0.00079622224
186	0xbabfe47f	-0.0014640241
187	0xb8995d3d	-7.3129755e-05
188	0xba8146d7	-0.0009863031
189	0xb8a7910d	-7.990198e-05
190	0xb7a124ca	-1.9209827e-05
191	0x38a086e6	7.654521e-05
192	0x3980fcc7	0.00024602396
193	0x39665d8d	0.0002196936
194	0x388d6433	6.7420675e-05
195	0xbbf87206	-0.007581952
196	0xba0da20a	-0.0005402869
197	0xba8fc7a4	-0.0010969532
198	0x38953b98	7.115974e-05
199	0xb7b8a128	-2.2009554e-05
200	0x380d5805	3.3698994e-05
201	0x3892ca2b	6.999479e-05
202	0xb8dde31d	-0.00010580404
203	0xb8b5253f	-8.63769e-05
204	0xbbee85de	-0.007279142
205	0xba433799	-0.00074469444
206	0xba4e3f1b	-0.000786768
207	0xb9744814	-0.00023296505
208	0xba397380	-0.0007074401
209	0xb9d4eb1f	-0.0004061097
210	0x3ab22fcb	0.0013594566
211	0x3aea414d	0.0017872244
212	0x39211ccd	0.00015364886
213	0x3e19de8d	0.15026303
214	0xbc0dbd47	-0.008651084
215	0xbbcebb0a	-0.006308918
216	0x396ea72f	0.0002275973
217	0x3a10f4de	0.0005529652
218	0x398e5dce	0.0002715424
219	0x39954b94	0.00028475805
220	0xb936bb50	-0.00017426652
221	0xb985bb77	-0.0002550741
222	0x3d46063c	0.04834579
223	0x3b686b46	0.003546433
224	0x3bdd46da	0.006752831
225	0x38d68c8d	0.00010230495
226	0x390d09a9	0.00013450407
227	0x38511489	4.9848608e-05
228	0x38a46ef1	7.840794e-05
229	0xb9f41c89	-0.00046560567
230	0xba351887	-0.0006908257
231	0xbbc87c97	-0.006118368
232	0xba2adb4b	-0.00065176626
233	0xb98b5678	-0.0002657657
234	0xb7ba6563	-2.222014e-05
235	0x3a7efada	0.0009726711
236	0x391e9d52	0.0001512666
237	0x3aabe719	0.0013115137
238	0xbae0be7b	-0.0017146611
239	0xbad29780	-0.0016066879
240	0x3d6e97db	0.05825029
241	0x3bca919c	0.006181909
242	0x3bdf6aae	0.006818137

exp_avg_sq f4 [27, 9]
0	0x2b4d6dbb	7.298291e-13
1	0x2a80704b	2.2815286e-13
2	0x2a313261	1.5738237e-13
3	0x2c2b1b3a	2.4315675e-12
4	0x2c139ff5	2.097875e-12
5	0x2b34f390	6.4286857e-13
6	0x2e2ae256	3.885455e-11
7	0x2b58c802	7.701618e-13
8	0x2b76b011	8.76411e-13
9	0x2b95093d	1.0589651e-12
10	0x2a6b263a	2.0885455e-13
11	0x2a8de59a	2.520595e-13
12	0x2be72b11	1.642549e-12
13	0x2bd7a1d9	1.5321591e-12
14	0x2b9011c1	1.0236743e-12
15	0x2eb22de7	8.102657e-11
16	0x2bd2657b	1.4949564e-12
17	0x2c0d82fb	2.0110014e-12
18	0x2bdf1596	1.5851094e-12
19	0x2ad8b0e7	3.8492058e-13
20	0x2ac37472	3.4719759e-13
21	0x2c7ad155	3.564334e-12
22	0x2cad4383	4.924451e-12
23	0x2bf7f953	1.7619607e-12
24	0x2ed6d2a4	9.7690106e-11
25	0x2c01ef6b	1.8464906e-12
26	0x2c492e4a	2.8589514e-12
27	0x2ba11996	1.144684e-12
28	0x2a3e9255	1.6926159e-13
29	0x2a3f7b4d	1.7006986e-13
30	0x2c08396d	1.935864e-12
31	0x2d8a67cf	1.5734884e-11
32	0x2b57aa07	7.6619304e-13
33	0x2e3a6a28	4.238579e-11
34	0x2c0d37b5	2.0068229e-12
35	0x2bdbaa01	1.5608071e-12
36	0x2c7cc8d9	3.5922847e-12
37	0x2b96f969	1.0727366e-12
38	0x2a9e8388	2.8157706e-13
39	0x2d1bae51	8.849436e-12
40	0x2c8a26db	3.9265097e-12
41	0x2c0c6655	1.9952002e-12
42	0x2f7ba318	2.288626e-10
43	0x2c0b9a34	1.9838688e-12
44	0x2c6a76f0	3.3319424e-12
45	0x2ba91a58	1.2015484e-12
46	0x2a832ce1	2.3301416e-13
47	0x2a6c9ec5	2.1016095e-13
48	0x2c5f3d0d	3.1724096e-12
49	0x2c4b5bb3	2.8898938e-12
50	0x2b8b02fd	9.877373e-13
51	0x2e13faf9	3.364684e-11
52	0x2b8716f5	9.598699e-13
53	0x2ba58377	1.1760444e-12
54	0x2b42eed9	6.9254113e-13
55	0x2a814a3a	2.2966508e-13
56	0x29db5edb	9.7420085e-14
57	0x2c1013c6	2.0474607e-12
58	0x2bc165b7	1.3741706e-12
59	0x2b275d6a	5.9459956e-13
60	0x2da07b34	1.8244607e-11
61	0x2b2e12e5	6.184344e-13
62	0x2b4c5ab4	7.2601235e-13
63	0x2c03d949	1.8736837e-12
64	0x2b1d2d7a	5.5840716e-13
65	0x2aa14ad7	2.8651276e-13
66	0x2c876fea	3.8493557e-12
67	0x2c9854c7	4.329512e-12
68	0x2b9c68f6	1.1113599e-12
69	0x2f6352b4	2.0674912e-10
70	0x2c496708	2.8621012e-12
71	0x2c9cf709	4.461213e-12
72	0x2b94dd08	1.0577381e-12
73	0x2b1e17d6	5.6165955e-13
74	0x2a9a0ca1	2.7364658e-13
75	0x2c36ae46	2.5960497e-12
76	0x2c2529de	2.3471151e-12
77	0x2ae6ec7c	4.10203e-13
78	0x2e6be3dc	5.3635194e-11
79	0x2b882aab	9.675224e-13
80	0x2ba0ceca	1.1426079e-12
81	0x2bf05b35	1.7078341e-12
82	0x2b1cb390	5.5671526e-13
83	0x2a25ce10	1.4726436e-13
84	0x2c85c435	3.8018707e-12
85	0x2cc35771	5.5519413e-12
86	0x2c43714b	2.7774057e-12
87	0x2df75834	2.8119819e-11
88	0x2d94363e	1.684974e-11
89	0x2d59cd92	1.2380668e-11
90	0x2d17f04a	8.636711e-12
91	0x2c32b962	2.539823e-12
92	0x2b29a76a	6.0273195e-13
93	0x2de2bcb9	2.5777035e-11
94	0x2dc13933	2.1966961e-11
95	0x2cb68f35	5.1886503e-12
96	0x2ec9cd12	9.1768496e-11
97	0x2e809b54	5.848358e-11
98	0x2e42c7ca	4.428794e-11
99	0x2c27a5d0	2.3824172e-12
100	0x2b0f1917	5.0838625e-13
101	0x2a59262f	1.9286719e-13
102	0x2c952ddb	4.2399257e-12
103	0x2c8028a7	3.642492e-12
104	0x2bb07c14	1.2539991e-12
105	0x2e730085	5.5252265e-11
106	0x2e0f5855	3.259289e-11
107	0x2de702cf	2.6262907e-11
108	0x2b6b185e	8.352259e-13
109	0x2a9d8885	2.7983532e-13
110	0x2a351160	1.6082058e-13
111	0x2d07499a	7.690204e-12
112	0x2c524627	2.9881737e-12
113	0x2b1d80df	5.595645e-13
114	0x2db68974	2.0752046e-11
115	0x2d579e34	1.2256463e-11
116	0x2d778830	1.4070564e-11
117	0x2d4ab6b8	1.1522942e-11
118	0x2c1bc775	2.2137546e-12
119	0x2b86c858	9.576879e-13
120	0x2e957215	6.7960006e-11
121	0x2e605ff6	5.1016934e-11
122	0x2ca31361	4.63489e-12
123	0x2f80850c	2.33776e-10
124	0x2ebc110b	8.5522776e-11
125	0x2e912fb6	6.602312e-11
126	0x2c575b28	3.060394e-12
127	0x2b2a490f	6.049752e-13
128	0x2ab301c1	3.1798004e-13
129	0x2e2e7869	3.9669965e-11
130	0x2d7247f4	1.3772084e-11
131	0x2cfefb32	7.2470025e-12
132	0x2e0f3b8d	3.2567327e-11
133	0x2deca0be	2.6901478e-11
134	0x2da9340b	1.9236187e-11
135	0x2bc7724e	1.4171526e-12
136	0x2a7f0424	2.2649986e-13
137	0x2a0ebf31	1.2678466e-13
138	0x2da3fb88	1.8642657e-11
139	0x2cdf34a4	6.3438855e-12
140	0x2c7537fb	3.484767e-12
141	0x2d4c69fe	1.16195924e-11
142	0x2d349d2e	1.0266716e-11
143	0x2cf9b013	7.096554e-12
144	0x2dccd9d7	2.3288855e-11
145	0x2c24f938	2.3444146e-12
146	0x2bb60d32	1.293554e-12
147	0x2ebf57fa	8.701302e-11
148	0x2e7f3955	5.803121e-11
149	0x2d1bcb7f	8.855915e-12
150	0x2f87452b	2.4605504e-10
151	0x2ef461f6	1.1113237e-10
152	0x2e97c000	6.900791e-11
153	0x2cc43c61	5.5773585e-12
154	0x2b12fbd2	5.221909e-13
155	0x2aa4ff08	2.9309216e-13
156	0x2d2e0eab	9.894012e-12
157	0x2d549824	1.2084587e-11
158	0x2c02db58	1.8595871e-12
159	0x2edc63cb	1.00221685e-10
160	0x2e0ce14c	3.203242e-11
161	0x2e0cabb9	3.1984835e-11
162	0x34ea56b2	4.3648976e-07
163	0x3440923c	1.7934593e-07
164	0x3416c88d	1.4042799e-07
165	0x365b8c85	3.2715336e-06
166	0x35cdd6a9	1.5336165e-06
167	0x355d9698	8.254806e-07
168	0x3af67365	0.0018802701
169	0x370e17b4	8.469378e-06
170	0x37df631b	2.6629821e-05
171	0x374a858c	1.2071232e-05
172	0x369e2dd7	4.7141034e-06
173	0x3669d0e7	3.4841303e-06
174	0x38fe5df7	0.00012129166
175	0x38555469	5.086177e-05
176	0x37d75443	2.5669235e-05
177	0x3ddd0f8b	0.1079398
178	0x39d30e05	0.00040255502
179	0x3ab79b3c	0.0014008055
180	0x35eb9bd3	1.7554215e-06
181	0x353ff1fd	7.1505184e-07
182	0x351ca85f	5.835954e-07
183	0x37433225	1.1634581e-05
184	0x36e601ba	6.854735e-06
185	0x365c1cc2	3.2799294e-06
186	0x3bc6e776	0.0060700728
187	0x37c36b88	2.3295885e-05
188	0x38a27fdb	7.748577e-05
189	0x35c4113b	1.4608153e-06
190	0x35155b06	5.563928e-07
191	0x34ed6c0e	4.422331e-07
192	0x371dc9ca	9.404912e-06
193	0x36a64d69	4.9561972e-06
194	0x3647afb1	2.9755577e-06
195	0x3bcae79a	0.00619216
196	0x37ece666	2.824068e-05
197	0x38c3bc13	9.333356e-05
198	0x352b53c6	6.382437e-07
199	0x347cbef4	2.3538797e-07
200	0x34559778	1.9892275e-07
201	0x36ad124c	5.157932e-06
202	0x361f49c7	2.373579e-06
203	0x35a725ac	1.2453434e-06
204	0x3b3ca93e	0.00287874
205	0x375636c2	1.2768143e-05
206	0x38268c3b	3.9708084e-05
207	0x37805892	1.5300033e-05
208	0x36e2d2fa	6.7598858e-06
209	0x36a15bd9	4.8088664e-06
210	0x3954178c	0.00020226667
211	0x38811d61	6.1566716e-05
212	0x381a8572	3.684074e-05
213	0x3e4613cf	0.19343494
214	0x3a49d962	0.0007699934
215	0x3b2d08f6	0.0026403046
216	0x370a58be	8.246103e-06
217	0x36422804	2.8931545e-06
218	0x3620d804	2.3967596e-06
219	0x388d5f59	6.741164e-05
220	0x37feb8be	3.0365187e-05
221	0x3789f4a9	1.6445601e-05
222	0x3d57adcd	0.052655984
223	0x395dc7d7	0.00021150649
224	0x3a3bb4fb	0.0007160452
225	0x360b781e	2.0782531e-06
226	0x355fc866	8.336559e-07
227	0x352cd65c	6.4386927e-07
228	0x374b8725	1.2131209e-05
229	0x36f2a3c5	7.2312273e-06
230	0x3672eca9	3.6198564e-06
231	0x3bc67493	0.006056377
232	0x37cb7212	2.4252604e-05
233	0x38a961e7	8.076784e-05
234	0x3770ce43	1.4353139e-05
235	0x36cd64a0	6.1211904e-06
236	0x36ad4f89	5.165061e-06
237	0x38d738c5	0.00010262573
238	0x38802b46	6.111576e-05
239	0x37f98a59	2.9747536e-05
240	0x3d450d99	0.04810867
241	0x39670372	0.0002203116
242	0x3a3819ae	0.00070228695

exp_avg f4 [27]
0	0xab2a6ae4	-6.0544473e-13
1	0xb18e0fbb	-4.1345323e-09
2	0x251b67a4	1.3479222e-16
3	0x25fff197	4.4399156e-16
4	0xb6168bf1	-2.2433198e-06
5	0x83fcf942	-1.4868456e-36
6	0x8e8c9df3	-3.4664764e-30
7	0xb56ac80c	-8.74629e-07
8	0x263383ae	6.228156e-16
9	0x2209e31d	1.8687195e-18
10	0x282ebfca	9.700528e-15
11	0x9ba72497	-2.7651478e-22
12	0x9ca82604	-1.1127134e-21
13	0x2d0a49f6	7.860814e-12
14	0x800034b8	-1.8912e-41
15	0x04c9cea7	4.7444653e-36
16	0x2c477432	2.8344102e-12
17	0x9c809b5f	-8.510492e-22
18	0xbc232a00	-0.009958744
19	0x3e66a9bc	0.22525686
20	0xba7dcff2	-0.00096821703
21	0xbc0d04c0	-0.0086070895
22	0xbc1a5945	-0.009420698
23	0x3e361065	0.17779692
24	0x3d85028b	0.06494626
25	0xbc101869	-0.008794882
26	0x3d97b0c3	0.074067615

exp_avg_sq f4 [27]
0	0x2e31b3b9	4.0404766e-11
1	0x2eb9cafa	8.448882e-11
2	0x2ee8dca8	1.0589335e-10
3	0x2e5e104e	5.0491437e-11
4	0x2f90f9c0	2.6370905e-10
5	0x2e30aa5c	4.0169076e-11
6	0x2dc5aaf3	2.2472224e-11
7	0x2f713e20	2.1940894e-10
8	0x2e8bad77	6.351802e-11
9	0x1bbaac54	3.0882483e-22
10	0x1c051923	4.4038497e-22
11	0x1be36327	3.7618076e-22
12	0x1b71e3ff	2.0008722e-22
13	0x1bb358ef	2.9670538e-22
14	0x1b94121a	2.4496244e-22
15	0x1b70fa01	1.9933115e-22
16	0x1bbe102d	3.1443317e-22
17	0x1bcafc1d	3.358102e-22
18	0x3b3bb283	0.0028640337
19	0x3e27e475	0.16395743
20	0x3c15e17a	0.009147996
21	0x3c1b3b9c	0.009474661
22	0x3b9097a5	0.0044126087
23	0x3e967080	0.29382706
24	0x3da3f52a	0.08005746
25	0x3c165a07	0.009176738
26	0x3d9587ce	0.07301293

exp_avg f4 [9, 9]
0	0xbadcfbb6	-0.0016859684
1	0x3db14ec1	0.08657599
2	0xbc0dd166	-0.0086558815
3	0x3b1882ea	0.002327139
4	0xba3d8f87	-0.0007231165
5	0xbd3e2ba8	-0.046428353
6	0xbdb19fe2	-0.08673073
7	0x3be4bb5d	0.0069803433
8	0xbd854dc1	-0.06508971
9	0x3a3286a2	0.0006810223
10	0xbd6ef018	-0.05833444
11	0x3b1ef01e	0.0024252008
12	0x3a44750b	0.00074942474
13	0x3a0f6526	0.00054700894
14	0x3cfc02ac	0.030762993
15	0x3d6f52d3	0.058428597
16	0xbb0e0e06	-0.002167584
17	0x3d2dd901	0.04244328
18	0xba8ff983	-0.0010984394
19	0x3a746c6c	0.00093240174
20	0xbbc30395	-0.0059513547
21	0x3b94c632	0.0045402283
22	0xba194a17	-0.0005847527
23	0xba8ef74d	-0.0010907442
24	0x3a5f977c	0.0008529348
25	0x3ba323c2	0.004978628
26	0xbaea841a	-0.0017892153
27	0xbadf389e	-0.0017030423
28	0x3cfab4af	0.030603735
29	0xbbf901bc	-0.0075990837
30	0x3aa26927	0.0012390957
31	0xba0f9615	-0.0005477381
32	0xbc8d32ac	-0.017236076
33	0xbcff705b	-0.031181505
34	0x3bb0bf00	0.0053938627
35	0xbcbba280	-0.022904634
36	0xba4a17de	-0.0007709245
37	0xbbda6b42	-0.006665618
38	0xbb3eac00	-0.002909422
39	0x3ada6e28	0.0016664909
40	0xb886e447	-6.432138e-05
41	0x3b4aabe0	0.00309252
42	0x3bd49daa	0.0064885216
43	0x3ad89b7d	0.0016525831
44	0x3b9e443f	0.004829913
45	0x38643791	5.4411186e-05
46	0xbc33ae80	-0.010966897
47	0x3ab1e9a0	0.0013573654
48	0x3964faca	0.000218372
49	0x39ec78ee	0.00045103527
50	0x3bc9c475	0.0061574527
51	0x3c380793	0.011232275
52	0xbace4101	-0.0015735925
53	0x3c0c0c39	0.008547836
54	0x3949f577	0.00019260297
55	0xbc5eb535	-0.013593008
56	0x3a96b3bf	0.001149766
57	0xb9f9f87c	-0.00047678116
58	0xb899ed68	-7.339829e-05
59	0x3bee833d	0.0072788284
60	0x3c5b97db	0.013402904
61	0xba89393d	-0.0010469329
62	0x3c2793e5	0.010228132
63	0x3ada982c	0.0016677431
64	0x3cbe2a17	0.02321343
65	0x3bfac995	0.007653425
66	0xbba5447d	-0.005043565
67	0x399dfc83	0.0003013351
68	0xbc34b58f	-0.011029615
69	0xbcc7459c	-0.024325185
70	0xbb96cf6d	-0.004602364
71	0xbc87f78c	-0.016597532
72	0x3b1187a6	0.0022206097
73	0xbd398641	-0.04529405
74	0x3c2db7d0	0.010602906
75	0xbb686c49	-0.0035464934
76	0x39fe46e0	0.0004849946
77	0x3cce1d9b	0.025160601
78	0x3d3aa490	0.045567095
79	0xbc005c81	-0.007834555
80	0x3d12b944	0.035821214

exp_avg_sq f4 [9, 9]
0	0x3759c34e	1.2979681e-05
1	0x3c7472df	0.0149199655
2	0x39259ae9	0.00015793335
3	0x384e72a9	4.9221013e-05
4	0x36f753e6	7.3709407e-06
5	0x3b879998	0.004138183
6	0x3c6b68cf	0.01436825
7	0x38a98a6d	8.084332e-05
8	0x3be86d3c	0.0070931
9	0x37e2887a	2.7004851e-05
10	0x3d10ffd6	0.035400234
11	0x39a3e3b5	0.00031259438
12	0x38bf00c9	9.107736e-05
13	0x3757a91c	1.28543725e-05
14	0x3c1f521d	0.009724167
15	0x3d0ae376	0.03390833
16	0x391c72f5	0.00014920144
17	0x3c8a5a53	0.016888773
18	0x376fb194	1.4286856e-05
19	0x3c906aae	0.017628994
20	0x392ca2af	0.00016463803
21	0x385de188	5.290055e-05
22	0x37047c2c	7.896724e-06
23	0x3ba08406	0.004898551
24	0x3c8aae23	0.016928738
25	0x38a8ddbf	8.052168e-05
26	0x3c08fbc8	0.008360811
27	0x38162711	3.579917e-05
28	0x3d268014	0.04064949
29	0x39d0db5b	0.00039836284
30	0x39083571	0.00012989879
31	0x3790e941	1.7274755e-05
32	0x3c36e435	0.011162807
33	0x3d1f9639	0.038961623
34	0x3948c03d	0.000191451
35	0x3c9db241	0.019250037
36	0x371e8920	9.449461e-06
37	0x3c31aceb	0.0108444495
38	0x38e6088a	0.00010968845
39	0x38129d3d	3.4955552e-05
40	0x3691e936	4.348486e-06
41	0x3b45ca33	0.0030180335
42	0x3c2b15b1	0.010442183
43	0x38623997	5.3936234e-05
44	0x3ba7de3e	0.005122929
45	0x373600ac	1.0848202e-05
46	0x3c69a7ca	0.014261195
47	0x390eaf73	0.00013607535
48	0x3825a9cc	3.94972e-05
49	0x369287ce	4.366949e-06
50	0x3b809434	0.003923917
51	0x3c620000	0.013793945
52	0x3887ecf7	6.48144e-05
53	0x3bdc0ab0	0.0067151412
54	0x3671cbd1	3.6030435e-06
55	0x3b823d96	0.003974627
56	0x381babb1	3.711478e-05
57	0x373b9488	1.1180651e-05
58	0x35d84d38	1.6115728e-06
59	0x3a8fd63d	0.0010973882
60	0x3b7b39d1	0.0038334022
61	0x379b3887	1.8503762e-05
62	0x3af6b295	0.0018821532
63	0x382d9fcc	4.1395237e-05
64	0x3d32476d	0.04352515
65	0x39dbf207	0.0004195126
66	0x390c5015	0.00013381273
67	0x37a1b74f	1.9278055e-05
68	0x3c465757	0.012105784
69	0x3d2c02d4	0.041994885
70	0x39471248	0.00018984929
71	0x3ca88b4e	0.020574238
72	0x37c4d03e	2.3461991e-05
73	0x3ce9a439	0.02852069
74	0x3982bbbb	0.00024935402
75	0x38a540e2	7.8798985e-05
76	0x3756a3dd	1.2793546e-05
77	0x3c021cb2	0.007941412
78	0x3ce1333c	0.02749025
79	0x38fe5148	0.000121268036
80	0x3c5efb02	0.01360965

exp_avg f4 [9]
0	0xbebd4b0e	-0.36971325
1	0x3e86364b	0.26213297
2	0x3cf299a2	0.029614273
3	0xbe09862d	-0.1343009
4	0x3d14f60a	0.036367454
5	0x3d50005b	0.05078159
6	0x3d71d50a	0.05904106
7	0xbe0d9a53	-0.13828401
8	0x3e3b60a5	0.18298586

exp_avg_sq f4 [9]
0	0x3e8f51c3	0.27992067
1	0x3f2794ae	0.6546124
2	0x3ea8a57c	0.32938755
3	0x3f407ea4	0.7519324
4	0x3e4eee9b	0.20208208
5	0x3e8a889a	0.27057344
6	0x3d979490	0.07401383
7	0x3f5001bd	0.8125265
8	0x3f076ec2	0.5290338

exp_avg f4 [2048, 9]
0	0x34122ebb	1.361431e-07
1	0x320942d4	7.9896445e-09
2	0x33842ff9	6.155455e-08
3	0x333ffd67	4.470112e-08
4	0x339d026d	7.3113235e-08
5	0xb37858a9	-5.7822636e-08
6	0xb3276214	-3.897192e-08
7	0x334c8332	4.7616773e-08
8	0xb36cfca1	-5.5177797e-08
9	0x3a2fc7c7	0.00067054894
10	0xba97deee	-0.0011586824
11	0xba7fa46f	-0.00097519805
12	0x3b3a928b	0.0028468694
13	0xb967cd1c	-0.00022106286
14	0xba16a143	-0.0005746076
15	0xb9063a06	-0.00012800851
16	0xb9a003aa	-0.00030520308
17	0xbad8cfb4	-0.0016541393
18	0xa4364d17	-3.9530257e-17
19	0xa5655fc0	-1.9895025e-16
20	0xa503f9cf	-1.1447077e-16
21	0xa5bd0880	-3.2792034e-16
22	0xa4d08134	-9.04245e-17
23	0xa4d4fff3	-9.237394e-17
24	0xa4041a98	-2.8645463e-17
25	0xa534bf31	-1.567729e-16
26	0xa568382f	-2.0141828e-16
27	0x3ac23002	0.0014815333
28	0xba2ed65a	-0.0006669514
29	0xb9f1c821	-0.0004611621
30	0x3acb50d7	0.0015511763
31	0x3859bde5	5.1913685e-05
32	0xb985392d	-0.00025410336
33	0xba4e7868	-0.00078762183
34	0x3a27314f	0.0006377892
35	0xbb094552	-0.002094586
36	0x3697743a	4.5136812e-06
37	0x36b144f5	5.2830387e-06
38	0x36852dc5	3.969037e-06
39	0xb84f3652	-4.9403236e-05
40	0x38c8b25c	9.569965e-05
41	0xb907268f	-0.00012888967
42	0xb79dfc7c	-1.883343e-05
43	0x37cc40e2	2.4348908e-05
44	0x3881b054	6.184043e-05
45	0x3b15225b	0.0022756073
46	0x3ac92d99	0.0015348672
47	0x3ad7f4c6	0.0016476146
48	0x3a820351	0.0009919201
49	0x39759c3e	0.00023423226
50	0x3a495e15	0.0007681561
51	0xbb97f301	-0.0046371226
52	0x3ac2542d	0.0014826112
53	0xba87d96d	-0.001036448
54	0x353cb137	7.029334e-07
55	0xb513257e	-5.4816326e-07
56	0x351f4a94	5.934064e-07
57	0xb28f331b	-1.6670631e-08
58	0x35194e73	5.71111e-07
59	0x344d1b97	1.910215e-07
60	0xb58e3ff9	-1.0598443e-06
61	0x34c4a3eb	3.662711e-07
62	0xb5364112	-6.7894973e-07
63	0xbb121486	-0.0022290065
64	0xbac6217e	-0.0015116183
65	0xba9d094d	-0.0011980921
66	0xba89f4bc	-0.0010525207
67	0x3a268e86	0.0006353635
68	0xba1f5560	-0.00060780905
69	0x3b53d965	0.0032325622
70	0xbad1cd2d	-0.0016006582
71	0x3ad908e1	0.0016558432
72	0x3605074f	1.9822799e-06
73	0x35eb1ccf	1.7517249e-06
74	0x34ed516a	4.4203927e-07
75	0x35df4352	1.6634388e-06
76	0x362d4b74	2.5822928e-06
77	0x3573d4fd	9.0834493e-07
78	0x35a6887b	1.2407685e-06
79	0xb6744fff	-3.6405397e-06
80	0xb6e96b10	-6.956405e-06
81	0x35992bfe	1.1412192e-06
82	0x34905647	2.6884865e-07
83	0xb48b4307	-2.5939536e-07
84	0x34a538da	3.077501e-07
85	0xb44567d4	-1.8384827e-07
86	0xb335f222	-4.2362565e-08
87	0xb6b91f9b	-5.517109e-06
88	0x34a44ee2	3.0604775e-07
89	0x36f58f69	7.318264e-06
90	0xb9268f1a	-0.00015884303
91	0x3a5e027a	0.0008468997
92	0x396d7c5e	0.00022648412
93	0x394efbf0	0.00019739545
94	0x38d4c81c	0.00010146221
95	0xb9e5eb94	-0.00043853803
96	0x3b67af19	0.003535217
97	0xbb66f094	-0.003523861
98	0xbb39b931	-0.0028339142
99	0x36539fbe	3.1534432e-06
100	0xb67d9899	-3.7788761e-06
101	0x3591d752	1.0866008e-06
102	0x35963f33	1.1194264e-06
103	0x32de1beb	2.5856897e-08
104	0xb4567196	-1.9971625e-07
105	0xb66ed227	-3.5587088e-06
106	0x35563b8d	7.980787e-07
107	0x34c3509c	3.6380231e-07
108	0xbadb9f20	-0.0016755797
109	0x39ec64e8	0.0004508861
110	0x3b23b4f6	0.0024979687
111	0x3a8f3d6d	0.001092834
112	0x3aed429f	0.001810152
113	0xb988db57	-0.00026103362
114	0xbc2c1050	-0.010501936
115	0x3b8fd0f8	0.0043889247
116	0x3c1453e5	0.009053205
117	0xb877cd23	-5.9080437e-05
118	0xb8318f30	-4.2333442e-05
119	0x38103874	3.438485e-05
120	0x38bf4c97	9.121856e-05
121	0xb8f957d5	-0.00011889605
122	0xb7b8b95c	-2.2020824e-05
123	0xba52439d	-0.00080209394
124	0x3a89f039	0.0010523862
125	0x39e2071d	0.0004311138
126	0x36975e9f	4.511166e-06
127	0xb74ad246	-1.2089096e-05
128	0xb736c7e3	-1.0894585e-05
129	0xb71c8da2	-9.331301e-06
130	0x35f3a4b5	1.8152847e-06
131	0xb728a3fc	-1.0051761e-05
132	0xb827799a	-3.9929153e-05
133	0x37f8e85a	2.9672101e-05
134	0x38adfa0a	8.295856e-05
135	0x3a987d23	0.0011633973
136	0xb94912ab	-0.00019175808
137	0x3a445d89	0.00074907445
138	0x39adfb1f	0.0003318423
139	0xb9c813a1	-0.00038161597
140	0xb9a31627	-0.00031106287
141	0xba64e34a	-0.00087313785
142	0x3a4fc7f2	0.00079262175
143	0xba3ac452	-0.0007124591
144	0x35cf49ce	1.5444182e-06
145	0xb624ff5b	-2.458654e-06
146	0xb61ed6e8	-2.3668927e-06
147	0x3601cbe3	1.9341176e-06
148	0x368c5166	4.181801e-06
149	0x3562fcac	8.4559247e-07
150	0x33b4aef2	8.4137255e-08
151	0xb630882b	-2.6305304e-06
152	0xb6b4eb49	-5.391809e-06
153	0xbaa3aab1	-0.0012486783
154	0xba760b0e	-0.00093858026
155	0xbacae900	-0.0015480816
156	0x39681ba2	0.00022135538
157	0xbaccae50	-0.0015615914
158	0xbb0ba3e6	-0.0021307408
159	0x3bd83955	0.0065986314
160	0x3ac6535e	0.0015131047
161	0xbba6e540	-0.0050932467
162	0x3a21f53f	0.0006178207
163	0x3a3d3582	0.0007217751
164	0xb8d3fb2b	-0.00010108048
165	0x39d67527	0.00040904546
166	0xb9b9cf1f	-0.00035440267
167	0x392ff780	0.00016781501
168	0x3b1e7cf8	0.0024183374
169	0xbb362e28	-0.0027798507
170	0xbb294f6c	-0.0025834693
171	0x37bd9a5f	2.260244e-05
172	0xb82b30f6	-4.0815175e-05
173	0x3861f3ad	5.387112e-05
174	0xb748a962	-1.19603665e-05
175	0xb63645bb	-2.7160702e-06
176	0x3713570d	8.782151e-06
177	0xb885a6d1	-6.373006e-05
178	0x381a2582	3.6751393e-05
179	0x37daa1e8	2.6063019e-05
180	0xba6861c9	-0.0008864669
181	0x3a1acbe5	0.00059050164
182	0x3980038c	0.00024416705
183	0xba47c3a3	-0.00076203997
184	0x390849a5	0.00012997405
185	0x3a648594	0.00087174145
186	0x383b9ff1	4.473323e-05
187	0xb908eff0	-0.00013059354
188	0x3999a682	0.00029306492
189	0x35d634cc	1.5959608e-06
190	0xb5d9695e	-1.6198426e-06
191	0x348e542c	2.6510804e-07
192	0x3651c786	3.1259565e-06
193	0x35116d57	5.417582e-07
194	0x34d6da13	4.0019276e-07
195	0xb62d8dea	-2.5861614e-06
196	0xb5f86a47	-1.8508371e-06
197	0xb62e1b83	-2.5944034e-06
198	0xb7de037e	-2.6466088e-05
199	0xb5efef35	-1.7876506e-06
200	0xb724cbf9	-9.822653e-06
201	0xb684ee2c	-3.9616334e-06
202	0x37fb244d	2.9938436e-05
203	0xb7dbe878	-2.6215086e-05
204	0x36958835	4.4564026e-06
205	0x3814718b	3.5391695e-05
206	0x363a7bf4	2.778831e-06
207	0x37a22ed3	1.933371e-05
208	0x38287bfc	4.016979e-05
209	0x384778cb	4.7557794e-05
210	0x3908079d	0.00012972807
211	0xb9aaedbd	-0.00032602056
212	0xb8e8192a	-0.00011067309
213	0xb8cdc9cc	-9.812749e-05
214	0x3980ee22	0.00024591485
215	0x396aa4d4	0.00022377382
216	0x39b01e6a	0.00033591996
217	0x39b2367e	0.00033991406
218	0x39b74de2	0.00034962507
219	0xb8ea6218	-0.00011176261
220	0x38f204df	0.000115403665
221	0x3a1a1b12	0.00058786676
222	0xbac203dc	-0.0014802176
223	0x3a4ae78f	0.00077401934
224	0x3970735a	0.00022931155
225	0x1abfe308	7.936254e-23
226	0x9da1bc13	-4.281081e-21
227	0xa09c81c5	-2.6513302e-19
228	0xa846d330	-1.1037002e-14
229	0x1c0f25fd	4.736383e-22
230	0x17763ebf	7.9566084e-25
231	0x289e4a85	1.7573841e-14
232	0x23a2db3a	1.7656921e-17
233	0x27859f29	3.7087477e-15
234	0xb894a2f8	-7.087545e-05
235	0xb75db80f	-1.3215481e-05
236	0xb82b5aef	-4.0854266e-05
237	0xb5b98717	-1.382289e-06
238	0x382851c5	4.0130475e-05
239	0xb7b4700d	-2.150985e-05
240	0x38cb35cc	9.689815e-05
241	0xb8dae42c	-0.000104375504
242	0x388d623a	6.7417e-05
243	0x3976856c	0.00023510092
244	0xb96f5c35	-0.00022827166
245	0xb8a4e054	-7.861914e-05
246	0xb949f8b4	-0.00019261503
247	0x39266198	0.0001586735
248	0x37fd7c7e	3.0217921e-05
249	0xb737120f	-1.0911855e-05
250	0xb8cace95	-9.6705895e-05
251	0x38824cec	6.213211e-05
252	0xb8866f9e	-6.410408e-05
253	0x3a893299	0.001046735
254	0x3a8c0fa8	0.0010685818
255	0x380ff7af	3.432453e-05

exp_avg_sq f4 [2048, 9]
0	0x327fc021	1.4886639e-08
1	0x313c5555	2.7406106e-09
2	0x31449d42	2.8611145e-09
3	0x320aca5d	8.078669e-09
4	0x31862003	3.9035526e-09
5	0x316c360a	3.4373238e-09
6	0x3076a6c5	8.973127e-10
7	0x32202765	9.322183e-09
8	0x32324c54	1.0378319e-08
9	0x390a4013	0.00013184575
10	0x37c049cc	2.2922548e-05
11	0x38001ec4	3.054623e-05
12	0x3918c147	0.00014567851
13	0x389c6185	7.456824e-05
14	0x3852e673	5.0282524e-05
15	0x38495743	4.8003403e-05
16	0x3800df08	3.0725292e-05
17	0x3866dae9	5.504015e-05
18	0x2fae257a	3.1677044e-10
19	0x2fd20efe	3.820943e-10
20	0x2f57387e	1.9574206e-10
21	0x302d7457	6.310236e-10
22	0x2f9f92cc	2.9026237e-10
23	0x2fccf0e8	3.7278558e-10
24	0x2fb6f888	3.32822e-10
25	0x2f818e09	2.3565885e-10
26	0x2f44dd86	1.7904797e-10
27	0x380ebd23	3.4031586e-05
28	0x37d728e5	2.564904e-05
29	0x382fcee2	4.1915926e-05
30	0x3889d3b7	6.572104e-05
31	0x37fa619a	2.9847772e-05
32	0x380b7f7e	3.325892e-05
33	0x39306082	0.0001682062
34	0x38ffb71f	0.000121934565
35	0x39966723	0.00028687072
36	0x34d12e50	3.896298e-07
37	0x35f13328	1.7970788e-06
38	0x359ab624	1.1526904e-06
39	0x35e08ed1	1.6730866e-06
40	0x36203c85	2.3877085e-06
41	0x3582ee68	9.75514e-07
42	0x3609714d	2.048054e-06
43	0x35071d2f	5.0333887e-07
44	0x3564a2df	8.517363e-07
45	0x384eb30d	4.928098e-05
46	0x383baa82	4.4743072e-05
47	0x38757aa5	5.8526774e-05
48	0x380e9e53	3.400289e-05
49	0x387fd4c7	6.0994902e-05
50	0x38380398	4.3872365e-05
51	0x39dd9013	0.00042259748
52	0x390a85ef	0.000132106
53	0x3874cf38	5.836712e-05
54	0x3204ef4a	7.737819e-09
55	0x318e3ba9	4.1395265e-09
56	0x3128c4ac	2.4559013e-09
57	0x320d6ac6	8.231558e-09
58	0x315a43e6	3.176177e-09
59	0x30f41efd	1.7762144e-09
60	0x32810dd8	1.5023872e-08
61	0x320c245c	8.15734e-09
62	0x32102feb	8.3927985e-09
63	0x3799a94e	1.831786e-05
64	0x380cbae7	3.3552667e-05
65	0x37f49ef3	2.9161083e-05
66	0x3843786c	4.6603775e-05
67	0x381b6823	3.7051865e-05
68	0x37f5d7d9	2.9306788e-05
69	0x391c66e1	0.00014915645
70	0x384e15e5	4.9134618e-05
71	0x382feb2e	4.194228e-05
72	0x33b56a2d	8.4477826e-08
73	0x335514e1	4.9611916e-08
74	0x33503e51	4.848545e-08
75	0x33d024a3	9.692419e-08
76	0x33c74996	9.280045e-08
77	0x3342670f	4.5262876e-08
78	0x343605de	1.6952205e-07
79	0x338a118c	6.4293175e-08
80	0x331ff4d3	3.724274e-08
81	0x31b3cdaf	5.232969e-09
82	0x314bfa26	2.968258e-09
83	0x31c90395	5.850277e-09
84	0x31dfcf33	6.51371e-09
85	0x31e4ca45	6.6586687e-09
86	0x31b670ce	5.3097216e-09
87	0x3386e529	6.281545e-08
88	0x329ae1cb	1.8030638e-08
89	0x32d28ae8	2.4510385e-08
90	0x37e1866d	2.6884687e-05
91	0x37fec5f8	3.0371346e-05
92	0x38b39ad6	8.5642256e-05
93	0x389852f3	7.263375e-05
94	0x38ad5c88	8.266518e-05
95	0x38879ec0	6.466871e-05
96	0x3b1df69c	0.002410329
97	0x3afe6e49	0.001941153
98	0x3a1518b1	0.0005687578
99	0x31bbef63	5.4696314e-09
100	0x32242efc	9.556739e-09
101	0x3127b42c	2.4404114e-09
102	0x32e7f2e1	2.7002388e-08
103	0x31c64084	5.769893e-09
104	0x3137e5c1	2.6760605e-09
105	0x32916e60	1.6930414e-08
106	0x323af59e	1.0882472e-08
107	0x31d3b125	6.1610472e-09
108	0x381c8f7b	3.7326925e-05
109	0x382a956e	4.0670326e-05
110	0x39026cea	0.0001243834
111	0x38a92ebe	8.0672544e-05
112	0x38fe2f3e	0.00012120463
113	0x38fa3e2b	0.00011932509
114	0x3bb2a563	0.0054518445
115	0x3b4d9a00	0.0031372309
116	0x3b1390cc	0.0022516726
117	0x365dc0c4	3.304377e-06
118	0x3602c422	1.9485674e-06
119	0x36b55952	5.4046186e-06
120	0x367a3813	3.7285542e-06
121	0x36ac5c3c	5.136737e-06
122	0x3695ad0a	4.4606904e-06
123	0x389f6a1c	7.601475e-05
124	0x36ef255c	7.1271043e-06
125	0x381ea423	3.7823e-05
126	0x33c504b7	9.174385e-08
127	0x331f0833	3.702753e-08
128	0x33366a73	4.2471992e-08
129	0x33214488	3.7548062e-08
130	0x32660b8b	1.3390387e-08
131	0x3227601e	9.742534e-09
132	0x343175a7	1.6527211e-07
133	0x329462bd	1.7274369e-08
134	0x345d436e	2.060676e-07
135	0x38601c98	5.343239e-05
136	0x3783c03a	1.570593e-05
137	0x37624565	1.3486807e-05
138	0x388c5358	6.691244e-05
139	0x3825b1f6	3.9504805e-05
140	0x383a9755	4.4486795e-05
141	0x37b59697	2.1647005e-05
142	0x37c8bd4c	2.3930006e-05
143	0x37a8650d	2.0074216e-05
144	0x31ff9e88	7.4394997e-09
145	0x31204450	2.3321896e-09
146	0x319ea6ad	4.617354e-09
147	0x31e96bf3	6.793465e-09
148	0x3176285e	3.5820658e-09
149	0x315c7d94	3.2085596e-09
150	0x323811bb	1.0714241e-08
151	0x32761cc9	1.432563e-08
152	0x32856c77	1.5532562e-08
153	0x387751e4	5.8965656e-05
154	0x384a8e26	4.829294e-05
155	0x385452f5	5.0622e-05
156	0x384f8c10	4.948309e-05
157	0x3880f113	6.148419e-05
158	0x3852ad35	5.0229213e-05
159	0x3a01fe3c	0.00049588433
160	0x3869e90c	5.576857e-05
161	0x39950375	0.0002842207
162	0x37b9407a	2.2083743e-05
163	0x37ac156d	2.0513975e-05
164	0x389efcea	7.581136e-05
165	0x382156e2	3.8466307e-05
166	0x387628f4	5.868911e-05
167	0x383a45a7	4.4410725e-05
168	0x3ab5c772	0.0013868643
169	0x39b9da80	0.00035448745
170	0x39d44176	0.00040484563
171	0x344dfbf3	1.9183771e-07
172	0x35d02918	1.5509167e-06
173	0x36193742	2.283094e-06
174	0x360989bb	2.049476e-06
175	0x355411cc	7.900205e-07
176	0x358d6652	1.0535098e-06
177	0x36d01c14	6.202152e-06
178	0x3586d8e8	1.0046906e-06
179	0x359d8000	1.1734664e-06
180	0x370ae111	8.277843e-06
181	0x373572b1	1.0815144e-05
182	0x36570ad8	3.2043808e-06
183	0x37cf4054	2.4706278e-05
184	0x37190d09	9.122546e-06
185	0x37ce31d4	2.4580317e-05
186	0x364bf8ce	3.039418e-06
187	0x368ca7d5	4.1918634e-06
188	0x36aaf6ba	5.0951176e-06
189	0x32546493	1.2362892e-08
190	0x322a1c6f	9.901767e-09
191	0x3294a116	1.7302721e-08
192	0x3270c128	1.4013757e-08
193	0x329cfb70	1.827513e-08
194	0x31dec173	6.483043e-09
195	0x3409ad17	1.2822089e-07
196	0x33481950	4.658915e-08
197	0x33395fc0	4.3160753e-08
198	0x33b5f423	8.4728775e-08
199	0x33b8700f	8.588551e-08
200	0x3386cfe9	6.27768e-08
201	0x34878bb2	2.524735e-07
202	0x3434aaf9	1.6826006e-07
203	0x32e06713	2.6123905e-08
204	0x34a8789a	3.1380188e-07
205	0x343581a3	1.69041e-07
206	0x34010545	1.2015978e-07
207	0x3556bdb8	7.999729e-07
208	0x3493be9f	2.751958e-07
209	0x348578b5	2.4861006e-07
210	0x34ef0f93	4.452855e-07
211	0x36091f04	2.0432644e-06
212	0x347df272	2.3650662e-07
213	0x348b7528	2.597601e-07
214	0x357e1356	9.465051e-07
215	0x34d743b4	4.009613e-07
216	0x358cecba	1.0499709e-06
217	0x3617fa2a	2.2646368e-06
218	0x3642845c	2.8985296e-06
219	0x36091287	2.0425375e-06
220	0x361069f1	2.1519338e-06
221	0x35d06a6c	1.552818e-06
222	0x3759ac83	1.2974374e-05
223	0x366f9dc3	3.5705605e-06
224	0x363387c4	2.6752105e-06
225	0x2f8b28c7	2.5312927e-10
226	0x2fa9b26b	3.0867695e-10
227	0x2fdcf667	4.0192846e-10
228	0x30874ab1	9.843771e-10
229	0x2fa06bec	2.9180514e-10
230	0x2f64496d	2.0762565e-10
231	0x30fab88f	1.8242349e-09
232	0x30176160	5.507186e-10
233	0x305f68fc	8.127612e-10
234	0x348578ae	2.4860987e-07
235	0x346c6725	2.2016737e-07
236	0x34cf18a5	3.8574686e-07
237	0x3453e767	1.973509e-07
238	0x349f40b7	2.9663144e-07
239	0x34778e2f	2.3055394e-07
240	0x366c9caf	3.5257942e-06
241	0x3586c6e7	1.0041666e-06
242	0x3528e0d2	6.2912034e-07
243	0x37350c34	1.0791282e-05
244	0x361bcddb	2.3216624e-06
245	0x36f8e86e	7.4180343e-06
246	0x377827c7	1.4791213e-05
247	0x372580d8	9.864765e-06
248	0x36989bbb	4.5480824e-06
249	0x37500a70	1.2400196e-05
250	0x371df1ae	9.4142e-06
251	0x371eacfc	9.45781e-06
252	0x36a7f3a7	5.0053527e-06
253	0x3683dcbc	3.929801e-06
254	0x36971114	4.502139e-06
255	0x36901f34	4.295167e-06

exp_avg f4 [2048]
0	0xb460af9a	-2.0925509e-07
1	0xb9bd6eca	-0.00036131433
2	0xa6eba757	-1.6351758e-15
3	0xbadf41f4	-0.0017033205
4	0xb8cfc4cf	-9.9071876e-05
5	0xbb8a7407	-0.0042252573
6	0xb592d16b	-1.0938796e-06
7	0x3b540ae8	0.0032355133
8	0xb69a9ecf	-4.6080454e-06
9	0xb5d1034f	-1.5572676e-06
10	0x3b5f0b9b	0.0034034017
11	0xb6e8b18d	-6.9348084e-06
12	0xbbd792fa	-0.0065788003
13	0xba149648	-0.00056681456
14	0x378aa156	1.652601e-05
15	0xbad23d6a	-0.0016040031
16	0xb604634f	-1.9727338e-06
17	0x3ba0ee6e	0.0049112355
18	0x3adf767c	0.0017048861
19	0xb8cc47ce	-9.740853e-05
20	0x3a71bd8a	0.0009221664
21	0xb6cd6e25	-6.1222986e-06
22	0xb81a05e0	-3.6721933e-05
23	0xb9477549	-0.00019021811
24	0xba9a5dc4	-0.0011777212
25	0xa94e9f7d	-4.5879523e-14
26	0x39185c4a	0.0001453023
27	0xb99d4734	-0.00029998424
28	0xbaa3c159	-0.0012493535
29	0xb45dc544	-2.0653994e-07
30	0x393f6e48	0.00018256262
31	0xb70261dc	-7.7713885e-06
32	0x34afcbd5	3.2744597e-07
33	0xb210acff	-8.421238e-09
34	0xb1241154	-2.387499e-09
35	0x3918ca25	0.00014571154
36	0xb66c9a9a	-3.525673e-06
37	0x36b9fe2f	5.5430205e-06
38	0xb670f2f4	-3.5904204e-06
39	0x3a0d0dc7	0.0005380776
40	0xbc412a7c	-0.011789914
41	0xb55e7ffe	-8.28877e-07
42	0xba82455c	-0.0009938884
43	0xb7a66d42	-1.983962e-05
44	0xb483e157	-2.4564608e-07
45	0xb5d239f5	-1.5663087e-06
46	0xb5b24997	-1.3283451e-06
47	0xb7ac148e	-2.051357e-05
48	0xb5a4d25e	-1.2280177e-06
49	0x37a93360	2.0170293e-05
50	0x3b678a78	0.0035330337
51	0xb57c7687	-9.4049796e-07
52	0xb3db6f8a	-1.0218271e-07
53	0x3921080c	0.00015357154
54	0xb968a893	-0.00022188043
55	0xbc044027	-0.008071936
56	0xbac16d0d	-0.0014757231
57	0xb61445c5	-2.209433e-06
58	0xb9b7abf6	-0.000350326
59	0xb7298aa0	-1.0105461e-05
60	0x38123458	3.485786e-05
61	0xba922938	-0.00111512
62	0xb9759303	-0.00023419787
63	0xb89c8a41	-7.4644115e-05
64	0x3bcd0e45	0.0062578046
65	0x36fdb260	7.560753e-06
66	0xb1e6c4a7	-6.716238e-09
67	0xb6fdbe1a	-7.5621183e-06
68	0xb67d7ccc	-3.777258e-06
69	0x36da4143	6.5045037e-06
70	0xb66a0771	-3.4873049e-06
71	0x3be0088c	0.0068369564
72	0x39066580	0.00012817048
73	0xb5ae7135	-1.2996958e-06
74	0xb61293a0	-2.1841624e-06
75	0xb6c69661	-5.9183662e-06
76	0x3b8add76	0.004237826
77	0xb5693c32	-8.688686e-07
78	0xb766d5b7	-1.3758828e-05
79	0xb706e089	-8.039301e-06
80	0xa7a193a7	-4.484656e-15
81	0xb403a14a	-1.2259002e-07
82	0xb60ff6e8	-2.1452379e-06
83	0x3b0d9ea9	0.0021609461
84	0xb6a8f5ab	-5.0353897e-06
85	0xb70556f2	-7.947661e-06
86	0xa4315779	-3.845485e-17
87	0xb5dbbdc1	-1.6371997e-06
88	0xb8953444	-7.114609e-05
89	0xb68278ae	-3.888351e-06
90	0xafac3781	-3.1326056e-10
91	0x38ccd576	9.767238e-05
92	0xb48a288b	-2.5734002e-07
93	0xb62822b7	-2.5054158e-06
94	0xb83866ea	-4.3964865e-05
95	0x32b3e519	2.0942524e-08
96	0x39c51b93	0.00037595312
97	0xb596cba6	-1.123514e-06
98	0x39ae3e90	0.0003323448
99	0x388cfe30	6.723066e-05
100	0xb712e1cb	-8.75485e-06
101	0xb63191ee	-2.6459998e-06
102	0xb5d24cb6	-1.5668545e-06
103	0x3a2786c5	0.00063906267
104	0xb7366d7b	-1.0873536e-05
105	0x3834f225	4.314086e-05
106	0xb18d94e5	-4.1205674e-09
107	0xb824d84d	-3.9302093e-05
108	0xb71c0874	-9.300293e-06
109	0xb8f37b32	-0.0001161009
110	0xba902d62	-0.0010999853
111	0xb6a96635	-5.048491e-06
112	0xb983ef6b	-0.00025164647
113	0xb5fe74b1	-1.8958436e-06
114	0xb76ca631	-1.4105391e-05
115	0x39e99cfe	0.0004455819
116	0xb392a450	-6.828543e-08
117	0xba138e44	-0.0005628804
118	0xb641cfc6	-2.8880181e-06
119	0xb514d3f3	-5.5442723e-07
120	0x389b6513	7.4098025e-05
121	0xbb0c373a	-0.0021395222
122	0xbbd92c72	-0.0066276127
123	0xb72bb843	-1.0235296e-05
124	0xb7369735	-1.0883251e-05
125	0xb212a533	-8.5358804e-09
126	0xa8806b27	-1.4257325e-14
127	0xa5a61391	-2.8809668e-16
128	0xb706dfdb	-8.039143e-06
129	0xb5570c2a	-8.011144e-07
130	0xb5c39de8	-1.4574589e-06
131	0xb712f033	-8.758204e-06
132	0xb7ac3b55	-2.0531626e-05
133	0xb9e655df	-0.00043932998
134	0xb9dd94dc	-0.00042263314
135	0xb6b15829	-5.2852743e-06
136	0xb4829533	-2.4322944e-07
137	0xbb70bcf8	-0.0036733728
138	0xb97a9a8f	-0.00023899435
139	0xbb6f70c7	-0.0036535726
140	0xb83c6907	-4.4920507e-05
141	0xb7191c6a	-9.126126e-06
142	0x3ba6cf59	0.0050906357
143	0xb82b1fac	-4.0799074e-05
144	0xb4156590	-1.3913655e-07
145	0xbb756c67	-0.0037448646
146	0xbb6fda38	-0.0036598574
147	0xb5ca15fe	-1.5056573e-06
148	0x3a2c7026	0.0006577991
149	0xb4c891a7	-3.735888e-07
150	0x39609e48	0.00021421269
151	0x390a1f7a	0.00013172431
152	0x37f2fe13	2.896696e-05
153	0x3a2b043f	0.0006523765
154	0xb7336d7a	-1.0694721e-05
155	0xb62459b7	-2.4490125e-06
156	0xba5ceaee	-0.0008427341
157	0x3a276fd9	0.0006387211
158	0xb77dafde	-1.5120922e-05
159	0x39aee3ad	0.00033357498
160	0x3300ce9c	2.9990233e-08
161	0xb7615c24	-1.3432498e-05
162	0xb6942726	-4.415301e-06
163	0xb5cd0679	-1.5275574e-06
164	0xb988c0ae	-0.000260835
165	0xb71ce481	-9.351527e-06
166	0x3903b6b0	0.0001256119
167	0xb45956b2	-2.024124e-07
168	0x39c0afb2	0.00036751997
169	0x3b1306ac	0.0022434397
170	0x3711bd40	8.686737e-06
171	0x3953bbe9	0.0002019253
172	0xb78d1dac	-1.6822327e-05
173	0xb4ba3410	-3.468308e-07
174	0xb60e52b7	-2.1207795e-06
175	0xb4db903f	-4.0896882e-07
176	0xba3aded7	-0.00071285426
177	0xb3e1710c	-1.0497942e-07
178	0xba1ebead	-0.00060556346
179	0xba553c26	-0.0008134268
180	0xb800b62e	-3.0687246e-05
181	0xb18b40a1	-4.05278e-09
182	0xb83e084c	-4.5307257e-05
183	0xb683d258	-3.9285915e-06
184	0xb98ec968	-0.0002723441
185	0xb762d373	-1.3519882e-05
186	0xbbb1c924	-0.005425589
187	0x36452e60	2.9382281e-06
188	0x38ee3e00	0.00011360273
189	0xbc044383	-0.008072737
190	0xb6155e31	-2.2257557e-06
191	0xb2efb42e	-2.7905198e-08
192	0xb423c875	-1.5253484e-07
193	0xb76c1de8	-1.4073659e-05
194	0xb8437cf3	-4.660799e-05
195	0xb8045782	-3.155275e-05
196	0xbb056bdd	-0.002035848
197	0xb674e18f	-3.6490126e-06
198	0x3b8fcd52	0.0043884898
199	0xb77f5f9f	-1.5221448e-05
200	0xb7a4234f	-1.9566765e-05
201	0xb6c42fa0	-5.8467995e-06
202	0x357ee93d	9.496178e-07
203	0xba0a9296	-0.0005286125
204	0xb4fa661b	-4.664042e-07
205	0xbc3d364d	-0.011548591
206	0xb73c1840	-1.1211319e-05
207	0x3aa7da31	0.0012806115
208	0xb6480a92	-2.9808475e-06
209	0xb5a1b3a8	-1.2047722e-06
210	0xb4b19f80	-3.308487e-07
211	0xba985711	-0.0011622627
212	0x39705000	0.00022917986
213	0xb7212486	-9.604852e-06
214	0x368681b4	4.0086106e-06
215	0x3b3db020	0.002894409
216	0xbadff675	-0.0017087
217	0xbab6c9d9	-0.0013945653
218	0x3871bee5	5.7636662e-05
219	0x396c21ec	0.00022519351
220	0xbb8a1a91	-0.0042145927
221	0xb68b9b8c	-4.160631e-06
222	0xb5fde5d0	-1.8916853e-06
223	0xb803a495	-3.1386113e-05
224	0xb70d25ce	-8.413057e-06
225	0xb3e406b0	-1.0618294e-07
226	0x3a590e12	0.00082799897
227	0xb850a6db	-4.974646e-05
228	0x3c190ee4	0.009341929
229	0x3a6589c7	0.0008756187
230	0xbae2bc95	-0.0017298633
231	0xb4cbafe6	-3.793968e-07
232	0xb7ddb24e	-2.6428283e-05
233	0x39970df5	0.00028811363
234	0xb6351de5	-2.6988503e-06
235	0x3b381dda	0.0028093965
236	0xb63429f9	-2.6846521e-06
237	0xb9c1c8a7	-0.00036961326
238	0xb4cabc95	-3.7762644e-07
239	0xb6c0dd04	-5.7477755e-06
240	0xba0132d7	-0.0004928535
241	0xb829e2eb	-4.0504074e-05
242	0xb2556792	-1.2421781e-08
243	0xbab12414	-0.001351478
244	0x3b810998	0.0039379112
245	0xb6214e69	-2.403651e-06
246	0xb78dbb54	-1.6895741e-05
247	0xb7d67b2d	-2.5568146e-05
248	0xb5b31797	-1.3343405e-06
249	0xb3d0ed55	-9.728925e-08
250	0xb938264f	-0.00017561878
251	0x3acc2c91	0.0015577247
252	0x398101d8	0.0002460617
253	0xb23da25a	-1.1038162e-08
254	0xb355d332	-4.9785008e-08
255	0xbaf89435	-0.0018965068

exp_avg_sq f4 [2048]
0	0x31ecc04f	6.890367e-09
1	0x392e4f12	0.00016623389
2	0x30133395	5.355159e-10
3	0x39213e6c	0.0001537741
4	0x3601dac7	1.9349843e-06
5	0x397b3086	0.00023955302
6	0x3243d206	1.1398248e-08
7	0x38bde450	9.054749e-05
8	0x340f898d	1.3367953e-07
9	0x331b204d	3.6118127e-08
10	0x3ab85aac	0.0014065108
11	0x32a3294b	1.8994475e-08
12	0x3b4c4c49	0.00311734
13	0x382e4509	4.1549127e-05
14	0x33f59873	1.1436432e-07
15	0x387f8827	6.092354e-05
16	0x32362894	1.0603021e-08
17	0x39aadde2	0.00032590242
18	0x3a42af13	0.0007426601
19	0x3681efaf	3.8724024e-06
20	0x37ab2df4	2.0406187e-05
21	0x33a0dbb4	7.4905444e-08
22	0x349af24e	2.8861035e-07
23	0x359be2c6	1.16144e-06
24	0x36eaae5b	6.994041e-06
25	0x3077a17b	9.0087554e-10
26	0x35dc49b2	1.6412725e-06
27	0x379be6ec	1.8584971e-05
28	0x376b188d	1.4012808e-05
29	0x31614c78	3.2785277e-09
30	0x369775f8	4.513884e-06
31	0x354eece1	7.7085684e-07
32	0x30c4676a	1.4290269e-09
33	0x31afe79b	5.119501e-09
34	0x31404d78	2.7983713e-09
35	0x35190a58	5.7011994e-07
36	0x330175b3	3.01422e-08
37	0x34ee3602	4.437025e-07
38	0x3343cd46	4.558867e-08
39	0x37264865	9.911227e-06
40	0x3b1034e0	0.0022004172
41	0x32d10453	2.4332769e-08
42	0x38a3c5f1	7.809315e-05
43	0x34304a9f	1.6418424e-07
44	0x30da45a8	1.5881385e-09
45	0x3200e0fa	7.501734e-09
46	0x32318246	1.0332377e-08
47	0x34c78fb3	3.7171193e-07
48	0x32bdc3d8	2.2091555e-08
49	0x35bcf5a4	1.4078582e-06
50	0x3a74bae2	0.0009335709
51	0x3087bf4a	9.87691e-10
52	0x3107bd2f	1.9752624e-09
53	0x36b68a27	5.4401057e-06
54	0x3679ef4b	3.7243178e-06
55	0x39901c13	0.00027486737
56	0x386a7b9c	5.5905068e-05
57	0x32abb293	1.9988226e-08
58	0x37819bd0	1.5450554e-05
59	0x32950a57	1.7350585e-08
60	0x35efd847	1.7869833e-06
61	0x387b1273	5.9860246e-05
62	0x38cc8d63	9.753813e-05
63	0x37126c19	8.727447e-06
64	0x3a8b06d7	0.0010606897
65	0x3546d24a	7.406676e-07
66	0x3177cb79	3.6058891e-09
67	0x31192478	2.228516e-09
68	0x35012552	4.8110553e-07
69	0x3201b170	7.549133e-09
70	0x3349c497	4.6977757e-08
71	0x3aa09e9e	0.0012254303
72	0x370f67b9	8.547614e-06
73	0x3259bc6f	1.2673907e-08
74	0x330e11a0	3.307798e-08
75	0x34000097	1.1921144e-07
76	0x3994d9ac	0.00028390938
77	0x32c2f5eb	2.2696403e-08
78	0x34154f40	1.3905537e-07
79	0x32e15b2a	2.6234904e-08
80	0x2fd3ea5e	3.8547204e-10
81	0x31561aff	3.1156444e-09
82	0x330d9aaf	3.2969805e-08
83	0x39dbbcc5	0.0004191158
84	0x328fc475	1.673673e-08
85	0x33aa3c09	7.927162e-08
86	0x2fe169bf	4.10024e-10
87	0x32994ccf	1.7846473e-08
88	0x33eab72b	1.0929792e-07
89	0x33b3996b	8.3632436e-08
90	0x3101073e	1.8776087e-09
91	0x368dd8fe	4.2273887e-06
92	0x31a34067	4.751246e-09
93	0x3446c552	1.8511972e-07
94	0x351628fe	5.5939006e-07
95	0x3046b0a0	7.228298e-10
96	0x3731a4cb	1.0588391e-05
97	0x315479f3	3.091938e-09
98	0x36c42458	5.845486e-06
99	0x30b33fa5	1.3042053e-09
100	0x3444207d	1.8265742e-07
101	0x3324cd10	3.837073e-08
102	0x332e3ac3	4.0565975e-08
103	0x37f483aa	2.9148378e-05
104	0x33557753	4.9701452e-08
105	0x3867a856	5.5231467e-05
106	0x319bc8ee	4.533937e-09
107	0x35d2009d	1.5646398e-06
108	0x3515ed4f	5.5852155e-07
109	0x37963c87	1.7909579e-05
110	0x38c10a3f	9.204866e-05
111	0x31341616	2.6206002e-09
112	0x38b21412	8.49144e-05
113	0x32a06937	1.8674298e-08
114	0x3546c8a0	7.4052696e-07
115	0x37d27800	2.508983e-05
116	0x32088182	7.9456886e-09
117	0x38893f9b	6.5445165e-05
118	0x32731986	1.4150265e-08
119	0x32abd6f0	2.0004762e-08
120	0x37910ee6	1.7292285e-05
121	0x3943bf62	0.00018667945
122	0x3bd66aeb	0.0065435073
123	0x349c22df	2.9082636e-07
124	0x338a3f4a	6.437638e-08
125	0x30fd19fd	1.8415559e-09
126	0x3013221c	5.352676e-10
127	0x2ee5c7ea	1.0449226e-10
128	0x33f687d1	1.14799725e-07
129	0x32a94b37	1.9708393e-08
130	0x321ec0ae	9.240621e-09
131	0x3482d2eb	2.436785e-07
132	0x340e8c2b	1.3275773e-07
133	0x386f4bf8	5.705279e-05
134	0x3765262a	1.3658349e-05
135	0x3442834d	1.8115425e-07
136	0x3216a51a	8.768689e-09
137	0x3937c471	0.0001752542
138	0x3730da61	1.0541263e-05
139	0x388bbca1	6.6631714e-05
140	0x34ab3381	3.1888706e-07
141	0x341e1da2	1.4725677e-07
142	0x399ce688	0.00029926398
143	0x34296834	1.577726e-07
144	0x3178c3d5	3.6200067e-09
145	0x3897fc62	7.247251e-05
146	0x39823363	0.00024833818
147	0x331c3904	3.6373436e-08
148	0x371ca214	9.336061e-06
149	0x31590081	3.1577942e-09
150	0x37175cb5	9.021886e-06
151	0x373a40ee	1.1101582e-05
152	0x36b4e68e	5.391258e-06
153	0x37fd61db	3.0205518e-05
154	0x334f8a37	4.832165e-08
155	0x32859ed7	1.555547e-08
156	0x388ef118	6.815995e-05
157	0x393fe857	0.00018301733
158	0x33da5c4d	1.01682055e-07
159	0x3877266b	5.892517e-05
160	0x31178ea0	2.2054465e-09
161	0x3439afae	1.729338e-07
162	0x338bb1f9	6.505065e-08
163	0x32ba5422	2.1691509e-08
164	0x36c9017a	5.9904387e-06
165	0x34c1cf73	3.609999e-07
166	0x37440c4a	1.1685372e-05
167	0x32090dad	7.977559e-09
168	0x37428358	1.1593882e-05
169	0x3a02d631	0.00049910235
170	0x3560ecea	8.379126e-07
171	0x36ed381b	7.069682e-06
172	0x34b87908	3.4360733e-07
173	0x3078e0c9	9.0541313e-10
174	0x323d5e11	1.1022636e-08
175	0x31b8c139	5.3770717e-09
176	0x37db8960	2.6170805e-05
177	0x3113d80d	2.1514126e-09
178	0x37c63c02	2.3631383e-05
179	0x3826b43e	3.9745348e-05
180	0x348a2fad	2.5739192e-07
181	0x31793b7a	3.6268077e-09
182	0x339ac9c1	7.207883e-08
183	0x33077dd7	3.1546588e-08
184	0x38068d24	3.2079537e-05
185	0x34087589	1.2708746e-07
186	0x38f6e4c0	0.00011772802
187	0x35db01e7	1.6317325e-06
188	0x388e2793	6.778459e-05
189	0x3b958eac	0.004564127
190	0x324c3b49	1.1887843e-08
191	0x31ab9233	4.993376e-09
192	0x324461d4	1.1430945e-08
193	0x33ccf63d	9.544281e-08
194	0x364724ed	2.9674804e-06
195	0x354eafe8	7.699696e-07
196	0x3947e054	0.00019061688
197	0x32a60c27	1.933047e-08
198	0x3a742ef2	0.0009314857
199	0x33dad0b9	1.01893825e-07
200	0x348aa413	2.5823883e-07
201	0x328f7799	1.6701778e-08
202	0x338756da	6.3022256e-08
203	0x37225365	9.675369e-06
204	0x327dba21	1.4768859e-08
205	0x3b4cf1be	0.003127202
206	0x339bb04a	7.249817e-08
207	0x385e7319	5.3036118e-05
208	0x336dbd27	5.5352896e-08
209	0x32bd743c	2.2055353e-08
210	0x318b7502	4.0587347e-09
211	0x38adca0a	8.2869155e-05
212	0x380c6e2c	3.3481207e-05
213	0x33da0f4c	1.01541985e-07
214	0x34829882	2.432535e-07
215	0x38494102	4.7982678e-05
216	0x3918d337	0.00014574533
217	0x3846d611	4.7406244e-05
218	0x3389e1c2	6.420625e-08
219	0x3752b095	1.2558089e-05
220	0x3a63f1c0	0.00086953864
221	0x33b91716	8.618933e-08
222	0x33b1b75f	8.27556e-08
223	0x3578eb15	9.272929e-07
224	0x3723d51c	9.7651755e-06
225	0x32169c30	8.766662e-09
226	0x3a1edbe0	0.00060599856
227	0x35ee0824	1.7734751e-06
228	0x3abc0dc2	0.0014347362
229	0x39f4c503	0.00046686092
230	0x389133da	6.923797e-05
231	0x3283667a	1.5297008e-08
232	0x33c49e0f	9.155712e-08
233	0x381d5c32	3.751758e-05
234	0x32314240	1.03178195e-08
235	0x3a85edb6	0.0010217938
236	0x339222d7	6.804992e-08
237	0x3980dc62	0.0002457826
238	0x31fed281	7.4163045e-09
239	0x339b21af	7.223877e-08
240	0x3857cd51	5.145121e-05
241	0x35a41118	1.2223927e-06
242	0x30fb0143	1.8263012e-09
243	0x38813f4f	6.1629915e-05
244	0x39da6ae7	0.0004165985
245	0x3251d52e	1.2213873e-08
246	0x33bd0676	8.8021736e-08
247	0x3601ca3d	1.9340216e-06
248	0x31fb4f34	7.314066e-09
249	0x322480a0	9.575302e-09
250	0x368cf247	4.20053e-06
251	0x39cd1e00	0.00039123
252	0x380fbf8f	3.427226e-05
253	0x30cbaadc	1.4818755e-09
254	0x32900c98	1.6769533e-08
255	0x38fef83e	0.000121579025
