Results/CE/Ablation experiments/Time_domain/best.pt (torch, 443377 bytes, 132 tensors)

exp_avg f4 [18, 6]
-1.9147865e-06 -7.8750753e-07 3.5086748e-06 -1.9122037e-06 1.0705535e-06 8.260304e-06 -1.7215535e-06 -9.115861e-07
2.3186503e-05 -1.7191571e-06 8.054183e-07 9.74637e-07 -4.310785e-06 -7.9134634e-07 1.7207385e-05 -4.308515e-06
1.7932516e-06 2.1641055e-05 3.8114104e-06 8.177417e-07 -1.2879823e-05 3.8078197e-06 -4.263771e-06 -6.233312e-06
-1.8931587e-06 4.8343295e-06 1.9979807e-05 -1.8921127e-06 1.25485e-05 -1.518843e-05 -6.705838e-06 1.6652594e-07
3.0021265e-05 -6.706143e-06 9.46526e-06 2.2536171e-05 5.6777612e-08 5.5251913e-08 -8.083957e-06 3.915078e-08
-1.0415172e-06 -1.4317632e-07 5.038431e-07 -4.423897e-06 2.1562133e-05 3.905764e-07 -7.3937845e-06 1.0275044e-05
2.6831688e-07 -3.0124514e-07 -1.0437509e-06 2.1339243e-07 -8.843813e-07 4.6434507e-06 -1.1491338e-07 3.5458827e-06
-1.5053337e-05 -1.2786424e-07 6.191945e-06 -1.1319159e-05 -3.1189708e-07 -7.576257e-06 -1.8301681e-09 -3.2222528e-07
-2.8590452e-05 1.1886913e-06 -5.9329585e-07 -1.5751682e-06 -2.2874823e-05 9.2323444e-07 -1.8956134e-05 1.1983985e-06
-6.296112e-05 5.0093528e-05 7.473825e-05 2.230874e-05 0.00012258695 -0.00013070088 4.3173193e-05 6.1801584e-05
-0.000116728705 -9.431285e-06 7.8022786e-05 0.000422533 -5.9973976e-05 5.0262377e-05 4.5148618e-06 2.3923316e-05
4.318317e-05 -7.255702e-05 -1.3522351e-05 -4.891522e-06 -2.2866357e-06 2.4269054e-06 -1.4715797e-05 -0.000118665936
-2.666147e-05 -2.2613258e-05 -1.7106056e-05 8.305969e-06 -5.8649424e-05 -0.0002502313 6.88771e-05 -9.841555e-07
-8.987001e-05 -2.0546811e-05 -4.8285852e-05 0.00019217527
00000000: c87f 00b6 1b65 53b5 9376 6b36 6953 00b6
00000010: f0af 8f35 bc95 0a37 2110 e7b5 b8b3 74b5
00000020: a380 c237 cabd e6b5 ed33 5835 46d0 8235
00000030: 5ca5 90b6 e86c 54b5 9458 9037 dd91 90b6
00000040: a8af f035 d089 b537 88c7 7f36 c882 5b35
00000050: 6b16 58b7 d889 7f36 8411 8fb6 be27 d1b6
00000060: 7018 feb5 9336 a236 4f9a a737 7ff4 fdb5
00000070: 6687 5237 cfd1 7eb7 b602 e1b6 4dce 3234
00000080: 2dd6 fb37 5405 e1b6 fbcc 1e37 0f0c bd37
00000090: a5db 7333 1f4e 6d33 55a0 07b7 bd26 2833
000000a0: 42ca 8bb5 02bc 19b4 d63f 0735 fc70 94b6
000000b0: 54e0 b437 69b0 d134 2018 f8b6 fa62 2c37
000000c0: 310d 9034 d1ba a1b4 0217 8cb5 dd20 6534
000000d0: 3866 6db5 f0ce 9b36 4cc6 f6b3 cdf5 6d36
000000e0: 978d 7cb7 0e4b 09b4 67c4 cf36 6be7 3db7
000000f0: cf72 a7b4 8d37 feb6 5189 fbb0 4efe acb4
00000100: 87d5 efb7 1f8b 9f35 fb42 1fb5 5e6a d3b5
00000110: 4fe3 bfb7 30d4 7735 fd03 9fb7 a9d8 a035
00000120: fe09 84b8 841b 5238 cbbc 9c38 a823 bb37
00000130: af8a 0039 c00c 09b9 dd14 3538 799b 8138
00000140: 3fcc f4b8 103b 1eb7 2aa0 a338 6b87 dd39
00000150: 918c 7bb8 d1d0 5238 5e7e 9736 eeae c837
00000160: 931f 3538 c129 98b8 0ede 62b7 db21 a4b6
00000170: 1a74 19b6 ebdd 2236 dee3 76b7 4adc f8b8
00000180: 12a7 dfb7 9ab1 bdb7 fa7e 8fb7 dd59 0b37
00000190: 57fe 75b8 7a31 83b9 1d72 9038 5317 84b5
000001a0: 9878 bcb8 f15b acb7 8a86 4ab8 a882 4939

exp_avg_sq f4 [18, 6]
8.063701e-11 3.2460619e-09 1.6252557e-08 6.4430156e-11 4.0821626e-09 6.058902e-09 1.5202031e-10 1.6007403e-08
1.0482198e-07 1.2625176e-10 1.4814878e-08 4.045362e-08 1.3997725e-10 1.6448361e-08 8.0104954e-08 1.4965543e-10
1.4318906e-08 3.5400593e-08 1.6455713e-10 1.7885284e-08 8.233878e-08 1.5543307e-10 2.2227415e-08 5.7151514e-08
1.067332e-10 3.8658758e-08 8.523276e-08 1.2445146e-10 2.8340004e-08 6.1418575e-08 1.6285627e-10 1.9884512e-08
9.677633e-08 2.0827728e-10 1.8931674e-08 2.4038734e-08 1.2468808e-09 5.98644e-09 6.974598e-08 1.2396658e-09
9.433635e-09 6.9312187e-09 1.942035e-09 1.7076854e-08 2.4113618e-08 1.9035016e-09 3.1417628e-08 5.388439e-09
8.1595575e-09 1.1035212e-08 9.732523e-08 8.102073e-09 1.5526412e-08 2.3814469e-08 3.2751497e-09 1.3485289e-08
5.910499e-08 3.3282705e-09 2.5282786e-08 1.7808803e-08 1.3765759e-08 2.2939668e-08 6.039928e-08 1.3713056e-08
4.5346777e-08 1.5085151e-08 2.958436e-08 3.5502605e-08 3.1945925e-07 2.981098e-08 4.5327987e-08 5.2955425e-08
1.6928743e-08 2.2752995e-07 3.240435e-07 1.6029938e-08 4.149374e-07 3.0475735e-07 1.1533485e-08 3.2133335e-07
7.01124e-07 1.09961205e-08 2.7725983e-07 6.5699675e-07 9.350563e-09 3.6979156e-07 4.6269892e-07 8.578012e-09
6.485026e-07 3.5844272e-07 3.0634713e-09 1.7895918e-08 4.072445e-08 3.2117038e-09 3.2256402e-08 3.708745e-08
1.05050475e-08 9.037333e-08 1.7184841e-07 1.0568254e-08 1.11749465e-07 1.5737044e-07 1.0136777e-08 2.176088e-07
3.3639256e-07 9.248133e-09 4.1156878e-07 3.1497916e-07
00000000: 9a52 b12e 5311 5f31 c09b 8b32 f4ae 8d2e
00000010: 1543 8c31 aa2e d031 ea25 272f a780 8932
00000020: 7e1a e133 b6d0 0a2f 8684 7e32 3abf 2d33
00000030: 18e8 192f 544a 8d32 2a06 ac33 428c 242f
00000040: 37ff 7532 5d0b 1833 b7ee 342f 28a2 9932
00000050: 39d2 b033 85e6 2a2f 9aee be32 c176 7533
00000060: 73b5 ea2e c109 2633 3509 b733 f9d5 082f
00000070: 5470 f332 38e5 8333 f70f 332f 81ce aa32
00000080: 5ad3 cf33 d800 652f 319f a232 bc7d ce32
00000090: b85e ab30 48b1 cd31 42c7 9533 dd60 aa30
000000a0: 9111 2232 a527 ee31 a474 0531 66b0 9232
000000b0: 6822 cf32 c1ce 0231 0cf0 0633 3625 b931
000000c0: 1d2e 0c32 6095 3d32 1c01 d133 4b31 0b32
000000d0: f15e 8532 9290 cc32 0b11 6131 eeac 6732
000000e0: a0da 7d33 8eb7 6431 6f2d d932 f9f9 9832
000000f0: 737e 6c32 dd0c c532 dbb4 8133 a896 6b32
00000100: 4fc3 4233 9994 8132 b220 fe32 877b 1833
00000110: 2582 ab34 8509 0033 a6ae 4233 1b71 6333
00000120: b36a 9132 f54e 7434 33f8 ad34 35b2 8932
00000130: 90c4 de34 889d a334 ce24 4632 b883 ac34
00000140: e034 3c35 73e9 3c32 4dda 9434 795c 3035
00000150: 36a4 2032 c487 c634 db68 f834 7f5e 1332
00000160: c214 2e35 fe6f c034 2885 5231 8ab9 9932
00000170: 02e9 2e33 e4b4 5c31 4a8a 0a33 154a 1f33
00000180: b079 3432 4313 c233 5585 3834 ac8f 3532
00000190: ebfa ef33 a8f9 2834 0426 2e32 daa7 6934
000001a0: 7199 b434 b8e1 1e32 95f5 dc34 681a a934

exp_avg f4 [18]
-1.9481879e-05 -8.683966e-06 -3.6298676e-05 3.174764e-05 -1.9205623e-05 -6.3721054e-05 -8.4182525e-14 -9.4653154e-14
-7.388814e-14 1.3955586e-13 -1.9375412e-13 -4.670461e-13 -0.009332049 0.007544184 -0.0076770876 -0.0015729909
-0.0030642874 0.010061019
00000000: 046d a3b7 5ab1 11b7 683f 18b8 c528 0538
00000010: c31b a1b7 fba1 85b8 ec8f bda9 d423 d5a9
00000020: 9d61 a6a9 3d20 1d2a d325 5aaa 3876 03ab
00000030: 73e5 18bc 3435 f73b 1490 fbbb d12c ceba
00000040: 36d2 48bb f9d6 243c

exp_avg_sq f4 [18]
3.8444455e-08 2.0612717e-07 1.828806e-07 2.570803e-07 8.265523e-08 1.6467023e-07 2.3687297e-19 2.0231872e-19
2.2347243e-19 2.3345032e-19 2.3524003e-19 2.2869636e-19 0.0003978262 0.00023229046 0.00034781493 1.5875645e-05
5.3318545e-05 0.00045931092
00000000: 201e 2533 ce53 5d34 d65d 4434 d904 8a34
00000010: 3180 b133 35d0 3034 3bd3 8b20 15db 6e20
00000020: 33ea 8320 04ce 8920 78dc 8a20 9eff 8620
00000030: 5493 d039 ff92 7339 ee5a b639 b02c 8537
00000040: 5aa2 5f38 abcf f039

exp_avg f4 [6, 6]
-0.0022474565 0.006809034 -0.0012769875 -0.0015758845 -0.0025878192 0.0024611172 -0.00028557223 0.0008489522
-0.00015554945 -0.00018989913 -0.00032716664 0.00035362918 0.0010147102 -0.0029460164 0.0005728346 0.00070410623
0.0011848228 -0.0010383216 0.0001876678 -0.00066040386 0.00010695218 0.00015478877 0.0002549317 -0.00026592409
0.0008615276 -0.0023322208 0.00035270173 0.00054010097 0.00085907296 -0.0008391884 0.00049094536 -0.0019748078
0.00046840138 0.00044892286 0.00077485567 -0.0006936189
00000000: 104a 13bb 511e df3b 9760 a7ba e98d ceba
00000010: 6798 29bb b24a 213b dbb8 95b9 388c 5e3a
00000020: fd1a 23b9 a91f 47b9 9087 abb9 4e67 b939
00000030: 0600 853a f411 41bb 472a 163a c593 383a
00000040: 0e4c 9b3a 4b18 88ba b1c8 4439 f41e 2dba
00000050: 844b e038 cb4e 2239 5ba8 8539 ba6b 8bb9
00000060: 23d8 613a 2cd8 18bb d3ea b839 9095 0d3a
00000070: 6933 613a fbfc 5bba c9b2 003a c76b 01bb
00000080: c593 f539 685d eb39 af1f 4b3a fad3 35ba

exp_avg_sq f4 [6, 6]
2.076973e-05 0.00015520715 7.89934e-06 8.637087e-06 1.733764e-05 2.1747443e-05 5.093837e-07 3.1485722e-06
2.3877416e-07 1.9158361e-07 3.1099026e-07 5.14097e-07 3.6858346e-06 2.645757e-05 2.015351e-06 1.5012852e-06
2.8625238e-06 4.1810913e-06 7.179998e-07 4.9256105e-06 3.414358e-07 2.8130242e-07 5.9579475e-07 7.053292e-07
2.332387e-06 1.7364753e-05 1.1169077e-06 9.820809e-07 1.9542442e-06 2.5963757e-06 6.2422614e-06 3.8264363e-05
2.1444941e-06 2.331574e-06 4.77318e-06 5.365207e-06
00000000: a83a ae37 1abf 2239 6887 0437 02e8 1037
00000010: 4c70 9137 476e b637 95bc 0835 0f4c 5336
00000020: df30 8034 1ab6 4d34 2df6 a634 7a00 0a35
00000030: 285a 7736 33f1 dd37 773f 0736 c47f c935
00000040: c919 4036 4d4b 8c36 92bc 4035 ac46 a536
00000050: 944e b734 e905 9734 b4ee 1f35 db55 3d35
00000060: 1b86 1c36 86aa 9137 a8e8 9535 0bd0 8335
00000070: a925 0336 653d 2e36 9e74 d136 0c7e 2038
00000080: 21ea 0f36 2378 1c36 4e29 a036 c706 b436

exp_avg f4 [6]
-0.031655803 -0.003908092 0.013666665 0.003542192 0.010626993 0.00867845
00000000: 84a9 01bd 740f 80bb 26ea 5f3c 1f24 683b
00000010: d71c 2e3c 0f30 0e3c

exp_avg_sq f4 [6]
0.0038362176 9.037877e-05 0.00070377195 0.00012377586 0.00043870948 0.0009937427
00000000: 0d69 7b3b bc89 bd38 567d 383a d4c9 0139
00000010: 9702 e639 7940 823a

exp_avg f4 [2048, 6]
-4.3746494e-14 8.023797e-12 3.2976302e-12 3.5163603e-17 2.3953517e-13 -9.744609e-12 -8.442285e-09 1.1913841e-08
-1.53804e-08 2.6465712e-09 -5.118187e-10 1.2416566e-09 1.5147194e-05 2.032875e-06 -1.3202724e-06 -3.488876e-06
1.0187167e-05 -3.649922e-05 -0.00056987145 -0.00023538142 0.00070778996 1.8560284e-05 -9.10383e-05 0.0004150853
0.00034790917 -0.000106380525 -0.0002465098 -3.0185847e-05 -0.00026806397 0.00033037516 4.0213527e-05 -2.9423736e-05
-1.2247023e-05 -5.6146932e-06 -4.10311e-05 6.434985e-05 -1.1892651e-17 7.617474e-16 6.1229227e-16 -7.492473e-18
4.1643954e-16 1.857221e-16 -6.1456817e-06 -4.1054996e-06 8.8283805e-06 -4.174378e-06 -4.5676793e-06 1.4598397e-05
0.00019009669 -5.7099146e-06 -9.72506e-05 4.0305364e-05 -0.00011351564 -7.3885916e-05 -0.00041816707 3.7178966e-06
6.765634e-05 -1.1971744e-05 0.00026340928 0.00021550606 0.00045690514 9.131309e-05 -0.0005632845 -3.4084413e-05
-0.00019969669 0.00018067802 3.8892802e-05 -2.7591464e-06 -3.7805472e-05 8.7856515e-06 -6.697882e-06 -9.360673e-06
-3.0043168e-12 2.1085629e-10 2.3228783e-10 4.3534124e-11 5.1661805e-13 -1.9018132e-10 -1.1695431e-11 4.0289664e-12
-1.6375956e-10 7.8469196e-16 5.686409e-12 4.324591e-10 0.00019814598 -2.6401978e-05 -0.00018656619 -6.2876957e-06
-0.00015021925 0.00018020645 1.0353652e-12 -3.653553e-13 -3.083744e-12 6.48893e-15 -7.142026e-13 7.923613e-15
0.00016403379 1.3588072e-05 -4.0813306e-05 -2.7858288e-05 8.9285655e-05 -0.00029755622 -7.436948e-07 -9.324357e-07
1.7838546e-06 -7.1398335e-07 1.867801e-06 -5.4621992e-08 -0.0007602481 -0.00011730259 0.00025912403 2.74281e-05
0.00041232363 0.0004139497 3.2910153e-05 -8.195927e-06 4.5334786e-05 -1.0908096e-05 -8.210073e-05 2.4454537e-05
-1.2639538e-05 2.2765896e-06 -2.116079e-06 -5.031508e-07 8.5022075e-06 8.677487e-06 -1.2631125e-08 -5.3701283e-09
-4.195457e-08 7.1021294e-10 1.2574782e-08 2.6323196e-08 -2.272395e-14 5.2822708e-11 5.946743e-11 3.1650043e-14
3.378157e-11 -1.893836e-12 0.00030701683 -8.295356e-05 -0.00046251842 -3.7075108e-06 -3.6565427e-05 0.00031173573
3.6079382e-05 -5.6869517e-06 -2.6677756e-06 -6.9753537e-06 2.9732484e-05 -7.018184e-05 -2.0757345e-12 6.4495262e-12
1.1325925e-09 1.7376405e-14 3.9572807e-12 2.0547354e-11 -6.559096e-15 -6.1805275e-15 -1.39120605e-14 6.3091656e-15
2.385444e-14 2.2943433e-15 -1.2155209e-06 3.3582344e-06 -2.3972884e-06 9.310234e-07 1.3682227e-06 -2.3458506e-06
0.00033721604 -0.0001462239 -0.00012681517 -1.901415e-05 -0.00029921476 0.0003063543 -1.6439642e-09 9.009371e-09
1.4793004e-08 -8.058381e-10 -1.6167369e-09 3.6728065e-09 -1.7753486e-06 -4.455842e-07 -1.8388554e-06 -3.905452e-06
-4.675601e-06 1.6774262e-05 -2.3178528e-37 1.4337311e-22 -3.1059792e-23 0.0 2.14338e-40 1.7789295e-27
4.1642525e-26 -4.7206307e-23 1.8975804e-20 -9.227648e-27 4.4207902e-20 6.4002866e-27 0.0004109938 -0.00015484919
-0.00018976897 -1.3705526e-05 -0.00032977256 0.00033390548 -3.9683545e-10 2.7407976e-09 7.0863626e-09 4.961388e-12
1.0156582e-09 4.3534074e-09 7.043502e-05 -1.1506365e-05 -9.225478e-06 -1.0750721e-05 4.927399e-05 -0.00012114409
6.608711e-09 8.838705e-08 8.9212094e-08 -5.3785648e-08 9.446704e-09 -2.0434925e-07 -5.8325206e-16 -1.2506958e-14
-1.2653592e-15 9.9213474e-24 3.4446166e-19 -1.9174753e-17 -1.908585e-05 -1.5091886e-05 2.8409393e-05 -2.7007572e-06
-6.305358e-06 2.672838e-05 -1.020936e-11 8.169638e-13 1.9369216e-11 1.2714148e-15 5.3836335e-11 4.722704e-10
-1.4743994e-13 -4.4243632e-12 3.9149117e-15 -1.4760018e-23 -9.426443e-16 -3.2520545e-11 6.682053e-09 -8.502086e-08
-1.00557294e-07 7.6868204e-08 -2.172079e-08 1.0118104e-07 0.00010885727 1.1033207e-05 -3.092509e-05 -2.0679105e-05
00000000: 4604 45a9 f827 0d2d d30c 682c db29 2224
00000010: a8d8 862a d16d 2bad 9009 11b2 a0ad 4c32
00000020: db1d 84b2 f9de 3531 0ab0 0cb0 e8a6 aa30
00000030: b420 7e37 876c 0836 3734 b1b5 6f22 6ab6
00000040: 8de9 2a37 bd16 19b8 6d63 15ba b8d0 76b9
00000050: fb8a 393a e8b1 9b37 d1eb beb8 ce9f d939
00000060: 9467 b639 9c18 dfb8 fc3d 81b9 9d37 fdb7
00000070: f08a 8cb9 3436 ad39 f2aa 2838 fed2 f6b7
00000080: 9078 4db7 d965 bcb6 cf18 2cb8 90f3 8638
00000090: 7561 5ba3 0a8f 5b26 327b 3026 3436 0aa3
000000a0: a10f f025 7d1f 5625 0137 ceb6 f9c1 89b6
000000b0: 9b1d 1437 a211 8cb6 1144 99b6 a3eb 7437
000000c0: b154 4739 cb97 bfb6 05f3 cbb8 8e0d 2938
000000d0: 3f0f eeb8 33f3 9ab8 6f3d dbb9 fa80 7936
000000e0: b9e2 8d38 40da 48b7 321a 8a39 78f9 6139
000000f0: c58c ef39 587f bf38 62a9 13ba dcf5 0eb8
00000100: ac65 51b9 6374 3d39 d420 2338 c629 39b6
00000110: 5191 1eb8 1666 1337 5ebe e0b6 c90b 1db7
00000120: f668 53ac c5d6 672f 3667 7f2f 1177 3f2e
00000130: 416a 112b 481b 51af 8abf 4dad b4c1 8d2c
00000140: 380e 34af 0c2c 6226 9e12 c82c 35bf ed2f
00000150: 68c5 4f39 d179 ddb7 fba0 43b9 e5fa d2b6
00000160: 2c84 1db9 cdf5 3c39 f6b6 912b 3fad cdaa
00000170: cbff 58ac d1c9 e927 b907 49ab 37bd 0e28
00000180: 7c00 2c39 53f8 6337 f42e 2bb8 38b1 e9b7
00000190: df3e bb38 5201 9cb9 51a2 47b5 7e4c 7ab5
000001a0: c76c ef35 90a8 3fb5 27b1 fa35 8499 6ab3
000001b0: 634b 47ba 5900 f6b8 0adb 8739 6515 e637
000001c0: 242d d839 6307 d939 0209 0a38 3d81 09b7
000001d0: db25 3e38 ea01 37b7 7e2d acb8 b823 cd37
000001e0: 670e 54b7 83c7 1836 f601 0eb6 4210 07b5
000001f0: b4a4 0e37 8695 1137 4600 59b2 2684 b8b1
00000200: 8a31 34b3 cb38 4330 7a08 5832 521d e232
00000210: dcad cca8 1551 682e 30c5 822e 048a 0e29
00000220: ab92 142e 5144 05ac 1af7 a039 5af7 adb8
00000230: 2c7e f2b9 8dce 78b6 d45d 19b8 7670 a339
00000240: f153 1738 8bd2 beb6 0908 33b6 d50d eab6
00000250: 066a f937 972e 93b8 1c11 12ac 2bec e22c
00000260: 8ea9 9b30 4383 9c28 043c 8b2c 87bc b42d
00000270: fc50 eca7 4ead dea7 0e9e 7aa8 c84f e327
00000280: 98dc d628 2a53 2527 fb24 a3b5 075e 6136
00000290: 1ae1 20b6 71eb 7935 c6a3 b735 686d 1db6
000002a0: 5fcc b039 ae53 19b9 b0f9 04b9 9480 9fb7
000002b0: eddf 9cb9 2e9e a039 d9f1 e1b0 a2c7 1a32
000002c0: 5224 7e32 d181 5db0 df33 deb0 b264 7c31
000002d0: 8348 eeb5 a038 efb4 97ce f6b5 940b 83b6
000002e0: 1be3 9cb6 74b6 8c37 b1be 9d82 d453 2d1b
000002f0: 2932 169a 0000 0000 7d55 0200 faf0 0c13
00000300: 2c34 4e15 9446 649a ae38 b31e bcc5 3694
00000310: 13c4 501f 9e8a fd13 a77a d739 035f 22b9
00000320: b8fc 46b9 c9f0 65b7 53e5 acb9 0910 af39
00000330: a029 daaf 9f58 3c31 4e7c f331 3690 ae2c
00000340: 4c97 8b30 fa94 9531 83b6 9338 760b 41b7
00000350: 20c7 1ab7 ff5d 34b7 8bab 4e38 bd0e feb8
00000360: d612 e331 4bcf bd33 de94 bf33 f201 67b3
00000370: 0b4b 2232 186b 5bb4 681c 28a6 2a4e 61a8
00000380: 845b b6a6 22e8 3f19 9355 cb20 1bdb b0a3
00000390: 8d1a a0b7 2833 7db7 b550 ee37 a83e 35b6
000003a0: 9d92 d3b6 c236 e037 df9a 33ad 72f4 652b
000003b0: 995f aa2d ed3a b726 53c6 6c2e 13d1 0130
000003c0: ab00 26aa 1fab 9bac b00c 8d27 09c0 8e99
000003d0: 70d9 87a6 e106 0fae f697 e531 b694 b6b3
000003e0: f5f1 d7b3 be12 a533 8694 bab2 dd48 d933
000003f0: 4d4a e438 431b 3937 90b5 01b8 0a78 adb7

exp_avg_sq f4 [2048, 6]
1.2205588e-10 2.139151e-10 2.588461e-10 5.7112173e-11 1.2879299e-10 3.714028e-10 2.3062678e-09 2.432267e-09
4.188819e-09 5.0387006e-10 1.6416234e-09 2.5866091e-09 2.3551591e-08 7.0155686e-09 1.2169256e-08 1.9116533e-09
1.0251721e-08 8.313942e-08 1.0161006e-06 4.4569336e-07 2.2807023e-06 3.0806156e-08 4.2228004e-07 1.0764277e-06
5.365924e-07 5.657056e-08 7.413308e-07 3.7977568e-08 2.2151609e-07 1.4447805e-07 4.1117822e-08 1.0642579e-08
5.752218e-08 6.994146e-09 2.4763086e-08 1.628879e-08 6.067502e-11 4.158926e-10 5.1381355e-10 5.7686116e-11
3.5704445e-10 2.4624747e-10 7.401087e-09 4.0880943e-09 3.0337777e-08 1.0631399e-09 7.0816615e-09 1.5245e-08
1.2792047e-07 6.485444e-08 1.4448283e-07 1.1050161e-08 5.3358264e-08 6.609912e-08 5.6432634e-07 6.988645e-08
2.9193544e-07 9.146709e-09 1.4215813e-07 3.5126226e-07 4.8025447e-07 7.477488e-08 1.0578283e-06 1.5788817e-08
1.2485117e-07 7.556279e-08 2.8306758e-08 1.52822e-08 4.3014325e-08 3.200788e-09 1.7126306e-08 1.1757989e-08
3.2124547e-10 1.5583486e-09 1.7317958e-09 1.231429e-10 8.081884e-10 1.2213771e-09 3.6038122e-10 5.6733845e-10
1.415087e-09 1.4101231e-10 4.63224e-10 1.2538108e-09 1.7573726e-07 3.3760895e-08 4.2197297e-07 1.4899774e-08
8.26637e-08 4.8666198e-08 9.020796e-10 7.700131e-10 1.0760354e-09 4.774719e-10 7.9854845e-10 4.788878e-10
1.5227157e-07 3.7297678e-08 1.1575801e-07 4.2289456e-09 8.181352e-08 4.793773e-07 1.6790889e-09 9.04934e-09
1.2491176e-08 1.0319913e-09 1.2162152e-08 6.706604e-09 1.4186065e-06 2.696806e-07 8.1930324e-07 2.3643475e-08
4.2199918e-07 1.0194334e-06 1.7405398e-08 4.781233e-08 8.2874976e-08 6.299331e-09 1.06324194e-07 4.1287066e-08
1.7949212e-08 6.049247e-09 1.1649091e-08 1.1414835e-09 8.607004e-09 2.9430598e-08 1.9662967e-09 2.0011712e-09
4.6055226e-09 3.685596e-10 1.6588176e-09 2.2696123e-09 7.6775704e-11 3.1178857e-10 2.9506594e-10 7.1498626e-11
2.6982427e-10 1.6852456e-10 3.354457e-07 1.6487192e-07 1.7529766e-06 4.412861e-08 2.6257567e-07 1.2945344e-07
3.4070776e-08 5.097365e-09 3.4160777e-08 1.519549e-09 4.2089336e-08 1.126844e-07 9.973962e-10 7.2342304e-10
2.3145512e-09 2.6833996e-10 8.880896e-10 1.4829153e-09 4.6986682e-11 1.239761e-10 2.0065691e-10 1.9609071e-11
9.04294e-11 5.2514118e-11 9.867058e-09 4.7992375e-09 1.1375148e-08 1.40662e-09 4.9702678e-09 7.2386577e-09
4.5837984e-07 6.558831e-08 4.6970342e-07 4.9292126e-08 2.4826346e-07 1.3313169e-07 4.0950893e-10 2.6960376e-09
4.077224e-09 3.2073996e-10 2.766434e-09 1.746197e-09 7.866032e-09 6.9794646e-09 1.9977827e-08 1.0569251e-09
5.5964113e-09 1.3344838e-08 8.077425e-11 2.0736268e-10 1.9575463e-10 3.8322158e-11 6.94582e-11 1.3563818e-10
4.1101508e-11 1.0181295e-10 1.1155532e-10 2.914173e-11 1.0958005e-10 6.3053084e-11 5.3646266e-07 1.0994053e-07
5.1527564e-07 6.4510864e-08 3.4828807e-07 1.5394222e-07 1.9976296e-10 6.66062e-10 1.0012047e-09 1.10122e-10
5.725025e-10 6.695835e-10 6.348964e-08 8.135644e-09 6.414733e-08 2.3111937e-09 7.539696e-08 1.8614415e-07
2.162804e-09 7.4135365e-10 4.69271e-09 3.474498e-10 3.830166e-09 7.4929964e-09 3.414907e-10 4.4364612e-10
3.2623518e-10 1.172396e-10 1.8762067e-10 2.3648206e-10 2.3535836e-08 2.1410218e-08 5.4871254e-08 1.7433058e-09
1.2189712e-08 4.0359467e-08 7.965845e-10 4.9440185e-10 1.2149853e-09 2.3847868e-10 1.3228966e-09 2.3034428e-09
3.081448e-10 7.294781e-10 2.0317219e-10 7.41321e-11 1.8978166e-10 2.3644822e-09 8.633701e-09 4.4240283e-09
9.272013e-09 1.2973561e-09 2.7555842e-09 2.3077897e-09 1.1256187e-07 2.0765329e-08 9.464288e-08 3.2250511e-09
00000000: ad33 062f bf33 6b2f 5a4d 8e2f 972e 7b2e
00000010: 019c 0d2f 4c2e cc2f 4b7c 1e31 e524 2731
00000020: 3eed 8f31 b480 0a30 7d9f e130 1cc0 3131
00000030: 7f4e ca32 980d f131 f410 5132 295e 0331
00000040: 8c1f 3032 618a b233 f360 8835 a147 ef34
00000050: 2b0e 1936 ba4f 0433 bab5 e234 c679 9035
00000060: 590a 1035 fdf7 7233 ddff 4635 c71c 2333
00000070: e1d9 6d34 d321 1b34 8699 3033 8fd6 3632
00000080: 4e0e 7733 2951 f031 9ab6 d432 6eeb 8b32
00000090: 006d 852e aea3 e42f 6a3c 0d30 cbb4 7d2e
000000a0: 8a49 c42f 4060 872f a64c fe31 4277 8c31
000000b0: bd4c 0233 e91d 9230 f452 f331 1cf4 8232
000000c0: 835a 0934 1b46 8b33 2323 1b34 1fd7 3d32
000000d0: 082c 6533 60f2 8d33 367c 1735 7b14 9633
000000e0: 4dbb 9c34 a723 1d32 21a4 1834 1e95 bc34
000000f0: d6ea 0035 ed93 a033 b4fa 8d35 fa9f 8732
00000100: d40e 0634 1545 a233 3827 f332 ea45 8332
00000110: c0be 3833 dcf4 5b31 251d 9332 2f00 4a32
00000120: 489b b02f 842d d630 2604 ee30 a565 072f
00000130: 3427 5e30 63dd a730 261f c62f e5f2 1b30
00000140: f37c c230 700b 1b2f fba8 fe2f 8c52 ac30
00000150: 4ab2 3c34 7f00 1133 868b e234 e6f9 7f32
00000160: da84 b133 0d05 5133 35f6 7730 dba8 5330
00000170: a1e3 9330 193f 0330 da80 5b30 bca2 0330
00000180: 1780 2334 3b31 2033 a496 f833 334e 9131
00000190: 75b1 af33 8fae 0035 b0c5 e630 6b77 1b32
000001a0: c698 5632 f7d5 8d30 b6f1 5032 ea6f e631
000001b0: f366 be35 9fc8 9034 17ee 5b35 8d18 cb32
000001c0: 208f e234 77d3 8835 e082 9532 365a 4d33
000001d0: 00f9 b133 8071 d831 5854 e433 9c53 3133
000001e0: bc2e 9a32 bdd9 cf31 3e21 4832 61e2 9c30
000001f0: 01de 1332 92ce fc32 751f 0731 fa84 0931
00000200: 9b3e 9e31 279e ca2f 75fc e330 71f7 1b31
00000210: e1d4 a82e 5768 ab2f d736 a22f 263a 9d2e
00000220: 6456 942f 724b 392f 4e17 b434 a607 3134
00000230: d147 eb35 eb87 3d33 20f8 8c34 e4ff 0a34
00000240: 3755 1233 e624 af31 2cb8 1233 61d8 d030
00000250: b7c5 3433 e7fc f133 c214 8930 5fda 4630
00000260: 040e 1f31 7e85 932f c01d 7430 72cf cb30
00000270: 4da6 4e2e 2b50 082f e69f 5c2f b47b ac2d
00000280: 3adb c62e a4f5 662e c883 2932 8ae6 a431
00000290: 6e6c 4332 0b53 c130 f0c6 aa31 e8b7 f831
000002a0: 3f17 f634 8ed9 8c33 8c2b fc34 44b5 5333
000002b0: 1249 8534 f6f2 0e34 4221 e12f 3245 3931
000002c0: a417 8c31 2354 b02f 9f1b 3e31 d8fe ef30
000002d0: 2d23 0732 05d0 ef31 b59b ab32 3f43 9130
000002e0: 8e4a c031 3843 6532 dc9f b12e 68ff 632f
000002f0: 083c 572f ea8a 282e 7ebd 982e c122 152f
00000300: 2fc4 342e 98e3 df2e 1050 f52e ac2a 002e
00000310: 16f8 f02e bba7 8a2e 6f01 1035 7218 ec33
00000320: 7951 0a35 3989 8a33 59fc ba34 514b 2534
00000330: 46a4 5b2f f215 3730 c29a 8930 2d29 f22e
00000340: 485e 1d30 c00d 3830 cc57 8833 f1c4 0b32
00000350: 5ec1 8933 f3d2 1e31 ebe9 a133 eade 4734
00000360: 73a0 1431 20c8 4b30 843d a131 3603 bf2f
00000370: 7f9a 8331 8cba 0032 8bbc bb2f a4e5 f32f
00000380: 8559 b32f 04e8 002f 864a 4e2f e401 822f
00000390: da2b ca32 91e9 b732 95ab 6b33 1f99 ef30
000003a0: ec6a 5132 b457 2d33 a7f6 5a30 70e6 0730
000003b0: 7ffc a630 e41a 832f 49d1 b530 984a 1e31
000003c0: 8667 a92f 7584 4830 e363 5f2f aa04 a32e
000003d0: caaa 502f 697c 2231 6b53 1432 2a02 9831
000003e0: bf4a 1f32 a94e b230 c05c 3d31 1197 1e31
000003f0: 8bb9 f133 715f b232 793e cb33 b39f 5d31

exp_avg f4 [2048]
-5.7658336e-11 -6.205639e-08 2.4094597e-05 -0.0007254632 0.00047773274 6.7222354e-05 -1.7665112e-15 -2.8807506e-06
0.00015097421 -0.00040688907 0.0005407343 2.4807474e-05 -1.1874879e-09 -1.3701581e-09 0.00023743769 -2.8486352e-11
0.00023261245 -5.250192e-07 -0.0008663512 6.4185595e-05 -1.2069924e-05 -1.4199846e-07 -1.7392403e-10 0.00030982445
5.2192787e-05 -2.8974563e-09 -2.2750897e-14 -4.0816026e-06 0.00045476624 -2.041451e-08 4.5439406e-06 -1.01759164e-19
-1.1603957e-19 0.0005292362 -3.047212e-08 9.739892e-05 6.954845e-08 -8.559499e-14 -1.5332571e-05 -2.5504066e-09
-8.60859e-11 -3.3819578e-07 0.00015389333 0.000114173345 -3.4632595e-14 0.00052540755 0.00082277466 7.524187e-05
-1.6396922e-09 -1.84041e-08 -1.3443075e-07 -1.4861602e-10 -4.158433e-06 4.478139e-06 -2.0886184e-09 -2.6675698e-06
-0.00060350826 -0.00012998405 -8.418587e-06 -2.8997881e-06 -2.8376408e-07 -3.907804e-09 -6.212079e-11 1.1013882e-06
0.0009083602 -5.481825e-07 -2.6990891e-14 -0.0005081164 -5.6261325e-07 4.6042166e-07 0.0011154205 0.00032810916
-3.3158183e-06 5.4330365e-05 0.00089383597 9.523746e-07 -2.8503976e-08 1.2147831e-06 -2.3543758e-09 -1.3677259e-06
-1.3207585e-08 -9.244859e-09 0.00013826272 -1.2215905e-24 1.938585e-05 1.3541592e-06 -2.0656046e-07 -3.5694405e-12
-1.5554645e-07 -4.332929e-11 1.9913654e-07 -2.3214709e-07 -1.07338194e-19 0.0002079511 0.00079578673 -2.2497363e-11
-1.1878845e-08 5.491985e-05 -1.2306202e-09 5.321058e-06 -9.868127e-06 -1.3678509e-06 -1.523217e-08 -2.0138138e-07
-2.7096592e-15 -9.238669e-09 -2.634339e-09 -8.99697e-11 4.6095524e-06 -2.9700045e-08 3.4005975e-12 -1.7440898e-09
2.110108e-11 -2.2671577e-08 -2.7884763e-09 -2.561791e-12 -1.9486373e-16 -2.8202237e-06 -5.4261338e-05 -5.9557737e-05
-4.7498023e-08 -3.220717e-09 -2.1422833e-15 -1.2534339e-11 0.00024083989 2.0508944e-05 1.1747524e-09 1.495608e-05
-1.09751906e-14 -2.895738e-07 -0.0001988377 -1.6793693e-09 1.0177128e-05 0.00038054385 -2.6578575e-19 -2.1126777e-10
2.5257505e-05 -6.6726307e-07 -7.3590326e-07 -4.168555e-08 -3.4155048e-09 -0.00013468486 -5.7035452e-24 -3.182833e-15
-6.1614435e-07 0.00036946265 0.0007700496 0.00018535675 3.4948333e-09 -3.45755e-07 6.0450775e-06 -8.717534e-11
2.4688538e-07 0.00033258178 -7.1763545e-10 6.2974494e-11 -3.1531973e-12 -4.2150736e-05 -6.265401e-05 -1.559166e-05
-2.2492037e-15 -1.2731408e-06 -0.00010417961 -0.0005939665 -5.8259726e-09 -1.1440463e-08 -1.2154672e-13 1.3052792e-06
-0.00018716262 -2.409351e-08 2.2633227e-05 2.1570904e-06 -9.402169e-10 5.9149115e-06 0.00040248508 0.0004910186
-6.147488e-05 -4.8530974e-10 0.00011324745 9.534384e-06 0.0008086143 0.00041650768 -1.7948798e-08 0.00076820503
-2.1769673e-09 -1.7541399e-05 0.0004499375 -1.0205542e-12 -0.00011468446 -9.385132e-10 0.0004453662 2.8642096e-06
-0.00034776935 0.00030850855 5.5617816e-06 -1.589619e-15 0.0008416939 3.668002e-05 -1.4115523e-16 -1.0797739e-07
-5.725185e-16 1.8389088e-05 -5.7472118e-08 0.00052250066 0.00012301764 -3.7399792e-22 -3.1432868e-05 7.319993e-07
-4.3379322e-10 2.2254242e-05 -5.4067874e-07 -2.0515412e-20 -3.02397e-07 -4.907827e-07 -8.637559e-08 0.000968377
-2.3843086e-08 -5.8404247e-13 9.3053044e-05 2.5187668e-05 6.058594e-06 -2.654563e-05 -1.5463821e-14 -1.5602235e-07
-1.8461917e-07 7.630187e-11 -0.00015964119 -3.2342875e-08 1.2838073e-05 -6.3004446e-09 -0.00051599427 0.0013359439
-0.00040030343 0.0010306123 -4.510295e-08 7.94178e-13 -4.24123e-08 -7.962868e-08 0.00040517203 9.104041e-07
-6.4155157e-12 -9.232679e-06 -0.00023725326 -1.1674011e-13 -0.00039178188 -1.2270818e-10 -5.577389e-06 -1.6648714e-07
-5.688617e-10 -3.462492e-05 1.7953344e-05 -2.44306e-07 -0.00020198681 -1.2616584e-08 -2.586257e-12 2.9356403e-05
00000000: 8495 7dae dc43 85b3 c11e ca37 032d 3eba
00000010: 3478 fa39 baf9 8c38 c394 fea6 eb52 41b6
00000020: d54e 1e39 ba53 d5b9 11c0 0d3a a519 d037
00000030: 0435 a3b0 2750 bcb0 b2f8 7839 9091 faad
00000040: 6ee9 7339 0bef 0cb5 d81b 63ba 619b 8638
00000050: ee7f 4ab7 3d78 18b4 433b 3faf ef6f a239
00000060: 94e9 5a38 971c 47b1 ffeb cca8 b3f4 88b6
00000070: b16d ee39 fb5b afb2 2778 9836 a445 f09f
00000080: cffe 08a0 71bc 0a3a 73e0 02b3 a642 cc38
00000090: aa5a 9533 27be c0a9 729e 80b7 3a43 2fb1
000000a0: 0e4e bdae 4691 b5b4 6d5e 2139 5970 ef38
000000b0: aaf8 1ba9 81bb 093a 79af 573a 2ccb 9d38
000000c0: 8a5b e1b0 0b17 9eb2 0b58 10b4 b167 23af
000000d0: ab88 8bb6 ec42 9636 5d87 0fb1 8004 33b6
000000e0: c134 1eba 544c 08b9 8e3d 0db7 fb99 42b6
000000f0: 3d58 98b4 6845 86b1 e59a 88ae 69d3 9335
00000100: 051f 6e3a d126 13b5 c21c f3a8 1d33 05ba
00000110: 7d06 17b5 df2f f734 4d33 923a 1106 ac39
00000120: 5385 5eb6 c9e0 6338 5150 6a3a afa6 7f35
00000130: e8d8 f4b2 a10b a335 9eca 21b1 b492 b7b5
00000140: 93e7 62b2 52d3 1eb2 9efa 1039 2f08 bd97
00000150: cc9e a237 8ec0 b535 e8ca 5db4 532d 7bac
00000160: 4804 27b4 7290 3eae 3cd2 5534 1b44 79b4
00000170: f571 fd9f 730d 5a39 589c 503a 8fe3 c5ad
00000180: b613 4cb2 bd59 6638 9922 a9b0 8a8b b236
00000190: 488f 25b7 0097 b7b5 e5d7 82b2 4b3b 58b4
000001a0: 6440 43a7 19b8 1eb2 c807 35b1 70d8 c5ae
000001b0: c1ab 9a36 171f ffb2 b84b 6f2c b4b4 efb0
000001c0: 689b b92d 53bf c2b2 659f 3fb1 2045 34ac
000001d0: 9fa9 60a5 1343 3db6 ab96 63b8 a2cd 79b8
000001e0: a100 4cb3 7453 5db1 275e 1aa7 a581 5cad
000001f0: f789 7c39 9f0a ac37 ed74 a130 e0eb 7a37
00000200: 22b6 45a8 b876 9bb4 177f 50b9 8ecf e6b0
00000210: 6fbe 2a37 bb83 c739 68e4 9ca0 974a 68af
00000220: 14e0 d337 f81d 33b5 e38a 45b5 bf09 33b3
00000230: 32b6 6ab1 313a 0db9 2da5 dc98 e858 65a7
00000240: 1e65 25b5 70b4 c139 27dd 493a 535c 4239
00000250: c229 7031 35a0 b9b4 d2d6 ca36 5bb3 bfae
00000260: ab8b 8434 5f5e ae39 1b43 45b0 7d7b 8a2e
00000270: f4e2 5dac 02cb 30b8 1e65 83b8 d6ca 82b7
00000280: 7c12 22a7 c9e0 aab5 017b dab8 6bb4 1bba
00000290: cc2d c8b1 b08b 44b2 75d9 08aa 0d31 af35
000002a0: 1541 44b9 30f6 ceb2 7cdc bd37 88c2 1036
000002b0: f138 81b0 b478 c636 a204 d339 b3b7 003a
000002c0: 13ec 80b8 a366 05b0 437f ed38 def5 1f37
000002d0: 30f9 533a b75e da39 d32d 9ab2 5e61 493a
000002e0: 9d99 15b1 de25 93b7 97e5 eb39 57a1 8fab
000002f0: c082 f0b8 fffc 80b0 0a80 e939 bf36 4036
00000300: d054 b6b9 51bf a139 579f ba36 9716 e5a6
00000310: 1fa5 5c3a dfd8 1938 acbd 22a5 33e1 e7b3
00000320: 6904 25a6 4442 9a37 43d7 76b3 6df8 083a
00000330: 4cfe 0039 6011 e29b c9d6 03b8 9c7e 4435
00000340: f87a eeaf 9fae ba37 2923 11b5 39c3 c19e
00000350: 2159 a2b4 55be 03b5 7c7d b9b3 aeda 7d3a
00000360: 80cf ccb2 b264 24ab 7925 c338 1b4a d337
00000370: ed4a cb36 4eae deb7 2549 8ba8 1987 27b4
00000380: bb3b 46b4 22ca a72e 5b65 27b9 5ee9 0ab3
00000390: 1b63 5737 4c7b d8b1 ca43 07ba d71a af3a
000003a0: d1df d1b9 9c15 873a 38b7 41b3 8e8a 5f2b
000003b0: d128 36b3 5400 abb3 456d d439 7e62 7435
000003c0: d4b9 e1ac 0ee6 1ab7 30c7 78b9 0c70 03aa
000003d0: 1368 cdb9 48eb 06af 6825 bbb6 a3c3 32b4
000003e0: 155e 1cb0 3a3a 11b8 839a 9637 2929 83b4
000003f0: 6ccc 53b9 53c0 58b2 ddfd 35ac 6542 f637

exp_avg_sq f4 [2048]
2.4279692e-10 2.3451436e-09 6.459396e-08 1.9393733e-06 1.5346045e-06 1.8594034e-07 3.3340902e-10 1.7510445e-08
1.389924e-07 9.0636536e-07 8.25394e-07 3.9400355e-08 1.2208831e-09 8.328605e-10 5.308248e-07 1.135684e-09
3.0632376e-07 9.866162e-09 2.5934153e-06 8.6548184e-08 4.9299064e-08 2.1453817e-09 2.1781335e-10 1.0813163e-06
8.7195566e-08 2.1412645e-09 1.11341165e-10 9.909726e-09 1.5569983e-06 2.681983e-09 2.3071701e-08 2.7612787e-10
1.0872733e-10 1.9038359e-06 8.736766e-10 1.5655345e-07 6.8953447e-09 4.28766e-10 6.542902e-08 2.9553915e-09
1.2671963e-09 1.5522957e-08 2.1645658e-07 2.7596928e-07 4.4398346e-10 4.6708985e-07 2.6499195e-06 1.179822e-07
1.2298793e-10 3.543479e-09 3.337209e-09 1.2431367e-09 5.474224e-08 1.9679673e-08 2.5306663e-09 5.369918e-10
1.3542076e-06 2.0364111e-07 1.5419065e-08 1.70172e-08 1.7121566e-08 4.5849123e-11 1.0255983e-09 5.9303646e-09
3.3084484e-06 2.1004494e-08 1.3974559e-10 1.1230886e-06 8.068394e-09 1.0190256e-08 4.026707e-06 7.339549e-07
8.032164e-09 1.14499834e-07 3.976611e-06 9.103071e-10 3.1570406e-09 6.086959e-09 2.2415807e-09 1.4357551e-08
5.1308704e-09 6.626639e-09 2.0068526e-07 1.154607e-10 5.9021296e-08 1.4851366e-08 3.6500707e-09 9.343366e-10
2.7204944e-08 1.1082287e-09 4.022527e-09 7.2947026e-09 2.5999858e-10 2.6974288e-07 1.946946e-06 1.2596216e-09
6.618278e-10 1.0630328e-07 1.1704246e-10 9.626193e-09 2.2345267e-08 3.4177344e-08 6.854739e-10 5.337219e-09
3.6919712e-10 7.276354e-10 8.8905794e-10 4.0172748e-10 2.8223944e-08 3.1260037e-09 2.1243493e-10 2.1253004e-09
1.8874143e-10 1.1908736e-10 1.6433803e-09 4.818666e-10 3.1075703e-10 7.634719e-09 2.4431108e-07 1.5747106e-07
4.6261124e-09 7.0048317e-10 3.4384176e-10 1.0264284e-09 2.7555464e-07 6.962719e-08 3.641317e-11 3.4179156e-08
8.924815e-11 4.4308507e-08 2.8886805e-07 1.9036308e-09 7.129873e-08 1.03043e-06 2.5548225e-10 1.0577402e-09
9.255251e-08 1.7787725e-08 6.9079293e-09 4.9140048e-09 2.0310382e-09 3.482257e-07 1.815415e-10 5.434033e-10
5.262144e-09 8.4362256e-07 2.3512969e-06 2.2399081e-07 1.3168369e-08 5.4477947e-09 2.8788381e-08 1.1325346e-10
4.3826436e-08 3.751407e-07 1.5230803e-09 1.9407628e-10 5.675942e-10 2.1397473e-07 1.373483e-07 3.936008e-08
5.064498e-10 6.71012e-10 2.5612363e-07 1.5616417e-06 3.7753884e-09 5.8568506e-10 4.4775836e-10 9.512173e-08
4.0773438e-07 4.8550644e-09 2.2063504e-07 1.0267617e-07 1.5683458e-09 1.4064701e-08 8.107732e-07 6.0167e-07
3.7116124e-07 1.5069616e-09 3.1965945e-07 2.2343402e-08 2.6424027e-06 1.2248996e-06 7.0954714e-11 1.9711795e-06
1.9483912e-09 5.084102e-08 1.1547668e-06 1.5426706e-10 1.3529942e-07 2.2253797e-09 1.2907783e-06 3.017825e-08
7.4955426e-07 8.38665e-07 4.0587324e-08 2.3296848e-10 2.691747e-06 1.8015406e-07 2.3585145e-10 6.7660557e-09
3.6091846e-10 3.3394237e-08 3.0786103e-09 1.3047026e-06 1.8847327e-07 2.0612247e-10 9.0778876e-08 1.11756275e-08
1.1725103e-10 4.1510134e-08 9.050016e-09 2.1636669e-10 7.035589e-09 2.1606974e-08 3.0525318e-09 4.504902e-06
8.839783e-09 7.8051376e-10 1.1425461e-07 9.475528e-08 2.0939757e-08 3.9729908e-10 6.313619e-10 7.508244e-09
6.3827756e-09 4.06632e-11 2.2533406e-07 2.0066595e-09 5.865424e-08 5.708438e-10 1.5125637e-06 6.496188e-06
6.812829e-07 3.5878224e-06 1.9901025e-09 3.583244e-10 1.0043049e-10 2.599722e-10 9.0936584e-07 7.2762525e-09
9.979492e-10 2.3695923e-08 4.849766e-07 4.3609863e-10 1.000569e-06 1.2762997e-09 1.24640565e-08 1.57213e-09
1.440409e-10 2.1930823e-08 3.6860275e-08 6.8208634e-09 3.5395388e-07 1.5021167e-09 5.264613e-10 1.15771854e-07
00000000: a17a 852f 3428 2131 e8b6 8a33 2e26 0236
00000010: 9cf8 cd35 e4a6 4734 264b b72f e069 9632
00000020: f13d 1534 f44c 7335 a590 5d35 2639 2933
00000030: 01cc a730 59ef 6430 017e 0e35 5416 9c30
00000040: d174 a434 d77f 2932 890a 2e36 5edc b933
00000050: e5bc 5333 f46d 1331 027d 6f2f bf21 9135
00000060: 4540 bb33 8625 1331 81d7 f42e 703f 2a32
00000070: 0efa d035 f24d 3831 352f c632 8bcd 972f
00000080: 0c18 ef2e 4e87 ff35 8627 7030 1619 2834
00000090: 18ec ec31 73b7 eb2f fc81 8c33 cc17 4b31
000000a0: 8229 ae30 5857 8532 226b 6834 ee28 9434
000000b0: 1e15 f42f 57c4 fa34 45d5 3136 665d fd33
000000c0: 063a 072f 8b81 7331 cd54 6531 fcda aa30
000000d0: bb1d 6b33 0f0c a932 f4e7 2d31 709b 1330
000000e0: 38c2 b535 71a8 5a34 e272 8432 382d 9232
000000f0: b912 9332 86a5 492e 08f5 8c30 0ac4 cb31
00000100: b606 5e36 5f6d b432 e3a6 192f 08bd 9635
00000110: 2c9d 0a32 3811 2f32 261d 8736 ff04 4535
00000120: d5fd 0932 f3e2 f533 d46e 8536 2b39 7a30
00000130: 3ff3 5831 7525 d131 4e0a 1a31 2da9 7632
00000140: 9d4b b031 88b0 e331 f27b 5734 98e6 fd2e
00000150: 9a7e 7d33 0025 7f32 b9d4 7a31 0c6a 8030
00000160: 4eb0 e932 5550 9830 8636 8a31 e2a4 fa31
00000170: 8cef 8e2f 2ed1 9034 47a8 0236 ff1e ad30
00000180: feeb 3530 d948 e433 86b0 002f 7260 2532
00000190: c3f1 bf32 63ca 1233 f06b 3c30 ad62 b731
000001a0: e0f7 ca2f ca02 4830 e461 7430 1eda dc2f
000001b0: 1c71 f232 3dd1 5631 1e93 692f ae0c 1231
000001c0: fd85 4f2f 1df0 022f 4edd e130 5974 0430
000001d0: 2ad7 aa2f d929 0332 dc29 8334 5115 2934
000001e0: b7f3 9e31 1f8c 4030 6d07 bd2f 3d12 8d30
000001f0: f1ef 9334 f485 9533 9625 202e 61cc 1233
00000200: 3e42 c42e b84d 3e33 b915 9b34 07d1 0231
00000210: e41c 9933 4e4d 8a35 ee73 8c2f ed5f 9130
00000220: 48c1 c633 9fcb 9832 ca5a ed31 0bd8 a831
00000230: 6792 0b31 c7f3 ba34 649b 472f 9c5e 1530
00000240: 4fce b431 4d75 6235 f9ca 1d36 2082 7034
00000250: 193b 6232 4f2f bb31 524a f732 080c f92e
00000260: ad3b 3c33 f266 c934 a054 d130 9e63 552f
00000270: e404 1c30 edc0 6534 037a 1334 de0c 2933
00000280: 3d36 0b30 4672 3830 5d81 8934 9a99 d135
00000290: abb8 8131 ecfd 2030 6328 f62f b945 cc33
000002a0: 96e6 da34 99d1 a631 b3e7 6c34 d27e dc33
000002b0: 438d d730 36a1 7132 e9a3 5935 7382 2135
000002c0: 0344 c734 7f1d cf30 a99d ab34 a9ed bf32
000002d0: 2254 3136 3b67 a435 f407 9c2e 9b48 0436
000002e0: 76e4 0531 4b5c 5a33 7cfd 9a35 519e 292f
000002f0: d246 1134 4bed 1831 ce3e ad35 569d 0133
00000300: fa34 4935 9f20 6135 3c52 2e33 6613 802f
00000310: dda3 3436 5f70 4134 24a9 812f db7a e831
00000320: c26a c62f 5a6d 0f33 7c8f 5331 3d1d af35
00000330: 235f 4a34 51a2 622f 37f2 c233 eefe 3f32
00000340: 3beb 002f e048 3233 647a 1b32 cfe5 6d2f
00000350: b2bd f131 3d9a b932 b5c4 5131 d028 9736
00000360: c7dd 1732 c68b 5630 235c f533 447c cb33
00000370: 03df b332 e06a da2f 258c 2d30 9bfd 0032
00000380: 7d4f db31 b1d6 322e 5bf3 7134 87e5 0931
00000390: 05eb 7b33 90e9 1c30 4b03 cb35 d4f9 d936
000003a0: 68e1 3635 52c6 7036 41c2 0831 adfd c42f
000003b0: 57d9 dc2e d6eb 8e2f 251b 7435 9802 fa31
000003c0: 3728 8930 e38b cb32 572f 0235 6dbf ef2f
000003d0: 4a4b 8635 ce69 af30 8021 5632 6812 d830
000003e0: e95f 1e2f 6462 bc32 4d50 1e33 f35c ea31
000003f0: 0d07 be34 0873 ce30 6cb6 1030 409e f833

exp_avg f4 [6, 2048]
-1.7039318e-08 2.9014174e-08 -1.3991397e-05 -0.0007418152 -0.00033319628 -5.6695288e-05 8.646013e-20 -1.3779229e-05
-0.00024022911 -0.00092091 -0.00036650064 -3.5424495e-05 7.35814e-09 -9.691761e-08 -0.00020100514 1.1540364e-17
-0.000113687325 -5.509892e-06 -0.0012341919 -8.100059e-05 -2.264864e-05 2.0169058e-07 -5.373703e-09 -0.00030579927
-3.4327037e-05 1.5452225e-07 -2.825585e-15 -7.993449e-07 -0.00028176344 1.8705932e-09 -1.8731615e-05 6.7912e-26
3.785778e-09 -0.00032061365 3.364679e-08 -5.503513e-05 -9.0032245e-08 5.411089e-11 -3.8117654e-05 1.4602175e-08
3.3282613e-12 1.0094433e-07 -8.2354345e-05 -7.0651535e-05 3.0652336e-09 -0.00054488244 -0.000548787 -0.00011958449
1.07936e-09 -1.296223e-07 -3.5744435e-07 -8.708238e-11 -4.8271988e-05 -1.2001542e-05 1.1075652e-09 -1.3905371e-05
-0.00096106547 -0.00013419251 -9.933569e-06 -1.4028369e-06 -2.0548637e-06 -2.4385507e-09 -4.0196983e-13 -5.6298763e-06
-0.00059410016 -6.231474e-07 2.1182752e-11 -0.00070434966 -4.1020314e-07 -3.1709243e-07 -0.0008116852 -0.0002576691
-5.9860995e-06 -4.9491788e-05 -0.00056158536 -2.7826552e-08 3.726039e-08 -6.813514e-06 -3.7202042e-07 -1.6444632e-06
-8.1953196e-08 2.0302938e-08 -0.00016913327 -7.254234e-26 -1.7181466e-05 -8.9529985e-06 -5.218378e-09 5.8913157e-15
-9.634304e-09 -7.477311e-08 -1.2633438e-07 4.2713233e-07 -1.4113614e-12 -0.00013284855 -0.0005071344 -4.4691615e-09
-3.780038e-09 -3.649212e-05 3.8659643e-08 -5.3594977e-06 -1.6606247e-05 -3.8344617e-05 2.175268e-09 4.1120265e-07
1.7013373e-17 -1.5323868e-08 2.5691381e-11 -2.1182691e-09 -1.3581123e-05 -4.936089e-09 -1.4069074e-13 -1.0193136e-09
-1.1977587e-09 2.1968194e-09 1.4567772e-07 -5.3157036e-12 3.716995e-12 3.8286618e-07 -0.00042182804 -0.00017693835
3.6576136e-08 3.9634445e-11 2.099478e-09 1.2670317e-13 -0.00025972395 -0.00012343099 -2.6400343e-10 -1.8380006e-05
-8.253269e-15 -2.9131561e-05 -0.0002725337 -2.7991973e-10 -0.00012817023 -0.0004072797 -2.1595603e-15 2.696579e-08
-9.358138e-05 -2.061823e-06 2.6794586e-07 -1.6177156e-08 -5.6715396e-07 -0.00030086702 -5.0469538e-08 2.3488766e-16
6.8716963e-07 -0.00024412599 -0.00035977337 -9.8653785e-05 -1.1405057e-06 -4.4443772e-07 -3.051675e-05 -7.15123e-11
-2.5900725e-05 -0.00039457402 1.3638703e-11 8.875299e-11 2.223804e-14 -0.0002115593 -5.3631426e-05 -3.986448e-05
-6.144511e-10 -3.233765e-06 -0.00016334672 -0.00091459777 5.107753e-09 8.533515e-09 -5.242641e-11 -0.0001215161
-0.00031595005 1.6150979e-10 -0.00044658646 -0.00015258764 9.744524e-10 -7.2420094e-06 -0.00018122864 -0.00035733136
-0.00031820714 1.0257673e-10 -0.00014961885 -7.5144003e-06 -0.0006631099 -0.00041930928 -4.539976e-08 -0.0004757739
1.588112e-08 -1.6249789e-05 -0.00027037103 -1.358547e-12 -0.00019194784 1.0632086e-08 -0.0003409554 -2.3029372e-05
-0.00047108828 -0.00019427655 -3.773733e-06 1.7143428e-09 -0.0004345201 -0.00028331866 -9.436614e-17 1.115113e-08
1.5971732e-08 -1.2182486e-05 -2.0202395e-07 -0.00033327792 -6.683465e-05 -2.3900445e-13 -0.00015169769 -6.7716763e-07
7.0357564e-10 -1.3935964e-05 3.9632027e-07 5.321108e-14 2.8827395e-07 5.9576905e-07 2.2221582e-07 -0.0006456025
-1.9742295e-07 -1.6561564e-15 -8.832699e-05 -0.0001385925 -4.069451e-06 -1.147396e-05 -9.062843e-09 -1.1026212e-06
-2.1372234e-07 -5.5404785e-11 -0.00022138834 -6.054208e-09 -5.4346834e-05 -2.5742943e-09 -0.00056448986 -0.00055091537
-0.0005160093 -0.0007152883 -4.7029376e-09 1.852842e-10 -5.973483e-09 2.3608624e-07 -0.00023190725 -1.338327e-06
1.1335283e-12 -1.252894e-05 -0.0004337376 5.8057458e-11 -0.00049495115 1.2390114e-11 -1.8272085e-05 -2.2858032e-07
1.2110258e-09 -2.8434783e-05 -9.673688e-05 3.8374952e-07 -0.00016405173 2.1705455e-10 1.2269953e-15 -3.7552105e-05
00000000: db5d 92b2 d83a f932 98bc 6ab7 6076 42ba
00000010: d9b0 aeb9 1acc 6db8 f125 cc1f 572d 67b7
00000020: 03e6 7bb9 3969 71ba e226 c0b9 c394 14b8
00000030: e2d2 fc31 0521 d0b3 e8c4 52b9 d4e1 5423
00000040: 6b6b eeb8 9de1 b8b6 9cc4 a1ba dcde a9b8
00000050: 96fd bdb7 4990 5834 97a3 b8b1 af53 a0b9
00000060: 60fa 0fb8 c1ea 2534 d89a 4ba7 9092 56b5
00000070: a6b9 93b9 d38b 0031 d621 9db7 5824 a815
00000080: 0e14 8231 0918 a8b9 0983 1033 85d5 66b8
00000090: c057 c1b3 72fb 6d2e 85e0 1fb8 0bdd 7a32
000000a0: a034 6a2c bbc6 d833 a7b5 acb8 c12a 94b8
000000b0: 29a4 5231 71d6 0eba 79dc 0fba 6fc9 fab8
000000c0: 9b58 9430 4e2e 0bb4 c7e6 bfb4 067f bfae
000000d0: a777 4ab8 3b5a 49b7 fc38 9830 1d4b 69b7
000000e0: 03f0 7bba 07b6 0cb9 5ba8 26b7 1c49 bcb5
000000f0: 4ae6 09b6 7093 27b1 f549 e2aa 45e8 bcb6
00000100: 63bd 1bba 5d46 27b5 5153 ba2d 1ba4 38ba
00000110: e439 dcb4 da3c aab4 46c7 54ba c317 87b9
00000120: 34dc c8b6 6795 4fb8 5b37 13ba 3c07 efb2
00000130: 3b08 2033 a49f e4b6 19ba c7b4 53b7 dcb5
00000140: 3ffe afb3 a266 ae32 5e59 31b9 2c9b b395
00000150: eb20 90b7 d634 16b7 574d b3b1 cc41 d427
00000160: 1e84 25b2 f492 a0b3 88a6 07b4 9f50 e534
00000170: a7a1 c6ab 434d 0bb9 37f1 04ba 298f 99b1
00000180: 91e1 81b1 1e0f 19b8 ba0a 2633 bcd5 b3b6
00000190: a54d 8bb7 38d4 20b8 b87b 1531 43c3 dc34
000001a0: b1eb 9c23 8ba1 83b2 d9fb e12d fc90 11b1
000001b0: 7bda 63b7 4c9a a9b1 5867 1eaa e917 8cb0
000001c0: 639e a4b0 dbf6 1631 966b 1c34 9a07 bbac
000001d0: b7c7 822c ba8c cd34 cd28 ddb9 8788 39b9
000001e0: e317 1d33 6b50 2e2e 6846 1031 b4a7 0e2a
000001f0: 8f2b 88b9 416d 01b9 2e23 91af c32e 9ab7
00000200: 7cad 14a8 8d5f f4b7 dbe2 8eb9 33e3 99af
00000210: 6f65 06b9 2888 d5b9 db9c 1ba7 66a2 e732
00000220: 1f41 c4b8 d95d 0ab6 33da 8f34 f1f5 8ab2
00000230: 863e 18b5 b0bd 9db9 d8c3 58b3 4d67 8725
00000240: f075 3835 12fc 7fb9 f79f bcb9 59e4 ceb8
00000250: 7a13 99b5 0e9b eeb4 39fe ffb7 d941 9dae
00000260: 6245 d9b7 d4de ceb9 42ef 6f2d 7e2b c32e
00000270: 6e4d c828 04d6 5db9 4ef2 60b8 2934 27b8
00000280: 27e6 28b0 a903 59b6 0d48 2bb9 9ec1 6fba
00000290: 4580 af31 cc9a 1232 e492 66ae 76d6 feb8
000002a0: 19a6 a5b9 f794 312f d223 eab9 efff 1fb9
000002b0: 7fed 8530 6300 f3b6 3108 3eb9 3458 bbb9
000002c0: 0ad5 a6b9 9191 e12e 01e3 1cb9 3524 fcb6
000002d0: 8dd4 2dba bdd6 dbb9 90fd 42b3 4b71 f9b9
000002e0: f46a 8832 2850 88b7 96c0 8db9 d032 bfab
000002f0: 9b45 49b9 69a8 3632 42c2 b2b9 332f c1b7
00000300: 66fc f6b9 b7b6 4bb9 3d40 7db6 139e eb30
00000310: 4dd0 e3b9 638a 94b9 f097 d9a4 3093 3f32
00000320: 3632 8932 6163 4cb7 eceb 58b4 cebb aeb9
00000330: 9429 8cb8 2c8c 86aa 0a11 1fb9 9bc6 35b5
00000340: bc65 4130 82ce 69b7 d8c5 d434 33a4 6f29
00000350: 12c4 9a34 f0ec 1f35 389a 6e34 a63d 29ba
00000360: 35fb 53b4 63ad eea6 313c b9b8 2453 11b9
00000370: 518c 88b6 4880 40b7 ceb2 1bb2 c7fd 93b5
00000380: 8d7b 65b4 3eac 73ae 7b24 68b9 6005 d0b1
00000390: 78f2 63b8 77e7 30b1 46fa 13ba 4e6b 10ba
000003a0: cc44 07ba 2f82 3bba 7a97 a1b1 deb8 4b2f
000003b0: 503f cdb1 e47e 7d34 212c 73b9 91a0 b3b5
000003c0: a987 9f2b 6333 52b7 4667 e3b9 e356 7f2e
000003d0: 9cbf 01ba 1df8 592d 0147 99b7 ae6f 75b4
000003e0: 2f71 a630 3b87 eeb7 38df cab8 2206 ce34
000003f0: 4d05 2cb9 6da7 6e2f 23d4 b026 4481 1db8

exp_avg_sq f4 [6, 2048]
6.2189685e-09 8.4338785e-09 3.1661695e-08 3.6741208e-06 5.466601e-07 7.6168966e-08 1.7474457e-10 4.821657e-08
3.025378e-07 3.931411e-06 6.517298e-07 2.560546e-08 4.769869e-09 3.321723e-08 3.816647e-07 3.2005365e-10
9.922299e-08 3.566703e-09 5.7292546e-06 3.9138026e-08 1.5824956e-07 2.4480796e-08 1.1173951e-09 6.997017e-07
2.3032785e-08 2.101957e-08 9.119302e-11 4.549007e-08 3.4499746e-07 8.7252433e-10 9.5121e-08 1.5353073e-10
1.3143202e-09 3.9855826e-07 1.0132133e-08 5.793078e-08 5.274263e-09 2.2700715e-09 3.922665e-07 6.707197e-09
7.8199636e-10 7.258133e-09 4.991198e-08 6.887731e-08 4.541056e-09 8.511855e-07 8.592231e-07 6.519485e-08
7.909413e-10 2.3714005e-08 1.4003991e-09 4.5578077e-10 1.9228648e-07 3.1070712e-08 2.5509355e-09 2.5052572e-08
6.767614e-06 6.551944e-07 1.7704205e-07 4.9202676e-08 1.3022238e-07 1.3907808e-11 2.3888957e-10 2.419178e-08
1.3469715e-06 1.9416598e-07 9.78005e-10 1.925532e-06 5.682806e-08 7.555657e-09 2.0742618e-06 5.4683875e-07
5.012519e-08 7.8302e-08 1.4910707e-06 1.3318068e-08 2.8583885e-08 2.7055103e-08 3.4600973e-08 1.808306e-08
1.4128639e-08 7.442012e-09 1.4943694e-07 3.0190794e-11 6.5636215e-08 4.3915027e-09 1.8043668e-09 4.4086426e-10
7.0173223e-09 1.4590415e-08 2.5714124e-09 4.1050114e-08 1.2040052e-09 9.854187e-08 9.996778e-07 6.479375e-09
2.5739588e-09 5.4691764e-08 3.6209011e-09 5.2277315e-08 8.070817e-08 3.4206016e-07 2.8459815e-09 2.3900567e-08
2.5318384e-10 6.9608665e-09 8.704186e-10 1.5346809e-09 5.431404e-08 7.2567676e-09 6.114895e-10 2.9830385e-09
8.1767343e-10 1.1356442e-09 2.6755744e-08 1.626815e-10 1.151492e-09 3.1506623e-08 1.3536179e-06 5.9086057e-07
1.7726256e-08 6.468598e-10 3.80206e-09 3.7774703e-10 2.688011e-07 1.935943e-07 7.539393e-12 1.3139262e-07
1.3551495e-10 8.1691944e-08 8.5375007e-07 6.995733e-10 2.0208437e-07 9.057327e-07 5.8710176e-10 8.450125e-09
3.4175946e-07 2.0422861e-07 7.0308745e-09 9.120223e-09 4.7925024e-08 5.631384e-07 1.6675925e-08 4.6432394e-10
2.565078e-08 3.168115e-07 3.6766042e-07 9.960987e-08 2.1418629e-08 2.0069288e-09 5.3293522e-08 2.0920062e-10
1.6505183e-07 4.6512093e-07 7.156948e-10 3.9652276e-10 6.053437e-10 4.6265825e-07 3.2172463e-07 2.7792305e-07
2.9878244e-09 1.9716962e-08 5.204166e-07 6.102595e-06 2.3959088e-09 1.3755865e-09 1.6365853e-09 1.5382355e-07
1.4755085e-06 1.0196625e-08 1.4310442e-06 2.5439653e-07 3.1155996e-09 9.606698e-08 1.4000177e-07 5.572824e-07
1.6826864e-06 1.7575958e-09 3.445495e-07 3.1509085e-08 1.3973055e-06 1.0782215e-06 5.5822474e-10 8.9205395e-07
5.5551803e-09 4.0960103e-08 2.6959628e-07 1.753734e-10 4.5787237e-07 6.158433e-09 6.11797e-07 7.279227e-08
2.3343232e-06 2.3345247e-07 1.1050267e-08 1.4782114e-09 9.4564757e-07 7.694732e-07 1.6108016e-10 1.3307677e-08
8.567091e-09 9.070917e-09 1.3749565e-08 4.3886487e-07 6.487805e-08 1.1588805e-09 4.7379066e-07 3.1863343e-09
5.102675e-10 5.0327092e-08 3.043715e-08 7.329023e-10 6.6649896e-08 2.0199852e-07 2.0633927e-08 1.4311431e-06
2.4357323e-08 2.2596075e-10 9.2775956e-08 1.9383562e-07 1.9873385e-08 4.0710443e-10 8.868666e-09 1.8835133e-08
5.5457335e-08 1.3152648e-10 1.3194382e-06 1.63809e-09 2.316657e-07 9.993e-10 2.720999e-06 9.57441e-07
1.9099991e-06 1.7329621e-06 2.3049127e-09 5.1244102e-09 1.4328236e-10 6.4478773e-09 2.4329347e-07 3.8176236e-09
9.0022306e-10 8.0284565e-08 1.1683604e-06 2.3776405e-09 2.0368784e-06 1.8788664e-09 5.4528453e-08 2.2097854e-08
5.0118767e-09 4.4759292e-07 1.4732612e-07 2.1096426e-08 4.888401e-07 1.4016508e-09 2.1442662e-10 5.15491e-08
00000000: a0ae d531 97e4 1032 67fc 0733 ea90 7636
00000010: 32be 1235 5592 a333 3922 402f ae16 4f33
00000020: 7b6c a234 90ea 8336 88f2 2e35 01f3 db32
00000030: 36e4 a331 bbaa 0e33 99e7 cc34 8cf3 af2f
00000040: 6a14 d533 1a1a 7531 ec3d c036 b718 2833
00000050: 4feb 2934 d749 d232 d892 9930 22d3 3b35
00000060: a1d9 c532 868e b432 1b89 c82e dc60 4333
00000070: 1738 b934 71d6 6f30 5345 cc33 0fcf 282f
00000080: 88a3 b430 6ef9 d534 9811 2e32 91cf 7833
00000090: e838 b531 85ff 1b31 b298 d234 2175 e631
000000a0: 1af4 5630 3763 f931 cd5e 5633 b4e9 9333
000000b0: 8d07 9c31 067d 6435 5da5 6635 3f01 8c33
000000c0: 8c69 5930 a6b3 cb32 2a78 c030 7191 fa2f
000000d0: 4e77 4e34 9c72 0533 884c 2f31 3033 d732
000000e0: 5d15 e336 9ee0 2f35 f318 3e34 ea52 5333
000000f0: 41d3 0b34 33ab 742d b854 832f 49ce cf32
00000100: 97c9 b435 f07b 5034 7e6a 8630 6338 0136
00000110: 1d13 7433 22ce 0132 8c33 0b36 79ca 1235
00000120: 3b49 5733 fb26 a833 cd20 c835 7ccd 6432
00000130: a188 f532 cd66 e832 2c9c 1433 1255 9b32
00000140: 69ba 7232 a1b4 ff31 ea74 2034 d0c7 042e
00000150: e4f3 8c33 11e4 9631 83fd f730 215e f22f
00000160: 051d f131 53a9 7a32 c4b4 3031 144f 3033
00000170: 2b7a a530 f79d d333 ab2c 8635 2fa1 de31
00000180: 90e1 3031 3be6 6a33 91d3 7831 8487 6033
00000190: c951 ad33 64a4 b734 0993 4331 e74d cd32
000001a0: 7530 8b2f 6e2c ef31 4442 6f30 c9ec d230
000001b0: eb46 6933 3457 f931 c015 2830 2bfe 4c31
000001c0: a7c2 6030 ee14 9c30 81d4 e532 c5de 322f
000001d0: 8642 9e30 e651 0733 f5ad b535 a19b 1e35
000001e0: 7344 9832 b6ce 3130 46a3 8231 2bab cf2f
000001f0: be4f 9034 ccde 4f34 68a2 042d ee14 0d34
00000200: 1100 152f 9f6e af33 422d 6535 184c 4030
00000210: 87fc 5834 7a21 7335 9d61 2130 0b2c 1132
00000220: 107b b734 ef49 5b34 3a94 f131 2aaf 1c32
00000230: 1fd6 4d33 942a 1735 bf3e 8f32 c943 ff2f
00000240: a956 dc32 3e16 aa34 dd62 c534 1be9 d533
00000250: 10fc b732 44ea 0931 d9e4 6433 bd04 662f
00000260: 1a39 3134 bcb5 f934 8bba 4430 9efd d92f
00000270: 4765 2630 4463 f834 7fb9 ac34 7435 9534
00000280: 5d52 4d31 0f5e a932 c2b2 0b35 e4c4 cc36
00000290: 46a5 2431 260f bd30 3aee e030 b22a 2534
000002a0: 160a c635 3b2d 2f32 4e12 c035 fe93 8834
000002b0: 351a 5631 614d ce33 6553 1634 2898 1535
000002c0: aad8 e135 e88f f130 86fa b834 9b54 0733
000002d0: 0d8b bb35 69b7 9035 9371 1930 7b75 6f35
000002e0: e2df be31 1cec 2f33 08bd 9034 39d3 402f
000002f0: 80d1 f534 269a d331 5f3a 2435 f951 9c33
00000300: 5ea7 1c36 edaa 7a34 97d7 3d32 f129 cb30
00000310: 68d8 7d35 cc8d 4e35 091c 312f c89f 6432
00000320: 772e 1332 51d6 1b32 3a37 6c32 219d eb34
00000330: 1653 8b33 7c46 9f30 4b5d fe34 96f6 5a31
00000340: e242 0c30 3927 5833 00ba 0233 6a75 4930
00000350: 2b21 8f33 eee4 5834 7c3e b132 b415 c035
00000360: 523a d132 4c72 782f 1f3c c733 2121 5034
00000370: 09b6 aa32 dbce df2f ce5c 1832 e5ca a132
00000380: fc2f 6e33 6a9d 102f 8d17 b135 2b23 e130
00000390: c8bf 7834 be57 8930 689a 3636 6c81 8035
000003a0: 892d 0036 2098 e835 7464 1e31 ca12 b031
000003b0: 668a 1d2f 218c dd31 009e 8234 2c2c 8331
000003c0: 9173 7730 e868 ac33 8fd0 9c35 e563 2331
000003d0: 4eb1 0836 5e1d 0131 ab32 6a33 b2d1 bd32
000003e0: ef34 ac31 b44c f034 b230 1e34 8837 b532
000003f0: d638 0335 34a4 c030 bac3 6b2f d666 5d33

exp_avg f4 [6]
-0.01121235 0.0019091998 0.008251492 0.0034106583 0.0045577697 -0.006858954
00000000: 01b4 37bc 1d3e fa3a 4431 073c 5a85 5f3b
00000010: 5859 953b 14c1 e0bb

exp_avg_sq f4 [6]
0.0003994378 2.6589001e-05 0.00019872823 0.00011779669 5.8357215e-05 0.00016202105
00000000: a26b d139 720b df37 b461 5039 9e09 f738
00000010: 95c4 7438 32e4 2939

exp_avg f4 [6]
-0.014241751 0.00056771626 -0.0036300814 -0.00012772414 0.004721323 0.012699005
00000000: 3c56 69bc cbd2 143a a9e6 6dbb b0ed 05b9
00000010: 54b5 9a3b 7d0f 503c
