Results/CA/Ablation experiments/Baseline/best.pt (torch, 531579 bytes, 88 tensors)

exp_avg f4 [27, 9]
0	0xbb624b8b	-0.003452989
1	0xbbff9925	-0.0078002387
2	0x3afb0749	0.0019151951
3	0x3bae3c45	0.0053172433
4	0x3c0a7fb0	0.008453295
5	0xbc12c2cd	-0.008957577
6	0x3bc74970	0.0060817525
7	0x3c09c719	0.008409285
8	0x3c00c4fd	0.007859466
9	0xba5972d0	-0.00082950015
10	0xbacc09a8	-0.0015566843
11	0x3a15e212	0.0005717586
12	0x3aca94d7	0.0015455735
13	0x3afaf1c6	0.001914554
14	0xbb0ff035	-0.0021963243
15	0x3abfbd20	0.0014628507
16	0x3afbe822	0.0019218961
17	0x3ae1ee6e	0.0017237195
18	0x3b05ef2e	0.0020436752
19	0x3bb2f28b	0.0054610423
20	0xba78ebb8	-0.0009495574
21	0xbb616e28	-0.0034397934
22	0xbbbd16d0	-0.0057705417
23	0x3bba073d	0.0056771324
24	0xbb8bbe39	-0.0042646197
25	0xbb9f901e	-0.004869475
26	0xbbaad09a	-0.0052128555
27	0x3a67e8fc	0.0008846668
28	0x3b11a920	0.002222605
29	0xba48835e	-0.000764897
30	0xba7541d5	-0.0009355818
31	0xbb0c6f3d	-0.0021428608
32	0x3b16dde8	0.002302045
33	0xbacbf049	-0.0015559281
34	0xbb188dda	-0.002327791
35	0xbada05a7	-0.0016633765
36	0xbb64fa66	-0.0034939288
37	0xbc0114f5	-0.007878532
38	0x3b34a949	0.0027566722
39	0x3bc33734	0.0059575085
40	0x3c1694b4	0.009190727
41	0xbc1e096f	-0.009645804
42	0x3bd6bec0	0.006553501
43	0x3c1f285a	0.00971421
44	0x3c0e873b	0.008699234
45	0xba138018	-0.00056266924
46	0xba9c1aad	-0.0011909805
47	0xb990916b	-0.00027574165
48	0x3a50eac7	0.0007969555
49	0x3a6ba092	0.00089884654
50	0xbae74b78	-0.0017646393
51	0x3a8f24c9	0.0010920997
52	0x3ab48319	0.001377198
53	0x3a769f73	0.0009407915
54	0x3aa08c50	0.0012248848
55	0x3b73b44a	0.0037186318
56	0xb9dbc6e3	-0.00041919117
57	0xbb0fba88	-0.002193125
58	0xbb6ad675	-0.0035833393
59	0x3b5264f4	0.003210363
60	0xbb36a18e	-0.002786729
61	0xbb1f3e56	-0.002429863
62	0xbb4b4ad1	-0.0031019936
63	0xb9376f6f	-0.00017493752
64	0x39b594af	0.00034633788
65	0x3983f5b4	0.0002516933
66	0x3a53b0dd	0.0008075366
67	0x39212a10	0.00015369826
68	0xb9da67ba	-0.00041657483
69	0xb97e7a5b	-0.00024268909
70	0x39d27c3b	0.0004014688
71	0x39eddac0	0.00045367144
72	0x3ac7ee90	0.0015253592
73	0x3b849e96	0.004047225
74	0xbab52a84	-0.0013821875
75	0xbb35df06	-0.002775134
76	0xbb9b9484	-0.004747929
77	0x3b897600	0.004194975
78	0xbb5d28f1	-0.0033746327
79	0xbb85f6b3	-0.0040882467
80	0xbb986fc4	-0.0046519954
81	0xba9e6b5b	-0.0012086438
82	0xbaceda40	-0.0015781596
83	0x3a743a05	0.0009316507
84	0xb9767ab8	-0.00023506104
85	0xb7001883	-7.635102e-06
86	0x3a88e458	0.0010444028
87	0xba1d9658	-0.00060114777
88	0x3ad073a9	0.001590361
89	0xba88d69c	-0.0010439935
90	0xbaefc424	-0.0018292707
91	0xbaa13753	-0.0012299813
92	0x3a41cd61	0.00073929696
93	0xba16e8d3	-0.00057567394
94	0x38f9c155	0.00011909256
95	0x3aa1d9c4	0.0012348224
96	0xb9adf193	-0.00033177118
97	0x3b1dfcdd	0.0024107017
98	0xba6439ce	-0.00087061233
99	0x3af0e1f2	0.0018377884
100	0x39c9e866	0.00038510858
101	0xba90b691	-0.0011040737
102	0x388be392	6.670425e-05
103	0x39a86199	0.00032116173
104	0xba3d1b1e	-0.00072138186
105	0x39f682f9	0.0004701836
106	0xbac8f3cb	-0.0015331445
107	0x39b151ce	0.0003382102
108	0xb9e00fad	-0.0004273629
109	0xb9290c02	-0.00016121569
110	0x3923a1cf	0.0001560517
111	0x3a16e800	0.00057566166
112	0xb902d1cf	-0.00012475926
113	0xb8027698	-3.1104864e-05
114	0x3a153dd0	0.00056931097
115	0xb7ca6371	-2.4126583e-05
116	0x39cf8216	0.00039579038
117	0xbb280745	-0.0025639099
118	0xbb409694	-0.0029386627
119	0x3b14bf33	0.0022696971
120	0xbaa1f875	-0.0012357371
121	0x3aacdd1d	0.0013188455
122	0x3aacca66	0.0013182878
123	0x398f36cb	0.0002731591
124	0x3b688240	0.0035478026
125	0xba89fb05	-0.001052708
126	0xbac7b993	-0.00152378
127	0xbae04183	-0.0017109368
128	0x3a681aac	0.0008854072
129	0xba761aab	-0.0009388129
130	0x3a1e3a3e	0.00060359004
131	0x3a5ec2be	0.0008497647
132	0x3a1c8035	0.0005970032
133	0x3b065e65	0.002050304
134	0xba54ce3b	-0.0008117889
135	0x3a9454d4	0.0011316785
136	0x39e636c6	0.00043909828
137	0xb9592246	-0.000207075
138	0x3a9ef40d	0.0012127176
139	0x365173c6	3.1210816e-06
140	0xba5ff750	-0.00085436273
141	0xb7d3863f	-2.5215673e-05
142	0xbac21178	-0.0014806231
143	0x3a6f660f	0.00091323344
144	0xb78411f4	-1.5743986e-05
145	0xb9449aef	-0.00018749734
146	0x3891ed76	6.958369e-05
147	0xb94b2d0a	-0.00019376367
148	0xb7c51600	-2.3494475e-05
149	0x39505dd0	0.00019871374
150	0xba0a4b7a	-0.0005275529
151	0x3a0cc1fd	0.00053694827
152	0xb9707b6b	-0.0002293416
153	0x3ad222b9	0.0016032077
154	0x3a37b8e0	0.00070084445
155	0xb9b10c65	-0.00033769305
156	0x398e1c1d	0.00027105297
157	0x3a2cdca5	0.0006594158
158	0xbabb5e58	-0.0014295084
159	0x398fce60	0.00027428847
160	0xbacf91a9	-0.0015836257
161	0x3a934ea2	0.0011238644
162	0xbaf37b68	-0.0018576207
163	0xb7ce9a24	-2.4628891e-05
164	0x3a2f2343	0.00066809746
165	0xba9537fb	-0.0011384481
166	0xba46c27c	-0.0007582081
167	0x39a6e2f1	0.00031831072
168	0x39aaf225	0.00032605338
169	0x3ae40637	0.0017396872
170	0xba937360	-0.0011249594
171	0x3bdb96e1	0.006701336
172	0x3b98de18	0.0046651475
173	0xbb17acc8	-0.0023143757
174	0x3b221979	0.0024734421
175	0x3a38b9dc	0.0007046738
176	0xbb30b163	-0.00269612
177	0xbb9f82b3	-0.0048678755
178	0xbb9a50e7	-0.0047093513
179	0x3b6fd7ba	0.003659709
180	0xbbb92b19	-0.0056508896
181	0xbb37c3f3	-0.0028040379
182	0x3b9ecad9	0.0048459587
183	0xb9c3aad5	-0.00037320578
184	0x3a3b800b	0.0007152564
185	0x3ad199ce	0.0015991272
186	0xba16bbc9	-0.0005750028
187	0x3bcd3c09	0.0062632603
188	0xbafa74e7	-0.0019108326
189	0xbb2b6a54	-0.0026155906
190	0xbb5a12f8	-0.0033275466
191	0x3b208faa	0.0024499693
192	0xbb116ddc	-0.0022190725
193	0x3b1a2dc3	0.0023525811
194	0x39f2138c	0.000461724
195	0x39ce3621	0.0003933171
196	0x3b56673d	0.0032715343
197	0x3ad7a29d	0.0016451661
198	0xbbd8b197	-0.0066129672
199	0xbba2ac47	-0.0049643847
200	0x3b6ce42e	0.0036146748
201	0xbb26a42c	-0.0025427444
202	0xba20aa0e	-0.0006128856
203	0x3b08522f	0.0020800938
204	0x3a855d7d	0.0010174956
205	0x3be2d609	0.0069224876
206	0xbb2e882a	-0.0026631453
207	0xbb86acff	-0.004109978
208	0xb9ce91af	-0.00039399925
209	0x3b9c5013	0.004770288
210	0x3a883e3a	0.0010394522
211	0x3adc9a86	0.001683072
212	0x3a4eff2d	0.00078963005
213	0xbb6e210c	-0.0036335615
214	0x3bcdbd33	0.006278658
215	0x394e2e5a	0.00019662958
216	0x3bda4fca	0.0066623436
217	0x3ba50f2f	0.0050372104
218	0xbb587374	-0.00330278
219	0x3b232344	0.0024892846
220	0xb9e0e567	-0.00042895527
221	0xba9bafe1	-0.0011877978
222	0xbaee9df3	-0.0018205032
223	0xbbd9eb3a	-0.0066503556
224	0x3a426b29	0.0007416481
225	0xbbd50fbe	-0.0065021208
226	0xbbac7afd	-0.005263685
227	0x3b34b7d4	0.002757539
228	0xba9078f6	-0.0011022377
229	0xbafc29a0	-0.001923848
230	0x3aaf5668	0.0013377191
231	0x3b002440	0.0019552857
232	0x3bc7f2b0	0.0061019287
233	0xbb1c7555	-0.0023873646
234	0x3bb2e8ad	0.005459866
235	0x3b2bbb4a	0.0026204162
236	0xbb884d1a	-0.004159582
237	0x3b021b62	0.0019852747
238	0xb98068b6	-0.00024492078
239	0xbb276564	-0.0025542611
240	0x39441723	0.00018700636
241	0xbbc187eb	-0.0059060953
242	0x3b07576c	0.0020651473

exp_avg_sq f4 [27, 9]
0	0x3b102ed2	0.0022000563
1	0x3b0bb73a	0.0021318928
2	0x3a90db36	0.0011051658
3	0x3a40586b	0.0007337394
4	0x3a8cabd5	0.0010732362
5	0x3a6b96d6	0.0008987015
6	0x3acea937	0.0015766983
7	0x3a83d520	0.0010058023
8	0x3a997e3b	0.0011710593
9	0x391cf82c	0.0001496977
10	0x39142e9f	0.00014131748
11	0x38a229a2	7.732517e-05
12	0x38596a99	5.183611e-05
13	0x389b88b1	7.416437e-05
14	0x3883f03f	6.291316e-05
15	0x38e11ae1	0.00010733843
16	0x38935940	7.02613e-05
17	0x38afa628	8.375599e-05
18	0x3a7dcf51	0.00096820766
19	0x3a7a60c0	0.000955116
20	0x39feb4dc	0.00048581406
21	0x39a9e728	0.00032406417
22	0x39f90838	0.00047499104
23	0x39d0d321	0.00039830155
24	0x3a36e581	0.0006976948
25	0x39e60620	0.00043873582
26	0x3a060cc1	0.0005113595
27	0x38d179fb	9.988617e-05
28	0x38c7f34b	9.534376e-05
29	0x385a0c5b	5.1986757e-05
30	0x380d5a7a	3.3701283e-05
31	0x384ad5e9	4.8359772e-05
32	0x382e4f89	4.1558906e-05
33	0x3895ad5b	7.1371636e-05
34	0x38493273	4.796912e-05
35	0x3866fea0	5.507341e-05
36	0x3b39c7da	0.002834788
37	0x3b32065c	0.0027164435
38	0x3abb06b0	0.0014268961
39	0x3a762210	0.0009389231
40	0x3ab18594	0.0013543838
41	0x3a98956e	0.0011641213
42	0x3b023fad	0.001987438
43	0x3aa7f756	0.0012814801
44	0x3ac57333	0.0015064239
45	0x389c891a	7.464197e-05
46	0x3896266b	7.159713e-05
47	0x381e94b6	3.7808633e-05
48	0x37d6423e	2.5541634e-05
49	0x3815d23c	3.5720164e-05
50	0x3806b6f5	3.211848e-05
51	0x38633de6	5.4178665e-05
52	0x38155d01	3.5610985e-05
53	0x382a4c31	4.0602117e-05
54	0x39a7ac4a	0.00031981088
55	0x39a8d0e3	0.0003219909
56	0x3929312c	0.00016135414
57	0x38e5aac5	0.00010951379
58	0x392a7ab5	0.00016258175
59	0x390b231c	0.00013269152
60	0x3978f0ec	0.00023740873
61	0x391af501	0.00014777856
62	0x3934a202	0.0001722649
63	0x37964620	1.7914048e-05
64	0x378bcfe7	1.6666903e-05
65	0x37435751	1.1643236e-05
66	0x370a5cda	8.24706e-06
67	0x3727f621	1.0011282e-05
68	0x372bbcc4	1.0236345e-05
69	0x3776ac5b	1.4702872e-05
70	0x373e5ed8	1.1346965e-05
71	0x3788372c	1.6238155e-05
72	0x3a1f29ce	0.0006071598
73	0x3a1bb1bc	0.0005939265
74	0x39a19392	0.0003081826
75	0x39565cf4	0.00020443258
76	0x399bef26	0.00029742083
77	0x3985736b	0.0002545373
78	0x39e161d4	0.00042988232
79	0x398e7b87	0.00027176386
80	0x39a7ca6d	0.0003200354
81	0x3962e892	0.00021639679
82	0x38929108	6.988837e-05
83	0x39106e6c	0.00013774046
84	0x376670e0	1.3735349e-05
85	0x38283574	4.0104103e-05
86	0x378c1439	1.6698717e-05
87	0x3774994a	1.4579224e-05
88	0x39736675	0.00023212454
89	0x3737388f	1.0920819e-05
90	0x38a93976	8.069251e-05
91	0x37ddffc6	2.6464357e-05
92	0x384e8983	4.9242295e-05
93	0x36eeefd5	7.120873e-06
94	0x3784d4ca	1.5834714e-05
95	0x370f6841	8.547738e-06
96	0x36fab6c1	7.471856e-06
97	0x38b0f8bc	8.4386644e-05
98	0x36e01796	6.678466e-06
99	0x3913aaa0	0.00014082575
100	0x38583ea0	5.1556737e-05
101	0x38c0260c	9.16236e-05
102	0x3775a654	1.4641864e-05
103	0x38049cce	3.161729e-05
104	0x377f0e41	1.5202503e-05
105	0x37930dd1	1.75302e-05
106	0x39207a08	0.00015304249
107	0x3777e21c	1.4774992e-05
108	0x38909d61	6.895769e-05
109	0x37c5f42f	2.3597937e-05
110	0x382c5546	4.1087413e-05
111	0x36c90115	5.9903928e-06
112	0x3778435e	1.4797637e-05
113	0x36c2b342	5.802519e-06
114	0x36f4c3a8	7.294544e-06
115	0x389af476	7.3888266e-05
116	0x36e12cc0	6.710732e-06
117	0x39496aba	0.00019208613
118	0x38a00bb2	7.631573e-05
119	0x390afac2	0.0001325412
120	0x37d2331f	2.5057756e-05
121	0x383e1d80	4.5327004e-05
122	0x37e2a211	2.7016767e-05
123	0x37f3fb47	2.9084867e-05
124	0x3949af50	0.00019234163
125	0x37d91656	2.5878817e-05
126	0x3889a401	6.563217e-05
127	0x37c88ed5	2.390837e-05
128	0x382fffd4	4.196151e-05
129	0x3709e138	8.218274e-06
130	0x377bcfff	1.5009194e-05
131	0x371902e1	9.120181e-06
132	0x371be5da	9.292236e-06
133	0x38985146	7.263063e-05
134	0x370b6452	8.308403e-06
135	0x38b7545d	8.741834e-05
136	0x37f8b73f	2.9649234e-05
137	0x3869581f	5.5633598e-05
138	0x370c5268	8.363837e-06
139	0x37a497bf	1.9620986e-05
140	0x371138e8	8.655923e-06
141	0x37322a10	1.061942e-05
142	0x38cde9f5	9.8187396e-05
143	0x3713c6a3	8.8081315e-06
144	0x3845290d	4.700669e-05
145	0x378bfaf8	1.6686958e-05
146	0x37f64513	2.935765e-05
147	0x36a18dd3	4.8146844e-06
148	0x36ff1a32	7.6026417e-06
149	0x3693c076	4.403347e-06
150	0x3697fe5f	4.5297634e-06
151	0x3848dc3e	4.7888832e-05
152	0x368c6fd9	4.185346e-06
153	0x38ef23f0	0.00011403102
154	0x38154f0f	3.5597997e-05
155	0x38904c08	6.880617e-05
156	0x36fc1616	7.5127564e-06
157	0x37b4ed6f	2.1568236e-05
158	0x371d65d7	9.381641e-06
159	0x370d0518	8.405441e-06
160	0x39056640	0.0001272196
161	0x36e2fafe	6.764544e-06
162	0x393e117e	0.00018126328
163	0x3850bb73	4.976564e-05
164	0x38d6094a	0.000102060454
165	0x37a618ab	1.9800229e-05
166	0x38286061	4.014408e-05
167	0x37bf3fe4	2.2798726e-05
168	0x37e90efc	2.7782742e-05
169	0x3980cf06	0.00024568307
170	0x381908f1	3.648637e-05
171	0x3b0f9b5f	0.0021912677
172	0x3a179739	0.0005782727
173	0x3ab2c723	0.001363967
174	0x391a2f64	0.00014704239
175	0x39ed4010	0.00045251893
176	0x391df8b9	0.00015065343
177	0x39228d38	0.00015502132
178	0x3b42ce98	0.002972519
179	0x39a12fc9	0.00030743916
180	0x3982382f	0.00024837392
181	0x3864fc80	5.4594595e-05
182	0x39229d2f	0.0001550808
183	0x379e6f84	1.8886996e-05
184	0x383696c1	4.3532582e-05
185	0x37ba3e7b	2.2202023e-05
186	0x37c6b350	2.3686938e-05
187	0x39b2edb9	0.00034127923
188	0x382ace1d	4.0723116e-05
189	0x3a68cc88	0.0008880575
190	0x3976e2f8	0.0002354494
191	0x39f695c1	0.00047032352
192	0x38884e24	6.49954e-05
193	0x39373d6d	0.00017475123
194	0x3899494f	7.309263e-05
195	0x38c1b8d0	9.237381e-05
196	0x3a9edb62	0.0012119825
197	0x3915fe00	0.0001430437
198	0x3a5430f4	0.0008094453
199	0x396a888c	0.00022366847
200	0x39dc7982	0.000420522
201	0x3884a100	6.324239e-05
202	0x392fbf7b	0.00016760633
203	0x38b29ac3	8.516528e-05
204	0x38bebd47	9.095162e-05
205	0x3a928c93	0.001118081
206	0x390fa7dc	0.00013700075
207	0x3a9d8152	0.001201669
208	0x39a95c78	0.00032303086
209	0x3a40ab44	0.00073497393
210	0x38ad6fe0	8.270121e-05
211	0x39813ad3	0.00024648625
212	0x38a78c51	7.9893165e-05
213	0x38bc0c8b	8.966875e-05
214	0x3ad4c2b5	0.0016232344
215	0x3929655c	0.00016154855
216	0x3a340737	0.000686753
217	0x393cc160	0.00018001115
218	0x39b9aa70	0.00035412936
219	0x386a5f90	5.5878947e-05
220	0x3910f780	0.00013825111
221	0x3893919e	7.0366295e-05
222	0x38ab3e1d	8.165485e-05
223	0x3a74fed9	0.00093458366
224	0x3904366c	0.00012608775
225	0x3a49b0a2	0.0007693862
226	0x396bd0b4	0.00022489094
227	0x39dffeae	0.00042723626
228	0x38b1fbe5	8.486937e-05
229	0x39397ea5	0.00017690154
230	0x38e1da88	0.00010769541
231	0x38fb79ba	0.00011991286
232	0x3a88953b	0.0010420451
233	0x39266dc4	0.00015871885
234	0x39ff3886	0.00048679503
235	0x38ef4cbb	0.000114107
236	0x3994789e	0.00028318627
237	0x3805dc98	3.1915115e-05
238	0x38a6bfaf	7.951201e-05
239	0x382204d3	3.8628303e-05
240	0x382226e7	3.866004e-05
241	0x3a2dbddd	0.0006627718
242	0x389929e3	7.3034105e-05

exp_avg f4 [27]
0	0xbbef51f3	-0.0073034703
1	0xbb07e6bf	-0.00207369
2	0x3b9cbd0d	0.004783279
3	0x3a924231	0.0011158643
4	0xbc041b5d	-0.008063165
5	0xbae5b688	-0.0017525712
6	0x3b333f06	0.0027350797
7	0xbab4c423	-0.0013791363
8	0x3b57d6cc	0.0032934425
9	0xaca9624b	-4.8141816e-12
10	0xaf8aa2f7	-2.5217847e-10
11	0x2f0c9893	1.2787131e-10
12	0x2fa1f264	2.9457958e-10
13	0xb039eded	-6.764072e-10
14	0xaf88299a	-2.4767816e-10
15	0x2fa452a8	2.9890157e-10
16	0xaee212f6	-1.0280658e-10
17	0xae72a1e1	-5.5168207e-11
18	0xbc0c5cfe	-0.008567093
19	0xb953a99d	-0.00020185714
20	0xbc54c410	-0.012986198
21	0x3c32be5c	0.010909643
22	0xbc54571f	-0.012960224
23	0xbc8e84bc	-0.017397277
24	0x3c2276cd	0.00991602
25	0xbcc32389	-0.023820655
26	0x3ba9ed6d	0.005185774

exp_avg_sq f4 [27]
0	0x3b21ab97	0.0024668926
1	0x393c254e	0.00017942974
2	0x3a8b55ff	0.0010630487
3	0x38dcb703	0.00010524506
4	0x3b595e36	0.0033167726
5	0x38a92c24	8.06677e-05
6	0x39b25b68	0.0003401891
7	0x380697af	3.2089356e-05
8	0x3a3bf900	0.0007170588
9	0x2398a03e	1.6547738e-17
10	0x234fd4c1	1.1266545e-17
11	0x238cfa0b	1.5284728e-17
12	0x231b6804	8.424593e-18
13	0x2403ccca	2.857956e-17
14	0x235d4cb4	1.19966765e-17
15	0x235c1d49	1.1932425e-17
16	0x22de90e0	6.0326613e-18
17	0x2365a076	1.2448094e-17
18	0x3b1e35e8	0.0024141017
19	0x3bec81dc	0.007217629
20	0x3b3a1304	0.0028392682
21	0x3b4f69b0	0.0031648688
22	0x3c5444f9	0.0129558975
23	0x3b7cae90	0.0038556196
24	0x3bcc490c	0.006234294
25	0x3c9b0f13	0.018928086
26	0x3b7b069d	0.0038303502

exp_avg f4 [9, 9]
0	0x3aea4517	0.0017873374
1	0xbc2947aa	-0.010332027
2	0xba850582	-0.0010148736
3	0xbc14310d	-0.009044898
4	0xbb43bf62	-0.0029868712
5	0xbaed296a	-0.0018094007
6	0x3c00344c	0.007824969
7	0xbbc17d0a	-0.0059047984
8	0x3c0afa79	0.008482569
9	0x3b05e66c	0.0020431532
10	0x37ad8090	2.0683074e-05
11	0xbbbd1bfe	-0.005771159
12	0xbab65a53	-0.0013912417
13	0xbb99d120	-0.004694119
14	0xbbd5bf42	-0.006523044
15	0x3a73b6bc	0.0009296944
16	0xbb32cfd6	-0.0027284524
17	0x3c264118	0.0101473555
18	0xbb31cd73	-0.0027130514
19	0x3c180da4	0.009280596
20	0x3c1959e4	0.0093598105
21	0x3c2efbb0	0.010680124
22	0x3bf2d4fd	0.007410644
23	0x3bf60644	0.007508071
24	0xbbec43c1	-0.0072102253
25	0x3bf60ba7	0.0075087133
26	0xbc6c266e	-0.014413459
27	0xbae963eb	-0.0017806267
28	0x3c4fc701	0.012681724
29	0x3bb5d7a1	0.0055493866
30	0x3c77a2ba	0.015114481
31	0x3c1f08d8	0.009706698
32	0x3c053586	0.008130437
33	0xbc2acf2e	-0.010425372
34	0x3c0730cc	0.00825138
35	0xbc4f68c7	-0.012659258
36	0xbb08c9cd	-0.0020872236
37	0xba86a112	-0.0010271391
38	0x3abdd0fe	0.001448184
39	0xbaf5189e	-0.0018699353
40	0x39263e8a	0.00015854291
41	0x3a792151	0.0009503561
42	0xb78353bb	-1.5655407e-05
43	0x3903af4f	0.00012558441
44	0xbb2fa307	-0.0026800053
45	0x39f5294a	0.00046760804
46	0xbb5a66b8	-0.0033325385
47	0xbac70683	-0.0015184436
48	0xbb721244	-0.0036937157
49	0xbb513286	-0.0031920983
50	0xbb01df2c	-0.0019816859
51	0x3b21b408	0.0024673957
52	0xbaecf721	-0.0018079021
53	0x3b313b72	0.0027043489
54	0xb9167da9	-0.00014351927
55	0x3ba91a58	0.005160611
56	0x3a4a414e	0.00077154196
57	0x3bb8e396	0.0056423647
58	0x3b11dd6a	0.0022257217
59	0x3ae49637	0.0017439787
60	0xbb751aa9	-0.0037399924
61	0x3b457395	0.0030128707
62	0xbb714641	-0.0036815556
63	0x3b272843	0.0025506176
64	0xbc675ca9	-0.014121213
65	0xbbed6fe6	-0.0072460053
66	0xbc83a347	-0.016069068
67	0xbc3087d9	-0.010774576
68	0xbc0d1969	-0.008612015
69	0x3c3f7d09	0.011687526
70	0xbc0b4d7f	-0.008502363
71	0x3c66fb92	0.014098065
72	0x390b41f6	0.00013280645
73	0xbb113362	-0.002215587
74	0xba752573	-0.00093515887
75	0xbb450450	-0.0030062385
76	0xbb4a25eb	-0.0030845355
77	0xbb225a41	-0.0024773034
78	0x3ac7182d	0.00151897
79	0xbabc0b18	-0.0014346568
80	0x3b322e57	0.0027188265

exp_avg_sq f4 [9, 9]
0	0x38a30045	7.772496e-05
1	0x3b9deb87	0.004819337
2	0x3a7cd5bd	0.00096448866
3	0x3bd97d89	0.0066372794
4	0x3b5cdcf2	0.003370103
5	0x3b00e43e	0.0019667293
6	0x3b3bf69c	0.0028680926
7	0x3aee559d	0.0018183474
8	0x3b841d4b	0.0040318123
9	0x38af630f	8.3631014e-05
10	0x3b971973	0.004611188
11	0x39f5f197	0.0004691004
12	0x3ba35ff7	0.004985805
13	0x3ab62a36	0.0013898078
14	0x3a695279	0.0008900534
15	0x3af86941	0.0018952267
16	0x3aa98685	0.0012933767
17	0x3adc24c7	0.0016795628
18	0x391c285a	0.00014892351
19	0x3b69b1c9	0.0035658947
20	0x3a8f8c17	0.0010951784
21	0x3b8fbe7b	0.0043867207
22	0x3b19a6f3	0.0023445457
23	0x3b08b7c5	0.0020861488
24	0x3aeb909c	0.0017972174
25	0x3a9d7291	0.0012012293
26	0x3b452a7c	0.0030085137
27	0x37a3cdea	1.9527e-05
28	0x3a749a35	0.000933084
29	0x39380f7a	0.00017553373
30	0x3a9f699b	0.001216221
31	0x3a191075	0.0005838939
32	0x39b690c4	0.00034821604
33	0x3a09929a	0.00052479806
34	0x39b09a27	0.00033684188
35	0x3a397134	0.00070740585
36	0x3864cd13	5.4550426e-05
37	0x3aa1fbe0	0.001235839
38	0x39c95abc	0.0003840531
39	0x3accc352	0.0015622175
40	0x3a514d55	0.00079842407
41	0x3a1ba619	0.0005937531
42	0x3a32bab0	0.000681798
43	0x39ead87d	0.00044793254
44	0x3a913132	0.0011077283
45	0x37fcc319	3.013159e-05
46	0x3ac91bf8	0.0015343418
47	0x3987dcc6	0.00025913696
48	0x3af5765f	0.0018727294
49	0x3a4a6485	0.0007720667
50	0x3a023758	0.00049673533
51	0x3a41fc44	0.0007399956
52	0x3a01fe04	0.0004958811
53	0x3a6591f8	0.0008757408
54	0x380c8534	3.3502656e-05
55	0x3ad3144c	0.0016104071
56	0x3992cbfb	0.00027999267
57	0x3b060b6a	0.002045358
58	0x3a695dc0	0.00089022145
59	0x3a059d56	0.0005096992
60	0x3a61e528	0.0008617216
61	0x3a0f6a4b	0.0005470856
62	0x3a8bed6c	0.0010675616
63	0x385b7e5e	5.2331357e-05
64	0x3b1517d0	0.002274979
65	0x3a13a18f	0.0005631679
66	0x3b4d9f86	0.00313756
67	0x3ae9b988	0.0017831782
68	0x3a9525cb	0.0011379061
69	0x3abed8f9	0.0014560512
70	0x3a6ab4a9	0.0008953312
71	0x3b14bd0e	0.0022695693
72	0x37479944	1.1897009e-05
73	0x3a6427aa	0.000870342
74	0x38e3c564	0.0001086097
75	0x3a8b89e4	0.0010645953
76	0x39b9f6d1	0.00035469842
77	0x39390992	0.0001764654
78	0x39d7059a	0.0004101217
79	0x39928fd6	0.00027954456
80	0x39e3aaba	0.00043424015

exp_avg f4 [9]
0	0x3c04c752	0.008104162
1	0xbd5c0f36	-0.053725444
2	0x3d2c4571	0.042058412
3	0x3c850dfb	0.016242018
4	0x3c63db5a	0.013907278
5	0xbb24103f	-0.0025034097
6	0xbbb78d2e	-0.0056015467
7	0xbcd4334d	-0.025903368
8	0xbbd2f3ef	-0.0064377706

exp_avg_sq f4 [9]
0	0x3ccade9d	0.024764353
1	0x3d3592d7	0.04432949
2	0x3d8b40b5	0.06799451
3	0x3bb5c778	0.00554746
4	0x3c842139	0.016129123
5	0x3c58bdeb	0.013228874
6	0x3c27b234	0.010235358
7	0x3c82d0f5	0.01596878
8	0x3b99a315	0.0046886303

exp_avg f4 [2048, 9]
0	0xbb392492	-0.0028250557
1	0x3a7263b5	0.0009246425
2	0xbb36c044	-0.0027885595
3	0xbae8cfee	-0.0017762163
4	0x3a3101bb	0.0006752272
5	0x3a5e8333	0.0008488178
6	0xb535572b	-6.75546e-07
7	0x3af0189b	0.001831788
8	0x3ab81887	0.0014045396
9	0xba8753d2	-0.0010324663
10	0x3a1617a5	0.0005725569
11	0x39c5ee38	0.00037752255
12	0xba827acf	-0.0009954813
13	0x39dcf35b	0.00042142984
14	0x3a7eb6f3	0.00097165926
15	0x39a7a541	0.00031975846
16	0x3a565d9e	0.0008177402
17	0xba7044f1	-0.00091655465
18	0x39b54799	0.00034576355
19	0x3946d063	0.00018960382
20	0xb9763978	-0.00023481797
21	0x3944f93e	0.00018784867
22	0xb8232354	-3.889513e-05
23	0xb950fa2b	-0.0001992962
24	0xb985c2aa	-0.00025512773
25	0xb96adcaa	-0.00022398183
26	0x3966daac	0.00022015971
27	0xbb5efe35	-0.003402603
28	0xb943dd8e	-0.00018679185
29	0xba8c6ab7	-0.0010712956
30	0xbb6920be	-0.0035572494
31	0x3a738127	0.00092889596
32	0xbb16b1be	-0.0022994126
33	0x3b108a31	0.0022055025
34	0x3b86920e	0.0041067665
35	0x3a1494ae	0.0005667907
36	0x3a52a7d4	0.00080358726
37	0xba93972e	-0.0011260265
38	0xb95c7eed	-0.00021028118
39	0xba597152	-0.0008294779
40	0xba1a1577	-0.00058778323
41	0xb9cbf5b3	-0.00038902237
42	0x3a9c723c	0.00119359
43	0xba84e194	-0.0010138028
44	0x3a99fbf8	0.0011748066
45	0xb9cee58b	-0.00039462405
46	0xba3e2e9c	-0.000725487
47	0xba48c23e	-0.0007658339
48	0xba02ebbe	-0.0004994235
49	0x3a2cd840	0.0006593503
50	0xba61351a	-0.00085909816
51	0x3a022b66	0.00049655733
52	0xb7137924	-8.790088e-06
53	0x3a732e74	0.00092766364
54	0x3aac4d5f	0.0013145617
55	0xbb094dec	-0.0020950986
56	0xb9199236	-0.00014645685
57	0x3add220a	0.0016871106
58	0x3ab55835	0.0013835492
59	0xbad4a127	-0.0016222344
60	0xb916ab2f	-0.00014368886
61	0xba555ee8	-0.00081394473
62	0x39c0222b	0.0003664655
63	0x3a480652	0.00076303363
64	0x395c3d56	0.00021003684
65	0xba63b764	-0.000868669
66	0xb957a821	-0.0002056663
67	0xb9d6c6f5	-0.00040965495
68	0x3a838928	0.0010035383
69	0xb92d7398	-0.00016541628
70	0xba8038d3	-0.000978256
71	0x39e9184e	0.00044459332
72	0xbb474a97	-0.003040945
73	0x3aa9a656	0.0012943249
74	0x3a083897	0.0005196421
75	0xbb287552	-0.0025704694
76	0xba82b692	-0.0009972623
77	0xba2d720e	-0.0006616422
78	0xb7f5e4ce	-2.9312821e-05
79	0x3b1800fc	0.0023193946
80	0x3aada93a	0.0013249286
81	0x3785e605	1.5961947e-05
82	0xb9e02ee7	-0.00042759554
83	0xbaef0889	-0.0018236797
84	0x3a9ec598	0.0012113331
85	0xba5d3481	-0.00084383046
86	0x3ab3c3d5	0.0013714979
87	0xb9cf09f9	-0.00039489547
88	0xb9cae4fe	-0.00038699055
89	0x3a637456	0.0008676698
90	0x3b0a9216	0.0021144203
91	0x3ace7ba9	0.0015753406
92	0x3b83b98a	0.0040199207
93	0xbb207dec	-0.0024489118
94	0x3a3641e2	0.00069525663
95	0xbb389ec1	-0.0028170797
96	0xbb0c36bb	-0.0021394927
97	0xba064ff4	-0.0005123608
98	0x3a6f3e27	0.0009126388
99	0x3ab438e6	0.0013749867
100	0x3aa32f73	0.0012450054
101	0x3bb0a277	0.005390461
102	0xbb291baa	-0.0025803843
103	0xbb0ea5c1	-0.0021766277
104	0x3add1ff5	0.0016870486
105	0xbaccf8a3	-0.0015638064
106	0xba09f05a	-0.00052619504
107	0xba04f371	-0.0005071676
108	0x3a4b6384	0.00077586644
109	0xb9553a8d	-0.00020335075
110	0xbb2a5711	-0.0025991837
111	0x3abc74a6	0.0014378026
112	0xbb28141f	-0.0025646759
113	0xbacb6a0c	-0.0015519275
114	0xb9de130c	-0.0004235733
115	0xba4afde3	-0.00077435205
116	0x3b6dbb82	0.0036275093
117	0x3aacab7c	0.0013173665
118	0x3a4e4930	0.0007869182
119	0x3b1b215b	0.0023671004
120	0xba41cd6c	-0.0007392976
121	0xbb4cb9e5	-0.0031238731
122	0xb91a82f9	-0.00014735376
123	0x3968cb14	0.00022200897
124	0x3a214445	0.00061518356
125	0xba26bd11	-0.00063605706
126	0xb9315d79	-0.00016914857
127	0x38f73b7d	0.00011788958
128	0xba649bd1	-0.0008720728
129	0x3983203e	0.0002501029
130	0xb9f01df6	-0.0004579869
131	0x39babb9f	0.00035616473
132	0x3760cba1	1.33988515e-05
133	0xb8c09de4	-9.184683e-05
134	0x39aecb62	0.00033339398
135	0x3b4ec7f3	0.0031552284
136	0x398753dd	0.0002581169
137	0xbb81bf8f	-0.003959603
138	0x3ad1cb9b	0.0016006114
139	0x3acd5a24	0.0015667123
140	0xb8e7e261	-0.00011057105
141	0xb98ff4d2	-0.0002745749
142	0xbb015e54	-0.0019740062
143	0xb7567d33	-1.2784544e-05
144	0xb9701d35	-0.00022899064
145	0x3a0af886	0.0005301315
146	0xb88e2fe1	-6.780006e-05
147	0x376da886	1.4165538e-05
148	0xb9b3f440	-0.0003432352
149	0x3a29cdb7	0.0006477492
150	0xb876190c	-5.8674297e-05
151	0xb98ec9d7	-0.00027234733
152	0xb79d6b20	-1.8765742e-05
153	0xb82c08bf	-4.101614e-05
154	0x388cdd60	6.7169545e-05
155	0xb9d6d5fc	-0.00040976692
156	0xb911f2a2	-0.00013918665
157	0xb988127e	-0.0002595372
158	0xb9b54ab1	-0.0003457866
159	0x37d2c2c2	2.5124642e-05
160	0x39b07fca	0.00033664546
161	0x39afc23e	0.00033523323
162	0x389828d5	7.25553e-05
163	0xb94229e4	-0.00018516887
164	0xbac1a21a	-0.0014773041
165	0x3a694f4b	0.000890006
166	0xba4635d6	-0.0007561123
167	0x3a2f636e	0.00066905364
168	0x3978e9cb	0.00023738218
169	0xb9b243bf	-0.0003400128
170	0x39930593	0.00028042178
171	0x3aa001ea	0.0012207602
172	0x3ab9c0c3	0.0014171827
173	0xb9cff43e	-0.0003966409
174	0xb9ef2994	-0.0004561661
175	0x38b972c7	8.8428664e-05
176	0x38b203da	8.488419e-05
177	0xba1da4cc	-0.00060136314
178	0xba1f634a	-0.0006080164
179	0xb94270f5	-0.00018543362
180	0xb955ce2c	-0.00020390068
181	0xb9824ec4	-0.00024854217
182	0x395b43a4	0.00020910666
183	0xb6fd09d9	-7.541134e-06
184	0xb990d236	-0.0002762244
185	0x39377cb1	0.00017498691
186	0x3977bd15	0.00023626194
187	0xb3a2d325	-7.58212e-08
188	0x3789a8ef	1.6410339e-05
189	0xba8da023	-0.0010805171
190	0x398cec91	0.00026879137
191	0x399e9786	0.00030249002
192	0xb9559d2c	-0.00020371814
193	0x3ad71edf	0.0016412399
194	0xb97b4750	-0.00023963791
195	0xba433a00	-0.00074473023
196	0x3a0191b5	0.00049426715
197	0xb99c2066	-0.00029778777
198	0xba3fba67	-0.0007313848
199	0xba5b3411	-0.00083619455
200	0xbb6774c6	-0.0035317405
201	0x3b02a23e	0.001993313
202	0x3ae5c81f	0.0017530954
203	0x3a77473c	0.0009432917
204	0x3ae5c78d	0.0017530784
205	0xba99a5ba	-0.0011722364
206	0xba3a887a	-0.00071156735
207	0xb289b351	-1.6030443e-08
208	0x320a190b	8.038351e-09
209	0xb2195be8	-8.926669e-09
210	0x318e1f1b	4.13628e-09
211	0x328a3e93	1.609377e-08
212	0x32125df8	8.5196845e-09
213	0xb10a6854	-2.0140947e-09
214	0xb20a052d	-8.033834e-09
215	0x319ed41c	4.6225193e-09
216	0xba55a383	-0.00081496703
217	0x3afe6828	0.0019409703
218	0xbbc67b03	-0.0060571446
219	0xba8092c4	-0.0009809365
220	0xbb2a87b5	-0.002602083
221	0x3b485dc0	0.0030573457
222	0x3ad2ba87	0.0016077318
223	0xba24238d	-0.0006261401
224	0x3abfed02	0.0014642777
225	0xba206771	-0.00061189296
226	0xb8ebd6c2	-0.00011245675
227	0x3aef61ac	0.0018263361
228	0x39bcd9b1	0.00036020347
229	0x3a3daae7	0.0007235244
230	0x3740f353	1.1500745e-05
231	0xba1c213e	-0.0005955881
232	0xb95742ef	-0.00020528933
233	0xba15ece8	-0.00057192007
234	0x3a12da55	0.0005601992
235	0xba0f5cfc	-0.0005468873
236	0x395a8625	0.00020840073
237	0xba0ffd76	-0.0005492786
238	0x3a4be0fa	0.00077773596
239	0x391b189f	0.00014791124
240	0x3954a8df	0.00020280805
241	0x38b62e5e	8.687073e-05
242	0xb9c28969	-0.00037104942
243	0x3a17731d	0.0005777346
244	0x3b05230e	0.0020315084
245	0xbb3ac186	-0.0028496697
246	0xb9c9140f	-0.00038352652
247	0xbb23302d	-0.0024900541
248	0x3af8f154	0.001899282
249	0xb7a2d01e	-1.9408817e-05
250	0xbac00b6c	-0.0014651841
251	0x3aae0f9f	0.0013279802
252	0xba2c9877	-0.00065839983
253	0xba104655	-0.00055036444
254	0x3998756c	0.00029079185
255	0xb9e2a38c	-0.0004322793

exp_avg_sq f4 [2048, 9]
0	0x3895c79a	7.142052e-05
1	0x39315cc2	0.0001691459
2	0x390df73b	0.00013538908
3	0x38570c92	5.12717e-05
4	0x38c3501c	9.313246e-05
5	0x383b0e6d	4.459771e-05
6	0x3826ce01	3.976934e-05
7	0x37eabd1b	2.7983033e-05
8	0x394d36e1	0.00019570767
9	0x37cdccad	2.4533214e-05
10	0x380c997e	3.352155e-05
11	0x38fd640e	0.00012082617
12	0x383f3765	4.558954e-05
13	0x3787d094	1.619038e-05
14	0x37b4d64e	2.1557466e-05
15	0x37c2792c	2.3183027e-05
16	0x37f37fa1	2.902729e-05
17	0x387b3b32	5.9898193e-05
18	0x36c873a7	5.973928e-06
19	0x3696d78e	4.495442e-06
20	0x3720a405	9.574932e-06
21	0x3676cd9e	3.6776541e-06
22	0x36d4cdb0	6.3420375e-06
23	0x363135cd	2.6406371e-06
24	0x362ec116	2.6040411e-06
25	0x3673c5fd	3.6325066e-06
26	0x364c0534	3.0401397e-06
27	0x39103ecb	0.00013756302
28	0x380228b7	3.1032334e-05
29	0x38b75fe3	8.74398e-05
30	0x3924d738	0.00015720434
31	0x379698c8	1.7952538e-05
32	0x3830caae	4.215043e-05
33	0x3872464e	5.7762772e-05
34	0x394108f4	0.0001840925
35	0x3890f07b	6.911248e-05
36	0x391dbcf4	0.00015043077
37	0x385847df	5.156535e-05
38	0x382bcd9c	4.0961066e-05
39	0x38320d86	4.24511e-05
40	0x391fdf41	0.0001524659
41	0x37cc5565	2.435846e-05
42	0x379c4657	1.8629404e-05
43	0x37fd0df4	3.0166448e-05
44	0x37cc36f0	2.4344277e-05
45	0x368b99a3	4.1604085e-06
46	0x3691d51d	4.3461464e-06
47	0x36d1dc41	6.2543263e-06
48	0x362ad328	2.5454883e-06
49	0x36f3ce23	7.265962e-06
50	0x36ff4cad	7.6085184e-06
51	0x365ca91c	3.288099e-06
52	0x3687c850	4.046633e-06
53	0x36be810e	5.677465e-06
54	0x36e6e408	6.8810805e-06
55	0x383d20e7	4.5091754e-05
56	0x3727d9f2	1.000472e-05
57	0x3811a5fa	3.472527e-05
58	0x37db83f3	2.6168278e-05
59	0x37d0b60f	2.488031e-05
60	0x369acfad	4.6137343e-06
61	0x3693db1d	4.4064495e-06
62	0x36b2386f	5.311383e-06
63	0x387f609e	6.088672e-05
64	0x36d2b575	6.279612e-06
65	0x374acbc2	1.2087579e-05
66	0x37ba9d23	2.22461e-05
67	0x384b3540	4.8448564e-05
68	0x37d34791	2.5186486e-05
69	0x37550237	1.2696305e-05
70	0x373a47cd	1.1103181e-05
71	0x368ed2d5	4.256474e-06
72	0x39101140	0.00013739336
73	0x3835dc23	4.335878e-05
74	0x380f42f1	3.41562e-05
75	0x38fb3f6c	0.00011980426
76	0x37f20a19	2.885335e-05
77	0x37df94ec	2.6653019e-05
78	0x381fa2e3	3.8060254e-05
79	0x38c626b5	9.4485855e-05
80	0x380f5abb	3.4178356e-05
81	0x3751039e	1.2458213e-05
82	0x384c0f58	4.865168e-05
83	0x382cf438	4.1235442e-05
84	0x37affc85	2.0979214e-05
85	0x37498bbd	1.2013069e-05
86	0x383beaad	4.4802833e-05
87	0x375698dc	1.2790984e-05
88	0x373bd721	1.1196157e-05
89	0x37a97560	2.0201027e-05
90	0x390374cd	0.00012536645
91	0x384cbcc4	4.8813192e-05
92	0x38ed14e2	0.000113049304
93	0x382c0564	4.1013016e-05
94	0x378e413c	1.6958096e-05
95	0x38bd48cb	9.025781e-05
96	0x381db10b	3.75966e-05
97	0x386b2b72	5.6068828e-05
98	0x379d9a2b	1.8787649e-05
99	0x382faa3f	4.1881805e-05
100	0x382cf044	4.123176e-05
101	0x38e97427	0.00011131941
102	0x386e8af8	5.6873047e-05
103	0x37dfaaf2	2.6663274e-05
104	0x377cd866	1.5070755e-05
105	0x379aa961	1.8437104e-05
106	0x38266688	3.9672974e-05
107	0x3794a532	1.77199e-05
108	0x383d43ef	4.512438e-05
109	0x382a7100	4.0636398e-05
110	0x38f6ca6b	0.000117678974
111	0x37c11ca2	2.3020726e-05
112	0x381c0f20	3.7207385e-05
113	0x38e11261	0.000107322594
114	0x3804cbec	3.166117e-05
115	0x380515e8	3.1730073e-05
116	0x393b287e	0.00017848794
117	0x37c22c0d	2.3147115e-05
118	0x37f37f8b	2.902725e-05
119	0x38d847b4	0.000103130384
120	0x381cb5a8	3.736248e-05
121	0x39074684	0.00012900872
122	0x37fa85d1	2.9864636e-05
123	0x37c5d086	2.3581331e-05
124	0x37c3bae3	2.3332837e-05
125	0x37a45a31	1.9592322e-05
126	0x3695e463	4.4671337e-06
127	0x365fc5e3	3.3344775e-06
128	0x36a89d7a	5.025123e-06
129	0x35ec03f2	1.7584518e-06
130	0x369837ad	4.5364345e-06
131	0x37838947	1.5680342e-05
132	0x3639d103	2.768881e-06
133	0x3652523b	3.1340303e-06
134	0x368d3dbf	4.2093156e-06
135	0x38f69b8a	0.000117591655
136	0x380dfd5c	3.385298e-05
137	0x388e2dc5	6.779613e-05
138	0x382ae26f	4.074204e-05
139	0x37a9a88c	2.0224856e-05
140	0x37bcd80c	2.2511951e-05
141	0x37cf55f3	2.4716346e-05
142	0x38106c4a	3.4433127e-05
143	0x379612d8	1.7890168e-05
144	0x374c5dcb	1.2181185e-05
145	0x3665b11b	3.4226748e-06
146	0x36f9b0e7	7.4413724e-06
147	0x35712c11	8.984362e-07
148	0x36748fc1	3.644251e-06
149	0x3790d468	1.7265047e-05
150	0x362c5837	2.5681345e-06
151	0x3640c184	2.872287e-06
152	0x369c9b74	4.6672594e-06
153	0x3788cd45	1.630805e-05
154	0x37521733	1.2522377e-05
155	0x378f9f3d	1.712108e-05
156	0x379bf295	1.8590401e-05
157	0x37600bf3	1.3354223e-05
158	0x37856d36	1.590569e-05
159	0x373dbf28	1.1309785e-05
160	0x3867b227	5.524061e-05
161	0x36f3a81a	7.261534e-06
162	0x3826713b	3.968294e-05
163	0x38c153e0	9.21858e-05
164	0x3868847e	5.5436503e-05
165	0x37cb910a	2.4267025e-05
166	0x3785fa2b	1.5971329e-05
167	0x37c429af	2.3384431e-05
168	0x37a151a3	1.923071e-05
169	0x3895547d	7.120611e-05
170	0x3854ee4a	5.0766663e-05
171	0x37ec3a71	2.8160606e-05
172	0x3970e7d6	0.00022974549
173	0x38264ecc	3.965087e-05
174	0x38a86ff7	8.031719e-05
175	0x37c14b75	2.304253e-05
176	0x375ba290	1.3091267e-05
177	0x37573b74	1.2828841e-05
178	0x373be22f	1.1198731e-05
179	0x3729c9af	1.0120143e-05
180	0x364a7ace	3.0171827e-06
181	0x36ff8c8b	7.6159536e-06
182	0x37066d7b	8.012513e-06
183	0x35989b83	1.1370142e-06
184	0x3605ce90	1.993878e-06
185	0x36286553	2.509293e-06
186	0x35c0b2a3	1.4357105e-06
187	0x35afb634	1.3091544e-06
188	0x365bdfc6	3.2763796e-06
189	0x3809f155	3.2888103e-05
190	0x389b1b36	7.3960444e-05
191	0x380ad602	3.3101074e-05
192	0x3804258d	3.1506224e-05
193	0x37601090	1.3355297e-05
194	0x37f111e4	2.873777e-05
195	0x37b1eccc	2.1210311e-05
196	0x380f7216	3.4200108e-05
197	0x373de896	1.1319431e-05
198	0x39383c1a	0.00017569997
199	0x392112c4	0.00015361147
200	0x39324b9d	0.00017003571
201	0x389cf914	7.485054e-05
202	0x388848cb	6.498544e-05
203	0x38a2e288	7.766957e-05
204	0x3874f635	5.840343e-05
205	0x37d65784	2.555154e-05
206	0x37c4e167	2.3469982e-05
207	0x31b2217a	5.1842877e-09
208	0x3167b103	3.3715544e-09
209	0x31aac90b	4.970507e-09
210	0x311d3f50	2.2882496e-09
211	0x31463386	2.884208e-09
212	0x31f7c2ab	7.2107773e-09
213	0x312f404f	2.5502407e-09
214	0x314572c2	2.8732505e-09
215	0x3186c28d	3.922031e-09
216	0x38e23c95	0.00010787804
217	0x3860a920	5.356327e-05
218	0x39e17aa9	0.00043006733
219	0x37863094	1.5996666e-05
220	0x3952fb33	0.0002012074
221	0x38af4170	8.356839e-05
222	0x38f1b927	0.00011526263
223	0x37e9049f	2.7777916e-05
224	0x38861d8b	6.395121e-05
225	0x37b2d276	2.1317257e-05
226	0x37224aa0	9.673327e-06
227	0x378970b6	1.6384158e-05
228	0x37a3f2f3	1.9544246e-05
229	0x36f9a116	7.439531e-06
230	0x37d694a7	2.558001e-05
231	0x37cee9e2	2.4666024e-05
232	0x370c7304	8.371429e-06
233	0x36f44fd9	7.281062e-06
234	0x3787d13d	1.6190688e-05
235	0x37341e9e	1.0735965e-05
236	0x379e1b13	1.8847675e-05
237	0x36dccda3	6.58045e-06
238	0x3751e375	1.251033e-05
239	0x37249b41	9.81131e-06
240	0x381664ba	3.5856596e-05
241	0x370ceaf8	8.399358e-06
242	0x37271864	9.959655e-06
243	0x38355f27	4.324238e-05
244	0x388d85c3	6.748319e-05
245	0x398616cd	0.0002557546
246	0x384fcfac	4.9546055e-05
247	0x38aa9538	8.134026e-05
248	0x396ee20a	0.00022781655
249	0x382e3514	4.1534266e-05
250	0x380a2d8c	3.2944183e-05
251	0x3808ba8e	3.259867e-05
252	0x36cebdbf	6.1613678e-06
253	0x36b97180	5.526643e-06
254	0x36faa8eb	7.4702452e-06
255	0x368c2473	4.1765684e-06

exp_avg f4 [2048]
0	0x39c4ff08	0.00037574046
1	0x3aa2da7b	0.0012424731
2	0xb7e13a22	-2.684916e-05
3	0x3bbcf117	0.005766045
4	0x3a988cc3	0.001163863
5	0x3a9bed53	0.001189629
6	0xbb4f695f	-0.00316485
7	0x3a3d0b2d	0.0007211443
8	0x3bb5f9a5	0.0055534416
9	0xbb62f176	-0.0034628785
10	0x3b73f9b7	0.00372277
11	0x3b805117	0.0039159167
12	0xbb79b9a7	-0.0038105042
13	0x3b399e35	0.0028323059
14	0x395e17f2	0.0002118049
15	0xbb7e0171	-0.0038758183
16	0xba52b2e0	-0.0008037519
17	0x39a318c3	0.00031108232
18	0xb9e8d51a	-0.0004440926
19	0x3a96283b	0.0011456081
20	0xb7daca43	-2.608181e-05
21	0x3a2ba8db	0.0006548294
22	0xbb84882e	-0.004044554
23	0xb508b161	-5.092207e-07
24	0x3b8ff936	0.004393722
25	0xba2e2949	-0.0006643725
26	0xb943eb6c	-0.0001868435
27	0x3b26fb41	0.002547935
28	0x3ab38e00	0.0013698936
29	0x38ab43d0	8.1665465e-05
30	0xbb85d152	-0.004083791
31	0xbac7dee1	-0.0015248918
32	0x3b97580c	0.0046186503
33	0xb9c06901	-0.00036699328
34	0x3bbd74eb	0.00578176
35	0xbb1d63dd	-0.0024015822
36	0xadb7f5cd	-2.0913849e-11
37	0x3a715ff4	0.00092077185
38	0xb9c91178	-0.00038350723
39	0x3b812c79	0.003942069
40	0x3a8fc80b	0.0010969652
41	0x39c538c9	0.00037617076
42	0xb89541cb	-7.1171286e-05
43	0xbb183580	-0.0023225248
44	0xb89a4a09	-7.357082e-05
45	0xb9cae357	-0.00038697824
46	0x3b4c77f3	0.0031199425
47	0xba251ebc	-0.000629883
48	0x3a72dc27	0.00092643726
49	0xba73308f	-0.000927695
50	0xbae736a9	-0.0017640191
51	0x399ec6ac	0.0003028413
52	0x388a589f	6.59686e-05
53	0xba286682	-0.0006423966
54	0x3b109791	0.0022062997
55	0x3b415fe5	0.002950662
56	0xb9247ca0	-0.00015686685
57	0xba462476	-0.00075585337
58	0xba1b9f4c	-0.0005936518
59	0xb691f95a	-4.350365e-06
60	0x39b2360d	0.00033991077
61	0x3a3c7b0c	0.0007189966
62	0x39b35717	0.00034206428
63	0x3b8b51f1	0.0042517115
64	0x3a11a64a	0.000555609
65	0x3b03f042	0.0020132218
66	0x38ee32f3	0.000113582144
67	0x3b8ac864	0.004235314
68	0xb966930a	-0.00021989286
69	0x3b760d66	0.0037544607
70	0xb9063e4b	-0.00012802442
71	0xbb20b6df	-0.0024523062
72	0xba37f8e2	-0.00070179824
73	0xb4cbc9ca	-3.7958517e-07
74	0x3bf1d612	0.0073802555
75	0x3a632891	0.00086654077
76	0xbb277489	-0.0025551638
77	0x392e0a76	0.0001659783
78	0xb9477668	-0.00019022229
79	0x39b280fb	0.00034046904
80	0xbaf90ab0	-0.0019000378
81	0xbae0834b	-0.0017128972
82	0xb806b0e3	-3.211283e-05
83	0x388acd62	6.618608e-05
84	0x35aaab32	1.2715811e-06
85	0x3829b84d	4.0464383e-05
86	0x3a35f65a	0.00069413113
87	0x3b73aef6	0.0037183142
88	0x3ab3879f	0.0013697034
89	0xb9df0344	-0.00042536308
90	0x3b883b8e	0.00415749
91	0x3b33a9f9	0.0027414544
92	0xba7234dc	-0.0009239444
93	0x3b169d53	0.0022981956
94	0xbb29e84e	-0.0025925818
95	0x390870a3	0.00013011931
96	0x3b390cc6	0.0028236373
97	0xb4114e60	-1.353269e-07
98	0xbbfab48c	-0.0076509174
99	0x3b1cf3fa	0.0023949132
100	0x3a9466d2	0.0011322147
101	0x3a4929e8	0.0007673786
102	0xbae1e810	-0.0017235298
103	0x3a7f63c3	0.00097423437
104	0x3b04e43c	0.002027764
105	0x3b91d5cf	0.004450537
106	0xb9ba86c1	-0.00035577084
107	0x3ac6ddb2	0.0015172272
108	0x3982c167	0.00024939628
109	0xbbbb3784	-0.005713405
110	0x3950bea6	0.00019907448
111	0x3af8785c	0.0018956768
112	0xbbd77744	-0.006575497
113	0xba156f29	-0.0005700463
114	0x3a73e1b6	0.0009303348
115	0x380974a8	3.277199e-05
116	0xbb6ba45f	-0.0035956127
117	0x3ac80c29	0.0015262413
118	0xba6e6999	-0.0009094715
119	0x386ec8f4	5.6930774e-05
120	0x3b893aa2	0.004187898
121	0xbba14a7e	-0.0049222102
122	0x3ac83b44	0.0015276452
123	0xbb0c17c4	-0.002137647
124	0xbb7f3a32	-0.00389446
125	0xb759371e	-1.2947041e-05
126	0x3a2f1833	0.0006679326
127	0x3a21d129	0.000617283
128	0x382ae473	4.074392e-05
129	0xbac4c50d	-0.0015012339
130	0xbba4fd38	-0.005035069
131	0xb9b0adf3	-0.00033698938
132	0x38b96aa1	8.8413486e-05
133	0x3591ff34	1.0877616e-06
134	0x3a80365f	0.0009781829
135	0x3b346a41	0.0027529153
136	0x387effb0	6.0796447e-05
137	0x3996fffe	0.00028800959
138	0x3aa4f267	0.0012584449
139	0xbae072f7	-0.0017124106
140	0xbb80c043	-0.0039291694
141	0x397de063	0.00024211551
142	0x3afa24c8	0.0019084448
143	0x3a72d997	0.0009263991
144	0x36f58420	7.3169504e-06
145	0xba026d94	-0.0004975435
146	0x3a106ee6	0.0005509689
147	0x39cc6e8a	0.0003899227
148	0xb9abc948	-0.00032765628
149	0xbb9e0d11	-0.004823335
150	0xbafe936a	-0.0019422595
151	0x38b5ac0b	8.662798e-05
152	0x3acaf2a3	0.0015483688
153	0xbbf44006	-0.0074539213
154	0x3b9b04f9	0.0047308174
155	0x3aab8b18	0.0013087718
156	0x3b49e9d0	0.003080953
157	0x39461e22	0.00018893977
158	0x3b17e217	0.0023175532
159	0x380cc2c0	3.3559976e-05
160	0xbb2ab80e	-0.0026049647
161	0x3ac043cb	0.0014668641
162	0x37e5b639	2.7383781e-05
163	0x384704b7	4.744969e-05
164	0x393443f4	0.00017191452
165	0x3abc1772	0.0014350249
166	0x3833f29b	4.290287e-05
167	0x3aa4c65d	0.0012571324
168	0x3aa5f45e	0.0012661328
169	0xbac4f844	-0.0015027602
170	0xb9a00db1	-0.0003052778
171	0x3afcb969	0.0019281331
172	0x3bbe44b9	0.005806532
173	0x3941b835	0.00018474537
174	0x38894d54	6.5470726e-05
175	0x3b655726	0.0034994571
176	0x3bac68b4	0.005261505
177	0xbb7aeaba	-0.003828688
178	0xb892aff9	-6.9946e-05
179	0xbb21bd4e	-0.0024679485
180	0xba97cfb0	-0.0011582281
181	0xb96968c2	-0.00022259637
182	0xb88d4144	-6.7355606e-05
183	0xb9a4cd5c	-0.00031433522
184	0xba301dc5	-0.0006718303
185	0xb9702b17	-0.00022904236
186	0x3b39afb5	0.002833349
187	0x3baba333	0.0052379607
188	0xbb8b3b80	-0.0042490363
189	0x3a1825bf	0.00058039645
190	0x3a9d1f27	0.0011987434
191	0xba853016	-0.0010161425
192	0x3bd5ba4d	0.006522453
193	0x39a159e1	0.00030775278
194	0x39a3e1e9	0.000312581
195	0xba566156	-0.00081779563
196	0x3abbc0d8	0.001432444
197	0xbb3717c5	-0.0027937752
198	0x3a67b324	0.0008838645
199	0x3ad86135	0.0016508462
200	0x3a561be4	0.0008167608
201	0xa89a6619	-1.7141712e-14
202	0xb85cb0d4	-5.261677e-05
203	0xbab45f1f	-0.0013761258
204	0x39eb346b	0.00044861747
205	0xbb946c71	-0.004529529
206	0xbb8abe78	-0.0042341314
207	0x3b938cd9	0.0045028743
208	0xbb621d04	-0.0034502158
209	0x3b6e27ca	0.0036339634
210	0x3a78c56c	0.00094898674
211	0xbb3d0267	-0.0028840543
212	0x3a484d3f	0.0007640905
213	0x3a369f39	0.0006966475
214	0xb5aa3fba	-1.2684534e-06
215	0x3a82c3f1	0.0009976608
216	0x3b2f85c9	0.0026782623
217	0x3aa613b7	0.001267067
218	0x38b3c9dd	8.572985e-05
219	0x3b7de527	0.0038741322
220	0xbbd2da1b	-0.0064346916
221	0xbb688c48	-0.0035484005
222	0x3ad9573e	0.0016581786
223	0xbbfae8fd	-0.007657169
224	0xb623fa28	-2.4434503e-06
225	0x3a888f0d	0.0010418609
226	0x3b2834a9	0.0025666154
227	0x3769c68e	1.3934112e-05
228	0x3b702a71	0.003664639
229	0x3b99b23e	0.0046904376
230	0x3b93d3e9	0.0045113456
231	0xbba4ce03	-0.0050294413
232	0x39231fe0	0.00015556766
233	0x39cc174b	0.00038927267
234	0x3ace5082	0.0015740546
235	0xbb58fd2f	-0.0033109894
236	0x3bacc477	0.005272444
237	0x3875b4d4	5.858096e-05
238	0x39f57f60	0.00046824943
239	0xbb21c167	-0.0024681927
240	0xba4d91b8	-0.0007841843
241	0xb6a720ba	-4.9807977e-06
242	0xbbd08865	-0.0063639157
243	0xbb997d49	-0.0046841246
244	0x3b895230	0.0041907057
245	0xbb1e0fa4	-0.002411821
246	0x3a9dab8b	0.0012029273
247	0x3b5aa332	0.0033361432
248	0xb991e857	-0.00027829662
249	0x39c81707	0.0003816413
250	0xbb8ea10a	-0.0043526934
251	0xb8d2dd38	-0.000100547855
252	0xb9bc4c2b	-0.00035914904
253	0x3683965f	3.9216097e-06
254	0xba973c0f	-0.0011538285
255	0x3a54d0cd	0.0008118272

exp_avg_sq f4 [2048]
0	0x39cf533e	0.00039544137
1	0x38fa6baa	0.00011940983
2	0x3820e056	3.83559e-05
3	0x39f77196	0.0004719614
4	0x39442931	0.00018707362
5	0x378a7193	1.6503769e-05
6	0x393820c8	0.0001755982
7	0x38ab1f39	8.159731e-05
8	0x39e3cc43	0.00043449
9	0x392bbb95	0.0001637771
10	0x392d0e4d	0.00016503893
11	0x39180278	0.0001449677
12	0x39822422	0.00024822453
13	0x396dabaf	0.00022666038
14	0x38419920	4.6157395e-05
15	0x392fcb3e	0.00016765014
16	0x3837ae43	4.3792894e-05
17	0x38b087f7	8.4176594e-05
18	0x3916d3c0	0.00014383998
19	0x397a6556	0.00023879608
20	0x372c0d2e	1.02550675e-05
21	0x38eb1a90	0.00011210621
22	0x39c375fc	0.00037281204
23	0x32b1f341	2.0716131e-08
24	0x39fe5878	0.0004851257
25	0x3899ce31	7.334015e-05
26	0x38e318b0	0.00010828802
27	0x39c5df36	0.00037741073
28	0x37e23acb	2.6968677e-05
29	0x38cb6387	9.698333e-05
30	0x395b2de4	0.00020902563
31	0x392ddfcd	0.00016581938
32	0x3a149da8	0.00056692446
33	0x39224396	0.00015474702
34	0x3a3d6454	0.0007224728
35	0x3984c0cb	0.00025320644
36	0x30b5dfc2	1.3233079e-09
37	0x38374ece	4.3703993e-05
38	0x373c8137	1.1235758e-05
39	0x398c88e1	0.00026804864
40	0x380eec5e	3.4075572e-05
41	0x39102df7	0.00013750033
42	0x35f8b130	1.8529008e-06
43	0x399338fe	0.00028080487
44	0x35f8cf29	1.8537731e-06
45	0x368dd160	4.226502e-06
46	0x399ba395	0.00029685782
47	0x369646d8	4.4785957e-06
48	0x37e9be99	2.7864518e-05
49	0x39a20091	0.0003089947
50	0x392232a2	0.00015468386
51	0x36809cd1	3.832953e-06
52	0x375fc337	1.3337288e-05
53	0x37d32227	2.5169064e-05
54	0x394c88ee	0.00019505966
55	0x393ba1cc	0.00017893984
56	0x39a97f13	0.0003232887
57	0x37bc2318	2.2427688e-05
58	0x383157eb	4.228197e-05
59	0x34aff65c	3.277554e-07
60	0x3722d034	9.7044285e-06
61	0x3908ed07	0.0001305827
62	0x39c0ec10	0.00036796974
63	0x3a2ec61d	0.00066670944
64	0x36fe2e44	7.575176e-06
65	0x39ca099b	0.000385356
66	0x3934739f	0.0001720921
67	0x3a1ac097	0.0005903332
68	0x370d1ad4	8.410501e-06
69	0x39c9640a	0.00038412242
70	0x36a9b4c9	5.0576386e-06
71	0x39422925	0.00018516609
72	0x3926f120	0.0001592082
73	0x32ced926	2.4080304e-08
74	0x3a767377	0.0009401361
75	0x3835e601	4.336797e-05
76	0x398c3385	0.00026741266
77	0x378b99c0	1.6641687e-05
78	0x38280726	4.006098e-05
79	0x386f9b81	5.7126865e-05
80	0x389d27de	7.493769e-05
81	0x392f7606	0.00016733268
82	0x34c83a52	3.7295337e-07
83	0x3585a326	9.956755e-07
84	0x340c8133	1.3085518e-07
85	0x34fbcd66	4.690184e-07
86	0x367a2b3f	3.7278076e-06
87	0x3a2296a8	0.0006202259
88	0x380b6a7c	3.3239354e-05
89	0x38cd52e6	9.790603e-05
90	0x3929cb24	0.00016192772
91	0x39b8a48e	0.00035217818
92	0x37b7c15d	2.1905342e-05
93	0x3986b498	0.00025693025
94	0x39c692b6	0.0003787481
95	0x36e4c68f	6.8180448e-06
96	0x3a3374d6	0.0006845718
97	0x32b45d66	2.099723e-08
98	0x3a853ffe	0.0010166166
99	0x391fb810	0.0001523199
100	0x38c5fd89	9.4409166e-05
101	0x3929dcc7	0.00016199342
102	0x391547e9	0.00014236536
103	0x394ce68f	0.00019540846
104	0x38ca773d	9.6543205e-05
105	0x3a4bf004	0.00077796006
106	0x37ac4873	2.0537735e-05
107	0x39ec4f70	0.00045072613
108	0x3829bfac	4.047125e-05
109	0x393f40bc	0.00018239295
110	0x363bc64e	2.79806e-06
111	0x3a264cb3	0.00063438265
112	0x39cd64b0	0.00039175665
113	0x387672e7	5.875798e-05
114	0x378db997	1.6894932e-05
115	0x3916fba8	0.00014398864
116	0x399802fb	0.0002899392
117	0x3948002c	0.0001907355
118	0x380e2795	3.3892302e-05
119	0x344db8f8	1.9159404e-07
120	0x3a2cb11d	0.0006587671
121	0x39aabea1	0.00032566956
122	0x388a7b37	6.603303e-05
123	0x386c75cb	5.6376488e-05
124	0x3a03d905	0.0005029592
125	0x364d3b4d	3.0581898e-06
126	0x37418cc8	1.1536475e-05
127	0x38bcc2ab	9.000798e-05
128	0x34479ef3	1.8591145e-07
129	0x39065f63	0.0001281477
130	0x39b0b541	0.0003370438
131	0x372ec1b1	1.04163055e-05
132	0x3592150e	1.0883975e-06
133	0x3455f152	1.9924963e-07
134	0x3938d3ef	0.00017626559
135	0x39b43048	0.00034368248
136	0x34688c30	2.1657684e-07
137	0x379976e8	1.8294391e-05
138	0x38b81ae0	8.7788096e-05
139	0x3a073646	0.00051579287
140	0x3947359d	0.00018998091
141	0x3838043c	4.3872962e-05
142	0x399bdc3b	0.00029727988
143	0x38a70542	7.96416e-05
144	0x34ed09ae	4.4151733e-07
145	0x38454e16	4.7041183e-05
146	0x39891036	0.00026142754
147	0x38b45f27	8.600792e-05
148	0x39b075c4	0.00033657078
149	0x3a135964	0.0005620925
150	0x39447b5b	0.0001873797
151	0x363a9a8d	2.780612e-06
152	0x384ba2cd	4.855059e-05
153	0x39b9f425	0.00035467852
154	0x3a428d83	0.00074215996
155	0x39ab1024	0.00032627687
156	0x38f2b042	0.0001157229
157	0x358a605f	1.0309849e-06
158	0x3914200b	0.00014126317
159	0x398a4b40	0.00026377477
160	0x39832840	0.00025016256
161	0x38a69aeb	7.9443525e-05
162	0x370407b0	7.869603e-06
163	0x34be631b	3.5462367e-07
164	0x38e93a5a	0.000111211746
165	0x38487216	4.7789967e-05
166	0x35e6436c	1.7155958e-06
167	0x38dbcec3	0.00010481246
168	0x397efc3d	0.00024317294
169	0x3972d047	0.00023156508
170	0x39a50f18	0.00031482498
171	0x395990e3	0.00020748707
172	0x39715dc0	0.00023018476
173	0x3555401a	7.9441963e-07
174	0x388de680	6.766338e-05
175	0x3983754d	0.00025073663
176	0x39acd24e	0.00032963086
177	0x394df30d	0.00019640867
178	0x360c82a6	2.0937673e-06
179	0x3959e589	0.00020780241
180	0x389c3127	7.447815e-05
181	0x361ae091	2.3078503e-06
182	0x36e3cec1	6.7891965e-06
183	0x3840b247	4.59424e-05
184	0x37813ebf	1.5407217e-05
185	0x36ad9207	5.1728016e-06
186	0x38d4ea8b	0.00010152635
187	0x392f8089	0.00016737184
188	0x393d3155	0.00018042822
189	0x39fceab7	0.00048240062
190	0x38e9c8f2	0.00011147735
191	0x39da706a	0.00041663955
192	0x39ce725a	0.0003937658
193	0x36e3e09c	6.791275e-06
194	0x371adb8b	9.230232e-06
195	0x395b45ee	0.00020911518
196	0x39475c84	0.00019012584
197	0x3954ba6a	0.0002028734
198	0x3853f541	5.053473e-05
199	0x38a0c541	7.666136e-05
200	0x39ba03ce	0.0003547952
201	0x305d0c5c	8.0416895e-10
202	0x348770e4	2.5227848e-07
203	0x38cbf4d5	9.725398e-05
204	0x39ea2596	0.00044659962
205	0x39adfa7c	0.00033183757
206	0x3a0a6eb1	0.00052807765
207	0x39996be2	0.00029262813
208	0x3a0e3810	0.0005425224
209	0x3911c3b2	0.0001390118
210	0x38250fda	3.935383e-05
211	0x395bec3d	0.00020973473
212	0x39fa94a4	0.00047794462
213	0x37c53ec4	2.3513458e-05
214	0x32bae360	2.1756648e-08
215	0x3851caad	5.001824e-05
216	0x3a727c2a	0.0009250069
217	0x38da9b76	0.00010424007
218	0x38c68282	9.465685e-05
219	0x39a116a9	0.00030725196
220	0x39db1963	0.0004178985
221	0x396bf435	0.0002250232
222	0x39a7804b	0.00031948308
223	0x39c22fd6	0.00037038204
224	0x346147b7	2.0980848e-07
225	0x38fb5aa1	0.000119854936
226	0x38ab0764	8.155292e-05
227	0x341b4234	1.4459584e-07
228	0x393f614c	0.00018251425
229	0x3a14cd03	0.0005676301
230	0x39983da0	0.00029037613
231	0x39a83a3b	0.00032086842
232	0x363a9e7d	2.7808412e-06
233	0x3963523c	0.00021679042
234	0x38b2a55e	8.5185035e-05
235	0x3928e2fc	0.00016106287
236	0x39dc319e	0.00041998638
237	0x36ff37b4	7.606077e-06
238	0x399c958e	0.00029866066
239	0x3992241e	0.000278742
240	0x371e1241	9.421784e-06
241	0x3447c9ca	1.860673e-07
242	0x3a18433f	0.00058083603
243	0x39a31c9a	0.00031111093
244	0x393ee3f6	0.00018204734
245	0x39f2b44b	0.00046292166
246	0x399ba450	0.00029686326
247	0x3980adc2	0.00024543522
248	0x39df7ea0	0.00042628217
249	0x380eb28c	3.4021723e-05
250	0x3a0436cb	0.0005043565
251	0x3747ef28	1.1917007e-05
252	0x37a7d5a4	2.0007436e-05
253	0x345a30df	2.0320611e-07
254	0x38af023a	8.345065e-05
255	0x374fd405	1.2387526e-05
