Results/CA/Ablation experiments/Frequency_domain/best.pt (torch, 531579 bytes, 88 tensors)

exp_avg f4 [27, 9]
0	0x3b3012ba	0.002686663
1	0xbbb873af	-0.005629025
2	0x3bef33e6	0.007299888
3	0x3c322fa8	0.01087562
4	0x3bdd1640	0.006747037
5	0x37cf161f	2.4686624e-05
6	0xbb675ba9	-0.0035302436
7	0x3c2e6af2	0.010645615
8	0x3c91e44b	0.017809054
9	0xb953043d	-0.00020124107
10	0x39925f83	0.00027918452
11	0xbb8b3ac8	-0.0042489506
12	0x3b940903	0.004517676
13	0x39e55632	0.00043742504
14	0x3a96b036	0.0011496607
15	0xba302594	-0.0006719467
16	0x3b275a0e	0.0025535855
17	0x3bc35f04	0.0059622545
18	0xba73d5bf	-0.0009301565
19	0x3b505f06	0.003179492
20	0xbb8df987	-0.0043327245
21	0xbb7d3676	-0.0038637198
22	0xbb32e2c7	-0.0027295814
23	0xbaa7094b	-0.0012743858
24	0x3a9d5882	0.0012004527
25	0xbba1695a	-0.004925889
26	0xbc1ec410	-0.0096903
27	0x3afe90bd	0.0019421797
28	0x3a7a0586	0.0009537566
29	0x39f10672	0.00045971904
30	0xbbb5c7f3	-0.0055475174
31	0xbb3f5721	-0.002919622
32	0x3a83042a	0.0009995748
33	0x3b595368	0.0033161286
34	0xbc00176a	-0.007818082
35	0xbbe0f340	-0.006864935
36	0x3b28f9b3	0.0025783598
37	0xbbbfbd9a	-0.0058514597
38	0x3c206a15	0.009790917
39	0xbb0684d4	-0.002052595
40	0x3b26e240	0.0025464445
41	0xb942230b	-0.00018514336
42	0x3b3d38ee	0.0028873044
43	0x3b0eda1c	0.0021797484
44	0xb9e11f15	-0.00042938502
45	0xba0f7de8	-0.00054737786
46	0x391d0bb0	0.0001497704
47	0x3bbcc96e	0.005761317
48	0xbac4674b	-0.0014984397
49	0x3b0839f7	0.0020786503
50	0xba8ab8dc	-0.0010583657
51	0xbb24d4ee	-0.002515133
52	0xba77d40a	-0.00094538985
53	0x3b8d397c	0.004309831
54	0xbba7c19c	-0.0051195156
55	0x3b156c90	0.0022800304
56	0x3bb754ab	0.00559481
57	0xbc2146f6	-0.009843579
58	0x38dce480	0.00010532979
59	0xbb9c9b1e	-0.0047792336
60	0xbb2b5035	-0.0026140336
61	0xbb8f66c8	-0.004376266
62	0xbc34de34	-0.0110393055
63	0x3ac026f8	0.0014660051
64	0x3ab82be0	0.0014051162
65	0xbb24fa47	-0.002517359
66	0xbbb8f10d	-0.00564397
67	0xba8254db	-0.0009943502
68	0x3887798d	6.459942e-05
69	0x3b00851e	0.0019610594
70	0xbba6d25e	-0.0050909957
71	0xbaee3feb	-0.0018177008
72	0xbac00576	-0.0014650065
73	0xbb074d18	-0.0020645317
74	0x3bab34a8	0.005224783
75	0xbb9ebc36	-0.004844214
76	0x3b3b8bcc	0.002861726
77	0x3af62ac9	0.0018781062
78	0x3ad38b69	0.001613957
79	0x3ade5fdd	0.0016965825
80	0x3bf73db3	0.007545197
81	0xbad99f51	-0.0016603266
82	0xbb400984	-0.0029302547
83	0x3bbcfce6	0.0057674525
84	0xbaf17ab2	-0.0018423407
85	0xba40846d	-0.0007343952
86	0x3b4c9493	0.0031216487
87	0xba578359	-0.00082211714
88	0x3b0e3c49	0.0021703413
89	0x3ad3c7eb	0.0016157603
90	0x3988d69b	0.00026099835
91	0x3955506a	0.0002034322
92	0xbaa861fc	-0.0012846584
93	0xba884fa5	-0.0010399712
94	0xbb734cbf	-0.0037124602
95	0x3afbf6d1	0.0019223337
96	0x3a0c5641	0.0005353429
97	0xbac42aef	-0.0014966408
98	0xbb4086c0	-0.0029377192
99	0x3b146323	0.0022642098
100	0xbaf8e55f	-0.0018989256
101	0x3bab4152	0.0052262926
102	0xbaa1f474	-0.0012356178
103	0x3aa5171c	0.0012595388
104	0x3a346676	0.0006881723
105	0x3ba86490	0.005138941
106	0xbb7e5e32	-0.003881347
107	0x3be12435	0.0068707713
108	0xb9801301	-0.00024428222
109	0xba973cf3	-0.001153855
110	0x3a1f4476	0.000607557
111	0xbac40a74	-0.0014956729
112	0x3ad47868	0.00162102
113	0x3a860383	0.0010224435
114	0xbacbf16f	-0.0015559624
115	0x3b236632	0.002493274
116	0xba471636	-0.0007594557
117	0xbbd840a0	-0.006599501
118	0xbab66ec3	-0.0013918508
119	0x3bb025ef	0.005375616
120	0x3b56a460	0.0032751784
121	0x3ba5550c	0.005045539
122	0x39af4e3d	0.00033436893
123	0x3c0973fc	0.008389469
124	0x3bf32048	0.0074196197
125	0x3c4ec582	0.012620332
126	0xba84466a	-0.0010091786
127	0xb985f0fb	-0.0002554728
128	0x3b1c4eaa	0.0023850598
129	0xbac7315d	-0.0015197207
130	0xbae7a5db	-0.001767333
131	0x3ac038ed	0.0014665403
132	0x3a0fc249	0.0005483968
133	0xb8e5db6a	-0.0001096044
134	0x3b6f489c	0.0036511784
135	0xb98d761f	-0.00026981623
136	0xbab1254a	-0.0013515141
137	0xbb3cc4ce	-0.0028803828
138	0xbae35eeb	-0.0017347013
139	0xbac20ed1	-0.0014805441
140	0x39e0abc3	0.00042852582
141	0xbb56f235	-0.0032798175
142	0x3aafa7a7	0.0013401405
143	0xbb7fa9f8	-0.0039011221
144	0x39a38473	0.00031188465
145	0xbb0cf7e5	-0.0021510061
146	0x3b5c3ef4	0.003360686
147	0xb7aed58e	-2.084186e-05
148	0x37871418	1.6102611e-05
149	0x38110f64	3.4585028e-05
150	0x3a4bd2b1	0.0007775231
151	0xba5f6337	-0.0008521559
152	0x3a09f80c	0.0005263097
153	0xbb614d6c	-0.0034378422
154	0xba33a8dd	-0.00068534707
155	0xbb9813ab	-0.0046410165
156	0x3b7879f4	0.0037914487
157	0x3b47fb3d	0.003051474
158	0xba138fa9	-0.0005629012
159	0x3c12010b	0.0089113815
160	0x3b945bf1	0.004527562
161	0x3c0083c0	0.007843912
162	0x39061d0f	0.00012790061
163	0xbbc2aaab	-0.0059407554
164	0x3b863077	0.004095133
165	0x399d81da	0.0003004212
166	0x3bef16d3	0.007296422
167	0xb9de0a6a	-0.000423509
168	0xbb4b9d76	-0.0031069196
169	0x3ade8f44	0.0016979952
170	0x3b87e89c	0.0041476022
171	0x398a1980	0.0002634041
172	0x3b69657a	0.0035613463
173	0xbb7fd12d	-0.003903459
174	0x39f13a0f	0.0004601036
175	0xbc171b67	-0.009222842
176	0xbab49297	-0.0013776597
177	0xbba02c67	-0.0048881057
178	0x3a71f694	0.00092301634
179	0xbb92411c	-0.004463328
180	0xbc29a423	-0.010354075
181	0xbba8c5a9	-0.005150516
182	0x3be619fd	0.007022141
183	0xba106e75	-0.00055096234
184	0x3b91a2e0	0.004444465
185	0xbab5bd71	-0.0013865662
186	0xbb00a032	-0.0019626734
187	0x3c705934	0.014669705
188	0x3baed52f	0.005335472
189	0xbb910675	-0.0044258186
190	0xbbc80069	-0.0061035645
191	0x3bf33998	0.007422637
192	0xba25bc4c	-0.0006322309
193	0xbaf40b3f	-0.0018619074
194	0xb9d0e34d	-0.00039842204
195	0xbc057200	-0.0081448555
196	0x3c01d009	0.007923135
197	0x3c065540	0.008199036
198	0xbc19452c	-0.009354871
199	0xbbd6915e	-0.006548091
200	0x3c1fb068	0.009746648
201	0xba4e25ea	-0.0007863926
202	0x3b349e01	0.0027559998
203	0x3b3f652b	0.0029204588
204	0xbb45b0d2	-0.0030165208
205	0x3c3ca19a	0.011513138
206	0x3c340093	0.010986465
207	0x3a7ea76c	0.0009714279
208	0x3b1b510b	0.0023699428
209	0xbb796c61	-0.0038058984
210	0xbacc1afa	-0.0015572004
211	0xbac02c17	-0.0014661577
212	0xbb69039a	-0.0035555125
213	0xbabe3316	-0.0014511074
214	0xb9c5a2a2	-0.0003769594
215	0xbba25b9a	-0.0049547674
216	0x3b7c8482	0.003853113
217	0x3bb4745d	0.0055070356
218	0xbbb4ee34	-0.00552156
219	0x3ad132c7	0.0015960567
220	0xbbdfe42a	-0.006832619
221	0x3aaf771a	0.0013386935
222	0x3ad55fc9	0.0016279157
223	0xbbe30f5c	-0.006929321
224	0xbbbd73ca	-0.0057816254
225	0x3b3f32ea	0.0029174634
226	0xbaf18775	-0.001842721
227	0xbab0a3f6	-0.0013476599
228	0x3aacf8ec	0.0013196743
229	0x39a9253d	0.00032261937
230	0x3b0c4a5b	0.0021406624
231	0xbada3e87	-0.0016650715
232	0x3afca9b0	0.0019276645
233	0x3b2d5f00	0.002645433
234	0x3b8eb31c	0.0043548476
235	0x3b80c258	0.0039294176
236	0xbbb54e16	-0.00553299
237	0x3a307829	0.00067317724
238	0xbacc2af1	-0.0015576762
239	0xba92221f	-0.0011149085
240	0x3b5b7e3c	0.003349199
241	0xbb50cad3	-0.0031859174
242	0xbbe05d42	-0.0068470547

exp_avg_sq f4 [27, 9]
0	0x3b84a5a2	0.0040480653
1	0x3b658246	0.0035020276
2	0x3b3e5386	0.0029041483
3	0x3af69a0e	0.0018814222
4	0x3b377e9a	0.0027999044
5	0x3b4d290f	0.003130499
6	0x3ba386ed	0.0049904496
7	0x3b59e9a4	0.0033250833
8	0x3b6cb84b	0.003612059
9	0x39718131	0.00023031679
10	0x3970dc04	0.00022970146
11	0x3a321d7b	0.0006794554
12	0x39b2a094	0.00034070446
13	0x395977a3	0.00020739301
14	0x390b2ace	0.00013272019
15	0x392d6c7d	0.0001653898
16	0x39086936	0.00013009165
17	0x392c18d0	0.00016412442
18	0x3a78c99a	0.000949049
19	0x3a2ade81	0.0006518141
20	0x3a135cee	0.00056214526
21	0x39d909c1	0.00041396733
22	0x3a281fd0	0.0006413432
23	0x3a3aa1c2	0.00071194407
24	0x3a9ab996	0.0011804576
25	0x3a65f9e6	0.00087728945
26	0x3a64e2c4	0.00087313005
27	0x3983727d	0.00025071568
28	0x39501969	0.00019845892
29	0x39a06012	0.00030589156
30	0x3947de00	0.0001906082
31	0x398f1f3f	0.00027298366
32	0x399ee519	0.000303068
33	0x3a1f274e	0.00060712255
34	0x39f3e904	0.00046522182
35	0x3a353541	0.00069125375
36	0x3b398cfa	0.0028312788
37	0x3b066eaa	0.0020512738
38	0x3b1289a9	0.0022359884
39	0x3ab59f02	0.0013856592
40	0x3ad3d201	0.0016160609
41	0x3ac29e8d	0.0014848277
42	0x3b164097	0.0022926682
43	0x3ae327a6	0.0017330542
44	0x3ad2765a	0.0016057
45	0x38ee8fd4	0.000113755144
46	0x38d836d5	0.00010309896
47	0x393e2961	0.00018135227
48	0x38a95e1f	8.0760794e-05
49	0x38c22106	9.256792e-05
50	0x38bfe16b	9.149577e-05
51	0x391025a0	0.00013746927
52	0x38f42ff4	0.000116437586
53	0x39332c85	0.00017087355
54	0x3a6c4d3b	0.0009014194
55	0x3a7670f4	0.00094009866
56	0x3ac9c187	0.0015392759
57	0x3a6d2c0d	0.00090473966
58	0x3a8cb6f4	0.0010735677
59	0x3a9949cf	0.001169497
60	0x3aae0b03	0.0013278428
61	0x3a8331fb	0.0010009402
62	0x3a91f808	0.0011136541
63	0x3a10beae	0.00055215776
64	0x3a0a3b1c	0.000527309
65	0x3a02057b	0.0004959923
66	0x39aec448	0.00033334107
67	0x39e41f85	0.00043511033
68	0x39facd42	0.00047836645
69	0x3a67d99b	0.00088443764
70	0x3a1f8292	0.0006084825
71	0x3a45d620	0.0007546861
72	0x3947c0d9	0.0001904996
73	0x3917e9c3	0.00014487565
74	0x393cda00	0.00018010288
75	0x391b53a8	0.00014813116
76	0x39527885	0.00020072058
77	0x39806281	0.00024487454
78	0x3a20819b	0.00061228283
79	0x3a02cbc0	0.00049894676
80	0x3a5b57fa	0.00083672965
81	0x39cd4eab	0.0003915926
82	0x39d02cba	0.00039706175
83	0x3a2bfb09	0.00065605395
84	0x39978944	0.00028903235
85	0x397782b6	0.00023604449
86	0x3954ce38	0.00020294718
87	0x39db6948	0.00041849376
88	0x3a8e298f	0.0010846126
89	0x3a111439	0.00055343244
90	0x396a9703	0.00022372235
91	0x392e2261	0.0001660674
92	0x393aae53	0.00017803283
93	0x38e76e00	0.000110354275
94	0x39188ffc	0.00014549488
95	0x38ec47ea	0.00011266752
96	0x3994446b	0.00028279735
97	0x3a22419b	0.00061895855
98	0x39a814ec	0.00032059045
99	0x39a98912	0.00032336317
100	0x39834e80	0.00025044754
101	0x39c4ef9e	0.00037562562
102	0x396bde83	0.00022494239
103	0x398f7b69	0.00027367033
104	0x39807ef3	0.00024508647
105	0x39f91083	0.00047505283
106	0x3a756e4c	0.0009362444
107	0x3a86c10c	0.0010280921
108	0x39fb7d7b	0.0004796794
109	0x39733ecf	0.00023197684
110	0x398ecad3	0.00027235466
111	0x395dd377	0.00021154979
112	0x39899d50	0.00026247883
113	0x391fad6b	0.00015228025
114	0x3a00041b	0.0004883424
115	0x3ac6d869	0.0015170696
116	0x39d2687b	0.00040132165
117	0x39feab77	0.00048574407
118	0x3a3ba2c4	0.0007157738
119	0x3a85bc10	0.0010203142
120	0x39d556c3	0.00040691168
121	0x39b2d0a3	0.00034106252
122	0x39bc2b59	0.0003589045
123	0x3a77158a	0.0009425512
124	0x3a85b5e5	0.0010201304
125	0x3a83157d	0.0010000911
126	0x3986b2a2	0.00025691563
127	0x392c477e	0.00016429831
128	0x3972327f	0.0002309773
129	0x39188bbd	0.00014547906
130	0x390f43d9	0.00013662818
131	0x38cdf6b7	9.821116e-05
132	0x39b04d91	0.00033627127
133	0x3a5ab31f	0.0008342731
134	0x39c3892c	0.000372955
135	0x39b64a70	0.00034769205
136	0x3995f7d8	0.00028604153
137	0x39eb0e45	0.00044833325
138	0x399df35d	0.00030126693
139	0x3972225f	0.00023091723
140	0x3977e6bf	0.00023641715
141	0x3a1197f9	0.0005553957
142	0x3a6c20c8	0.00090075703
143	0x3a7da1de	0.0009675304
144	0x3970e3c6	0.00022973036
145	0x394ab215	0.00019330562
146	0x3984c5ce	0.00025324378
147	0x39462a70	0.0001889856
148	0x3968a62e	0.00022187151
149	0x3915cd2f	0.00014286184
150	0x39d39cc6	0.00040361861
151	0x3a24024e	0.0006256447
152	0x39f2968f	0.00046270012
153	0x39ba99a3	0.00035591153
154	0x397ea5b8	0.00024285063
155	0x39b5ff86	0.0003471339
156	0x3926ba5a	0.00015900415
157	0x395dd337	0.00021154886
158	0x3978dcf5	0.00023733436
159	0x3a1df09a	0.0006024927
160	0x3a83a343	0.0010043163
161	0x3a007d42	0.00049014774
162	0x39ebb74a	0.00044959254
163	0x39ae760e	0.00033275824
164	0x39f94574	0.00047544728
165	0x396ea883	0.00022760224
166	0x399b323a	0.00029601326
167	0x39085c18	0.00013004278
168	0x3981d77e	0.00024765352
169	0x3a67631a	0.0008826718
170	0x39498538	0.00019218482
171	0x3a15ef19	0.0005719527
172	0x39e066c2	0.0004280117
173	0x3a2b5316	0.0006535513
174	0x39c0a42a	0.00036743406
175	0x39b8b2c1	0.00035228397
176	0x395877bb	0.00020643968
177	0x39bc54c6	0.00035921315
178	0x3ab21799	0.0013587355
179	0x39ab93f8	0.00032725907
180	0x39b0a8de	0.00033695152
181	0x399215bf	0.00027863492
182	0x39f7a821	0.00047236777
183	0x39a530b1	0.0003150753
184	0x39764d7e	0.00023489256
185	0x38f28603	0.00011564421
186	0x392c1e7d	0.00016414556
187	0x3a2aacec	0.0006510753
188	0x3939663e	0.00017681063
189	0x3a459461	0.0007537064
190	0x39d9987e	0.0004150308
191	0x3a634e98	0.0008671074
192	0x3a0c6c2d	0.00053566956
193	0x39f36f00	0.00046431273
194	0x396cbdc2	0.00022577404
195	0x39ad97e0	0.00033110287
196	0x3ad46b2d	0.0016206257
197	0x39c7a969	0.00038082458
198	0x3a4579eb	0.0007533121
199	0x3a34a56b	0.0006891104
200	0x3a97f372	0.0011592938
201	0x3a268295	0.00063518557
202	0x3a1076c0	0.0005510859
203	0x397f6910	0.00024357834
204	0x3992af3a	0.00027977844
205	0x3ab00eed	0.0013432183
206	0x39b0e459	0.00033739468
207	0x39c1154c	0.00036827696
208	0x397c04ce	0.00024034383
209	0x39a215b3	0.00030915215
210	0x396f824b	0.00022841354
211	0x39692483	0.00022234213
212	0x38f0660a	0.00011463098
213	0x393971b9	0.0001768534
214	0x3a3e42fe	0.00072579074
215	0x393d9283	0.00018079024
216	0x397c2f2b	0.00024050164
217	0x3921172f	0.00015362793
218	0x395abd14	0.00020860537
219	0x39058604	0.00012733793
220	0x394f9661	0.00019797079
221	0x38a1e70e	7.7201155e-05
222	0x390e3552	0.00013562039
223	0x3a0ec3ff	0.0005446076
224	0x390082d6	0.00012255771
225	0x3adadb89	0.0016697507
226	0x3a7fce42	0.0009758213
227	0x3ac1581b	0.0014750989
228	0x3a46a124	0.00075771124
229	0x3a22e125	0.0006213359
230	0x39b40a4d	0.0003433995
231	0x3a264f7f	0.00063442433
232	0x3b6593c7	0.003503071
233	0x3a066097	0.00051260873
234	0x39c8648a	0.0003822188
235	0x399136d7	0.00027697414
236	0x39de38b3	0.00042385384
237	0x3984ad9f	0.0002530636
238	0x398b3b82	0.00026556483
239	0x38e66338	0.000109857356
240	0x392dbc13	0.00016568629
241	0x3a44b142	0.000750322
242	0x39213a12	0.0001537579

exp_avg f4 [27]
0	0x3c336e40	0.010951579
1	0x3a96963e	0.0011488867
2	0xbba599f1	-0.0050537516
3	0xbb80a394	-0.00392575
4	0x3b3e2c98	0.002901828
5	0x3a4eb0f3	0.0007884644
6	0xbc02d93e	-0.007986365
7	0xbab3823b	-0.0013695428
8	0x3a530e5a	0.000805115
9	0xaf782cef	-2.2571432e-10
10	0x2fe020c0	4.0768633e-10
11	0xae98b91f	-6.945044e-11
12	0x2f86e7d9	2.4539196e-10
13	0xb018abac	-5.554124e-10
14	0x2f974409	2.7515082e-10
15	0x2f16bd41	1.3709657e-10
16	0xae096ee2	-3.1248677e-11
17	0x2f1efb51	1.4459302e-10
18	0x3c56c6d9	0.013108932
19	0x3cfcd180	0.030861616
20	0x3d1f7f57	0.0389398
21	0x3dbb9836	0.09159891
22	0x3d862aea	0.06551154
23	0xbc2f48c2	-0.010698499
24	0xbcc165ec	-0.02360817
25	0x3ccefdcc	0.025267504
26	0xbcd6e13d	-0.026230449

exp_avg_sq f4 [27]
0	0x3aec9ce6	0.001805213
1	0x396659ef	0.00021968012
2	0x39ae1743	0.00033205198
3	0x390b9644	0.00013312051
4	0x3a82d425	0.0009981437
5	0x3862d3db	5.4079905e-05
6	0x3a5d1766	0.00084339676
7	0x396efa77	0.00022790754
8	0x38cf2926	9.878194e-05
9	0x245e78f0	4.8241015e-17
10	0x240930d5	2.9748502e-17
11	0x244184f4	4.196282e-17
12	0x241ce325	3.4019507e-17
13	0x24a733ed	7.251267e-17
14	0x23c7d4cc	2.1665746e-17
15	0x2450f846	4.5313106e-17
16	0x243e9950	4.1329543e-17
17	0x24717f0d	5.236616e-17
18	0x3be35ebb	0.006938783
19	0x3ce1dab3	0.027570104
20	0x3c9b2281	0.018937351
21	0x3d3bd036	0.045852862
22	0x3d4d5017	0.050125208
23	0x3cb22fec	0.021751367
24	0x3c161dff	0.009162425
25	0x3cb38af6	0.021916848
26	0x3c725e76	0.014793029

exp_avg f4 [9, 9]
0	0x3b4f5cf1	0.003164109
1	0x3c2c86db	0.010530199
2	0xb9d89476	-0.00041309342
3	0x3c15ba8c	0.0091387145
4	0xbbad89df	-0.0052959765
5	0x3b085518	0.0020802673
6	0xbb8cf32a	-0.0043014484
7	0x3c22231b	0.009896065
8	0x39dba0cb	0.00041890735
9	0xbc27d769	-0.010244229
10	0xbc107e41	-0.008819164
11	0x3b193488	0.0023377258
12	0xbc28ecca	-0.010310361
13	0x3c2e3834	0.010633517
14	0xbc18aa9b	-0.009318019
15	0x3afe50a5	0.0019402696
16	0xbb4588de	-0.0030141394
17	0xbba9361e	-0.005163922
18	0xbbb83473	-0.005621487
19	0xbb926379	-0.0044674245
20	0x3bebebd5	0.007199744
21	0x3b1ad1ce	0.0023623588
22	0x3c8985c8	0.016787425
23	0x3ad8ac37	0.0016530816
24	0xbb20e1b1	-0.0024548585
25	0xbbb981f8	-0.0056612454
26	0xbb22d3de	-0.002484552
27	0xbb04d10a	-0.0020266199
28	0xbbd1af4e	-0.006399072
29	0xbb9e1e0c	-0.004825359
30	0xbc14d9f9	-0.009085172
31	0xbb77d458	-0.0037815776
32	0xbb67ec97	-0.0035388821
33	0x3b3bdf4c	0.002866703
34	0xbac01a6d	-0.0014656313
35	0x3b0c0d85	0.0021370363
36	0xb92d017a	-0.00016499116
37	0x3bd3912e	0.0064565158
38	0x3ba69f1a	0.0050848844
39	0x3c0ab01e	0.008464841
40	0x3be31389	0.006929819
41	0x3b592ec6	0.0033139451
42	0xbb95d8d7	-0.0045729685
43	0x3a442c6d	0.00074834266
44	0xbb8a197a	-0.004214463
45	0xbb00b7e0	-0.0019640848
46	0x3be82878	0.0070849024
47	0x3b5a922f	0.0033351292
48	0x3be27c9c	0.0069118273
49	0x3b4bf1d7	0.003111949
50	0xba2fa96f	-0.0006700968
51	0xbbac9e7f	-0.0052679176
52	0x3bd12a32	0.006383204
53	0xbbaa4a40	-0.0051968396
54	0xbbb442df	-0.0055011357
55	0xbc426967	-0.01186595
56	0xbb288754	-0.0025715427
57	0xbc94acef	-0.018148867
58	0xbb75d453	-0.0037510588
59	0xbc6218d5	-0.013799866
60	0x3be4e5a0	0.0069853812
61	0xbac5f5b3	-0.0015103131
62	0xba4bd99d	-0.00077762624
63	0x3c81f7b8	0.015865192
64	0xbac64510	-0.0015126783
65	0xbc95177f	-0.01819968
66	0xbbb328a2	-0.0054674903
67	0xbcc71fea	-0.02430721
68	0x3c1b75e1	0.009488554
69	0x3c0baa06	0.008524423
70	0xbb7b9121	-0.0038386064
71	0x3c826a0f	0.015919713
72	0x3c04af35	0.008098413
73	0x3bd8c0af	0.0066147665
74	0xb9c64207	-0.00037814697
75	0x3bdf1e1e	0.00680901
76	0xbb747392	-0.003730033
77	0x3c0b76a5	0.008512174
78	0xbb0b1f2c	-0.0021228297
79	0xbb806f96	-0.003919552
80	0x3a9ec2b4	0.0012112469

exp_avg_sq f4 [9, 9]
0	0x3a453090	0.000752219
1	0x3a9b777c	0.0011861171
2	0x3adc6664	0.0016815183
3	0x3af9d9e7	0.0019062132
4	0x3a9faf4b	0.0012182979
5	0x39dfe370	0.0004270333
6	0x39cacf23	0.0003868277
7	0x3a610319	0.00085835304
8	0x3a9ff529	0.0012203801
9	0x3ab22d52	0.0013593829
10	0x3b143f91	0.0022620896
11	0x3b63363b	0.0034669775
12	0x3b86674b	0.004101669
13	0x3b2a0592	0.0025943262
14	0x39f9c494	0.00047639443
15	0x3a8c6423	0.0010710995
16	0x3b49dc0c	0.0030801324
17	0x3b1d127e	0.002396732
18	0x3a893443	0.0010467846
19	0x3ae301b7	0.0017319237
20	0x3b1415cc	0.0022596
21	0x3b2a4d4a	0.002598601
22	0x3b101267	0.0021983625
23	0x3a0a7cd5	0.00052828836
24	0x3a3793c8	0.0007002917
25	0x3ac08619	0.0014688402
26	0x3b0ab874	0.0021167072
27	0x39fb53ab	0.00047936788
28	0x3a1f8cde	0.00060863595
29	0x3a7e90b8	0.0009710896
30	0x3a9a8722	0.001178954
31	0x3a4c28ce	0.0007788063
32	0x399a9aef	0.00029488603
33	0x39cdc3e6	0.00039246603
34	0x3a0844cf	0.00051982416
35	0x3a217cb0	0.00061602425
36	0x39cd6fb7	0.0003918388
37	0x3a2342db	0.0006227919
38	0x3a8a5a46	0.0010555468
39	0x3ab05d08	0.001345546
40	0x3a5a3e44	0.00083253183
41	0x398e3e0d	0.00027130582
42	0x39c0487d	0.00036675102
43	0x39b56336	0.00034596928
44	0x3a167af1	0.00057403656
45	0x39d7b373	0.00041141696
46	0x3a11b8f7	0.0005558873
47	0x3a5e8305	0.00084881514
48	0x3aa039c2	0.0012224244
49	0x39f94b98	0.00047549303
50	0x39850812	0.0002537375
51	0x39bd28cb	0.00036079282
52	0x3a2a24ee	0.00064904883
53	0x39e45f1f	0.0004355842
54	0x3ab470f1	0.0013766569
55	0x3b02aa95	0.00199381
56	0x3b0810fa	0.0020762072
57	0x3b5615a7	0.0032666714
58	0x3b117b70	0.0022198819
59	0x3a858aa0	0.0010188408
60	0x3a28072b	0.00064097595
61	0x3a41978b	0.00073849474
62	0x3b16a772	0.0022987989
63	0x3b1ecad5	0.0024229784
64	0x3b066b52	0.0020510745
65	0x3b420bf6	0.002960918
66	0x3b79df04	0.0038127312
67	0x3b06e480	0.0020582974
68	0x3aed38b3	0.0018098563
69	0x3a71acc8	0.0009219167
70	0x3a5cba41	0.0008420088
71	0x3ad680cf	0.0016365292
72	0x3a8ab927	0.0010583744
73	0x3aa17afd	0.0012319979
74	0x3a9f4355	0.0012150804
75	0x3b0e8a9f	0.0021750105
76	0x3a112c6d	0.0005537931
77	0x3a7f35d8	0.00097355014
78	0x399bf862	0.00029748963
79	0x3a1006c6	0.00054941734
80	0x39f272e2	0.0004624343

exp_avg f4 [9]
0	0x3c958a45	0.018254409
1	0xbd82c18e	-0.06384574
2	0xbb0dc024	-0.0021629417
3	0xbd20bd00	-0.039242744
4	0x3d243078	0.040085286
5	0x3b2c0bb2	0.0026252088
6	0xbdbfe111	-0.093691
7	0x3d2d9e30	0.042387187
8	0x3d86d752	0.06584038

exp_avg_sq f4 [9]
0	0x3cff4a54	0.031163372
1	0x3c9901f7	0.018677695
2	0x3cf45437	0.029825313
3	0x3ca0fe23	0.019652432
4	0x3ca00198	0.01953201
5	0x3cb05c37	0.021528346
6	0x3dca2b18	0.09871501
7	0x3e1a05f3	0.15041332
8	0x3db884e7	0.09009724

exp_avg f4 [2048, 9]
0	0x3aa8d38f	0.0012880432
1	0xbb2daaf0	-0.0026499592
2	0x399fea3d	0.00030501364
3	0x39af44e3	0.00033429926
4	0xb9c6880c	-0.00037866866
5	0x38886309	6.503432e-05
6	0x3a7dac4d	0.0009676859
7	0xb9e5c309	-0.00043823596
8	0x3a464b63	0.0007564334
9	0x39604cd0	0.0002139092
10	0xbad91ef8	-0.0016565016
11	0x3ad49335	0.0016218188
12	0x3a752f7a	0.0009353083
13	0xba965412	-0.0011469147
14	0x37d7b967	2.5716332e-05
15	0x3a493fa4	0.00076770247
16	0x396a188e	0.00022325126
17	0xba179601	-0.0005782545
18	0xae0b85ce	-3.1723783e-11
19	0xad8b14b6	-1.5811668e-11
20	0x2e2c8997	3.9230477e-11
21	0x2f6c643c	2.1499685e-10
22	0x2d276182	9.514502e-12
23	0xade7b554	-2.6342185e-11
24	0xaf34ad72	-1.6432525e-10
25	0xad02606d	-7.411055e-12
26	0xae260237	-3.7745997e-11
27	0xba0739a5	-0.0005158431
28	0xb9672c29	-0.00022046328
29	0x3a010a03	0.00049224513
30	0xbb1b4803	-0.0023694045
31	0x3a80d599	0.0009829282
32	0xbaa2d502	-0.00124231
33	0x3a5fd433	0.0008538395
34	0x3a914aa7	0.001108487
35	0x3aea4b9b	0.0017875315
36	0xb9007ea6	-0.00012254211
37	0x39f20eb2	0.00046168786
38	0xb9b74ec0	-0.00034963153
39	0x3858a905	5.1655825e-05
40	0xba0f09bb	-0.0005456467
41	0x39ff1757	0.0004865478
42	0xb9dc9ae8	-0.00042077084
43	0x39bf1b5e	0.0003645075
44	0x385163be	4.9922375e-05
45	0x3ac45c59	0.0014981135
46	0x3a26af5f	0.000635853
47	0xbab4d301	-0.0013795794
48	0xbb00a927	-0.0019632073
49	0x3ac1aa7f	0.0014775543
50	0xba90c6f5	-0.0011045622
51	0xbb75e185	-0.0037518453
52	0xbb0cc313	-0.0021478578
53	0x3bb33d1e	0.005469932
54	0xb8d9a3c1	-0.00010377868
55	0x3953d7a4	0.0002020286
56	0xb8a1ced8	-7.715606e-05
57	0xb752e0fa	-1.2569357e-05
58	0xb80fc81a	-3.4280216e-05
59	0x37c98e8e	2.402745e-05
60	0xb7769888	-1.4698257e-05
61	0x371c1a47	9.304443e-06
62	0xb7be36fb	-2.2675367e-05
63	0x3a6671ca	0.00087907596
64	0xba0faba5	-0.0005480594
65	0xb96b5b2a	-0.00022445308
66	0x3992ad92	0.0002797661
67	0x39affe14	0.00033567904
68	0xb9d3d699	-0.00040404944
69	0x3828260c	4.0089755e-05
70	0xba1ae36f	-0.0005908524
71	0x380d8e92	3.37498e-05
72	0xb8cf4070	-9.8825316e-05
73	0x3a0f5555	0.00054677326
74	0xbaaa2dc1	-0.0012983606
75	0xb984905a	-0.00025284552
76	0x3a1893a7	0.0005820342
77	0xba15c113	-0.0005712669
78	0x38d7f219	0.00010297093
79	0x3a4dde40	0.0007853247
80	0x39c6cd6b	0.0003791855
81	0x3a60cc4a	0.00085753633
82	0xbb0777d9	-0.00206708
83	0xb94f6b22	-0.00019780968
84	0x3a89aa7a	0.0010503076
85	0xb9f54f0d	-0.0004678894
86	0x389f7be7	7.6047894e-05
87	0x3a82317c	0.000993296
88	0xb81d1080	-3.7447084e-05
89	0x36b88a43	5.499723e-06
90	0x3b2d5f93	0.0026454672
91	0xba3452c4	-0.0006878788
92	0xba3e5929	-0.00072612107
93	0xbade8642	-0.0016977268
94	0x39c254db	0.00037065786
95	0x390d0a54	0.00013450655
96	0x3aafd640	0.0013415292
97	0xba2ea7e1	-0.0006662589
98	0xb8da5826	-0.00010411469
99	0x3a983247	0.0011611664
100	0x3b72fc27	0.0037076564
101	0xbb6d2698	-0.0036186334
102	0xba3b915a	-0.0007155143
103	0x39fdfb72	0.00048443262
104	0x39c1cb17	0.00036963142
105	0xbb458cdc	-0.0030143773
106	0x3a64e59d	0.0008731725
107	0xb90512f9	-0.00012690936
108	0xba051ea4	-0.0005078113
109	0x3b021920	0.0019851401
110	0xbaa1393e	-0.0012300385
111	0xb9e10225	-0.00042916942
112	0xba9e2829	-0.0012066412
113	0x3ae016e2	0.0017096663
114	0xbabe321e	-0.0014510786
115	0xba51150a	-0.00079758523
116	0x3a88ab93	0.001042711
117	0x39a90d1a	0.00032243953
118	0xba9cc384	-0.0011960124
119	0xb9374b4e	-0.00017480293
120	0x3ab2cac4	0.0013640751
121	0xb9afc139	-0.00033522563
122	0xb8784485	-5.919162e-05
123	0x3a87db62	0.0010365064
124	0xba6cc4a3	-0.00090319867
125	0xb970f125	-0.00022978017
126	0x37f270a9	2.890111e-05
127	0x381a1930	3.673992e-05
128	0xb8844a31	-6.30807e-05
129	0x38432f8f	4.6535915e-05
130	0x3793f3d2	1.7637303e-05
131	0x3846d24a	4.7402726e-05
132	0xb94aac21	-0.00019328344
133	0x380b471a	3.32064e-05
134	0x367e1235	3.7859547e-06
135	0x38a5c9d3	7.905406e-05
136	0xb85f1d77	-5.3194784e-05
137	0x387db5e3	6.0489296e-05
138	0x3a2aacdd	0.0006510744
139	0x38da4d01	0.00010409393
140	0x39542cad	0.00020234539
141	0x3a71863b	0.00092134223
142	0x3983c2a4	0.00025131286
143	0xbb082d83	-0.002077908
144	0x38886b0a	6.504923e-05
145	0x3701ac06	7.7290515e-06
146	0x3889bbbd	6.567638e-05
147	0xb872fad2	-5.793089e-05
148	0x389a02b3	7.343795e-05
149	0xb8957293	-7.126215e-05
150	0xb7c3f0f1	-2.3358009e-05
151	0xb8bed857	-9.1002024e-05
152	0x36eb2582	7.0079122e-06
153	0xbab17d2c	-0.0013541332
154	0x3b3ab599	0.0028489588
155	0xba8fbcec	-0.0010966337
156	0x39894d0d	0.00026188084
157	0xba27346a	-0.0006378355
158	0x395156e1	0.00019964158
159	0xbb1f46c6	-0.002430366
160	0xb95743ef	-0.00020529305
161	0x3a98e9a8	0.0011666315
162	0xbad44c27	-0.0016197012
163	0x3a93d9e1	0.0011280143
164	0x3a46ce43	0.0007583836
165	0x3a867dbb	0.0010260859
166	0x39030dd6	0.00012498288
167	0xbb1d8fc6	-0.0024041994
168	0xbb151cd8	-0.0022752788
169	0x3b569199	0.0032740592
170	0x39c780fc	0.0003805234
171	0x3ac2410e	0.0014820413
172	0x3a5f18cf	0.00085104717
173	0xba94406d	-0.0011310704
174	0xb9bdc9a7	-0.00036199132
175	0xb9e56123	-0.00043750656
176	0xb9e1b2d9	-0.00043048596
177	0xb9cefa93	-0.00039478074
178	0xba8fd824	-0.0010974449
179	0x3a7b1945	0.00095786556
180	0x39bab31e	0.00035610137
181	0xb9a72e4a	-0.0003188721
182	0xba5df176	-0.00084664614
183	0x39bff466	0.0003661245
184	0xb93be161	-0.0001791767
185	0x3a164861	0.0005732831
186	0xba40e0a3	-0.0007357692
187	0xb926ab0d	-0.00015894715
188	0x3a325666	0.00068030355
189	0x39670a8a	0.00022033803
190	0x3ac963bb	0.0015364805
191	0xbad28d55	-0.0016063849
192	0xb9dbfc50	-0.00041958923
193	0xba87b510	-0.0010353643
194	0xb9b3d918	-0.00034303288
195	0xb9ffb542	-0.00048772438
196	0x3a79307d	0.00095058215
197	0x3a883873	0.00103928
198	0x39833e01	0.00025032464
199	0x3891ab8c	6.946092e-05
200	0x3b00f6f6	0.001967845
201	0xba83bae9	-0.001005021
202	0xb82839f9	-4.0108313e-05
203	0xba51eafa	-0.00080077315
204	0xba5a270d	-0.0008321859
205	0x39431b7b	0.00018606886
206	0x39d78622	0.00041107932
207	0xb7612700	-1.34201255e-05
208	0xb99d080d	-0.00029951372
209	0x38b2bae5	8.522513e-05
210	0x361de2d1	2.3526848e-06
211	0xb9d5ee6f	-0.00040804173
212	0x39244713	0.00015666736
213	0x3a0be1c3	0.00053360703
214	0xba40da4c	-0.00073567475
215	0x3a045d4c	0.00050493027
216	0xba7ae700	-0.0009571165
217	0x3ae0953d	0.001713432
218	0xba42a6e5	-0.0007425382
219	0xba88859f	-0.0010415799
220	0xb9fcafb1	-0.00048196086
221	0x3aba1b1c	0.0014198753
222	0xba886a93	-0.0010407738
223	0x394e5758	0.00019678229
224	0x3a2b1875	0.00065267767
225	0x3931aa05	0.00016943373
226	0xba9d1f9f	-0.0011987573
227	0x3a345ebd	0.0006880572
228	0x39cc9bd9	0.00039026028
229	0xb9a0cd78	-0.00030670664
230	0x3b064067	0.0020485164
231	0xba39d499	-0.00070888695
232	0xba81886a	-0.0009882574
233	0xba026b20	-0.00049750693
234	0x3a774306	0.00094322895
235	0x3addece0	0.0016931556
236	0xba2cd9ec	-0.0006593752
237	0xb95bdd19	-0.00020967833
238	0x398301fa	0.0002498774
239	0x3993dc31	0.0002820208
240	0xbabefdb3	-0.0014571458
241	0xba5d02d8	-0.00084309047
242	0xba13eb8c	-0.0005642704
243	0xb95d4370	-0.00021101325
244	0xb991f9e3	-0.00027842735
245	0xba603fc9	-0.00085544266
246	0xb9c7c537	-0.00038103174
247	0x3982bd2f	0.00024936485
248	0x3a298745	0.0006466995
249	0x3995c4e8	0.000285662
250	0xba08663b	-0.0005203222
251	0x3a808409	0.0009804975
252	0xb9103631	-0.00013753098
253	0xba792ce7	-0.0009505287
254	0xb9ca4921	-0.00038582928
255	0xb75d1717	-1.31780025e-05

exp_avg_sq f4 [2048, 9]
0	0x37bb4513	2.2324302e-05
1	0x38d24472	0.00010026329
2	0x3800f15e	3.074237e-05
3	0x381f840b	3.803153e-05
4	0x37833a20	1.5643483e-05
5	0x37a4dfcd	1.9654539e-05
6	0x37b301f1	2.1339367e-05
7	0x377f17e5	1.5204748e-05
8	0x38483fb9	4.7743062e-05
9	0x37ec15bf	2.8143519e-05
10	0x394c3716	0.00019475477
11	0x39030905	0.00012496494
12	0x389f03f1	7.582445e-05
13	0x37dc442a	2.6257785e-05
14	0x378c9c50	1.676209e-05
15	0x380ad1dc	3.309721e-05
16	0x37781d63	1.4788794e-05
17	0x3866fce3	5.5071792e-05
18	0x311bfe12	2.269989e-09
19	0x3122b092	2.3674471e-09
20	0x3128c8c0	2.456133e-09
21	0x3135d810	2.6461784e-09
22	0x30eb6a56	1.7128723e-09
23	0x3112928f	2.1329105e-09
24	0x3175f460	3.5791103e-09
25	0x3112c3e5	2.135715e-09
26	0x312c8691	2.5105786e-09
27	0x38ab7755	8.176143e-05
28	0x390dcc7e	0.00013522987
29	0x3869c994	5.5739263e-05
30	0x39b62824	0.00034743652
31	0x3946716e	0.00018925007
32	0x381d08ea	3.744002e-05
33	0x385e3a85	5.2983425e-05
34	0x3883537c	6.262117e-05
35	0x399c14fe	0.0002977028
36	0x35cbfa2c	1.5197488e-06
37	0x36beb322	5.683295e-06
38	0x36c6b814	5.9222893e-06
39	0x35a61382	1.2373641e-06
40	0x361cc9a1	2.3363175e-06
41	0x365fa002	3.3322726e-06
42	0x362f5f84	2.613263e-06
43	0x35ce5eb1	1.5375755e-06
44	0x35b27c91	1.3298287e-06
45	0x3806f842	3.2179298e-05
46	0x384f6ec3	4.94558e-05
47	0x38271223	3.9832794e-05
48	0x38dec593	0.00010622586
49	0x37ab5a8d	2.0426955e-05
50	0x379678a0	1.7937564e-05
51	0x390cc695	0.00013425418
52	0x38445b71	4.6815203e-05
53	0x39c8e06e	0.00038314186
54	0x35885c9f	1.0159746e-06
55	0x371521e6	8.888985e-06
56	0x3684bba7	3.955752e-06
57	0x3591a89b	1.0852413e-06
58	0x34f24fde	4.5134124e-07
59	0x34f90eaf	4.6390548e-07
60	0x3592e946	1.0945739e-06
61	0x354fd863	7.7428393e-07
62	0x352726c2	6.226875e-07
63	0x38d6214e	0.00010210519
64	0x37416f49	1.1529607e-05
65	0x376e066c	1.4187401e-05
66	0x385edf95	5.313715e-05
67	0x37d513e5	2.5400843e-05
68	0x3807deb0	3.2393902e-05
69	0x37882d33	1.623351e-05
70	0x37cf2c21	2.4696872e-05
71	0x37b0dad8	2.1082742e-05
72	0x37b38c16	2.1403695e-05
73	0x37fcc140	3.013073e-05
74	0x38a83792	8.021215e-05
75	0x3704a950	7.907234e-06
76	0x379b75f9	1.8532375e-05
77	0x373ece48	1.1372911e-05
78	0x370e3735	8.476713e-06
79	0x378ffaa8	1.716365e-05
80	0x37ea60b2	2.7940001e-05
81	0x38b2e337	8.5300235e-05
82	0x38d63a77	0.00010215205
83	0x38605e22	5.349343e-05
84	0x38574b6d	5.133024e-05
85	0x3789abb6	1.6411632e-05
86	0x37a38f74	1.9497915e-05
87	0x386bfbc5	5.6262845e-05
88	0x38b841b0	8.786039e-05
89	0x377f7ca0	1.5228201e-05
90	0x399c5166	0.00029815285
91	0x381e58da	3.7752885e-05
92	0x3888addd	6.51737e-05
93	0x38afc153	8.38066e-05
94	0x37c4392f	2.3391649e-05
95	0x375bb9e2	1.3096696e-05
96	0x378d03c6	1.6810267e-05
97	0x38c1bd0a	9.2381684e-05
98	0x38ba4868	8.882658e-05
99	0x382f2f68	4.1767402e-05
100	0x387e8377	6.0680755e-05
101	0x39824cd5	0.00024852777
102	0x38e287d5	0.000108018205
103	0x38f1301f	0.00011500739
104	0x38e2e7b5	0.000108196786
105	0x386190ee	5.3779157e-05
106	0x381fce63	3.8100767e-05
107	0x383dd852	4.5262575e-05
108	0x385cabee	5.261221e-05
109	0x38e35201	0.00010839478
110	0x3851c371	5.0011502e-05
111	0x37189a3d	9.095817e-06
112	0x37748387	1.4574157e-05
113	0x3801c5ad	3.0940097e-05
114	0x383d1d14	4.5088193e-05
115	0x37997b1c	1.8296349e-05
116	0x379b054a	1.8479903e-05
117	0x37aad97a	2.036685e-05
118	0x3919a3f9	0.00014652302
119	0x3978e477	0.00023736233
120	0x38bc0a8d	8.966504e-05
121	0x3803b4af	3.140111e-05
122	0x378cac0b	1.6769414e-05
123	0x37c71074	2.373031e-05
124	0x37867aa4	1.6031154e-05
125	0x3817a565	3.615524e-05
126	0x348cc813	2.6222605e-07
127	0x344b6f63	1.894637e-07
128	0x342503d4	1.5368215e-07
129	0x33bb4e2a	8.722084e-08
130	0x34baa1b6	3.476286e-07
131	0x34c677df	3.6967592e-07
132	0x34e0c2ae	4.18649e-07
133	0x35174ff6	5.636824e-07
134	0x343f7d08	1.7833747e-07
135	0x3927cee0	0.00016003428
136	0x381280ed	3.4929184e-05
137	0x395d20b8	0.00021088391
138	0x38346cf2	4.3016807e-05
139	0x38f81b6c	0.00011830669
140	0x388f7fc1	6.8425674e-05
141	0x3961e800	0.00021544099
142	0x394107f2	0.00018408874
143	0x395d50c2	0.00021106287
144	0x340af42b	1.294108e-07
145	0x348eb10f	2.6578388e-07
146	0x34513bbb	1.9486372e-07
147	0x33ac3701	8.019379e-08
148	0x348f3308	2.6672956e-07
149	0x33c9b4d7	9.3926865e-08
150	0x34267aca	1.5504625e-07
151	0x34941635	2.7583306e-07
152	0x343403ba	1.6765162e-07
153	0x3747ac1a	1.1901395e-05
154	0x38634d40	5.4192962e-05
155	0x375d6e34	1.3198285e-05
156	0x368b4737	4.1508133e-06
157	0x36ff00b3	7.5996736e-06
158	0x36f4013a	7.2719095e-06
159	0x380641da	3.200942e-05
160	0x373fa5a2	1.1423052e-05
161	0x37421444	1.15680195e-05
162	0x38802a60	6.1114086e-05
163	0x3807157d	3.220652e-05
164	0x38ed1e10	0.0001130664
165	0x380d64cd	3.3710898e-05
166	0x379444c9	1.7675005e-05
167	0x379c642d	1.8643297e-05
168	0x38173513	3.6050635e-05
169	0x38a89bbf	8.039874e-05
170	0x37a44bb9	1.9585585e-05
171	0x37883311	1.6236243e-05
172	0x3923e379	0.00015629632
173	0x38df052e	0.000106344334
174	0x38482d05	4.7725644e-05
175	0x36dd5989	6.5967365e-06
176	0x36b41ff5	5.3681383e-06
177	0x382cdeb6	4.121541e-05
178	0x36c950dd	5.9996805e-06
179	0x38079382	3.2323886e-05
180	0x3813c68a	3.5232435e-05
181	0x37a62bb2	1.980909e-05
182	0x38644df9	5.4432054e-05
183	0x36b5add0	5.414455e-06
184	0x36fab693	7.471835e-06
185	0x378a7186	1.6503745e-05
186	0x37bbf929	2.2408161e-05
187	0x37f7f725	2.955978e-05
188	0x37a8429b	2.0058176e-05
189	0x37d0ea89	2.4904746e-05
190	0x39205461	0.00015290223
191	0x37ed7cd5	2.8310731e-05
192	0x393bd1ce	0.00017911868
193	0x37ee0ca8	2.8377704e-05
194	0x381e9285	3.7806592e-05
195	0x3838bcae	4.404474e-05
196	0x37dbd9d1	2.6208263e-05
197	0x37e1c9fb	2.6916145e-05
198	0x3704a25a	7.9056135e-06
199	0x3748de68	1.1972712e-05
200	0x38825a9f	6.2157626e-05
201	0x37c46c4c	2.341545e-05
202	0x37437e52	1.1652317e-05
203	0x36c8d70e	5.9855e-06
204	0x37ac4f6a	2.0540978e-05
205	0x37070c17	8.049442e-06
206	0x378645da	1.6006572e-05
207	0x357f5f8d	9.513395e-07
208	0x34df4fe9	4.159513e-07
209	0x35534404	7.87026e-07
210	0x3511443a	5.411599e-07
211	0x356b3fa6	8.763694e-07
212	0x354ccbda	7.6292565e-07
213	0x360c1c05	2.0877935e-06
214	0x36812e18	3.8498656e-06
215	0x3691e5aa	4.348073e-06
216	0x3802cb11	3.1183536e-05
217	0x3949b100	0.00019234791
218	0x38f154be	0.0001150756
219	0x37648745	1.3621354e-05
220	0x37c389c0	2.3309956e-05
221	0x379c15f9	1.8606881e-05
222	0x37bfa44a	2.2845477e-05
223	0x37768dc9	1.46957545e-05
224	0x37967ada	1.79386e-05
225	0x37206a6f	9.561524e-06
226	0x379d57bb	1.8756711e-05
227	0x378b0579	1.657264e-05
228	0x3752be14	1.2561231e-05
229	0x372099d1	9.572556e-06
230	0x38818aae	6.1770304e-05
231	0x381484c4	3.5409597e-05
232	0x372f9216	1.0464826e-05
233	0x381faabc	3.8067563e-05
234	0x37a6be1c	1.9877269e-05
235	0x38b47ba4	8.606099e-05
236	0x378bf213	1.6682816e-05
237	0x36a1c768	4.821388e-06
238	0x36c3e847	5.8384935e-06
239	0x36c3161a	5.814026e-06
240	0x375036c9	1.2410522e-05
241	0x36f2a38c	7.2312014e-06
242	0x36f979a2	7.434938e-06
243	0x386ad2e1	5.5986344e-05
244	0x386209ee	5.3891847e-05
245	0x393389f1	0.00017122157
246	0x377dc892	1.5126674e-05
247	0x37f115c2	2.873957e-05
248	0x3884e2d4	6.3365005e-05
249	0x3893b08c	7.042391e-05
250	0x380bc6c6	3.3325305e-05
251	0x38761db8	5.867865e-05
252	0x37af8dda	2.092768e-05
253	0x38812329	6.1577484e-05
254	0x39336244	0.00017107377
255	0x37572a63	1.2824868e-05

exp_avg f4 [2048]
0	0x3aac4bec	0.0013145185
1	0x3adf27ab	0.0017025372
2	0xb3063c30	-3.1254046e-08
3	0x3b3c8ff6	0.002877233
4	0x3a205dcf	0.0006117494
5	0x3bd2135b	0.0064109988
6	0x38c73142	9.4982344e-05
7	0xb8c6bd1f	-9.476602e-05
8	0x3a9f21db	0.0012140827
9	0xba9b1989	-0.0011833172
10	0x3b39c9ab	0.0028348963
11	0xbb91349e	-0.0044313213
12	0xbb1eae3f	-0.0024212745
13	0x39a36e16	0.00031171803
14	0xb835f28e	-4.337966e-05
15	0xbac4cfb8	-0.0015015518
16	0xb86f9d74	-5.712868e-05
17	0xbb62dc01	-0.0034615996
18	0x3ac4d561	0.0015017205
19	0x3a5cc5c9	0.0008421806
20	0x3a32b072	0.00068164535
21	0x3a436fc3	0.00074553135
22	0x3b01d1a5	0.0019808796
23	0xb9f4e02a	-0.00046706322
24	0x3a1afe6b	0.0005912545
25	0xbb29234e	-0.0025808397
26	0x3a53a1fb	0.0008073148
27	0x39bd89a2	0.00036151434
28	0x3b19b9c4	0.0023456672
29	0xbaf5d375	-0.0018755036
30	0xba936f95	-0.0011248464
31	0xba456d1c	-0.0007531212
32	0xbaa9af3c	-0.0012945901
33	0x3b2a25dd	0.002596251
34	0x39b727bc	0.00034934084
35	0x3babe6e2	0.0052460292
36	0xb2869bba	-1.567047e-08
37	0x3b86729c	0.004103018
38	0xbaa57ccb	-0.0012625692
39	0xbaccb9e7	-0.0015619368
40	0x3b8c8543	0.004288347
41	0x3b6bae72	0.0035962132
42	0x39fa5567	0.00047747346
43	0x3ab70800	0.0013964176
44	0xbb11c9ea	-0.0022245594
45	0x3a7fb479	0.00097543705
46	0xba58f958	-0.0008276901
47	0xbb247c90	-0.002509866
48	0x3ac586a0	0.0015070029
49	0x3ab543ac	0.0013829372
50	0x3949fa60	0.00019262126
51	0x39b8e47c	0.0003526545
52	0xbb59401c	-0.0033149784
53	0xbc1464d6	-0.009057244
54	0xba8c8ab8	-0.0010722494
55	0x3af8890d	0.0018961743
56	0x3bfc1d35	0.0076939114
57	0xbb216398	-0.0024626013
58	0xbacca6d8	-0.0015613688
59	0xb52b8f91	-6.391138e-07
60	0xbb1272e3	-0.002234631
61	0x3a350a5b	0.0006906145
62	0x390f81b3	0.0001368586
63	0x3b9e9e75	0.004840667
64	0x39696895	0.00022259571
65	0x39bb3a04	0.00035710644
66	0x39ac41b5	0.00032855352
67	0x3b67693b	0.0035310525
68	0xb70383a3	-7.8388575e-06
69	0x3bdc138f	0.0067161988
70	0xb9da722d	-0.00041665268
71	0xbae56f03	-0.0017504398
72	0xbbaf83e5	-0.005356299
73	0x3aa757f0	0.0012767296
74	0x3bb3e141	0.005489499
75	0x3b8245bb	0.0039755977
76	0x3b27c25f	0.0025598032
77	0x3ae96c75	0.0017808812
78	0x3b9ee4b7	0.0048490423
79	0xbb118bd4	-0.0022208588
80	0xbbe9056c	-0.007111242
81	0xb96b8fc9	-0.0002246491
82	0xb9e6d93f	-0.0004403088
83	0xba7bfd58	-0.00096126413
84	0x383ea834	4.545618e-05
85	0x3a959089	0.0011410873
86	0x3a2b0a40	0.00065246597
87	0xbbcf0a01	-0.006318331
88	0xba411fc5	-0.00073671
89	0xb98f9ffd	-0.00027394286
90	0x3bb703d2	0.005585172
91	0x3a2d060f	0.0006600329
92	0x3b3547ac	0.0027661128
93	0xb9bab10b	-0.00035608592
94	0x39945b5e	0.00028296834
95	0xbafdebcd	-0.0019372642
96	0x37f3e9e6	2.9076775e-05
97	0xbae2535a	-0.0017267272
98	0xbad1a013	-0.001599314
99	0x3b080a06	0.0020757928
100	0xbb01d897	-0.0019812935
101	0xba69e6d9	-0.00089226436
102	0xb87da28b	-6.047128e-05
103	0x3b13ec05	0.0022571099
104	0xb9a2bf0c	-0.0003104139
105	0x3ab0d8cc	0.0013492345
106	0x3aa02a2c	0.00122196
107	0xbb814c17	-0.003945838
108	0x3a9eab46	0.0012105487
109	0x3b0d77a6	0.0021586209
110	0xbb61c208	-0.0034447927
111	0x3a8f703d	0.0010943484
112	0xbb2dfede	-0.0026549618
113	0xbb9958c8	-0.004679773
114	0x3ac0bb3c	0.0014704238
115	0x3b920ef2	0.004457348
116	0x3bb9bb33	0.005668068
117	0x3b99521c	0.0046789777
118	0xbb5743db	-0.0032846841
119	0xb9007e50	-0.00012254086
120	0xba7905a6	-0.0009499438
121	0xba12a192	-0.0005593534
122	0xba069d60	-0.0005135145
123	0xbb1badf8	-0.0023754817
124	0xbb0299ad	-0.0019928024
125	0x3a011ef7	0.00049255736
126	0xbb823ea8	-0.0039747544
127	0x3afe1ad8	0.0019386662
128	0xbb482278	-0.0030538123
129	0xbb03ff42	-0.002014116
130	0xbbaa7324	-0.005201714
131	0xba6771ca	-0.00088289066
132	0xba1fe874	-0.0006100007
133	0x3aff7735	0.0019490483
134	0x3b1f5ecb	0.0024317976
135	0xb9211f08	-0.00015365717
136	0xb6e42c91	-6.8001177e-06
137	0xbb891a74	-0.0041840617
138	0x3b854027	0.0040664854
139	0x3a250b34	0.000629592
140	0xbbdd2272	-0.006748491
141	0x3b192e3a	0.00233735
142	0x3a507350	0.0007951753
143	0x3aa3773c	0.0012471448
144	0xb0b21568	-1.2957289e-09
145	0xbbc7cecd	-0.0060976506
146	0xbbceaf56	-0.0063075228
147	0x3995f34c	0.00028600765
148	0x3b740261	0.0037232863
149	0xbac10f2e	-0.0014729255
150	0xbbaf6d59	-0.0053536114
151	0xbad4a246	-0.0016222678
152	0xb5b211ea	-1.3267247e-06
153	0xba836614	-0.0010024928
154	0x3ae039aa	0.0017107029
155	0x3ad3c010	0.0016155262
156	0x3aaaa57e	0.0013019291
157	0xae938523	-6.708436e-11
158	0x3ba068a7	0.004895288
159	0xba2ad0dd	-0.00065161084
160	0xbb321b74	-0.0027177008
161	0x39e48497	0.00043586336
162	0xba480365	-0.00076299004
163	0x3ba8517e	0.0051366678
164	0xba00d05f	-0.0004913862
165	0xbba53f72	-0.0050429637
166	0x3a73cab5	0.000929992
167	0xbaabafbd	-0.0013098639
168	0x39e532ea	0.00043716218
169	0xba41e2df	-0.0007396172
170	0x3ab3b4a3	0.001371045
171	0x398cd920	0.00026864652
172	0x3af320a8	0.0018549161
173	0xba2d036a	-0.0006599935
174	0x3a890c10	0.0010455865
175	0x399c2e0e	0.00029788952
176	0xbb0e8e0e	-0.0021752152
177	0xba992d76	-0.0011686522
178	0xba0401b7	-0.0005035656
179	0xb9b9b068	-0.00035417383
180	0xbb601e8b	-0.0034197893
181	0xb9506f7c	-0.00019877957
182	0xb8c3eff4	-9.343019e-05
183	0x3b09ee9e	0.0021046768
184	0xbb340511	-0.002746884
185	0xb3804544	-5.973064e-08
186	0xbbc93daf	-0.0061413865
187	0x3afd2254	0.0019312599
188	0xb953df28	-0.0002020566
189	0xbb932150	-0.004490055
190	0x394a600e	0.00019300004
191	0x38ad8c35	8.2753984e-05
192	0x3bc604ab	0.006043037
193	0xb754a48d	-1.2674497e-05
194	0xbaec1e5a	-0.0018014417
195	0x3ba7f179	0.0051252213
196	0x3beb2d04	0.007176997
197	0xbb22d12a	-0.002484391
198	0x38fc07a3	0.00012017719
199	0xbabb9314	-0.00143108
200	0xbaac1a5d	-0.0013130415
201	0xab4713eb	-7.0726644e-13
202	0xb80822bb	-3.2457272e-05
203	0xbaf5c9ea	-0.0018752192
204	0x3b5071e6	0.003180617
205	0xba037aa2	-0.0005015527
206	0xbb990710	-0.0046700314
207	0x3bfb3524	0.007666247
208	0xbb891faa	-0.004184683
209	0xbb18daab	-0.0023323696
210	0xbb22d391	-0.0024845342
211	0xb9ab8ed7	-0.00032722086
212	0xba663ab6	-0.00087825523
213	0xbb231ced	-0.0024889067
214	0xbb4e93e1	-0.0031521248
215	0xba4078cb	-0.00073422183
216	0xbb8fb5a3	-0.0043856665
217	0xbb85e070	-0.004085593
218	0x393ab7a8	0.0001780676
219	0xbadf5216	-0.0017038013
220	0xbb3c9d23	-0.0028780184
221	0x3b581086	0.0032968833
222	0x3b9c6ebf	0.004773944
223	0xbaf7eb72	-0.0018914773
224	0x3b107344	0.002204136
225	0xbb51b857	-0.0032000744
226	0x3b183c83	0.0023229427
227	0xb94a4b6c	-0.00019292318
228	0xbac6965c	-0.0015151012
229	0xba9b4dc4	-0.0011848737
230	0x3a9acfb2	0.0011811166
231	0xbb963b29	-0.004584689
232	0x3ac354c1	0.0014902578
233	0x3b16ca2b	0.0023008685
234	0x3ab2c4c7	0.0013638966
235	0xb9af8607	-0.0003347846
236	0xbb9ad8d9	-0.0047255573
237	0xb964e9f4	-0.00021830929
238	0xbb73dc3d	-0.003721013
239	0x3abba499	0.0014316022
240	0xb887cf8c	-6.47596e-05
241	0xb606a685	-2.0064483e-06
242	0xbad81c49	-0.0016487922
243	0xbac32236	-0.0014887515
244	0x3b04b239	0.002024783
245	0xbba95bff	-0.0051684375
246	0x3b9ebd45	0.00484434
247	0xb99ca3a8	-0.00029876572
248	0x39eaec80	0.00044808164
249	0x3b5281c7	0.003212081
250	0xbb8fcbdb	-0.004388315
251	0x3a708819	0.00091755536
252	0xbb4cb0ce	-0.0031233313
253	0x3b7dbc15	0.0038716842
254	0xb9edf224	-0.0004538457
255	0x3ba1cbc1	0.0049376194

exp_avg_sq f4 [2048]
0	0x38fb7b01	0.00011991524
1	0x39cfb7cc	0.00039619056
2	0x320aae6c	8.072316e-09
3	0x3a2c811d	0.00065805187
4	0x3699c97b	4.5832107e-06
5	0x3a0b4036	0.00053119974
6	0x36baea06	5.570476e-06
7	0x392ca421	0.00016464341
8	0x38b03bd3	8.403477e-05
9	0x39af36e1	0.0003341949
10	0x3995af42	0.00028550072
11	0x3a0bf59e	0.0005339029
12	0x3901e537	0.00012387788
13	0x39d5c770	0.00040775118
14	0x34ce8e81	3.8474175e-07
15	0x3a33a0d2	0.0006852272
16	0x34f41fc9	4.5471668e-07
17	0x388c926a	6.702992e-05
18	0x3974f056	0.00023359185
19	0x39216e31	0.00015395206
20	0x38be525d	9.075247e-05
21	0x398ca4c7	0.0002682565
22	0x38c80ce6	9.539146e-05
23	0x365a20f6	3.2503717e-06
24	0x393bdafa	0.00017915285
25	0x390267c0	0.00012436416
26	0x38dff142	0.000106784064
27	0x39463328	0.00018901809
28	0x3983b7f9	0.00025123337
29	0x3977f514	0.00023647054
30	0x395b092c	0.00020888884
31	0x37c5643e	2.3530909e-05
32	0x3a25b09a	0.0006320566
33	0x39429412	0.00018556442
34	0x39efc15e	0.00045729702
35	0x39d5fd80	0.00040815398
36	0x31a6e49e	4.8572266e-09
37	0x391627a0	0.00014319876
38	0x3996ad2e	0.00028739258
39	0x3a33fd23	0.00068660284
40	0x3969b2ee	0.00022287268
41	0x394ce3dc	0.0001953984
42	0x37b273ac	2.1273117e-05
43	0x396244da	0.00021578689
44	0x3848904d	4.7818106e-05
45	0x379ec582	1.892704e-05
46	0x39419386	0.00018460871
47	0x39a12dab	0.00030742338
48	0x39151d66	0.00014220699
49	0x396db84c	0.00022670737
50	0x3997d3c1	0.00028958733
51	0x38638475	5.4244378e-05
52	0x3995fc7f	0.0002860762
53	0x3a27c3b8	0.0006399709
54	0x396e8f1e	0.00022750764
55	0x38bec80a	9.097166e-05
56	0x3a0380f0	0.00050164666
57	0x39e4e20d	0.0004365597
58	0x37bf8300	2.2829976e-05
59	0x3298df63	1.7796713e-08
60	0x3833a9e0	4.2835134e-05
61	0x3a0e6d23	0.0005433133
62	0x39243fc6	0.00015664016
63	0x39be5346	0.00036301668
64	0x37978380	1.8061837e-05
65	0x38b4b337	8.61645e-05
66	0x390521c6	0.0001269645
67	0x39b4db85	0.0003449583
68	0x33287348	3.9220396e-08
69	0x395a2f8b	0.00020807811
70	0x38b0a4e1	8.423045e-05
71	0x38f32ad1	0.00011595118
72	0x399b47e9	0.0002961748
73	0x39500dbc	0.00019841542
74	0x39a6671a	0.00031738804
75	0x393e9d39	0.00018178382
76	0x38a33790	7.782795e-05
77	0x399ab48e	0.00029507693
78	0x39b01d08	0.00033590966
79	0x39a79378	0.00031962595
80	0x3a32cbc4	0.00068205246
81	0x3a446ea7	0.0007493295
82	0x36546661	3.1650054e-06
83	0x399495a1	0.00028340242
84	0x35cb68ef	1.5155218e-06
85	0x383c483a	4.488996e-05
86	0x38bb5804	8.933249e-05
87	0x398ff0bb	0.00027454444
88	0x387dd743	6.052038e-05
89	0x38be3f64	9.0717134e-05
90	0x3a2b7414	0.00065404293
91	0x3911e31a	0.0001391288
92	0x38d19c11	9.994966e-05
93	0x37721c5f	1.443093e-05
94	0x355a0e9f	8.1232605e-07
95	0x3811bb47	3.474511e-05
96	0x39c1845f	0.00036910453
97	0x39234d27	0.00015573633
98	0x39950901	0.00028426203
99	0x37f3a39e	2.9044048e-05
100	0x3948b7a9	0.00019141905
101	0x37985b8b	1.816244e-05
102	0x39b181f6	0.000338569
103	0x39a37191	0.00031174396
104	0x38295af7	4.0377457e-05
105	0x3942a31d	0.00018562046
106	0x39a311a8	0.00031102938
107	0x39b0fd22	0.00033757935
108	0x39748b05	0.00023321442
109	0x39793ea5	0.00023769827
110	0x394a2c57	0.00019280739
111	0x38cce592	9.770239e-05
112	0x39266b6c	0.00015871011
113	0x3961b983	0.0002152678
114	0x39706dbe	0.00022929066
115	0x39606a28	0.00021401851
116	0x39e5474d	0.00043731407
117	0x398d1fee	0.00026917405
118	0x39019f91	0.00012361842
119	0x35d0527a	1.5521211e-06
120	0x39924481	0.0002789833
121	0x38a47db6	7.843545e-05
122	0x39b16471	0.00033834905
123	0x396b4122	0.0002243561
124	0x39a55fc4	0.00031542603
125	0x37a1c2c3	1.9283389e-05
126	0x38e3eddf	0.000108685104
127	0x3995051b	0.00028423298
128	0x39b11e4d	0.00033782647
129	0x380443e7	3.153449e-05
130	0x398aa657	0.00026445344
131	0x398b1ef6	0.00026535214
132	0x37b3f43b	2.1452192e-05
133	0x3816f1a1	3.598782e-05
134	0x382ec4fb	4.1668285e-05
135	0x3a0fd28a	0.000548639
136	0x36005edb	1.91287e-06
137	0x39339a65	0.00017128287
138	0x3913fba0	0.0001411275
139	0x386fd185	5.717717e-05
140	0x39f406c1	0.0004654434
141	0x394392a3	0.00018651276
142	0x38c82af1	9.5447416e-05
143	0x3994ba33	0.0002836749
144	0x3157b377	3.1388632e-09
145	0x39fa427f	0.0004773326
146	0x39ab1e2e	0.00032638147
147	0x36f1d6d9	7.2073713e-06
148	0x39d27050	0.00040138
149	0x39282747	0.0001603636
150	0x39a7b3fa	0.00031986815
151	0x3884400a	6.306179e-05
152	0x33b2af5f	8.320671e-08
153	0x3945bf1b	0.00018858576
154	0x395a10c0	0.0002079634
155	0x397a96e4	0.00023898069
156	0x38ddc39d	0.00010574537
157	0x3108480d	1.983156e-09
158	0x39928ac2	0.00027950673
159	0x383d3110	4.5106804e-05
160	0x3902f2ae	0.00012488171
161	0x37495cc1	1.200213e-05
162	0x393a001b	0.00017738382
163	0x38dbeb73	0.000104865896
164	0x391b94c5	0.00014837373
165	0x39416751	0.00018444403
166	0x3877d5d9	5.908855e-05
167	0x3a6239b5	0.0008629815
168	0x397e3d55	0.00024246176
169	0x394cec8d	0.00019543078
170	0x399588a6	0.00028521306
171	0x39db94a2	0.00041881675
172	0x38860513	6.390563e-05
173	0x38c85c6e	9.5539595e-05
174	0x3a18ad89	0.00058241986
175	0x3989110f	0.00026143386
176	0x39394bd4	0.00017671223
177	0x38d31475	0.000100650745
178	0x3658b94b	3.2294363e-06
179	0x3693f360	4.409274e-06
180	0x38e7f3cb	0.00011060348
181	0x37a6cf74	1.9885345e-05
182	0x358146f8	9.631904e-07
183	0x38cc21d9	9.733783e-05
184	0x388884a4	6.5096916e-05
185	0x320d1a97	8.213326e-09
186	0x39a143af	0.0003075874
187	0x396705d0	0.00022032042
188	0x3845112a	4.6984445e-05
189	0x3944df78	0.00018775265
190	0x3a8f31fe	0.0010924933
191	0x390e222b	0.00013554904
192	0x39b592a0	0.00034632254
193	0x356c2ae7	8.797928e-07
194	0x37f08160	2.8670474e-05
195	0x391986b2	0.00014641395
196	0x3a2774b2	0.00063879334
197	0x39e482f8	0.00043585128
198	0x3775eb8d	1.4657981e-05
199	0x374ea509	1.2316982e-05
200	0x392c4b60	0.00016431278
201	0x3096cabd	1.0971558e-09
202	0x354471ef	7.3181485e-07
203	0x38029f15	3.1142572e-05
204	0x39252ead	0.00015753014
205	0x39730fdc	0.00023180194
206	0x39999d63	0.00029299696
207	0x3a060aaf	0.00051132863
208	0x3993573b	0.00028103017
209	0x396ecd5f	0.00022773955
210	0x39f0518e	0.0004583713
211	0x39688d7d	0.00022177953
212	0x385cf5eb	5.2681116e-05
213	0x395fbc99	0.00021337195
214	0x38e33bf7	0.00010835373
215	0x377f9f01	1.5236205e-05
216	0x391562c9	0.00014246548
217	0x3992baa0	0.00027986336
218	0x371b6bce	9.26382e-06
219	0x398bdfe2	0.00026678952
220	0x3838f716	4.4099135e-05
221	0x396f149c	0.00022800494
222	0x3a3f2f87	0.0007293154
223	0x38b8d0c6	8.812691e-05
224	0x3900605c	0.00012242928
225	0x39266b4e	0.00015870968
226	0x38cdf716	9.821185e-05
227	0x3819610d	3.656843e-05
228	0x38ff6a52	0.00012179151
229	0x387fed31	6.101764e-05
230	0x3986edba	0.00025735592
231	0x39587db9	0.000206462
232	0x38d190be	9.992857e-05
233	0x39676018	0.00022065674
234	0x37fd5d78	3.0203475e-05
235	0x38feb3ae	0.00012145132
236	0x39d55de8	0.00040696491
237	0x3571c587	9.0066936e-07
238	0x394e9bf6	0.00019703791
239	0x3941322c	0.00018424605
240	0x3560e19f	8.3774825e-07
241	0x32ee2a2f	2.772603e-08
242	0x3988d795	0.00026100563
243	0x39d0dce2	0.00039837422
244	0x392102ad	0.00015355153
245	0x398ea0a7	0.00027204046
246	0x39b884f4	0.00035194273
247	0x38d3b9be	0.00010095861
248	0x38eeacd7	0.00011380918
249	0x397a4d99	0.00023870765
250	0x3992a62d	0.000279711
251	0x38ddada9	0.00010570448
252	0x38a44f22	7.834869e-05
253	0x391e972b	0.00015124369
254	0x368d04db	4.2026927e-06
255	0x39d3fa92	0.00040431746
