Results/CA/Ablation experiments/Time_domain/best.pt (torch, 598129 bytes, 132 tensors)

exp_avg f4 [27, 9]
00000000: 8c14 3439 2759 91b8 aa8f 8bb9 9520 b6b9
00000010: de68 95b7 cc2e 4039 ab05 0b3a 0717 c4b8
00000020: 0f66 de39 e439 2438 64bd 9db7 b0da 37b8
00000030: 059f 86b8 9d3e ebb4 3c1e f337 c9a8 a638
00000040: d004 90b7 8133 7438 0deb bdb8 201c e837
00000050: 6cea d438 9fd6 3a39 68b1 8ab7 f0a4 a6b8
00000060: 2baf 63b9 a5bf 7438 9ed2 38b9 c375 c0b8
00000070: 481c 6338 0fe0 b738 f22f 1c39 e153 b7b6
00000080: da02 86b8 8c51 67b9 5763 c937 31d3 01b9
00000090: 13ce 9239 7569 8fb8 a1c4 9fb9 5900 deb9
000000a0: 74b5 45b5 be0c 5339 d28e 2d3a df4f b3b8
000000b0: 9a1c cf39 f250 1138 d004 63b6 9423 32b8
000000c0: 1ba9 70b8 e024 5cb6 b932 a237 dcd5 a738
000000d0: 0e90 86b7 5f88 4338 05a2 9db8 a368 4d38
000000e0: af8f c138 cce3 0a39 7125 05b6 353c 96b8
000000f0: 8e3f 5cb9 ba48 1d38 c518 fdb8 6854 ac37
00000100: 9cbe 69b7 1b8f d5b7 c79d 14b8 f947 8db5
00000110: 9f47 7837 4ea9 3538 92bc 12b7 7973 0238
00000120: 87f1 d8b8 01cc 4638 0151 0d39 384a 3c39
00000130: 1902 39b7 7132 c8b8 dd5e 7eb9 70e1 8a38
00000140: a596 50b9 e67a 8f37 6cee 9737 e79a 3bb7
00000150: 5e5f 7b37 3a4e d937 403b 7837 5a4a dfb7
00000160: 6ff5 5b37 7418 1eb7 2852 3237 7dcf 5637
00000170: bf6b 08b7 0806 a736 a0f8 c936 078e 2d35
00000180: f881 ccb6 dfb7 05b7 3d17 4bb5 ddb0 a3b7
00000190: 297f 98b7 6ba4 1b37 eb5f 08b7 c226 4ab7
000001a0: 60dc a6b6 2309 7d37 10f4 af36 030f b7b6
000001b0: 585c 33b7 ad5a 18b8 177a 4f37 b60a d9b6
000001c0: d96d a3b7 4582 87b4 4ce6 2037 0f0a 3036
000001d0: 1dfb 13b7 0517 52b8 bbb0 c537 51a1 35b5
000001e0: f3de 8437 908a 6838 d988 2437 c68e 9d37
000001f0: 1487 b738 f546 83b6 e313 0838 0cb3 d937
00000200: fb7d 9eb7 7ef4 9736 2c94 9fb4 a70b 1137
00000210: d083 84b7 78d2 52b6 005e b8b6 e588 f0b7
00000220: 65b6 4cb8 5120 f137 59b2 19b7 2b2a 8fb6
00000230: fe8c 35b7 d75e 9e37 60b8 fa37 540a a135
00000240: 5405 2e37 025d 4d37 acb8 11b7 d3e8 3536
00000250: 37b7 1736 5343 ae35 c818 cbb6 30a0 2db7
00000260: 4166 92b5 49f3 e5b6 9e4b 6fb7 d40a 1a37
00000270: 6404 86b7 fe17 5eb7 6736 55b6 a522 5537
00000280: c898 b436 dcc1 c235 c7ee 9a34 068f 1936
00000290: 4463 60b6 b094 a1b5 ef12 2036 5600 53b5
000002a0: b0db b835 96ad 2cb5 4815 b035 55f7 bf37
000002b0: 4e9e 75b6 2a7c 4a37 89e8 7e36 7007 abb7
000002c0: 0279 e836 e78a 5ab7 2c2e 0bb8 709e fab7
000002d0: 5348 8d35 09ee 3735 868a bdb4 b6a5 e9b4
000002e0: 05a9 f5b4 95c9 e734 1834 0db5 c32f adb5
000002f0: ec30 7fb5 02e3 27b9 86d3 f4b7 8ef8 43b8
00000300: 6896 87b7 f50a d338 c259 c2b7 8c57 7c38
00000310: c9c1 6039 3f4d 8a39 ae47 b8b8 33e2 cb37
00000320: 5ee6 6bb8 c22f 99b7 6547 b238 8a58 b9b7
00000330: e6cb 4038 63b8 b438 079c cf38 7e07 2ab8
00000340: 9315 3bb7 d94c 80b7 c6a6 f0b6 256a 7537
00000350: cefa c8b3 8b6f 1037 bfa6 4c38 bff5 4538
00000360: 388d d138 a49d 7c37 f759 9338 f924 d537
00000370: 4959 d5b8 11c6 2138 2a22 3bb8 7de0 2eb9
00000380: bb82 1db9 6c20 3d38 7910 9638 82c0 69b8
00000390: bc4f c5b7 3935 7438 6672 86b7 223f ff37
000003a0: 91a0 41b8 ecc9 9b36 b64d 8338 e9e6 9ab7
000003b0: d720 6a38 4291 2837 9a06 a5b8 a57d 8837
000003c0: bbc3 18b8 c24b b9b8 a76b f0b8
0.00017173792 -6.930745e-05 -0.00026619184 -0.0003473802 -1.7811017e-05 0.0001832798 0.0005303274 -9.3502975e-05
0.0004241918 3.915456e-05 -1.880405e-05 -4.383427e-05 -6.4192376e-05 -4.3817718e-07 2.8981936e-05 7.9469355e-05
-1.7168379e-05 5.82221e-05 -9.056004e-05 2.7669652e-05 0.00010152612 0.00017818295 -1.6533493e-05 -7.946219e-05
-0.00021713662 5.8352616e-05 -0.00017626068 -9.177208e-05 5.4147356e-05 8.767854e-05 0.0001489518 -5.46359e-06
-6.390149e-05 -0.00022060255 2.4007326e-05 -0.00012381074 0.00028000827 -6.838414e-05 -0.00030473343 -0.000423434
-7.365227e-07 0.00020127275 0.0006620708 -8.550262e-05 0.00039503427 3.464608e-05 -3.3828437e-06 -4.247164e-05
-5.737795e-05 -3.2804019e-06 1.9335524e-05 8.003015e-05 -1.6041125e-05 4.661863e-05 -7.516522e-05 4.897326e-05
9.22972e-05 0.00013245567 -1.9840338e-06 -7.163772e-05 -0.00021004511 3.749945e-05 -0.00012068594 2.0543303e-05
-1.3932262e-05 -2.5458217e-05 -3.543289e-05 -1.0526265e-06 1.47986275e-05 4.331144e-05 -8.746183e-06 3.1101958e-05
-0.000103446706 4.7396872e-05 0.00013476984 0.00017956726 -1.1027348e-05 -9.5461386e-05 -0.00024258667 6.622344e-05
-0.00019892545 1.7104157e-05 1.8111627e-05 -1.1182135e-05 1.498297e-05 2.5904843e-05 1.4795747e-05 -2.6618294e-05
1.3110562e-05 -9.423227e-06 1.0628755e-05 1.2803704e-05 -8.131318e-06 4.97769e-06 6.0192106e-06 6.46542e-07
-6.094804e-06 -7.970229e-06 -7.565721e-07 -1.9513473e-05 -1.8179026e-05 9.2770015e-06 -8.128564e-06 -1.2049162e-05
-4.9728405e-06 1.5082102e-05 5.243819e-06 -5.4555726e-06 -1.0690732e-05 -3.6324072e-05 1.2366588e-05 -6.468351e-06
-1.9482266e-05 -2.5240493e-07 9.590363e-06 2.6231899e-06 -8.82035e-06 -5.008934e-05 2.3566527e-05 -6.76625e-07
1.5839445e-05 5.5442157e-05 9.807024e-06 1.8782343e-05 8.75128e-05 -3.9123647e-06 3.2443448e-05 2.5951791e-05
-1.8893732e-05 4.5286133e-06 -2.9723867e-07 8.6453865e-06 -1.5797006e-05 -3.1414947e-06 -5.4945704e-06 -2.8673976e-05
-4.880726e-05 2.8744487e-05 -9.161035e-06 -4.266641e-06 -1.0821268e-05 1.8879231e-05 2.9888179e-05 1.1998441e-06
1.0372449e-05 1.2240607e-05 -8.685671e-06 2.7106623e-06 2.2607398e-06 1.2983604e-06 -6.0527564e-06 -1.03489e-05
-1.0907607e-06 -6.853054e-06 -1.4263116e-05 9.181636e-06 -1.597609e-05 -1.3237817e-05 -3.177114e-06 1.2703856e-05
5.382204e-06 1.4510547e-06 2.885847e-07 2.2882027e-06 -3.3436381e-06 -1.2038709e-06 2.3852879e-06 -7.8604114e-07
1.3773006e-06 -6.4327594e-07 1.3119216e-06 2.2884147e-05 -3.659999e-06 1.2069047e-05 3.7984303e-06 -2.0388252e-05
6.928226e-06 -1.3026153e-05 -3.3183183e-05 -2.98761e-05 1.0526368e-06 6.85192e-07 -3.5304782e-07 -4.3520203e-07
-4.5757784e-07 4.3173773e-07 -5.26024e-07 -1.2903405e-06 -9.5066093e-07 -0.00016010928 -2.9185565e-05 -4.6723108e-05
-1.6163292e-05 0.00010063305 -2.3168399e-05 6.0163016e-05 0.00021434495 0.00026378964 -8.787155e-05 2.4304818e-05
-5.6242912e-05 -1.826126e-05 8.501e-05 -2.2094948e-05 4.5966262e-05 8.6174136e-05 9.8995915e-05 -4.0538136e-05
-1.1151092e-05 -1.5294574e-05 -7.1719724e-06 1.4627852e-05 -9.358847e-08 8.6090395e-06 4.8792685e-05 4.719733e-05
9.992201e-05 1.5057074e-05 7.0262635e-05 2.5408795e-05 -0.00010173262 3.8569855e-05 -4.4616092e-05 -0.00016677562
-0.00015021388 4.5091307e-05 7.155626e-05 -5.5730816e-05 -2.352136e-05 5.82237e-05 -1.6027316e-05 3.0427767e-05
-4.6164325e-05 4.6428668e-06 6.2610416e-05 -1.8465757e-05 5.5820532e-05 1.0047401e-05 -7.869043e-05 1.6270971e-05
-3.6421912e-05 -8.8355984e-05 -0.000114641436

exp_avg_sq f4 [27, 9]
00000000: fe16 0437 9322 a537 b292 5c37 ad2a b636
00000010: ef12 b036 ccd2 b836 282f 3f37 6290 2237
00000020: 816c 1837 ef7e 9134 bd46 3335 eb7f f234
00000030: f1a5 4834 da4a 4134 f877 4834 04c6 d134
00000040: 9f64 b334 16fc a734 ec2e ca35 c4d3 7c36
00000050: 89c3 2b36 4653 8e35 73d5 8935 07d5 8d35
00000060: 9d6c 1136 9780 f935 6ad0 e835 f093 a035
00000070: 015e 4736 7b11 0936 f86c 5e35 fe15 5935
00000080: 7063 6135 5646 e535 4b8a c535 edfb b835
00000090: c49d 3837 49bc e737 a1fb 9a37 26e0 ff36
000000a0: 44a9 f736 14f0 0137 2ee0 8437 5e4d 6237
000000b0: a4b1 5437 0bb4 6a34 e830 1235 1091 bc34
000000c0: 9847 1e34 4930 1c34 dcf2 2734 f5e6 ac34
000000d0: 760d 8e34 2aeb 8634 c0e8 8735 5034 2a36
000000e0: 6e46 e635 88ea 3c35 2313 3635 b5c9 3e35
000000f0: 9caa c335 6937 a735 5869 9c35 7daf ee33
00000100: da5b 9434 bbb8 3f34 2ce0 a033 f13f 9933
00000110: d27e a433 c80d 3134 ec39 1334 dff8 0a34
00000120: 7b88 e635 19ac 9036 161c 4536 f3ed a235
00000130: 8511 9e35 efdf a135 356f 2536 6441 0e36
00000140: d779 0436 8482 e435 a54d 9435 c57a af34
00000150: 9e51 e833 cd14 ab34 d78d 6f34 15d0 1a35
00000160: 1ee9 de35 eae9 0834 8b4a a933 6fdb 6133
00000170: e477 9532 626a dd31 d4b3 9f32 cf04 4f32
00000180: 7012 e632 a167 a333 f02f 0432 e9f1 c234
00000190: 08f1 8434 9f9d b533 b36b f432 1aec ac33
000001a0: de82 6a33 5a55 0134 1cf2 be34 2bb6 0b33
000001b0: bfd9 e734 b9ca a034 fad4 b833 5d1e fd32
000001c0: 0eaa cc33 d1a5 7133 89e7 2534 64a5 ed34
000001d0: 14c8 2533 2c89 3036 4e16 ee35 0cb1 1735
000001e0: 84c7 4f34 7005 0135 e1b1 bb34 0199 8435
000001f0: 8642 2c36 42da 8334 b5c8 4434 3ad9 f833
00000200: 9d17 4b33 637f 6232 b4b7 2a33 d716 c532
00000210: a6db 6933 2d46 4634 fed7 9032 8aad e134
00000220: 1e53 9b34 ec1a a233 be9a dc32 a038 c333
00000230: 8f7b 5e33 8440 1a34 8338 e634 63b4 fe32
00000240: 28a1 5f33 7968 0d33 dde1 5932 5cd3 9131
00000250: be8a 6f32 9f96 ef31 9c42 9032 ea7d 5e33
00000260: a8e9 b831 fa4a 0835 7488 b334 eadd d033
00000270: f1d8 0f33 cce1 e333 45ea 9733 e53b 3034
00000280: e7bf 0535 413e 1f33 fb20 be32 b104 6032
00000290: d153 1c32 4255 7d31 6584 0932 2552 9531
000002a0: e2d9 0932 90e8 dc32 753c 2b32 e4ac 6f34
000002b0: 26c0 0234 cc5e 3733 875f cf32 4514 3b33
000002c0: 5226 1833 7e36 ac33 6fad 6c34 3128 6a33
000002d0: 6bc6 9a31 35d7 4531 7a1f f030 3980 5930
000002e0: a214 e630 6900 9630 b847 f430 4499 b831
000002f0: b55d 0f31 da08 d236 7c53 6136 58d6 8035
00000300: 1bbf 1a35 4d95 8b35 a7e5 7135 df51 1436
00000310: 4c5f be36 ecc3 b635 5012 cc35 1d7d 6735
00000320: 357f 9434 1fa0 5434 dcc4 a134 8e2c 9034
00000330: f7f9 2435 7458 d635 362c ee34 2d27 ee34
00000340: f093 6e34 e594 9a33 9096 2833 8942 a433
00000350: 39f9 8533 691d 2434 11aa db34 396f d733
00000360: 0b50 4436 8631 d635 8b7e 0c35 597c b834
00000370: 82ff 1435 fb16 0235 ec57 9735 d54b 4636
00000380: 1eaf 4e35 d0af 2435 05a9 c534 6469 0b34
00000390: aefb b033 18cf 2634 46c1 f733 4222 7e34
000003a0: 829f 3635 4497 5534 57f8 dd35 5ab1 6a35
000003b0: 00f3 8834 b6e0 2c34 4021 9434 3f3c 8334
000003c0: 0fff 1e35 836f cf35 2488 d334
7.873166e-06 1.9685633e-05 1.3147177e-05 5.428991e-06 5.247413e-06 5.5081673e-06 1.1395467e-05 9.689569e-06
9.085169e-06 2.710071e-07 6.6785634e-07 4.5169085e-07 1.868682e-07 1.8001757e-07 1.8670096e-07 3.907336e-07
3.341456e-07 3.128959e-07 1.5063829e-06 3.767419e-06 2.5594802e-06 1.060406e-06 1.0269417e-06 1.0567318e-06
2.1669905e-06 1.858937e-06 1.7346003e-06 1.1963984e-06 2.9708028e-06 2.0424766e-06 8.2860015e-07 8.08708e-07
8.396373e-07 1.70823e-06 1.4717892e-06 1.3782388e-06 1.1003987e-05 2.7625023e-05 1.8475404e-05 7.6256865e-06
7.3808787e-06 7.744897e-06 1.5840018e-05 1.3488663e-05 1.2677545e-05 2.1858447e-07 5.4460406e-07 3.5123276e-07
1.4740942e-07 1.4546198e-07 1.5641439e-07 3.220554e-07 2.6459355e-07 2.513055e-07 1.0126023e-06 2.5362424e-06
1.7156833e-06 7.0376745e-07 6.782813e-07 7.107404e-07 1.4578286e-06 1.2458596e-06 1.1653565e-06 1.111466e-07
2.763398e-07 1.7855466e-07 7.491357e-08 7.1362486e-08 7.6599136e-08 1.6489423e-07 1.3711514e-07 1.294279e-07
1.7176056e-06 4.3115692e-06 2.9371636e-06 1.2139193e-06 1.1777016e-06 1.2060608e-06 2.4651647e-06 2.1197711e-06
1.9740453e-06 1.7025309e-06 1.1049457e-06 3.2685617e-07 1.0818188e-07 3.1866367e-07 2.231021e-07 5.767227e-07
1.6608135e-06 1.2751084e-07 7.883235e-08 5.258647e-08 1.7400403e-08 6.444041e-09 1.8591813e-08 1.2050079e-08
2.6783908e-08 7.609129e-08 7.694311e-09 3.631133e-07 2.476229e-07 8.4571404e-08 2.8454314e-08 8.052321e-08
5.4601394e-08 1.2045112e-07 3.5566416e-07 3.252914e-08 4.3185534e-07 2.9949823e-07 8.606908e-08 2.9466884e-08
9.530423e-08 5.6262994e-08 1.5451054e-07 4.4265028e-07 3.8599026e-08 2.6305888e-06 1.7738873e-06 5.650952e-07
1.935096e-07 4.806416e-07 3.4960888e-07 9.879296e-07 2.566872e-06 2.4559455e-07 1.8326939e-07 1.1587913e-07
4.7286097e-08 1.3183896e-08 3.9748286e-08 2.2944205e-08 5.444931e-08 1.8465717e-07 1.6862028e-08 4.2035782e-07
2.8931476e-07 7.54861e-08 2.568174e-08 9.090695e-08 5.180078e-08 1.4365838e-07 4.2881956e-07 2.9651522e-08
5.2067804e-08 3.2924138e-08 1.2682418e-08 4.244084e-09 1.3943177e-08 6.972939e-09 1.6794097e-08 5.180292e-08
5.3816684e-09 5.0773053e-07 3.344063e-07 9.726121e-08 3.349209e-08 1.06115834e-07 7.074099e-08 1.6413067e-07
4.9825616e-07 3.7076692e-08 2.2133909e-08 1.3039583e-08 9.099453e-09 3.686481e-09 8.004553e-09 4.3458095e-09
8.02399e-09 2.5717128e-08 9.967256e-09 2.2321507e-07 1.2177097e-07 4.2694225e-08 2.4141412e-08 4.3557765e-08
3.542511e-08 8.019286e-08 2.2042308e-07 5.4518924e-08 4.5045474e-09 2.8789604e-09 1.7471244e-09 7.9126355e-10
1.6740567e-09 1.0914053e-09 1.777372e-09 5.372529e-09 2.0862505e-09 6.259518e-06 3.3576207e-06 9.599125e-07
5.7647566e-07 1.0399759e-06 9.0113684e-07 2.2101374e-06 5.6735353e-06 1.3617077e-06 1.5204514e-06 8.623627e-07
2.7659704e-07 1.980229e-07 3.013182e-07 2.6854508e-07 6.145851e-07 1.5969986e-06 4.4363122e-07 4.435946e-07
2.2219297e-07 7.1982676e-08 3.9252484e-08 7.648948e-08 6.2386285e-08 1.528439e-07 4.0915668e-07 1.0031949e-07
2.9252867e-06 1.5958656e-06 5.233821e-07 3.4363146e-07 5.550611e-07 4.8462215e-07 1.1275965e-06 2.954844e-06
7.699581e-07 6.13506e-07 3.6817087e-07 1.2983725e-07 8.241419e-08 1.5535295e-07 1.153699e-07 2.3668056e-07
6.80324e-07 1.9892201e-07 1.653806e-06 8.7429873e-07 2.550878e-07 1.6100498e-07 2.759134e-07 2.4444486e-07
5.9230746e-07 1.5455156e-06 3.9400868e-07

exp_avg f4 [27]
00000000: bbde 1b39 d5f2 f837 b7cc a3b8 d0b0 82b8
00000010: 7fd7 2a39 e726 fe37 46ce 81b8 96b1 9737
00000020: 5996 a8b8 faf7 2d2c 01a5 baab fa1d a62c
00000030: 414b 4e2d b423 81ad 61ca d4ac 13a9 082c
00000040: 3106 fcab e4f7 022d 2943 4d37 7ee5 31b6
00000050: 7f1e 91b5 8c48 b2b9 7fef 02b9 e467 00b7
00000060: 032e 7d39 a5f6 3b38 5883 cc38
0.00014864925 2.9676981e-05 -7.810577e-05 -6.231817e-05 0.00016292742 3.0297275e-05 -6.189621e-05 1.8083298e-05
-8.038869e-05 2.4722433e-12 -1.3261893e-12 4.721332e-12 1.1726454e-11 -1.4681457e-11 -6.047871e-12 1.9420617e-12
-1.7907395e-12 7.444687e-12 1.2234589e-05 -2.6508637e-06 -1.0812217e-06 -0.00034004857 -0.00012486985 -7.653583e-06
0.00024145101 4.481398e-05 9.751943e-05

exp_avg_sq f4 [27]
00000000: 5575 6437 b9c0 f834 6765 3036 1818 0c36
00000010: 5466 a037 4297 c534 e847 ec35 24eb 4634
00000020: af65 4936 566f dc20 7a98 d81e 80c3 d51f
00000030: d32a a91f 08ed 4a21 5fe2 381f 3511 a11f
00000040: ae32 781e 985c d71f a250 be34 ee4c 3036
00000050: 9931 9633 18ad 9438 a8d7 c437 9f42 8c36
00000060: 8d51 2e38 a77d 8e37 6586 a837
1.36171775e-05 4.6333824e-07 2.6285068e-06 2.087565e-06 1.9121137e-05 3.6804164e-07 1.7604298e-06 1.852573e-07
3.0010522e-06 3.7343126e-19 2.2932952e-20 9.0532437e-20 7.164513e-20 6.875397e-19 3.9150765e-20 6.821462e-20
1.3139491e-20 9.1209225e-20 3.5448926e-07 2.6270823e-06 6.993941e-08 7.089431e-05 2.3465444e-05 4.180081e-06
4.1560783e-05 1.698623e-05 2.0089743e-05

exp_avg f4 [9, 9]
00000000: c567 5036 d3b2 10b8 c8d6 25b4 836d 1f39
00000010: 9d37 b538 d2d0 b938 3232 d8b8 5443 c735
00000020: c94c cab8 21d2 9237 6fe8 e3b8 d7f4 1c36
00000030: 0d00 293a 5c30 dc39 6bf4 5239 2c74 eeb9
00000040: 7e18 8839 c75d c5b9 df87 7c36 9dd7 02b8
00000050: bb40 7835 3cde 9739 605d 0539 0d0c a238
00000060: edea 29b9 5dbb 9338 caa2 09b9 d5f2 64b6
00000070: 4416 0d38 b1a2 59b4 798c 23b9 993a a0b8
00000080: 9318 ebb8 dc2d af38 97f4 3f38 e65c a838
00000090: 6c42 ebb6 382a 4138 eebe c8b4 13c8 87b9
000000a0: ba2e 2fb9 8531 9bb8 431a 3739 7ae0 c0b8
000000b0: 6a16 2d39 c437 d436 48ec 21b8 f57f 1a35
000000c0: 8082 7939 f344 1239 5533 9a38 be3a 2cb9
000000d0: 5770 b838 c4ad 18b9 4890 44b6 99c7 cf37
000000e0: 9648 dd34 2a4e 1cb9 31be afb8 b22e fbb7
000000f0: d12a 9d38 4e0e 7fb8 3384 a438 e344 2b34
00000100: 3a5d a3b6 0352 3732 c403 6eb7 764a 9c37
00000110: c78d 3935 a81f 9bb7 6b80 bd37 c5ee a0b7
00000120: 0cbc ccb6 1285 5438 4e08 ef34 e259 84b9
00000130: 9536 15b9 5149 02b9 8220 3239 5bf2 03b8
00000140: 5412 1939
3.1054817e-06 -3.449882e-05 -1.544496e-07 0.00015204218 8.641111e-05 8.860383e-05 -0.00010309032 1.484625e-06
-9.646413e-05 1.7502405e-05 -0.000108674976 2.3388327e-06 0.0006446846 0.000419977 0.00020118213 -0.00045481452
0.0002595819 -0.00037644638 3.7630014e-06 -3.119522e-05 9.2481395e-07 0.00028966542 0.00012718653 7.7270066e-05
-0.00016204613 7.044405e-05 -0.00013125982 -3.4115994e-06 3.3637756e-05 -2.0268887e-07 -0.00015597221 -7.640309e-05
-0.000112102505 8.353192e-05 4.576574e-05 8.028168e-05 -7.0112783e-06 4.6054105e-05 -3.7391823e-07 -0.00025898273
-0.00016706708 -7.4002e-05 0.00017462023 -9.1970855e-05 0.00016506916 6.3245843e-06 -3.8605445e-05 5.755567e-07
0.00023795106 0.0001394933 7.3528536e-05 -0.00016425081 8.794729e-05 -0.00014560582 -2.9290259e-06 2.4769268e-05
4.121727e-07 -0.00014906438 -8.380076e-05 -2.9943276e-05 7.4943186e-05 -6.081006e-05 7.8447534e-05 1.5950677e-07
-4.8686315e-06 1.0670649e-08 -1.4186782e-05 1.8631323e-05 6.9124184e-07 -1.8492181e-05 2.2590355e-05 -1.9184672e-05
-6.1015653e-06 5.066867e-05 4.4523262e-07 -0.0002524397 -0.0001423008 -0.00012425079 0.00016987513 -3.1458545e-05
0.00014598045

exp_avg_sq f4 [9, 9]
00000000: acdb d731 6333 3133 59cb da31 aa84 9c35
00000010: 51d0 c834 dd30 6b34 e3ca 0c35 aad5 8034
00000020: e2fd ca34 73d2 6233 d5c0 9b34 8d4a ab33
00000030: 8739 3237 709f 7236 1038 0536 652c be36
00000040: e076 cd36 2df9 6836 5238 dc32 92f0 6134
00000050: f00a cd32 2452 c336 ba56 0036 871a a135
00000060: aff5 3536 ac3e bb35 7faa fc35 a118 4932
00000070: e12c dd33 c1bd 1c32 1cfa 4436 61af 8035
00000080: d0f1 0935 5691 b735 3774 2235 a604 7d35
00000090: 7a4a 2a32 da35 9e33 6746 d731 d258 2436
000000a0: b682 5f35 e3ef 8634 2f50 a135 d2c7 3535
000000b0: 0d4f 5135 1cea 2532 abd8 aa33 035f 3a32
000000c0: 7739 2836 1da8 5135 07ab f534 897e a935
000000d0: 7fd5 5135 0eb4 5535 d4d4 6532 7ca1 0d34
000000e0: 76f0 c132 eb4d 4d36 0c50 8335 46cc 9435
000000f0: 0223 b835 077a 7635 199e 8435 0986 4332
00000100: c267 9833 b8b1 2832 feb4 2e36 2524 6835
00000110: 41d1 b434 f86f a935 90eb 9135 66d3 5d35
00000120: abda 1632 0999 8a33 5244 6032 9a1e 0836
00000130: 3b11 3835 1046 0c35 42fb 8835 9d28 9c35
00000140: d9e1 2f35
6.2822973e-09 4.125776e-08 6.367753e-09 1.1661516e-06 3.7404473e-07 2.1903857e-07 5.2449303e-07 2.399732e-07
3.7810156e-07 5.2811128e-08 2.9011304e-07 7.976369e-08 1.0623021e-05 3.6153615e-06 1.9851177e-06 5.6676095e-06
6.123315e-06 3.4715733e-06 2.5636982e-08 2.1042277e-07 2.3870115e-08 5.8210153e-06 1.9123968e-06 1.2003155e-06
2.7114108e-06 1.3950826e-06 1.8825084e-06 1.170534e-08 1.0299278e-07 9.12354e-09 2.9351859e-06 9.587785e-07
5.138836e-07 1.3676861e-06 6.051882e-07 9.425661e-07 9.912236e-09 7.367244e-08 6.2653274e-09 2.4489605e-06
8.3264183e-07 2.5133986e-07 1.2018771e-06 6.771853e-07 7.79736e-07 9.657494e-09 7.9556536e-08 1.0848228e-08
2.50674e-06 7.8103204e-07 4.5759245e-07 1.2628308e-06 7.8169245e-07 7.96107e-07 1.3377946e-08 1.3190396e-07
2.2577506e-08 3.0592735e-06 9.783557e-07 1.1086311e-06 1.3719257e-06 9.1819714e-07 9.880779e-07 1.138097e-08
7.096925e-08 9.819296e-09 2.6033372e-06 8.647933e-07 3.3679865e-07 1.2624068e-06 1.08719e-06 8.263654e-07
8.7808685e-09 6.453963e-08 1.305405e-08 2.0283392e-06 6.8570415e-07 5.225602e-07 1.0205915e-06 1.1634726e-06
6.552123e-07

exp_avg f4 [9]
00000000: 2255 473a 8800 a93a 3199 e139 353d 75ba
00000010: ac07 cab9 1215 a439 b0f1 83b9 789c 25b9
00000020: 25f4 93ba
0.00076039333 0.0012893835 0.0004302948 -0.0009355129 -0.00038534158 0.00031296216 -0.00025166338 -0.00015793915
-0.0011287971

exp_avg_sq f4 [9]
00000000: 225e 8637 7689 8739 e142 c938 6581 1c38
00000010: e19f 9e37 1921 3338 e521 d638 29d3 1438
00000020: 7454 8338
1.6017879e-05 0.00025851623 9.596884e-05 3.7313806e-05 1.8909517e-05 4.270775e-05 0.000102106285 3.5482608e-05
6.2622974e-05

exp_avg f4 [2048, 9]
00000000: e45c 36ac 2f62 93ac d3c8 02ac 5dff a2aa
00000010: d12e 0bac e037 392c 64ba 602c cd94 5d2c
00000020: ee0e c02b 07ed bc37 9a67 2036 757d 58b8
00000030: 15c1 f437 921b 5437 33da e0b7 d055 a036
00000040: fb17 bcb7 b4a4 2637 300c 1eb0 6c02 23b1
00000050: 9472 95b0 e565 a92f 77d7 ec2f 1c8e b12f
00000060: 3abc ca30 9519 ce30 788b 2fb0 f77e 1530
00000070: 6d22 31b0 52b9 adb1 559b dcaf 03ae 78af
00000080: 7512 882f bde2 4bb0 abf2 0d31 e64c 2aaf
00000090: 5af8 e72d eb85 d830 c1ef adae d4ae 3d2e
000000a0: 44c5 86ac 88f6 3bac ac13 f32f 644a 932d
000000b0: 18db a3ab 4757 f2b5 d6aa 70b6 2049 e835
000000c0: 660f 2436 6e87 a5b4 395c ddb3 fecf 5035
000000d0: 3a6d 26b4 d828 0336 a93f 4cb4 8c98 23b6
000000e0: a43e 48b5 c398 3c36 8588 5e35 bf20 b8b5
000000f0: 6a0e 8234 2414 9db4 2028 a335 7c94 0639
00000100: 108a deb9 0a06 0eba b626 e636 f608 d838
00000110: 8406 9838 c45b f639 53a8 5eb9 6a9a 8e37
00000120: be74 9420 fb7d b02e 6659 1faf 266c a72c
00000130: 7f9e 689b 01a5 41ad bdaf 94ab 8c74 702e
00000140: 523c 7e1e 5982 eb9b addd 1524 cb52 da25
00000150: d843 5a1a 768f 5296 9413 b094 f892 1722
00000160: f289 ff1f 64f9 899b 78d2 e7ad dd5b 02af
00000170: e6fe 5b30 b50f 702b 22a6 8cad 6bf0 86ae
00000180: 5485 a9b0 476d 8db1 5ec8 bd2f b1fb 0936
00000190: 92ad 9138 ddbc 3238 8986 0338 cb67 2738
000001a0: fd12 3838 2836 6bb8 7d47 40b8 d6ac cab8
000001b0: 95c3 5d37 6656 c236 21c9 18b8 16a2 a637
000001c0: 5ff1 f836 c5f0 dbb7 82ca f636 4fee 8bb7
000001d0: ae13 7c37 cf21 c436 83ea be37 162d 79b6
000001e0: 27a4 2637 e425 cdb6 5de4 b6b6 4ff4 39b7
000001f0: bf8b 44b6 acb6 a5b5 96c5 4109 3bb2 fa97
00000200: 533b 0294 4f17 1f05 4f29 0080 2e13 9506
00000210: ac83 0010 f3ab ab0f 77ae 0d00 6ce9 1618
00000220: 587e 9219 419e 8519 2381 6f99 892e 9c18
00000230: 335f 0598 e5a3 4b98 09ba 4e99 fd18 5099
00000240: cfbf be13 2dd0 b59e 540c 4421 7b19 2b19
00000250: 27f9 b60e 18b5 ca8f 5c28 dd96 a4bd 0819
00000260: 2c71 ca0e a05e 9c37 4177 17b8 8e31 05b9
00000270: 5514 2eb8 d640 2337 4554 3c38 3c8f bf38
00000280: 9a1e b2b7 e8bd 1bb7 3a4b f735 9a5e 54b9
00000290: a26a 8139 0ac7 3938 4111 73b8 8c6f 94b8
000002a0: deb9 1838 36ce dd37 e0bb 9237 1750 85b8
000002b0: 4c28 f6b8 dfec 0d3a 1a99 4238 0f9b b9b8
000002c0: 96c0 efb8 bb42 0a35 f8a7 c238 5054 7eb8
000002d0: 3447 b788 e882 ad9d 6ce8 55a2 6814 7c8d
000002e0: f843 350f d6db 3f8d 81f9 460f 3f8f bd19
000002f0: eda9 138f 960b 83b8 ed94 0a39 30b9 af39
00000300: 1f89 44b8 3dd2 9d38 a97f 0639 18ab ccb9
00000310: c430 1239 c565 4db9 8694 ac32 7c6e 8e32
00000320: f2ec 39b3 622b d731 772f 8db2 79e6 eeb2
00000330: 12ac 12b3 f5ce 7bb2 50e9 16b2 414f 8284
00000340: 1439 261b 4fbe 949d ae36 0100 495b 5e10
00000350: 8e26 0580 aef6 be95 8ad5 c08e fe8e 8481
00000360: 473b 0009 1193 e890 dcb5 8399 e9af 2780
00000370: 7d7d 0080 87fa 5880 4f19 4e94 6646 ee09
00000380: 28e8 5600 1b15 9e97 152b f1a2 95cf 1ca1
00000390: 5048 c718 d210 9491 99b6 8d1a e86f ad9e
000003a0: 9edb d69c bc21 e418 0638 10b7 d1cb 9237
000003b0: 10e2 fb37 2417 0a38 5a58 6637 9598 92b7
000003c0: c4e5 21b7 17d7 05b7 d566 afb7 670f 9583
000003d0: 6520 ae07 16e1 8f8f 0126 0200 0000 0080
000003e0: dc85 c804 a657 1e04 0573 4d98 6500 0000
000003f0: aac4 6f38 e728 88b9 7f40 9bb9 3497 2cb8
-2.591532e-12 -4.188892e-12 -1.858559e-12 -2.8954175e-13 -1.9779076e-12 2.6321098e-12 3.1935782e-12 3.148859e-12
1.3646564e-12 2.252172e-05 2.3902162e-06 -5.1615254e-05 2.9176977e-05 1.2642604e-05 -2.6804488e-05 4.7783615e-06
-2.2422513e-05 9.932719e-06 -5.7497385e-10 -2.3720998e-09 -1.0873742e-09 3.081332e-10 4.3081247e-10 3.2297087e-10
1.4750932e-09 1.4995744e-09 -6.3862826e-10 5.438631e-10 -6.4441147e-10 -5.056031e-09 -4.0128137e-10 -2.261729e-10
2.475137e-10 -7.4173184e-10 2.0656141e-09 -1.548873e-10 2.637195e-11 1.575413e-09 -7.909718e-11 4.3128903e-11
-3.83041e-12 -2.671115e-12 4.421542e-10 1.6745001e-11 -1.1642657e-12 -1.8055806e-06 -3.5862226e-06 1.7306629e-06
2.4446867e-06 -3.0832183e-07 -1.030789e-07 7.7788707e-07 -1.5499691e-07 1.9544295e-06 -1.902214e-07 -2.4377687e-06
-7.459696e-07 2.8103102e-06 8.2900107e-07 -1.3718599e-06 2.4224875e-07 -2.9258183e-07 1.2156124e-06 0.0001283455
-0.00042446004 -0.000541777 6.8590407e-06 0.00010301352 7.2491384e-05 0.00046989147 -0.00021234275 1.6999624e-05
2.514943e-19 8.025932e-11 -1.4492726e-10 4.7584324e-12 -1.9241803e-22 -1.1007418e-11 -1.056481e-12 5.4673197e-11
1.3459122e-20 -3.8961724e-22 3.249699e-17 3.7873074e-16 4.5136147e-23 -1.7008933e-25 -1.777918e-26 2.054212e-18
1.0822491e-19 -2.2825914e-22 -2.6355126e-11 -1.1856068e-10 8.003397e-10 8.5286926e-13 -1.5989935e-11 -6.136321e-11
-1.2334263e-09 -4.1160635e-09 3.452127e-10 2.0561095e-06 6.946469e-05 4.26144e-05 3.135813e-05 3.9912567e-05
4.3886703e-05 -5.6078803e-05 -4.5842946e-05 -9.664304e-05 1.3218164e-05 5.7917086e-06 -3.642694e-05 1.986422e-05
7.4190752e-06 -2.6218951e-05 7.3549463e-06 -1.6681062e-05 1.50249525e-05 5.845191e-06 2.2758968e-05 -3.7130135e-06
9.932591e-06 -6.113887e-06 -5.4506077e-06 -1.1083742e-05 -2.928762e-06 -1.2346622e-06 2.3324434e-33 -1.6200863e-24
-6.575022e-27 7.480425e-36 -1.4819e-41 5.607575e-35 2.5344985e-29 1.6928134e-29 1.256448e-39 1.9504894e-24
1.5147076e-23 1.3815796e-23 -1.2382089e-23 4.0372043e-24 -1.723791e-24 -2.631988e-24 -1.068752e-23 -1.0758394e-23
4.815188e-27 -1.925022e-20 6.64237e-19 8.8456385e-24 4.510639e-30 -1.9988493e-29 -3.5729946e-25 7.069333e-24
4.9905825e-30 1.8640712e-05 -3.611227e-05 -0.00012702329 -4.150377e-05 9.730653e-06 4.4901175e-05 9.134269e-05
-2.1233504e-05 -9.282936e-06 1.8424828e-06 -0.00020253137 0.00024684245 4.4292807e-05 -5.7951784e-05 -7.077967e-05
3.6412726e-05 2.6441277e-05 1.7492042e-05 -6.356852e-05 -0.000117377 0.00054140197 4.639579e-05 -8.850369e-05
-0.0001143228 5.150611e-07 9.2819275e-05 -6.063684e-05 -1.1030652e-33 -4.5928073e-21 -2.8989926e-18 -7.767806e-31
8.937079e-30 -5.9121037e-31 9.8102064e-30 1.9599999e-23 -7.280386e-30 -6.248725e-05 0.00013216185 0.00033516577
-4.6857745e-05 7.525503e-05 0.00012826793 -0.00039037387 0.00013941812 -0.00019588236 2.0090976e-08 1.6581218e-08
-4.328917e-08 6.2622556e-09 -1.6436145e-08 -2.7811653e-08 -3.414977e-08 -1.46571795e-08 -8.784198e-09 -3.0635636e-36
1.3749641e-22 -3.937205e-21 1.11451e-40 4.3852104e-29 -4.73008e-40 -7.712958e-26 -4.7537285e-30 -4.8694326e-38
1.5435312e-33 -9.1734457e-29 -1.3618535e-23 -3.644689e-39 -4.5017e-41 -8.171396e-39 -1.04053334e-26 5.736262e-33
7.981135e-39 -1.0215838e-24 -6.5368796e-18 -5.312959e-19 5.151331e-24 -2.336065e-28 5.8611236e-23 -1.8363371e-20
-1.4218102e-21 5.897068e-24 -8.596113e-06 1.7499466e-05 3.00268e-05 3.2923315e-05 1.3729639e-05 -1.7475608e-05
-9.649844e-06 -7.977497e-06 -2.090951e-05 -8.760969e-37 2.619965e-34 -1.4187589e-29 1.97304e-40 -0.0
4.7142704e-36 1.8613057e-36 -2.65537e-24 1.42e-43 5.7165198e-05 -0.00025970416 -0.00029611957 -4.1148814e-05

exp_avg_sq f4 [2048, 9]
00000000: 6806 132e 008b 192e 294a 542e 207e f22d
00000010: 2b8d 4f2d 2cb1 892d ad7e db2d f8bd a22d
00000020: 10c3 982d 8a21 9e33 ab84 b134 39a5 4a34
00000030: 3a25 a734 e5fd 8133 7b71 8233 efd4 a733
00000040: 8990 c033 3168 5933 e942 b82d 4533 1c2e
00000050: b5bf 242e 54a2 992d 0b49 a12d 5e07 a22d
00000060: 7f72 fe2d 566d de2d 4bf0 8f2d ce69 ae30
00000070: 5205 6731 752c 7631 3376 c530 00db 8730
00000080: 157d ea30 142f 0131 049c 0431 bedc 9c30
00000090: bedf 6d30 665c 5131 5b92 2b31 40dd 8930
000000a0: af62 3130 2a76 2830 8ef5 be30 2cae a430
000000b0: 1159 4e30 a88d bb30 ff14 9431 e114 8f31
000000c0: 538b 4331 0669 9430 c48e 1530 695a 3631
000000d0: 90cf 2031 564d aa30 d49a 9331 1044 3b32
000000e0: a1ee 1732 cd02 9b31 eab5 0a31 15e4 3631
000000f0: 1df8 a931 1eaf c531 1f69 9431 3c91 b934
00000100: a02d f035 5d29 f735 b25e 1935 6261 c634
00000110: 0c51 3035 a109 2c35 3d15 4035 7137 f134
00000120: ad91 e82e a8e4 bc2f 44ff 0e30 64ae 8c2f
00000130: a828 602e 92df 842f 88ab 8d2f 8935 b32f
00000140: 02c7 c82e 6be4 4c2f 4aa9 e02f bbb2 f22f
00000150: ddb5 322f e7c0 0b2f db9e 072f 4ec7 922f
00000160: be7a 7b2f a785 402f 80e4 c030 6586 5d31
00000170: 495c 8c31 6876 b130 6d25 aa30 d215 d430
00000180: 0347 6531 cf19 9a31 0f14 f730 32a8 a133
00000190: f63d 8c34 2970 8534 c2d0 2d34 b937 9333
000001a0: 758a be33 7ce7 2134 b1cb 4d34 26a5 d733
000001b0: 75a0 7f33 e04f 9e34 a7a0 2d34 686c 8534
000001c0: b0b2 4433 9881 4b33 aa5b 8433 aeb3 9533
000001d0: 255d 3433 15d1 df32 0654 cc33 17e1 2734
000001e0: e743 9f33 c395 cb32 8097 b532 1f07 9033
000001f0: b464 4b33 ab2f 1c33 3280 ec2e d7ec 582f
00000200: 19c4 2c2f 5bdf cd2e d271 9f2e 1af1 d42e
00000210: 1561 132f e641 0d2f b137 bc2e e5bd e62d
00000220: 68a6 652e 7f8f 7e2e cc02 bc2d 9e9d 6f2e
00000230: 2cd5 f02d 73a5 9c2e a59a 132e d0cc f82d
00000240: ed93 022f ba89 6f2f 7a07 902f 7c53 282f
00000250: 06df e52e 86a9 ef2e 5b8a 202f 11a4 232f
00000260: daa2 e42e 0516 1733 f90f 1d34 e336 5934
00000270: 9df2 6a33 3e52 4633 9395 5833 5f32 8a33
00000280: 4141 9733 1223 6133 d551 6f33 2ce7 3d35
00000290: b532 6435 0757 1934 ce21 fa33 4673 f233
000002a0: 4f59 8734 f00f 3434 8673 0334 a873 9334
000002b0: 3928 c735 75b9 db35 bb8d a635 e8b5 1935
000002c0: b743 9034 46e2 6735 73a9 a735 1bb7 2c35
000002d0: 5486 8e2e 500a 502f f15d 9d2f 7158 a82e
000002e0: 0220 a62e bfef 932e f139 b32e bcdf 082f
000002f0: c38b a82e 0a4b 8735 761f 8f36 4171 9336
00000300: 632a 2536 d557 5c35 ec82 5835 846f 8436
00000310: b072 0836 860b ae35 1b82 0b31 8296 b931
00000320: 399e c431 b30b 0d31 27e4 fc30 5337 1331
00000330: d070 9b31 88f7 ab31 d4fd 1931 30cb ea2e
00000340: 0e8c 8e2f ee40 a82f 2382 b82e f360 242f
00000350: 9cea bf2e a244 662f c6ad 192f 1f34 d12e
00000360: 42da f72e c9d8 232f 15d6 7b2f 9ad4 c42e
00000370: c9f8 b12e c5ca ce2e 8535 422f 284c fb2e
00000380: d686 c92e 4d54 432f 1702 da2f 52f3 c82f
00000390: c2f6 4b2f 81f5 102f 7928 692f e3db 9e2f
000003a0: 4051 972f 296d 472f 998a 0c32 8b6c 3833
000003b0: 4d7a 3433 3d17 8c32 ad39 0432 6aa9 0f32
000003c0: 64e8 d232 3b03 e232 1420 3432 68a5 dd2e
000003d0: 6ba0 042f 319f 1c2f ee6d c12e 4597 8b2e
000003e0: 5dad ea2e bdc7 e22e 58b5 6e2f defe a12e
000003f0: 3b99 2c34 66e1 9835 61eb 9635 54b4 c334
3.342962e-11 3.491163e-11 4.8269087e-11 2.7568225e-11 1.1797933e-11 1.5653777e-11 2.4953673e-11 1.850163e-11
1.7367024e-11 7.363549e-08 3.3065348e-07 1.8872824e-07 3.113326e-07 6.053214e-08 6.074239e-08 7.815276e-08
8.9669875e-08 5.061901e-08 2.0948092e-11 3.551583e-11 3.7459553e-11 1.7466174e-11 1.8336018e-11 1.842054e-11
2.8927303e-11 2.5287033e-11 1.636393e-11 1.2690238e-09 3.3617948e-09 3.5822982e-09 1.4367231e-09 9.884786e-10
1.7061291e-09 1.8798731e-09 1.9297213e-09 1.1413233e-09 8.6538055e-10 3.0466025e-09 2.4966968e-09 1.0030945e-09
6.453246e-10 6.1285965e-10 1.389411e-09 1.1982073e-09 7.5068934e-10 1.3646302e-09 4.309754e-09 4.1642214e-09
2.8455431e-09 1.0798267e-09 5.4408766e-10 2.6535878e-09 2.340105e-09 1.2391108e-09 4.295865e-09 1.0900308e-08
8.843615e-09 4.511412e-09 2.018505e-09 2.6614135e-09 4.9467546e-09 5.753363e-09 4.319318e-09 3.4564607e-07
1.7894672e-06 1.8414972e-06 5.713474e-07 3.695123e-07 6.568305e-07 6.4089005e-07 7.155648e-07 4.4930087e-07
1.0576016e-10 3.435947e-10 5.2022053e-10 2.5589764e-10 5.0967813e-11 2.4169516e-10 2.576963e-10 3.259795e-10
9.130298e-11 1.8634842e-10 4.086565e-10 4.414654e-10 1.6253617e-10 1.2710509e-10 1.2334615e-10 2.669886e-10
2.2871924e-10 1.7509781e-10 1.4034782e-09 3.2236127e-09 4.085028e-09 1.2912098e-09 1.2379765e-09 1.5431232e-09
3.3364251e-09 4.484924e-09 1.7977316e-09 7.527741e-08 2.6122115e-07 2.4854788e-07 1.6187826e-07 6.855357e-08
8.87275e-08 1.5078507e-07 1.9166215e-07 1.0041758e-07 5.951775e-08 2.948791e-07 1.6170326e-07 2.4852056e-07
4.579732e-08 4.7382485e-08 6.1634026e-08 6.971037e-08 4.199423e-08 2.6055696e-08 9.514774e-08 1.5634974e-07
7.416366e-08 2.3700414e-08 2.1140067e-08 6.706818e-08 4.735621e-08 3.6364934e-08 1.07548095e-10 1.9729228e-10
1.5712977e-10 9.3619966e-11 7.2507014e-11 9.683472e-11 1.3404063e-10 1.2847287e-10 8.559143e-11 2.6232303e-11
5.221637e-11 5.7880364e-11 2.1374368e-11 5.44823e-11 2.7379508e-11 7.1234484e-11 3.3561282e-11 2.828529e-11
1.1875985e-10 2.1785854e-10 2.619876e-10 1.530917e-10 1.0453331e-10 1.0898575e-10 1.4601069e-10 1.4883052e-10
1.0397168e-10 3.5177454e-08 1.4627575e-07 2.0229668e-07 5.4703026e-08 4.6175266e-08 5.0427456e-08 6.435288e-08
7.043355e-08 5.241879e-08 5.572095e-08 7.0744386e-07 8.501041e-07 1.4280896e-07 1.1647681e-07 1.1289971e-07
2.521069e-07 1.6769604e-07 1.2242353e-07 2.7465035e-07 1.4838362e-06 1.6370747e-06 1.2409213e-06 5.726165e-07
2.687136e-07 8.6383477e-07 1.2491786e-06 6.4341447e-07 6.481274e-11 1.8921154e-10 2.8624883e-10 7.655466e-11
7.554492e-11 6.7273735e-11 8.15027e-11 1.2448614e-10 7.664582e-11 1.0080123e-06 4.2653946e-06 4.394126e-06
2.4611588e-06 8.20842e-07 8.0656787e-07 3.9468887e-06 2.0332336e-06 1.2967364e-06 2.0301119e-09 5.4013194e-09
5.7223386e-09 2.052485e-09 1.8400258e-09 2.1422764e-09 4.523919e-09 5.004896e-09 2.2408715e-09 1.06771814e-10
2.5929164e-10 3.0605157e-10 8.390468e-11 1.4950156e-10 8.7273494e-11 2.0942761e-10 1.3977006e-10 9.513478e-11
1.127103e-10 1.4901781e-10 2.2904374e-10 8.950814e-11 8.093221e-11 9.4038145e-11 1.7663211e-10 1.14276866e-10
9.1643734e-11 1.7765096e-10 3.9655454e-10 3.6552678e-10 1.8550408e-10 1.3183944e-10 2.1205605e-10 2.8896271e-10
2.7524472e-10 1.8137726e-10 8.180586e-09 4.2939558e-08 4.2020748e-08 1.6308713e-08 7.696525e-09 8.362216e-09
2.4552897e-08 2.6311332e-08 1.0484673e-08 1.00792985e-10 1.2062322e-10 1.4244673e-10 8.796151e-11 6.347859e-11
1.06718835e-10 1.0312771e-10 2.17104e-10 7.366706e-11 1.6074493e-07 1.1390482e-06 1.1244375e-06 3.6452786e-07

exp_avg f4 [2048]
00000000: dc56 152d a164 34b8 5c28 4131 e89a f7b2
00000010: 5140 46b2 57cd 77b6 d8c8 edb5 274f cc39
00000020: 5596 f3b1 5c8b 70a8 f302 83b2 6224 2a39
00000030: 0ab0 1bb8 47e6 03b8 d679 10a6 424a d598
00000040: 00fb 40aa 2d10 d138 68a6 7eb9 efb3 b4b9
00000050: c20d 87a3 5019 e839 cfd1 10b4 4f13 8c9e
00000060: 0b6d 1c9b b92c 05a9 469c 5f38 998d 2b9b
00000070: 1760 d839 d9c5 4437 c629 21ae abd6 c035
00000080: 0c79 1eae c457 899b 5728 ada4 fe71 e3b4
00000090: d60e 039b 4bac d5ac b8c2 2138 27d5 74b4
000000a0: 8b12 c189 4f6e 8022 c21d 2da8 da05 c9b2
000000b0: a8d2 df8c 85cb 0bb4 6ca1 e4aa fd04 e2a9
000000c0: 624d a234 fe83 88a5 2ca9 6a39 29f0 bb36
000000d0: 9d55 08b2 fa9a 589b 6de1 deb1 886a b024
000000e0: fb04 a8b5 9282 669a d54a bab2 4bf2 a1b4
000000f0: 2d20 099b 13d6 62a3 42ee d1aa f0d2 c4a8
00000100: 6a5f 0fa9 7532 78ab fb81 29aa 62b0 f8a2
00000110: baef 83b7 f9ca a72a b32c 46b1 d71c 4c37
00000120: f949 3db8 b437 f0ac 0cf4 56b2 7929 8238
00000130: 5318 2f2b b161 e39e e0bb 8022 0fd1 7639
00000140: f99a c826 8b3d 2697 8959 a8b2 0a3c c7b4
00000150: 8263 37a4 6332 0dae 2970 95a5 6e67 c4ac
00000160: 7b88 d0b4 3f6c 05b1 aec9 4799 2d25 8090
00000170: 231e 07a6 9cf5 0eac 0429 16b5 530f 7d37
00000180: 94a8 5791 4ccc 8ead d3a6 0e8e c323 bd37
00000190: 00b3 9baa 80ac f49d 270b 67b6 3945 aaa1
000001a0: f39b 89ab d1d2 80b3 2260 1ab3 aaf3 87a5
000001b0: 65fa 00a8 ede0 e2a1 3234 a5ae 28a6 342e
000001c0: f6a0 a4a5 4a24 eca3 94f9 9f9b 88b4 af38
000001d0: c563 2caf edcb 93ae 7344 c0a3 f630 44b6
000001e0: 8889 e038 dd00 d6a5 91bc 59ad aa1e 8889
000001f0: 893d 07ab 56af 739c 6946 7638 0517 c039
00000200: d5cc 0ba8 299b 9438 c43a 4d38 af05 63a8
00000210: 41f3 31af d23e f938 1e21 35b8 5760 3d39
00000220: 3121 f4a4 c15d 0c33 cdd4 04b2 700a 52b2
00000230: 57d9 9238 630c 5c92 c202 a535 88ca 149c
00000240: 2f6d e9b5 dbd7 701f 9575 84b9 a027 1ab2
00000250: f552 c3b4 2195 fcb4 cd80 9fb6 1785 0f9c
00000260: c781 f1aa 471e 05b8 8e09 dd38 9534 a4af
00000270: 001f deb5 6beb ddb3 7a20 f637 856b 4bb7
00000280: 1ea4 6fb8 c00d 98b4 0de2 11ab bdce 66a5
00000290: b970 32b3 a0dd 6baf 7d25 e2b3 81b1 76ae
000002a0: f6c4 ac36 8079 6239 6c14 baad 7b2b 12ac
000002b0: 0d8f 87ad 0c65 b7a4 95ee f638 6b3c 9db6
000002c0: 7e31 98ac 8568 09b6 4be4 9fa8 60c2 f695
000002d0: 7514 19a9 01ef e7af f4f3 008f c892 85ab
000002e0: 4ac1 8c98 f759 e19f ea26 0038 ca71 2bb9
000002f0: a872 fdb2 f4b1 08b7 869d 499c 781b 748c
00000300: a6bc 5037 3f4b 7cb0 235c 0a39 4df4 d1aa
00000310: 9de2 bcad 2e71 1793 26df 92a4 dfb0 fbb0
00000320: d133 60a9 39fc 0d9f 69b8 6e34 1ffd 9436
00000330: f364 30b9 b571 3a27 6273 07b1 4aa8 e4af
00000340: 4a29 3f32 4f6a e8a9 f528 d4a0 dd03 bc39
00000350: c09d 4db1 42f0 a0ac 3404 ecaa 0237 b7b3
00000360: c149 aeab ae46 c6b2 a4da fc86 c6f2 e7a9
00000370: 5866 7ca5 e519 71ae 1810 5d37 e5a6 efaa
00000380: 4d86 b7a5 ae6a 04b4 e749 26b9 ad16 3bb2
00000390: cfe5 fcb0 c2fd 829c 6dff aba3 7aab a92b
000003a0: 045b fbad 316c abb7 39c0 23af 5d0c 69b0
000003b0: 867c 8cb3 8975 9f93 2a32 0939 1ace b1b5
000003c0: 0239 dda8 848f 73b4 e03c 96b8 5748 a32a
000003d0: d8be 7637 946d a2a7 cd0d 86b7 9cf8 e2b5
000003e0: 2c0d fd38 05c5 5fb3 6fea 3139 8e2e ae38
000003f0: 6cfb 69b4 ee0d fe92 f5c0 6995 2611 67b0
8.488956e-12 -4.3009062e-05 2.8108138e-09 -2.8825028e-08 -1.1539741e-08 -3.6925392e-06 -1.7716329e-06 0.00038968885
-7.0893216e-09 -1.3352895e-14 -1.5251748e-08 0.00016226017 -3.711883e-05 -3.1447296e-05 -5.0125155e-16 -5.513419e-24
-1.7140109e-13 9.9689096e-05 -0.00024285319 -0.00034466336 -1.4642556e-17 0.00044269348 -1.3487373e-07 -1.4831062e-20
-1.2939251e-22 -2.9570723e-14 5.3312884e-05 -1.4190541e-22 0.00041270323 1.1728575e-05 -3.6644264e-11 1.4367591e-06
-3.6032552e-11 -2.2721466e-22 -7.509513e-17 -4.2364985e-07 -1.084086e-22 -6.0729525e-12 3.8566737e-05 -2.2801815e-07
-4.6480498e-33 3.4811263e-18 -9.609882e-15 -2.340214e-08 -3.4485374e-31 -1.3019424e-07 -4.0612945e-13 -1.00372815e-13
3.0231155e-07 -2.368168e-16 0.00022379 5.6009926e-06 -7.935708e-09 -1.7917177e-22 -6.4866783e-09 7.6508304e-17
-1.2518425e-06 -4.766836e-23 -2.168728e-08 -3.0164878e-07 -1.1342771e-22 -1.22968165e-17 -3.7291183e-13 -2.185185e-14
-3.1835137e-14 -8.817732e-13 -1.5055311e-13 -6.7407287e-18 -1.5728048e-05 2.9806e-13 -2.88382e-09 1.2166062e-05
-4.5130004e-05 -6.8273946e-12 -1.2511929e-08 6.206608e-05 6.2206246e-13 -2.4074964e-20 3.489339e-18 0.00023538269
1.3919793e-15 -5.371517e-25 -1.959849e-08 -3.7110323e-07 -3.9766086e-17 -3.210444e-11 -2.5923382e-16 -5.582138e-12
-3.8842322e-07 -1.9415578e-09 -1.0328788e-23 -5.0544376e-29 -4.6878377e-16 -2.0315754e-12 -5.593904e-07 1.5083543e-05
-1.7012457e-28 -1.6234257e-11 -1.7583174e-30 2.2547209e-05 -2.7657737e-13 -6.4764623e-21 -3.4428174e-06 -1.1537971e-18
-9.77772e-13 -5.998812e-08 -3.594335e-08 -2.358388e-16 -7.159723e-15 -1.5373893e-18 -7.512603e-11 4.1074838e-11
-2.8558536e-16 -2.560254e-17 -2.646563e-22 8.378277e-05 -1.5678754e-10 -6.7210106e-11 -2.0845671e-17 -2.9234775e-06
0.000107067695 -3.7123667e-16 -1.2376892e-11 -3.2769645e-33 -4.804703e-13 -8.062857e-22 5.8716545e-05 0.00036638245
-7.760466e-15 7.086091e-05 4.893054e-05 -1.2602264e-14 -1.6184477e-10 0.000118849464 -4.3184606e-05 0.00018060334
-1.0587436e-16 3.268156e-08 -7.7317965e-09 -1.2225982e-08 7.002305e-05 -6.9435027e-28 1.2294261e-06 -4.923086e-22
-1.7391629e-06 5.1000528e-20 -0.00025264607 -8.9729895e-09 -3.638194e-07 -4.7047163e-07 -4.7535636e-06 -4.7486746e-22
-4.290025e-13 -3.173787e-05 0.00010539881 -2.9868788e-10 -1.6549311e-06 -1.0333937e-07 2.9340608e-05 -1.2124777e-05
-5.7134886e-05 -2.832221e-07 -5.1828057e-13 -2.0019366e-16 -4.1546375e-08 -2.1451863e-10 -1.0530764e-07 -5.609158e-11
5.1489287e-06 0.00021598302 -2.1154821e-11 -2.0771984e-12 -1.541125e-11 -7.953478e-17 0.000117746335 -4.685998e-06
-4.3255946e-12 -2.047543e-06 -1.7751552e-14 -9.966528e-26 -3.3990568e-14 -4.2188478e-10 -6.357871e-30 -9.490958e-13
-3.6384324e-24 -9.544004e-20 3.055382e-05 -0.0001635022 -2.9505216e-08 -8.147665e-06 -6.6708916e-22 -1.8805342e-31
1.2441689e-05 -9.1783997e-10 0.00013195029 -3.7295376e-13 -2.1473762e-11 -1.9114681e-27 -6.3695435e-17 -1.8312923e-09
-4.9782935e-14 -3.0066545e-20 2.2232565e-07 4.440211e-06 -0.00016822274 2.5874326e-15 -1.9710673e-09 -4.1592535e-10
1.1127051e-08 -1.0321311e-13 -3.59413e-19 0.00035861033 -2.9921097e-09 -4.5741475e-12 -4.1924938e-13 -8.5316074e-08
-1.2383914e-12 -2.3082375e-08 -9.511313e-35 -1.0300575e-13 -2.1892191e-16 -5.4820055e-11 1.3176374e-05 -4.2570735e-13
-3.1836445e-16 -1.2332268e-07 -0.00015858524 -1.08899885e-08 -1.8400729e-09 -8.668273e-22 -1.8648034e-17 1.2055767e-12
-2.8575815e-11 -2.0435169e-05 -1.4893055e-10 -8.4782475e-10 -6.541909e-08 -4.025314e-27 0.00013084026 -1.3247511e-06
-2.4560652e-14 -2.2683349e-07 -7.163896e-05 2.9004812e-13 1.4707177e-05 -4.5082837e-15 -1.5980471e-05 -1.6910667e-06
0.000120664336 -5.210042e-08 0.00016967369 8.305638e-05 -2.1791283e-07 -1.6033088e-27 -4.720619e-26 -8.406168e-10

exp_avg_sq f4 [2048]
00000000: 02f3 562e c870 0f35 c31b 902e 71c7 c731
00000010: 2781 8a31 7c87 4832 cad6 b832 d6c3 3036
00000020: ef48 2730 d1ef 1130 c044 a631 61ac 4835
00000030: 6044 e834 0199 2d34 b30f 1830 74fc ac2e
00000040: ed1f 4030 db4d a234 bf49 9435 310f 8f36
00000050: cb01 922f c336 3037 6369 b931 5858 a52f
00000060: 4f35 862f 9d4d 5830 8a43 a733 ef6e 862f
00000070: 359e 1636 6a0b ad32 6389 222f d8d2 f132
00000080: 29b2 e430 4956 632f ac0d 0d30 bb0e 0732
00000090: 1728 762f 4e56 c230 9a0d 8935 4ee1 6532
000000a0: d625 ff2e 9ccf e52e 7641 4c30 d55f 1e30
000000b0: ce71 0d2f 8c4b 0e32 5cd5 c12e 94ea f02e
000000c0: d65f 0832 7b17 952e aa4e 8835 8882 6135
000000d0: 75fc 8331 1190 0b2f 40d8 4231 0ffe 152f
000000e0: c8a7 6232 f79a 902f 4046 7231 8aaf f731
000000f0: 49a1 882f 2325 f22f 6098 9430 6ba3 922f
00000100: 72fb 4930 471d 7d30 0158 6130 c319 dc2f
00000110: db48 b331 49fe c12e 9114 5e31 e3df c933
00000120: 1fca 0535 bc48 b72f 9936 6131 494f fa33
00000130: fb50 7b2e 8654 a82f 9028 e62e 896c 9635
00000140: 74e1 e32e 834b 562f 5f20 1730 b559 3732
00000150: 01e1 2c2f 9b17 b730 1ad3 0430 5eba ab30
00000160: 7334 9632 87f4 4b2e 72e9 742f ff75 1a2f
00000170: 426e 1630 4975 9a30 f597 3c32 643e 2f33
00000180: 9fd5 ce2e 2a2e be30 fd53 122f 03f4 6833
00000190: e605 b92f a0b1 ac2f 4d2f d134 e2a7 c82f
000001a0: 4613 962e ea97 dc32 edd4 a531 0c95 1730
000001b0: 159e 4d30 f503 462f ff8d d530 1729 442e
000001c0: 562c 1a30 9057 eb2f a583 682f 0a56 6835
000001d0: dee6 d730 29af ff30 62b3 182f b90c f433
000001e0: 7634 cd34 c495 bc2f 7811 b830 4daa 042f
000001f0: 3bb2 6930 44c3 922f 394f 3734 dfcb 1e37
00000200: 63b9 3730 b48d 5934 5610 9e33 ffdb 3e30
00000210: fe71 e030 efe7 7135 7208 1a34 8c5f a434
00000220: 9a27 1530 c3f9 0932 7e48 8831 5ab8 9031
00000230: 9e77 e634 e231 252f f6ea 2c32 9585 892f
00000240: ba48 6532 30b8 482e 4298 d235 483c ac31
00000250: 3923 1332 990f 1733 eb9c 0634 ef5d 8c2f
00000260: 4fe6 932e f353 d833 22a9 4535 0be5 fc30
00000270: b899 9432 57f2 c931 4acb a733 773a dc34
00000280: 7432 ac34 110d 2732 335c 8230 c5dd 0230
00000290: da82 3031 ea50 0031 d25e 8831 d3ed b730
000002a0: 2e9d c732 0d38 f332 5387 de30 b6f3 9930
000002b0: a04f c430 c73b 1030 fdac a834 d363 5834
000002c0: 0caa be30 74a7 6732 5d7d 4f30 ecee 442f
000002d0: b1bf 142f d087 f130 b57a 132f 5bff ea2f
000002e0: af89 632f a10a c42f 5d82 9333 44a4 a035
000002f0: 113d ad31 42f7 9d30 cc3f 962f e6a3 072f
00000300: 5596 d933 d24c 1531 29c9 9234 f7fd 7030
00000310: d884 ee30 c307 362f 7336 e02f 1d78 1e31
00000320: 1ba0 bf2f a9c9 332f a91f 9e31 e670 d332
00000330: 03dc b635 b3d3 e32e f924 a031 ba31 0c31
00000340: f276 9630 5d6a 6830 8ac8 b32f 36e5 3a37
00000350: c543 6131 2795 aa30 2696 482e 2019 3832
00000360: 46be 9630 8890 8a31 d8c2 f72e 23d8 7e30
00000370: a7a8 0730 c468 e230 2e0e 3033 8f13 8830
00000380: 0c0e ea2f 9681 d131 286a cb35 6ccc 7231
00000390: f72d a630 66e7 902f b49a 422f 5c6d b32e
000003a0: 183a c030 7113 c033 6120 0231 b4db 3431
000003b0: 0208 7831 45ee 2b2f 938f b334 44fe c133
000003c0: d6ec da2e c4f9 fb30 c73b 1835 1503 432f
000003d0: 6a96 3233 44d4 3a30 90ad d033 3307 7630
000003e0: 9290 6a34 f40e cd31 5fdf cf36 d4d0 5f34
000003f0: 979e be30 65e4 372f bff6 4b2f ac92 4731
4.88738e-11 5.343577e-07 6.553293e-11 5.814336e-09 4.0310115e-09 1.1672338e-08 2.1518094e-08 2.6340035e-06
6.085789e-10 5.309149e-10 4.839052e-09 7.475665e-07 4.3263117e-07 1.6167543e-07 5.531959e-10 7.866499e-11
6.989456e-10 3.02315e-07 1.1048322e-06 4.2635006e-06 2.655852e-10 1.0503168e-05 5.3961897e-09 3.0076097e-10
2.4412336e-10 7.869064e-10 7.788829e-08 2.445328e-10 2.244383e-06 2.0145041e-08 1.4782624e-10 2.8151973e-08
1.663982e-09 2.0676184e-10 5.131493e-10 7.8613835e-09 2.2387812e-10 1.4139887e-09 1.0211254e-06 1.3380783e-08
1.16027785e-10 1.0450593e-10 7.4307793e-10 5.761625e-10 1.2864307e-10 8.282665e-09 8.814524e-11 1.0955606e-10
7.9380325e-09 6.7799065e-11 1.0155684e-06 8.400898e-07 3.841303e-09 1.2693159e-10 2.835364e-09 1.3641731e-10
1.319308e-08 2.6303557e-10 3.5255567e-09 7.2086026e-09 2.4852856e-10 4.404593e-10 1.0811725e-09 2.667336e-10
7.34807e-10 9.208247e-10 8.1979584e-10 4.0036072e-10 5.2178684e-09 8.821794e-11 3.2316942e-09 9.4005166e-08
4.9840486e-07 3.3339187e-10 3.2772844e-09 1.1655954e-07 5.7142718e-11 3.061908e-10 1.04663944e-10 1.1207459e-06
1.03628134e-10 1.9490014e-10 5.497948e-10 1.0672399e-08 1.5723246e-10 1.3321712e-09 4.8321314e-10 1.2494856e-09
1.748615e-08 4.637404e-11 2.2274607e-10 1.4048139e-10 5.472637e-10 1.1238309e-09 1.0977591e-08 4.0802107e-08
9.405742e-11 1.383744e-09 1.3308461e-10 5.4238637e-08 3.3655495e-10 3.1412828e-10 3.89637e-07 3.6499076e-10
6.824634e-11 2.5680453e-08 4.826339e-09 5.514529e-10 7.4803214e-10 1.8009401e-10 1.5538147e-09 4.4601735e-11
5.608788e-10 4.2808468e-10 2.1147047e-10 8.655194e-07 1.5708925e-09 1.8603475e-09 1.3888049e-10 1.136445e-07
3.8222396e-07 3.4303416e-10 1.3392727e-09 1.2065833e-10 8.5018187e-10 2.669599e-10 1.7072024e-07 9.465001e-06
6.683846e-10 2.0261251e-07 7.36042e-08 6.943423e-10 1.6330544e-09 9.0117004e-07 1.434544e-07 3.06169e-07
5.426216e-10 8.031239e-09 3.9663623e-09 4.21191e-09 4.292787e-07 1.5024385e-10 1.0065142e-08 2.501507e-10
1.33460905e-08 4.5638326e-11 1.5690532e-06 5.012712e-09 8.564535e-09 3.5171613e-08 1.2536809e-07 2.5532595e-10
6.725697e-11 1.0073554e-07 7.363434e-07 1.8400511e-09 1.729937e-08 5.8774208e-09 7.8135216e-08 4.1020732e-07
3.2074206e-07 9.72365e-09 9.48495e-10 4.760888e-10 2.5685751e-09 1.8672446e-09 3.9689008e-09 1.3382596e-09
2.3238126e-08 2.8314412e-08 1.6191087e-09 1.1201482e-09 1.4283508e-09 5.2471844e-10 3.1418304e-07 2.0152883e-07
1.387265e-09 1.3484044e-08 7.5484313e-10 1.7910978e-10 1.3528624e-10 1.7573658e-09 1.3413166e-10 4.2745793e-10
2.0694445e-10 3.5659745e-10 6.868934e-08 1.1968737e-06 5.041905e-09 1.1493528e-09 2.7330171e-10 1.2336407e-10
1.0132195e-07 2.172602e-09 2.7340982e-07 8.7672397e-10 1.7354536e-09 1.6555561e-10 4.078405e-10 2.3060303e-09
3.485646e-10 1.6351599e-10 4.6020046e-09 2.4614973e-08 1.3624089e-06 1.036037e-10 4.660816e-09 2.0400948e-09
1.0947743e-09 8.455226e-10 3.2702402e-10 1.1139831e-05 3.2780332e-09 1.241152e-09 4.5608094e-11 1.0715922e-08
1.0968015e-09 4.03276e-09 1.1266871e-10 9.271181e-10 4.9352383e-10 1.647344e-09 4.099109e-08 9.900861e-10
4.2574333e-10 6.097433e-09 1.5155574e-06 3.5331835e-09 1.2091154e-09 2.6357866e-10 1.7699159e-10 8.159404e-11
1.398635e-09 8.944233e-08 1.8935895e-09 2.6318334e-09 3.6093302e-09 1.563701e-10 3.3445812e-07 9.0335135e-08
9.955563e-11 1.8333641e-09 5.67114e-07 1.7736242e-10 4.1580655e-08 6.7968053e-10 9.7173256e-08 8.950451e-10
2.1845543e-07 5.967985e-09 6.1950846e-06 2.0844465e-07 1.3869393e-09 1.6724895e-10 1.8550404e-10 2.9041685e-09
