Results/CE/Ablation experiments/Frequency_domain/best.pt (torch, 379003 bytes, 88 tensors)

exp_avg f4 [18, 6]
-2.5532107e-05 -0.002239557 0.0011838786 -1.4136959e-05 -0.0025115658 0.0011375608 -1.2211744e-06 -0.02250234
-0.002654313 2.1679907e-05 -0.020776168 -0.0050816475 -3.8705693e-06 -0.023822384 -0.005274579 -9.730048e-06
-0.017861964 -0.007374565 -1.9203524e-05 0.0027824068 -0.0014286235 5.946363e-05 0.00052610325 -0.00035604814
-2.6083042e-05 0.016958008 0.0023887928 -2.948019e-06 0.0122790625 0.0058872076 -2.395861e-05 -0.00034397215
-0.0013736169 -7.003892e-06 0.00078845525 -0.00018848876 -7.018401e-05 -0.0011724164 0.0073979413 3.7267197e-05
0.009224976 0.011293755 -2.0449213e-05 0.003229543 -0.0027871518 4.648967e-05 0.0085874805 -0.0016132926
6.237027e-06 -0.0037627118 -0.00030588056 -4.031192e-05 0.009389111 -0.00026129643 5.812509e-05 -0.00020566929
-0.011225758 -4.68958e-05 -0.008790308 -0.0136023285 -3.25067e-05 -0.0022040498 0.005402061 3.830542e-05
-0.005596558 0.0052878093 -2.3338718e-05 -0.006858059 0.0074151345 2.8739187e-06 0.00093145046 0.008578746
5.43554e-06 0.018239513 -0.0046783923 3.831589e-05 0.008236973 -0.0027469029 -1.4490662e-06 -0.020687
0.0050591207 -5.46159e-05 -0.009982829 0.004059342 1.297053e-05 0.004644921 -0.00032233397 -1.3032759e-05
-0.0019498512 -0.00030177843 -8.911039e-06 0.010665367 -0.0036188622 -1.9673832e-06 0.0022801773 -0.003826877
-1.3267798e-05 0.018043816 -0.0059628584 4.4475226e-05 0.008328262 -0.005070747 3.6993702e-06 -0.013417722
0.0032468084 -3.0975014e-05 -0.0060365107 0.002129998
00000000: c82d d6b7 88c5 12bb 602c 9b3a c72d 6db7
00000010: 1599 24bb 351a 953a 3ce7 a3b5 d456 b8bc
00000020: fcf3 2dbb 3fdd b537 c832 aabc f383 a6bb
00000030: f0df 81b6 2927 c3bc 60d6 acbb 3d3e 23b7
00000040: 4153 92bc 56a6 f1bb 4117 a1b7 0a59 363b
00000050: a640 bbba 9668 7938 31ea 093a f9ab bab9
00000060: e8cc dab7 85eb 8a3c 4b8d 1c3b 95d6 45b6
00000070: 1f2e 493c 7ae9 c03b b9fa c8b7 2957 b4b9
00000080: ef0a b4ba f902 ebb6 56b0 4e3a 11a5 45b9
00000090: c12f 93b8 c4ab 99ba 6e6a f23b 594f 1c38
000000a0: 5b24 173c 7109 393c 5a8a abb7 bea6 533b
000000b0: a6a8 36bb e7fd 4238 81b2 0c3c 1e75 d3ba
000000c0: a747 d136 d497 76bb 985e a0b9 9814 29b8
000000d0: c9d4 193c 9dfe 88b9 57cb 7338 eea8 57b9
000000e0: 3eec 37bc fbb1 44b8 3905 10bc 4ddc 5ebc
000000f0: ce57 08b8 d271 10bb c603 b13b 22aa 2038
00000100: 5563 b7bb 5c45 ad3b 84c7 c3b7 92b9 e0bb
00000110: a8fa f23b 8cdd 4036 952c 743a de8d 0c3c
00000120: ef62 b636 086b 953c 334d 99bb 60b5 2038
00000130: 5ef4 063c 6205 34bb 897d c2b5 c977 a9bc
00000140: fbc6 a53b 6013 65b8 058f 23bc 3b04 853b
00000150: 019c 5937 6c34 983b effe a8b9 46a7 5ab7
00000160: 2692 ffba 0438 9eb9 9f80 15b7 cbbd 2e3c
00000170: 6f2a 6dbb 6307 04b6 076f 153b 58cc 7abb
00000180: c298 5eb7 a0d0 933c 1564 c3bb e98a 3a38
00000190: 4373 083c 8228 a6bb b242 7836 01d6 5bbc
000001a0: 68c8 543b 2beb 01b8 eccd c5bb 7097 0b3b

exp_avg_sq f4 [18, 6]
1.7551904e-06 0.00029893676 5.54806e-05 1.7491162e-06 0.00052579265 0.00015069266 3.521031e-05 0.003423538
0.0010041681 3.532307e-05 0.0037684124 0.00251016 2.5606e-05 0.0032453686 0.00089483365 2.5817624e-05
0.0020807988 0.0019378033 2.5532904e-06 0.0008047324 0.00012160388 2.6113692e-06 0.0017285269 0.0002777404
1.1665404e-05 0.0027874457 0.0005336122 1.1875898e-05 0.0036649674 0.0011747428 4.084809e-07 0.00020325817
2.3334691e-05 4.086932e-07 0.0005303601 4.652733e-05 5.3200716e-07 0.0004768559 0.0007005052 5.0373774e-07
0.0002969546 0.00058802334 4.294836e-07 0.00066917745 0.0007376581 4.2892378e-07 0.0013136852 0.00030646953
5.709517e-07 0.001090057 0.0010898492 6.1021933e-07 0.0016118286 0.0005024541 4.3116063e-07 0.0005526744
0.0008721852 4.3119067e-07 0.00033985407 0.00052994647 4.577158e-07 0.0013215578 0.0013849599 4.9864263e-07
0.0017802763 0.00057916803 6.59194e-07 0.00056344434 0.0010191175 6.0285316e-07 0.0005839841 0.00049444474
2.1239266e-07 0.0052281953 0.0005426651 2.0732617e-07 0.0056014066 0.00042648867 2.2180599e-07 0.0058897673
0.00066279474 2.1898383e-07 0.0060744123 0.00042230383 1.0952878e-07 0.0011228778 0.00014268344 1.068939e-07
0.0011359666 0.00023398748 1.2788267e-07 0.0014184049 0.00040806812 1.2472196e-07 0.0017304233 0.00042037969
1.6367527e-07 0.0036738273 0.0006784069 1.6490218e-07 0.0035971876 0.0004982986 1.3691314e-07 0.0028772005
0.0003418944 1.3439983e-07 0.003601278 0.00025360694
00000000: e293 eb35 9dba 9c39 d7b3 6838 2dc3 ea35
00000010: 59d5 093a 4103 1e39 c8ae 1338 705d 603b
00000020: 4a9e 833a dc27 1438 78f7 763b 7f81 243b
00000030: 77cc d637 40b0 543b 4593 6a3a ed92 d837
00000040: 035e 083b e4fd fd3a 3259 2b36 adf4 523a
00000050: 9605 ff38 fb3e 2f36 bd8f e23a af9d 9139
00000060: 87b6 4337 94ad 363b 1ce2 0b3a 983e 4737
00000070: f32f 703b d4f9 993a 304d db34 b321 5539
00000080: debe c337 5e6a db34 dd07 0b3a 5726 4338
00000090: 41cf 0e35 8402 fa39 1ca2 373a 9838 0735
000000a0: 92b0 9b39 9425 1a3a c793 e634 bd6b 2f3a
000000b0: 665f 413a d646 e634 f62f ac3a a5ad a039
000000c0: 8143 1935 3ee0 8e3a 45d9 8e3a f4cd 2335
000000d0: fe43 d33a 20b7 033a 447a e734 5ae1 103a
000000e0: 5ca3 643a 657e e734 712e b239 1bec 0a3a
000000f0: fbbb f534 1f38 ad3a 8b87 b53a 76da 0535
00000100: 2958 e93a 4fd3 173a 77f3 3035 1cb4 133a
00000110: e993 853a c1d3 2135 8216 193a a09d 013a
00000120: 0d0e 6434 4851 ab3b a341 0e3a 629d 5e34
00000130: 018c b73b 579a df39 9129 6e34 f3fe c03b
00000140: 67bf 2d3a d121 6b34 dd0b c73b a968 dd39
00000150: 1536 eb33 872d 933a 4b9d 1539 8b8d e533
00000160: b7e4 943a 895a 7539 1f50 0934 c5e9 b93a
00000170: faf1 d539 50eb 0534 5fcf e23a 6866 dc39
00000180: b7be 2f34 98c4 703b 1ed7 313a f70f 3134
00000190: cbbe 6b3b 41a0 023a 6602 1334 6a8f 3c3b
000001a0: 4a40 b339 8b4f 1034 6b03 6c3b 8cf6 8439

exp_avg f4 [18]
0.0022926494 -0.0073403628 -0.010369241 -0.0069483914 -7.11726e-05 -0.004574578 2.7858438e-10 3.834286e-11
2.1559485e-10 8.290544e-11 -3.928071e-10 3.584562e-10 0.069905125 -0.10809464 -0.015302938 0.06565063
0.12516934 -0.06344749
00000000: 4640 163b 6d87 f0bb c0e3 29bc 55af e3bb
00000010: 8042 95b8 57e6 95bb 4427 992f 39a2 282e
00000020: 8e0c 6d2f 9d4f b62e aff2 d7af 3a10 c52f
00000030: 6b2a 8f3d b960 ddbd 2db9 7abc d673 863d
00000040: 642c 003e c2f0 81bd

exp_avg_sq f4 [18]
0.00041668367 0.0025483973 0.0013481164 0.001551549 0.0028018942 0.00042095777 2.2141388e-17 1.9794262e-17
3.6174114e-17 2.749719e-17 3.0296e-17 2.0679952e-17 0.42705134 0.5009968 0.0859677 0.17756048
0.34972227 0.2670874
00000000: 5676 da39 0303 273b 48b3 b03a 585d cb3a
00000010: fc9f 373b ffb3 dc39 e037 cc23 e191 b623
00000020: dbd2 2624 e79d fd23 34b7 0b24 28bd be23
00000030: 79a6 da3e 5441 003f d50f b03d 6ad2 353e
00000040: cc0e b33e aebf 883e

exp_avg f4 [6, 6]
0.01610706 -0.017919792 0.0060878424 0.015285484 0.0005213614 -0.00031242674 0.0062437044 -0.0072827027
0.0024139474 0.008027724 0.0013013755 -0.00063874957 -0.013464837 0.0124274 -0.0029833026 -0.011886225
0.00079675956 -0.0030110853 -0.0270749 0.027166158 -0.002713343 -0.025734583 -0.0014334058 0.0004906046
-0.004100707 0.006072884 -0.0057887924 -0.0050904066 -0.0028449616 0.001424039 0.011759303 -0.0134840645
0.0011420787 0.013526284 0.0013265276 -0.0016855164
00000000: f4f2 833c 87cc 92bc 867c c73b f76f 7a3c
00000010: f9ab 083a 35cd a3b9 fd97 cc3b bda3 eebb
00000020: 5133 1e3b b786 033c ea92 aa3a c271 27ba
00000030: 9f9b 5cbc 4b9c 4b3c 8383 43bb 71be 42bc
00000040: a1dd 503a a155 45bb 2ecc ddbc 908b de3c
00000050: 57d2 31bb 55d1 d2bc 1ee1 bbba eb9b 003a
00000060: 395f 86bb 0bff c63b e9af bdbb 6dcd a6bb
00000070: 8972 3abb d2a6 ba3a 17aa 403c 44ec 5cbc
00000080: cdb1 953a 599d 5d3c e1de ad3a 8cec dcba

exp_avg_sq f4 [6, 6]
0.011876152 0.013591337 0.0006660817 0.0143261105 0.0002942757 0.00036351796 0.0007363769 0.0012973024
0.0009653233 0.0014815872 0.00010965166 9.0971116e-05 0.0074380627 0.009588308 0.002104531 0.00967572
0.00022221336 0.00017631894 0.013211749 0.014734158 0.00069000473 0.016543856 0.0003697309 0.00049918133
0.00059988187 0.00076174317 0.0007946848 0.0007522116 5.2966832e-05 0.00010055266 0.0019490202 0.00232274
0.0005331393 0.0023830761 0.00025837592 0.00035068134
00000000: 3194 423c 33ae 5e3c fc9b 2e3a 10b8 6a3c
00000010: 0449 9a39 8e96 be39 6b09 413a 3f0a aa3a
00000020: c00d 7d3a d131 c23a c9f4 e538 bfc7 be38
00000030: feba f33b 4718 1d3c 2cec 093b e986 1e3c
00000040: f201 6939 41e2 3839 1776 583c 8a67 713c
00000050: 6fe1 343a fb86 873c 71d8 c139 7edb 023a
00000060: 6441 1d3a b8af 473a 6552 503a 1130 453a
00000070: b428 5e38 ccdf d238 4476 ff3a 1c39 183b
00000080: 5fc2 0b3a 622d 1c3b a176 8739 a7db b739

exp_avg f4 [6]
0.13118564 0.046395376 -0.03665276 -0.1890713 -0.038287573 0.12278422
00000000: 8755 063e 1409 3e3d 3421 16bd e89b 41be
00000010: 6ed3 1cbd 4b76 fb3d

exp_avg_sq f4 [6]
0.9976431 0.0481292 0.42082602 1.1117154 0.032085687 0.21184285
00000000: 8a65 7f3f 2023 453d 8276 d73e b14c 8e3f
00000010: 486c 033d 55ed 583e

exp_avg f4 [2048, 6]
-0.00036549126 -0.00063715864 -8.984585e-05 0.00053015765 -8.4213796e-05 0.00075752934 -0.0011919107 0.002066168
-0.0006828971 -0.0004343637 -0.00090018666 0.00012236947 0.000624493 -0.00023827283 0.0006567076 -0.0007338533
-0.0003660443 0.0003725631 0.0018069822 0.0011995032 -0.0009572732 -0.0002920231 -0.0003407588 -0.0013142924
-0.00035912625 -0.00035012665 3.462524e-05 0.00047308314 8.670197e-05 -0.00014565354 0.00025749774 -0.0008761725
0.00010202401 0.0003674149 -0.00035569642 0.00084270333 0.00043372292 0.0006899783 8.215306e-05 -0.00043308048
-0.00058451405 -0.00018178146 0.0031639554 -0.0024238408 0.0009276626 -4.741483e-06 -0.0005589197 0.00090826186
-0.00027683307 -0.0010554004 0.001134308 0.0013016063 -0.00024735017 -0.0004952248 0.0002317903 0.00013532912
5.9609574e-05 -8.191802e-05 -0.00018793182 -6.300556e-05 0.004741661 0.004431172 -0.0016762231 -0.003570875
-0.0037555997 -6.193156e-05 0.0031769883 0.0026363197 -0.003470499 -0.002514165 -0.0007481935 0.0004259934
4.230877e-05 -0.0006257295 -2.8856559e-05 0.00029694365 0.00027099162 0.00021548854 0.00057222816 0.00047377264
-0.00024984984 -0.00033616932 -0.00036270145 5.422719e-06 -0.00090495887 0.0010271207 -0.000538992 -0.0006763569
0.0011261839 -0.0010699407 -5.9701296e-07 0.00035924723 -0.00037685607 -1.9411453e-05 0.00016658458 -0.000286914
-7.941108e-05 0.0052359896 -0.0011788307 -0.005763667 0.0020798119 -0.003343508 0.00020223823 0.0008004657
-0.00051546976 -0.0007238657 -0.00019255785 3.3068678e-05 0.000647344 0.002487774 -0.0010896669 -0.00041442752
-0.00078633666 -0.0017236018 -0.0004335316 0.0012111032 -0.00032543726 -0.0007839403 2.9131566e-05 -0.00020428869
-0.00032562675 -2.8874356e-06 -8.506461e-06 -0.0008689455 0.0011244222 -0.00017981202 0.0015700305 5.312691e-05
-0.0011778444 -0.00029135257 7.4113974e-05 -3.0187266e-05 -4.8715887e-05 -1.7991972e-05 -2.7115957e-05 0.00010486964
8.429332e-06 -0.00013031444 0.0020298508 -0.00071834825 0.00055940263 -0.00023966935 -0.0018637151 0.0015684749
0.00019149767 -0.00095174415 -0.0003025431 -0.0005013226 0.0014582061 0.00010824357 0.00012488829 0.00023703027
-0.0003555126 -6.1030867e-05 0.00062223733 -0.0007688015 0.002470502 -0.00348866 0.0024566315 -0.0011189678
0.0019909225 -0.0006609396 2.1450522e-05 -5.3953234e-05 0.00017389946 5.6192646e-05 -0.00017915416 5.3031123e-05
-0.0015570852 -0.0005589699 -0.00042930592 0.000569915 0.0018990694 -0.00077294704 0.00066816446 0.0008434863
9.0051435e-05 -0.0011333731 -0.0011339317 0.00061050983 0.0016324423 0.0016697899 -0.00038971423 -0.0013059691
-0.0015022744 -9.521204e-05 0.0007078526 -0.0021650365 0.0014238023 0.0017138142 -0.0006191187 0.00033143975
3.2490996e-05 0.0009094415 -0.00015141506 0.0005799617 -0.0014761238 0.00020970155 0.00026095088 -0.0009821358
1.2163542e-05 0.0005260241 -0.000116636606 0.0007327836 0.0006111482 -0.00022150319 0.00020649505 -4.3383774e-05
0.0005075202 -0.0009592629 -3.7899987e-05 -0.00095476786 -0.0002613508 -0.0014573685 0.002499861 -0.000206363
-2.7581906e-05 -0.0013551796 -3.8959373e-05 -0.0008030813 0.0026306254 -0.0004526085 0.00034024022 9.323274e-05
8.2267594e-05 0.00023151442 -0.000722891 0.00019720118 0.00014873828 -0.00017656315 2.3737273e-05 5.3081818e-05
2.0134159e-05 2.6192907e-05 0.00018393018 -0.00011704167 1.5494745e-05 -0.00034143895 0.000529244 -0.00035894377
-0.00027217894 0.0013922638 0.0006760416 -0.0024515188 0.00086346135 -0.0012197712 0.0006463525 0.0019485987
-0.0010413494 -0.0009969282 -0.0008113492 -0.00047019834 3.5956073e-05 0.0006630678 6.0493527e-05 6.321959e-05
00000000: 689f bfb9 fe06 27ba a06b bcb8 47fa 0a3a
00000010: f09b b0b8 ef94 463a e339 9cba 8c68 073b
00000020: 7304 33ba 4fbb e3b9 81fa 6bba 4e50 0039
00000030: 04b5 233a e0d8 79b9 e726 2c3a 1060 40ba
00000040: a2e9 bfb9 9354 c339 43d8 ec3a a638 9d3a
00000050: 84f1 7aba ad1a 99b9 dfa7 b2b9 5644 acba
00000060: 1c49 bcb9 3491 b7b9 913a 1138 2508 f839
00000070: c4d3 b538 93ba 18b9 c300 8739 f1ae 65ba
00000080: b9f5 d538 98a1 c039 c47c bab9 dde8 5c3a
00000090: 4e65 e339 a9df 343a 9749 ac38 140f e3b9
000000a0: 133a 19ba 979c 3eb9 5d5a 4f3b 4dd9 1ebb
000000b0: 622e 733a 0719 9fb6 7784 12ba 6c18 6e3a
000000c0: e823 91b9 5c55 8aba 10ad 943a a99a aa3a
000000d0: c7ae 81b9 f9d1 01ba bc0c 7339 22e7 0d39
000000e0: 4b05 7a38 67cb abb8 900f 45b9 da21 84b8
000000f0: ef5f 9b3b 5d33 913b b7b4 dbba 5705 6abb
00000100: 8220 76bb 41e1 81b8 0535 503b 1bc6 2c3b
00000110: 5071 63bb b0c4 24bb 6a22 44ba de57 df39
00000120: b274 3138 ff07 24ba fd10 f2b7 1aaf 9b39
00000130: e113 8e39 c4f4 6139 9501 163a b064 f839
00000140: 47fe 82b9 e23f b0b9 f728 beb9 cdf4 b536
00000150: c33a 6dba 74a0 863a 244b 0dba 8b4d 31ba
00000160: 769c 933a 413d 8cba 6b42 20b5 5959 bc39
00000170: c494 c5b9 c7d5 a2b7 35ad 2e39 f26c 96b9
00000180: 8089 a6b8 aa92 ab3b ff82 9aba 25dd bcbb
00000190: 744d 083b c21e 5bbb e90f 5439 58d6 513a
000001a0: 9720 07ba cec1 3dba 5be9 49b9 39b3 0a38
000001b0: 85b2 293a ec09 233b 27d3 8eba 8547 d9b9
000001c0: 2922 4eba 7bea e1ba a04b e3b9 e1bd 9e3a
000001d0: 739f aab9 5881 4dba 905f f437 5436 56b9
000001e0: e2b8 aab9 c4c5 41b6 f9b6 0eb7 f2c9 63ba
000001f0: 5961 933a ec8b 3cb9 7bc9 cd3a 96d4 5e38
00000200: e661 9aba aec0 98b9 a36d 9b38 a93a fdb7
00000210: 4954 4cb8 77ed 96b7 1377 e3b7 76ed db38
00000220: b56b 0d37 04a5 08b9 3f07 053b 894f 3cba
00000230: e0a4 123a c04f 7bb9 e747 f4ba 4995 cd3a
00000240: c4cc 4839 787e 79ba a69e 9eb9 316b 03ba
00000250: 4721 bf3a d300 e338 72f4 0239 548b 7839
00000260: 1864 bab9 65fb 7fb8 a41d 233a 6589 49ba
00000270: 25e8 213b 01a2 64bb 70ff 203b 54aa 92ba
00000280: 237a 023b e842 2dba a5f0 b337 d84b 62b8
00000290: c858 3639 65b0 6b38 54db 3bb9 bc6d 5e38
000002a0: 1c17 ccba d687 12ba 7714 e1b9 5966 153a
000002b0: 32ea f83a 999f 4aba c227 2f3a 681d 5d3a
000002c0: ffd9 bc38 b18d 94ba 6fa0 94ba 9f0a 203a
000002d0: adf7 d53a dadc da3a 8f52 ccb9 0d2d abba
000002e0: f7e7 c4ba 93ac c7b8 2f8f 393a 49e3 0dbb
000002f0: e19e ba3a 10a2 e03a 5a4c 22ba 17c5 ad39
00000300: f146 0838 9667 6e3a 2cc5 1eb9 9208 183a
00000310: 7f7a c1ba 55e3 5b39 3cd0 8839 02bb 80ba
00000320: 0412 4c37 e1e4 093a cd9a f4b8 4618 403a
00000330: 7635 203a 4f43 68b9 9886 5839 f9f6 35b8
00000340: 1b0b 053a 0b77 7bba cdf6 1eb8 6349 7aba
00000350: e905 89b9 2c05 bfba b5d4 233b 2563 58b9
00000360: b15f e7b7 48a0 b1ba 4f68 23b8 e085 52ba
00000370: 9266 2c3b 164c edb9 4562 b239 f285 c338
00000380: 1487 ac38 aec2 7239 6580 3dba cac7 4e39
00000390: a1f6 1b39 cf23 39b9 681f c737 2ba4 5e38
000003a0: c7e5 a837 d7b8 db37 62dd 4039 4574 f5b8
000003b0: b6fa 8137 2903 b3b9 f7bc 0a3a 9e30 bcb9
000003c0: 3db3 8eb9 9f7c b63a 6238 313a a9a9 20bb
000003d0: e959 623a bbe0 9fba fb6f 293a 1f68 ff3a
000003e0: e37d 88ba 5cab 82ba b9b0 54ba f484 f6b9
000003f0: 8acf 1638 bad1 2d3a 6eba 7d38 c294 8438

exp_avg_sq f4 [2048, 6]
1.7404122e-05 3.2356795e-05 5.7816765e-06 8.461571e-06 2.690296e-05 2.2160071e-05 5.0445113e-05 0.00016328965
1.2865111e-05 3.1759494e-06 2.334081e-05 5.7275734e-05 1.0270305e-05 1.2688825e-05 3.5207934e-06 1.488668e-05
1.27526655e-05 6.2127287e-06 9.235839e-05 0.0002324187 6.488016e-05 4.3252072e-05 8.850864e-05 5.8858004e-05
3.637942e-06 1.5187842e-06 1.3882161e-06 8.223765e-06 1.6100025e-06 2.6280059e-06 2.954288e-06 4.451543e-06
1.4579742e-06 5.651097e-06 3.539039e-06 7.0694796e-06 1.0996883e-05 1.40043085e-05 1.6182756e-06 3.56091e-06
2.1432648e-05 1.7996178e-06 0.00024235735 3.5879468e-05 2.6833537e-05 5.522623e-05 1.6647691e-05 1.35422415e-05
1.13534625e-05 1.3737963e-05 1.3610033e-05 1.7147368e-05 6.2833597e-06 8.114586e-06 3.2687717e-06 1.8944459e-06
2.9252024e-07 3.0085582e-06 1.3250739e-06 3.344318e-06 0.00027527803 0.000380487 9.231133e-05 0.00013279312
0.00028328283 1.6329324e-05 0.00029083175 0.00044984237 0.0003704475 0.00012995223 0.00033830391 5.9020025e-05
4.3900073e-07 6.4445476e-06 3.982141e-07 2.0119824e-06 3.2586581e-06 4.476308e-07 6.4836286e-06 7.280488e-06
2.7934254e-06 3.5391306e-06 4.794678e-06 1.8003678e-06 9.436263e-06 2.1329934e-05 1.1593352e-05 1.3163355e-05
4.4144934e-05 2.7373691e-05 4.397584e-05 6.9070147e-06 1.6611099e-05 3.9534475e-06 3.7174034e-06 8.41679e-06
3.44486e-05 0.00016531069 1.533662e-05 0.00035356928 5.66912e-05 4.94137e-05 2.1834125e-05 3.2304353e-05
7.833332e-06 1.1914845e-05 4.1118667e-05 7.241974e-06 4.2752814e-05 6.5545966e-05 6.6608e-05 2.697905e-05
0.00011589104 6.95128e-05 9.60263e-07 1.2125718e-05 1.399093e-06 9.408096e-06 2.2742984e-06 1.970633e-06
1.6859507e-05 2.3793138e-05 7.0185924e-06 1.8742692e-05 2.5646083e-05 2.390559e-05 5.406746e-05 4.0571715e-05
4.2605763e-05 7.385754e-06 4.715461e-05 9.809331e-06 1.2127939e-06 7.4959263e-07 2.3983276e-07 8.3876336e-07
1.0455556e-06 6.430713e-07 3.750332e-05 4.208359e-06 3.3631843e-06 4.106386e-06 5.9682858e-05 5.1417577e-05
2.0117823e-06 1.5229638e-05 6.100116e-06 1.908323e-05 7.270672e-05 1.6394557e-06 6.2975355e-06 9.433485e-06
1.5002205e-06 5.856265e-07 9.288098e-06 1.882903e-06 5.25387e-05 0.00029096843 4.43762e-05 6.964038e-05
0.0002547815 1.6450595e-05 1.9127701e-06 9.572376e-07 3.5628491e-07 5.6666386e-07 1.0503301e-06 2.8578668e-07
2.9290868e-05 1.3300738e-05 4.695098e-06 7.5677235e-06 3.4314606e-05 1.9817126e-05 1.7791961e-05 6.617145e-05
4.7124377e-06 2.592487e-05 5.8453385e-05 1.9741436e-05 3.191932e-05 3.9328996e-05 1.4886391e-05 1.618657e-05
3.9217306e-05 3.2759108e-06 8.5536165e-05 9.357774e-05 4.6975354e-05 0.0002702748 4.021442e-05 8.303495e-05
1.9891542e-05 4.9791262e-05 7.0030433e-06 5.5157907e-06 1.7211756e-05 7.478704e-06 3.857588e-06 8.209767e-06
1.6388191e-06 6.246928e-06 6.1796445e-06 5.5908226e-06 1.8310651e-05 2.8899582e-05 5.628678e-06 5.8336527e-06
4.0121704e-05 7.759748e-06 1.8022563e-06 1.1292142e-05 2.2650695e-06 4.6685007e-05 9.298702e-05 4.316137e-06
8.455343e-06 6.311832e-05 9.539612e-06 2.5617175e-05 0.0001374014 1.3218178e-05 1.4165283e-06 9.411151e-06
9.166441e-07 1.5506341e-06 6.4707906e-06 1.8154786e-06 3.9559577e-06 9.4431147e-07 9.72177e-07 8.875778e-07
8.7482425e-07 8.1601166e-07 6.980671e-06 3.9494607e-06 4.6206648e-07 1.1419702e-05 5.857492e-06 8.010106e-07
5.711036e-06 1.6928037e-05 1.351605e-05 8.905416e-05 3.55184e-05 1.0682941e-05 4.4808257e-05 0.00010622763
4.5804107e-05 2.6566659e-05 7.434979e-05 1.3389234e-05 4.195856e-05 1.314664e-05 1.4836254e-06 2.3641263e-05
00000000: 11ff 9137 d8b6 0738 3900 c236 2cf6 0d37
00000010: abad e137 64e4 b937 0795 5338 bb38 2b39
00000020: 3bd7 5737 6522 5536 02cc c337 5a3b 7038
00000030: a04e 2c37 17e2 5437 c546 6c36 cec1 7937
00000040: 48f4 5537 ef76 d036 88b0 c138 6bb5 7339
00000050: 4510 8838 8f69 3538 b79d b938 4dde 7638
00000060: 5e23 7436 07d9 cb35 be52 ba35 cdf8 0937
00000070: 4417 d835 cc5c 3036 4842 4636 775e 9536
00000080: 9daf c335 8e9e bd36 3a80 6d36 5e36 ed36
00000090: 417f 3837 0cf4 6a37 8733 d935 f8f7 6e36
000000a0: 43ca b337 668a f135 4e21 7e39 497d 1638
000000b0: 9518 e137 b7a2 6738 a5a6 8b37 7c33 6337
000000c0: c07a 3e37 1a7c 6637 a656 6437 b1d7 8f37
000000d0: a6d5 d236 e223 0837 125d 5b36 aa44 fe35
000000e0: ad0b 9d34 a3e6 4936 31d9 b135 f26e 6036
000000f0: 3153 9039 1a7c c739 4597 c138 623e 0b39
00000100: 9485 9439 f5fa 8837 c77a 9839 d2d8 eb39
00000110: 9f38 c239 c943 0839 625e b139 458c 7738
00000120: cdaf eb34 3e3e d836 21ca d534 9805 0736
00000130: 52af 5a36 e951 f034 f28d d936 ea4a f436
00000140: af76 3b36 cd81 6d36 f8e1 a036 2ba4 f135
00000150: 7150 1e37 afed b237 1181 4237 2ed8 5c37
00000160: 4328 3938 8ea0 e537 b372 3838 cec2 e736
00000170: 1058 8b37 dba7 8436 8178 7936 d635 0d37
00000180: e77c 1038 4057 2d39 24a7 8037 445f b939
00000190: b6c7 6d38 8e41 4f38 6d28 b737 897e 0738
000001a0: e86b 0337 dfe5 4737 d576 2c38 1500 f336
000001b0: 7c51 3338 b975 8938 e6af 8b38 1251 e237
000001c0: 870a f338 66c7 9138 63e2 8035 906f 4b37
000001d0: 78c8 bb35 77d7 1d37 26a0 1836 383f 0436
000001e0: 846d 8d37 6097 c737 4081 eb36 a039 9d37
000001f0: 8b22 d737 dd88 c837 7ec6 6238 8c2b 2a38
00000200: 97b3 3238 25d3 f736 e0c7 4538 c192 2437
00000210: 48c7 a235 9d37 4935 5dc2 8034 6127 6135
00000220: 0455 8c35 869f 2c35 e24c 1d38 8735 8d36
00000230: 11b3 6136 96c9 8936 fb53 7a38 34a9 5738
00000240: 2802 0736 cc82 7f37 99af cc36 ed14 a037
00000250: 207a 9838 450b dc35 6b4f d336 8244 1e37
00000260: 2f5b c935 f233 1d35 14d4 1b37 0eb8 fc35
00000270: 005d 5c38 1f8d 9839 9520 3a38 e50b 9238
00000280: 3294 8539 62ff 8937 245d 0036 6f7a 8035
00000290: 6d47 bf34 d81c 1835 11f9 8c35 396e 9934
000002a0: a9b5 f537 3c26 5f37 968a 9d36 40ee fd36
000002b0: 07ed 0f38 f43c a637 f23f 9537 87c5 8a38
000002c0: 881f 9e36 3c79 d937 d82b 7538 699a a537
000002d0: 1ce1 0538 30f5 2438 90c0 7937 65c8 8737
000002e0: 437d 2438 b8d7 5b36 e161 b338 2b3f c438
000002f0: 6707 4538 abb3 8d39 e8ab 2838 0d23 ae38
00000300: c3dc a637 f6d6 5038 affb ea36 4814 b936
00000310: f761 9037 94f1 fa36 6e70 8136 aebc 0937
00000320: 65f5 db35 b49c d136 be5a cf36 cd98 bb36
00000330: d399 9937 616d f237 fadd bc36 b2be c336
00000340: 5a48 2838 dd2f 0237 0ee5 f135 6173 3d37
00000350: 9901 1836 a5cf 4338 0702 c338 56d3 9036
00000360: 6cdb 0d37 645e 8438 520c 2037 77e4 d637
00000370: 6813 1039 a4c3 5d37 8b1f be35 96e4 1d37
00000380: 4e0f 7635 621f d035 ab1f d936 5fab f335
00000390: 6bbd 8436 977c 7d35 bf7b 8235 e241 6e35
000003a0: 77d5 6a35 e50b 5b35 823b ea36 9c85 8436
000003b0: ef11 f834 3f97 3f37 798b c436 0705 5735
000003c0: 6da1 bf36 af00 8e37 fec2 6237 97c2 ba38
000003d0: 97f9 1438 e23a 3337 80f0 3b38 86c6 de38
000003e0: c91d 4038 77db de37 3dec 9b38 52a2 6037
000003f0: a9fc 2f38 6490 5c37 fb20 c735 3a51 c637

exp_avg f4 [2048]
-0.0010241576 -0.0015580546 0.00055415166 0.0013880456 -0.0010958499 -0.00079936837 0.0005789402 0.0026198297
-0.0014258884 0.00033849134 0.0051444895 0.0029862772 -0.00036933768 0.00063863304 0.0004276152 0.00022449279
0.005756353 0.00014983666 0.0003679606 0.00078224274 0.0011826615 0.0013406044 -0.0002841336 0.00164512
0.0009783445 0.000491419 0.004087677 3.2718737e-05 -0.002084912 0.00092774816 0.0017430007 -0.0007304208
-0.0011604639 -0.0010528504 0.00035339114 0.0018545683 0.0018721347 -0.00015938096 0.00020818431 0.0007080498
0.0028019836 0.00042740558 0.00024185765 -0.0009449639 0.0008145735 0.002763294 -0.0006094305 0.00064000936
-0.0018578913 -0.0010927257 0.0016510034 0.00047002322 0.00028122746 0.00063478685 0.00010117074 -0.0007516678
0.0010555522 -0.0029235864 -0.0016259803 -0.0008219507 0.0009264264 0.00012229574 0.001550093 0.0003836217
0.002850304 -0.0006590169 -0.001188097 -0.0020944055 -0.0007316126 0.0007020401 -0.000936215 0.0003407924
-0.0019543197 0.0010081017 0.0023600946 0.0020338772 -3.7687743e-05 0.0006169619 0.0009349728 0.0011893638
0.00017831624 -0.0008437806 0.000515334 -0.0019418148 0.00088750187 -0.00054965995 0.0026611781 0.00053498795
0.000100985904 -0.00024430812 0.0022641348 -1.1862472e-05 6.418925e-05 4.466754e-05 -0.0010903894 0.0012438296
-0.0016444228 0.0030721775 9.600179e-06 0.0023335766 -0.0009807902 -8.795168e-05 -0.00047548837 -0.0017201023
-0.00024297733 -0.0024057736 -0.0012285605 0.0007769339 -0.00013540163 0.0005237453 0.005357488 0.00012695811
-0.0002575522 0.0027987924 -0.0019647893 0.0021373252 5.573198e-05 -0.001606469 -0.0009515097 -0.0006017201
0.0030501653 6.450379e-05 0.00060082204 0.00034624716 0.004129007 0.00059065147 0.0017739038 0.0006213199
0.000976567 0.0015164479 -0.0017577382 -0.0012523374 7.430052e-05 0.00058904296 -0.0003829211 0.0014499122
0.0005633591 -0.00082473375 -0.00065647933 0.00052590703 -4.1277777e-05 -0.00030677265 5.8963902e-05 0.0004209264
-0.0004920652 0.0003251253 1.6910317e-05 -0.0007624244 -0.0008959908 -0.0014201112 -0.00041689764 0.000592804
-0.00046875022 0.0012242494 -0.0021121486 -0.0021638663 -0.0002544376 0.00050462625 -0.0005278203 -5.8933283e-06
0.00057394354 0.0010082066 -0.00240869 0.0010074133 -6.2370887e-06 -0.0018172936 -0.0017253307 0.00011304964
-0.0025635853 0.0024826732 4.0485447e-05 0.00792347 -8.542356e-05 0.0024762207 0.0040431507 -6.0808514e-05
1.6692838e-05 -0.0016571442 0.0014253043 0.0007204023 -0.0006776335 -0.0003238722 -7.527068e-05 -0.00013414068
-0.00042319033 -0.0018656312 9.633923e-05 -0.0008156493 4.7868365e-05 3.854733e-05 0.00029842302 -0.00030990862
-0.0027363428 -7.704274e-05 -0.0015608848 -0.0019891288 -0.0008795759 -0.00014284182 0.0005410088 0.00018153645
-0.0009509646 -0.00031845248 0.0013084947 -0.00017856066 0.002853612 -0.0012987724 -0.0017328084 0.0006212103
0.00064099394 -0.00013870078 -0.0006756276 -0.0014595484 -0.0010982708 0.0003292944 0.0011845789 -0.00061120966
0.0003711949 0.0010049177 -0.00063810335 0.0037133263 -0.0009029542 0.0010790305 -0.0010784463 -0.0020450058
0.0008843332 0.0064504477 0.0046704523 -0.0010888661 -0.00010139831 -9.06921e-05 -0.0031850191 -0.00023331465
0.0016277281 -0.00034900935 -0.0029003057 1.0986477e-05 -0.0010008352 0.0009906284 0.0022968522 0.0031017703
-0.0027985922 0.0007576672 -0.0009639769 -0.001080601 -0.0018462858 -0.0012761517 -0.0025233033 0.0011331255
0.0006594651 -0.00053872855 -0.0009900919 0.0010386708 0.0015154808 -6.3557522e-06 0.0042220317 0.00041598664
00000000: 073d 86ba a337 ccba 7d44 113a 15ef b53a
00000010: 9fa2 8fba b48c 51ba 05c4 173a 73b1 2b3b
00000020: e0e4 baba 8a77 b139 1b93 a83b 6bb5 433b
00000030: aaa3 c1b9 f069 273a 8a31 e039 d365 6b39
00000040: ca9f bc3b 791d 1d39 d6ea c039 6c0f 4d3a
00000050: 8903 9b3a 38b7 af3a c4f7 94b9 11a1 d73a
00000060: cb3b 803a 92d2 003a ecf1 853b 7a3b 0938
00000070: 05a3 08bb 2034 733a 6675 e43a b679 3fba
00000080: b51a 98ba ccff 89ba 5b47 b939 fc14 f33a
00000090: 6b62 f53a 801f 27b9 0d4c 5a39 6b9c 393a
000000a0: 7ca1 373b 6815 e039 2b9b 7d39 74b7 77ba
000000b0: 1a89 553a 6118 353b 30c2 1fba 4dc6 273a
000000c0: 7d84 f3ba ca39 8fba 7b66 d83a 736d f639
000000d0: b671 9339 d367 263a a12b d438 920b 45ba
000000e0: 745a 8a3a a499 3fbb d81e d5ba 2e78 57ba
000000f0: 6cdb 723a 833c 0039 7d2c cb3a d520 c939
00000100: 2acc 3a3b e0c1 2cba ecb9 9bba 4b42 09bb
00000110: b1c9 3fba 1d09 383a 536c 75ba 62ac b239
00000120: 0b14 00bb 4822 843a d1ab 1a3b cc4a 053b
00000130: e812 1eb8 9dbb 213a f618 753a 6de4 9b3a
00000140: 67fa 3a39 2831 5dba 7b17 073a 7e84 feba
00000150: 3ea7 683a 0e17 10ba 2967 2e3b 6f3e 0c3a
00000160: 65c8 d338 7b16 80b9 e161 143b ee04 47b7
00000170: 579d 8638 6859 3b38 66eb 8eba ff07 a33a
00000180: ac89 d7ba 9656 493b 7410 2137 ebee 183b
00000190: dc8d 80ba b372 b8b8 f84a f9b9 0e75 e1ba
000001a0: bbc7 7eb9 2faa 1dbb a607 a1ba 27ab 4b3a
000001b0: 99fa 0db9 f44b 093a de8d af3b 0f20 0539
000001c0: 1208 87b9 f26b 373b b2c3 00bb 5e12 0c3b
000001d0: c2c1 6938 2890 d2ba bc6e 79ba c1bc 1dba
000001e0: 48e5 473b 3546 8738 7c80 1d3a 8288 b539
000001f0: 9f4c 873b f3d5 1a3a 5682 e83a 13e0 223a
00000200: 2700 803a 8cc3 c63a e863 e6ba 7825 a4ba
00000210: cad1 9b38 016a 1a3a cdc2 c8b9 fb0a be3a
00000220: 64ae 133a f232 58ba 9517 2cba 06dd 093a
00000230: ad21 2db8 54d6 a0b9 0250 7738 c9af dc39
00000240: f0fd 00ba 9475 aa39 a1da 8d37 6fdd 47ba
00000250: ede0 6aba 0623 baba 0e93 dab9 6766 1b3a
00000260: 97c2 f5b9 fe76 a03a f96b 0abb a7cf 0dbb
00000270: 0966 85b9 e548 043a 6c5d 0aba 4ebf c5b6
00000280: b374 163a cd25 843a 1ddb 1dbb 2e0b 843a
00000290: 2f48 d1b6 4132 eeba 7e24 e2ba 1015 ed38
000002a0: d301 28bb 58b4 223b ebce 2938 71d1 013c
000002b0: 6d25 b3b8 1748 223b 687c 843b a50c 7fb8
000002c0: 9907 8c37 8834 d9ba 47d1 ba3a 61d9 3c3a
000002d0: 37a3 31ba 64cd a9b9 a3da 9db8 1da8 0cb9
000002e0: a5df ddb9 3288 f4ba bb09 ca38 4cd1 55ba
000002f0: 44c6 4838 e1ad 2138 a975 9c39 3b7b a2b9
00000300: 3754 33bb 0292 a1b8 9a96 ccba 0b5c 02bb
00000310: 5793 66ba cfc7 15b9 7cd2 0d3a d25a 3e39
00000320: 274a 79ba f8f5 a6b9 cc81 ab3a 033c 3bb9
00000330: aa03 3b3b 923b aaba 671f e3ba b8d8 223a
00000340: 6008 283a 3570 11b9 9a1c 31ba 514e bfba
00000350: daf3 8fba 25a5 ac39 df43 9b3a 9639 20ba
00000360: f09c c239 71b7 833a 6446 27ba 475b 733b
00000370: 3bb4 6cba 416e 8d3a a75a 8dba 8105 06bb
00000380: 99d2 673a 475e d33b 980a 993b 49b8 8eba
00000390: cea5 d4b8 f331 beb8 c1bb 50bb eda5 74b9
000003a0: 7e59 d53a 3efb b6b9 0e13 3ebb 8f52 3837
000003b0: 752e 83ba f9d7 813a c986 163b 1247 4b3b
000003c0: 9668 37bb 2f9e 463a 65b3 7cba f4a2 8dba
000003d0: 12ff f1ba 8c44 a7ba 015e 25bb 6285 943a
000003e0: f4df 2c3a 7639 0dba f9c5 81ba 0224 883a
000003f0: 19a3 c63a 7f43 d5b6 f858 8a3b c818 da39

exp_avg_sq f4 [2048]
4.781636e-05 9.963625e-05 3.4292545e-05 0.000130676 2.8113396e-05 2.7237997e-05 1.447077e-05 0.00036659223
4.923599e-05 1.2703454e-05 0.0003516673 0.00018060477 6.3375446e-06 1.26174145e-05 4.0843126e-05 1.8936782e-05
0.00048656072 2.183459e-05 1.4808973e-05 7.81443e-06 9.1979105e-05 4.978983e-05 4.3986024e-06 4.5628494e-05
3.66762e-05 1.170609e-05 0.00033352763 3.1053569e-06 7.4565825e-05 1.0452774e-05 2.5924683e-05 0.00046245733
5.845667e-05 3.8911865e-05 4.125218e-05 6.330705e-05 5.25168e-05 9.275481e-06 1.0592756e-05 2.4473913e-05
0.00014689422 2.395e-05 7.258209e-05 2.4569323e-05 2.0716465e-05 0.00014651538 4.0334242e-05 1.7074179e-05
7.367627e-05 3.5352692e-05 2.9128088e-05 1.0670574e-05 3.1179265e-05 2.7331089e-05 0.00020302669 1.6275297e-05
3.5274505e-05 0.00012548637 7.848727e-05 2.5102125e-05 2.4997116e-05 1.7086833e-06 3.167627e-05 4.399239e-06
0.00020613834 1.0437248e-05 4.7563004e-05 7.2633506e-05 1.2468721e-05 3.199115e-05 5.427615e-05 1.1110478e-05
6.751442e-05 1.6841417e-05 8.36713e-05 9.620203e-05 1.0238159e-06 2.1906504e-05 7.1648115e-05 3.9596132e-05
4.7885405e-06 6.358278e-05 2.4263898e-05 4.909912e-05 6.553512e-05 2.8177248e-05 0.00010169802 7.182254e-05
1.1648908e-06 1.0138001e-05 9.728697e-05 1.3453854e-06 1.5179928e-06 0.00041785894 1.0486862e-05 2.7476915e-05
0.00010256782 0.00021204569 8.752966e-07 5.2984586e-05 3.1070656e-05 5.40346e-06 4.072621e-05 6.16333e-05
3.0490284e-05 9.2752285e-05 5.57379e-05 7.801451e-05 9.05692e-06 9.447364e-06 0.00045346635 9.869617e-05
5.9250026e-05 0.00020527349 5.97114e-05 3.6644786e-05 3.7526725e-06 4.9434453e-05 3.6052184e-05 1.8336708e-05
0.00014177372 1.7869714e-05 9.239491e-06 4.364478e-05 0.00027486854 2.941282e-05 0.00027012944 4.825303e-05
0.00016877364 2.7838982e-05 6.398918e-05 5.322563e-05 3.79026e-05 4.218011e-05 1.4559369e-05 5.0298673e-05
2.2196087e-05 1.9865352e-05 0.00029393582 5.8068817e-05 4.265158e-05 0.0004050324 1.0740646e-05 7.6707605e-05
1.5040723e-05 1.9156581e-05 0.0001710658 1.2936306e-05 3.490692e-05 0.00010286779 5.8284993e-05 1.1744062e-05
5.3104163e-06 2.554291e-05 4.434187e-05 9.059982e-05 3.254945e-05 0.00012573051 2.6217658e-06 2.4300962e-06
6.83475e-06 3.793328e-05 9.031178e-05 9.396224e-05 5.961784e-08 6.727188e-05 0.00010671226 5.771509e-06
0.00020871 7.8137775e-05 5.856024e-06 0.00075957994 1.0865167e-05 0.00011495705 0.00025574912 1.1429383e-05
4.0867e-07 3.1161893e-05 3.0838495e-05 4.3261844e-05 1.9008596e-05 2.3180175e-05 1.9020332e-06 1.0785756e-06
1.7682107e-05 9.767493e-05 3.933471e-06 0.00019533877 2.1817012e-05 5.825869e-06 5.940047e-06 5.4829485e-05
0.00021043648 1.4532374e-05 5.5034594e-05 0.00010026502 0.0001658686 3.6467947e-05 3.226114e-05 1.6506474e-05
5.073885e-05 3.168789e-05 2.5462738e-05 3.4234833e-06 0.0001538699 9.909655e-05 6.344965e-05 4.1767707e-05
3.063622e-05 4.420683e-06 4.511049e-05 3.2782053e-05 6.559768e-05 3.2635496e-06 5.9080605e-05 4.0137464e-05
5.0922554e-06 6.881933e-05 8.789707e-06 0.00017433109 2.4175384e-05 3.9001683e-05 1.4625313e-05 9.5438496e-05
1.0529798e-05 0.0010062245 0.00076264614 0.00010818545 7.996365e-07 5.954863e-05 0.00013983548 9.9432706e-05
7.525603e-05 2.2076978e-05 9.901896e-05 1.449476e-07 6.3621366e-05 2.4985757e-05 8.7183274e-05 0.00011465103
6.7553825e-05 5.0571834e-05 0.00021310344 0.00012700536 0.000120325036 0.00027624448 7.891885e-05 5.228565e-05
1.1035106e-05 5.9450554e-06 1.8379531e-05 1.9391546e-05 5.678827e-05 7.947892e-07 0.0003357847 4.4353354e-05
00000000: 6d8e 4838 cef3 d038 57d5 0f38 1206 0939
00000010: 0fd5 eb37 277d e437 7cc7 7237 2d33 c039
00000020: be82 4e38 eb20 5537 fc5f b839 b960 3d39
00000030: 18a7 d436 62af 5337 f94e 2b38 6eda 9e37
00000040: 1319 ff39 6d29 b737 0e74 7837 b91a 0337
00000050: e8e4 c038 6cd5 5038 b597 9336 3961 3f38
00000060: c5d4 1938 4665 4437 52dd ae39 a065 5036
00000070: 3960 9c38 535e 2f37 d578 d937 f975 f239
00000080: 5f2f 7538 4c35 2338 3106 2d38 b7c3 8438
00000090: 7c45 5c38 e39d 1b37 8ab7 3137 544d cd37
000000a0: 9e07 1a39 3ce8 c837 3637 9838 381a ce37
000000b0: 45c8 ad37 eca1 1939 902c 2938 853a 8f37
000000c0: a582 9a38 aa47 1438 1858 f437 c405 3337
000000d0: 7bc6 0238 1145 e537 90e3 5439 ef86 8837
000000e0: b6f3 1338 fe94 0339 8899 a438 6792 d237
000000f0: e6b0 d137 e955 e535 23dc 0438 2d9d 9336
00000100: d726 5839 a41b 2f37 637e 4738 d152 9838
00000110: c030 5137 3c2e 0638 93a6 6338 2467 3a37
00000120: 8796 8d38 ab46 8d37 b078 af38 12c0 c938
00000130: 0c6a 8935 dcc3 b737 ca41 9638 0614 2638
00000140: 40ad a036 bf57 8538 538a cb37 c7ef 4d38
00000150: e66f 8938 2e5e ec37 b546 d538 6f9f 9638
00000160: 5859 9c35 6216 2a37 8b06 cc38 1793 b435
00000170: d6bd cb35 1414 db39 bbf0 2f37 3a7e e637
00000180: ae19 d738 9558 5e39 edf5 6a35 c43b 5e38
00000190: dd51 0238 5e4f b536 6fd1 2a38 2041 8138
000001a0: 63c5 ff37 0184 c238 1dc8 6938 b99b a338
000001b0: 2df3 1737 1f80 1e37 39bf ed39 1afb ce38
000001c0: 3b83 7838 af3e 5739 a172 7a38 0ab3 1938
000001d0: 6cd6 7b36 d757 4f38 bd36 1738 c8d1 9937
000001e0: 18a9 1439 ebe6 9537 5003 1b37 3a0f 3738
000001f0: 3b1c 9039 8dbb f637 29a0 8d39 4c63 4a38
00000200: d4f8 3039 c287 e937 ee31 8638 963e 5f38
00000210: 9bf9 1e38 8cea 3038 0444 7437 caf7 5238
00000220: bc31 ba37 85a4 a637 661b 9a39 eb8e 7338
00000230: c9e4 3238 875a d439 b932 3437 15de a038
00000240: 6a57 7c37 72b2 a037 2060 3339 0309 5937
00000250: 0569 1238 b9ba d738 0977 7438 5d08 4537
00000260: 2130 b236 fb44 d637 b8fb 3938 6800 be38
00000270: b585 0838 87d6 0339 98f1 2f36 bc14 2336
00000280: 0e56 e536 8d1a 1f38 c565 bd38 980d c538
00000290: 4107 8033 5114 8d38 b5ca df38 e3a8 c136
000002a0: 2ad9 5a39 e6dd a338 dd7e c436 8c1e 473a
000002b0: 8949 3637 1915 f138 1116 8639 d4c0 3f37
000002c0: 2d67 db34 d4b3 0238 9558 0138 0d74 3538
000002d0: a674 9f37 0c73 c237 5d49 ff35 93c3 9035
000002e0: 0954 9437 d4d6 cc38 42fc 8336 dad3 4c39
000002f0: ad03 b737 d57b c336 9d50 c736 b6f8 6538
00000300: 9da8 5c39 12d0 7337 f2d4 6638 5f45 d238
00000310: 03ed 2d39 29f5 1838 2350 0738 6277 8a37
00000320: 6dd0 5438 9de8 0438 d098 d537 ffbe 6536
00000330: 2358 2139 0ed2 cf38 4510 8538 bc2f 2f38
00000340: 647f 0038 6155 9436 0535 3d38 767f 0938
00000350: 7c91 8938 5b03 5b36 51cd 7738 4659 2838
00000360: 24de aa36 1953 9038 8177 1337 a5cc 3639
00000370: 3ecc ca37 bd95 2338 3e5f 7537 2726 c838
00000380: 23a9 3037 4be3 833a 51ec 473a 9fe1 e238
00000390: 9aa6 5635 dbc3 7938 cda0 1239 8786 d038
000003a0: c6d2 9d38 f331 b937 66a8 cf38 e5a2 1b34
000003b0: 766c 8538 8198 d137 2ad6 b638 ce70 f038
000003c0: afab 8d38 181d 5438 8574 5f39 be2c 0539
000003d0: 0357 fc38 e8d4 9039 3c81 a538 4a4d 5b38
000003e0: 6b23 3937 a37b c736 be2d 9a37 07ab a237
000003f0: f12f 6e38 7f59 5535 420c b039 0d08 3a38

exp_avg f4 [6, 2048]
0.0014654477 0.0017164788 0.00035361407 -0.0003416234 0.0006900695 0.0004051442 -0.00018720939 -0.0007656119
-0.00019359993 0.00047031834 -0.0039935415 0.002506352 0.00026533054 0.00028361796 -0.000289168 -0.0001456356
-0.00013842223 -2.3995046e-05 0.0002134968 -0.00037202373 0.0012805803 0.0012955054 0.00010963584 3.8769977e-05
-0.00070829183 0.0003577189 0.00011561916 -0.00018000566 0.0014607474 0.00094570284 -0.0018227975 -0.00063805963
0.002304793 0.00047968133 0.0010375209 -0.0004228732 -0.00048171895 0.00016252279 0.00039401228 0.0011469275
-0.000402926 0.00020620917 5.847779e-05 0.000673709 -8.086054e-05 -0.0014537703 0.0002828502 -0.00022927881
0.0032012402 0.0012589964 0.0017800452 -4.9210903e-05 0.0002277972 -8.275289e-05 -0.00021649904 0.0016691528
0.0014577913 0.0035064407 0.004209833 0.00088114716 0.00091827457 -0.00018424977 0.0012381161 -0.00013371729
-0.0012087205 0.0011576443 0.0010865821 0.0009242627 0.0003582596 -0.00047488615 0.0009889205 6.5436103e-07
0.0009361544 -0.0004970513 -9.990348e-05 1.448097e-05 -1.3242095e-06 0.00070972694 0.00058435265 -5.781258e-05
0.00013561336 0.0019694774 0.0001275302 0.00088940037 -4.75679e-05 0.00022367215 0.0002636609 -0.00027413518
-3.7925496e-05 7.840635e-05 -9.1170536e-05 0.000208106 -4.296502e-05 0.000930686 0.00022205971 -0.00089760876
0.00039549574 6.000609e-05 -2.3997837e-08 -0.0012899488 7.666737e-05 -9.44309e-06 0.0001461798 0.000993257
0.00025739247 0.00016365998 0.000797613 0.00064558286 -0.00013723894 0.00010066061 -0.0007322896 -0.00024128336
0.0008567866 -0.00019664557 0.0039095785 -0.0004886236 7.002733e-05 0.0011499929 0.003433772 0.0002641661
-0.0016210926 -2.847345e-06 -0.00015577095 0.00043584857 -0.0011678726 0.00021186474 0.00033972858 -0.00067253865
0.00025837438 -6.011184e-06 0.0020683378 0.001260065 0.00042322965 0.0003456997 0.00034576186 0.0016400262
0.00025832021 0.0025425637 -0.0014187928 -0.0005218745 0.0010723752 0.00044918296 0.0003059049 9.9206576e-05
0.00026927938 8.659075e-05 0.00025421093 -2.0819993e-05 0.00041114754 -6.5304244e-05 0.00043095482 -0.00015368093
0.000111603375 -0.00022787505 -5.9969647e-05 0.0024802785 0.00017250598 0.0002864069 1.678911e-05 0.00016552873
-7.1860515e-05 0.0004279391 0.004874526 0.0011879116 1.9543702e-06 0.0016299452 0.0028784887 7.080363e-05
0.0029540353 -0.0014535453 -0.0004621028 -0.0033257226 -0.00064738066 0.00013083524 -0.00016562153 0.0001048012
0.000121979094 0.0011013665 -0.0006753759 -0.00012714468 0.00041169624 -0.000101023616 0.00014038167 2.9852763e-05
-3.0264704e-05 0.00045481647 2.2738688e-05 0.001235895 0.00047712566 -0.00017902473 -0.00047339144 0.003068001
0.0030516842 0.00026040716 0.001593897 0.0024483905 0.0014030742 0.00021825275 -0.00025178047 -0.00041082496
0.00051092164 3.838501e-05 -0.0007468987 -0.000103955615 -0.00020087484 -0.0007224826 0.00080607616 -0.00039728513
0.00034840853 0.00011759403 0.0011323491 0.0020671042 0.004096211 0.00023817277 -0.00051214383 0.0012101979
-0.00017174511 3.5445613e-05 0.00051161065 -0.0013918587 8.819438e-05 0.00011317935 0.0002612938 -0.0002814751
-0.0014796418 -0.00014942819 -0.001306219 -0.0001660541 1.5146817e-05 0.00061613973 0.004854651 0.0008797743
-0.0012083508 -0.00038314553 0.002578471 -2.3814115e-05 0.00036607496 -0.00069694757 -0.0010373867 -0.0013348723
0.0005460176 -0.00038744652 0.0035976155 0.0035852299 0.001172669 0.0025352063 0.0031589805 -0.00049983885
-7.873855e-06 0.0011248642 0.000793388 -0.0006450836 0.00048301584 1.0733531e-05 -9.8488796e-05 0.00020111969
00000000: 4414 c03a 79fb e03a 4765 b939 eb1b b3b9
00000010: c8e5 343a 8969 d439 a34d 44b9 58b3 48ba
00000020: 1601 4bb9 0f95 f639 41dc 82bb 9c41 243b
00000030: 101c 8b39 8fb2 9439 799b 97b9 c2b5 18b9
00000040: 6f25 11b9 f848 c9b7 1cde 5f39 2e0c c3b9
00000050: 25d9 a73a f3cd a93a 4bec e538 f29c 2238
00000060: a9ac 39ba 388c bb39 9078 f238 e7bf 3cb9
00000070: 8d76 bf3a 0be9 773a efea eeba 7543 27ba
00000080: 030c 173b bd7d fb39 6dfd 873a 15b5 ddb9
00000090: 398f fcb9 e16a 2a39 6f93 ce39 8054 963a
000000a0: d03f d3b9 da39 5839 0d46 7538 d89b 303a
000000b0: ac93 a9b8 708c beba 834b 9439 906a 70b9
000000c0: e6cb 513b e904 a53a 6850 e93a ce67 4eb8
000000d0: d8dc 6e39 9f8b adb8 0504 63b9 79c7 da3a
000000e0: 5c13 bf3a 50cc 653b a4f2 893b c9fc 663a
000000f0: 5db8 703a 2c33 41b9 4848 a23a 7636 0cb9
00000100: ee6d 9eba 19bc 973a a56b 8e3a 384a 723a
00000110: cad4 bb39 24fa f8b9 aa9e 813a 59a7 2f35
00000120: 4268 753a 8c4c 02ba 4683 d1b8 4bf3 7237
00000130: 7ebb b1b5 f80c 3a3a 3e2f 193a c97b 72b8
00000140: 6f33 0e39 5912 013b a1b9 0539 a626 693a
00000150: a583 47b8 8989 6a39 f83b 8a39 cdb9 8fb9
00000160: 3112 1fb8 176e a438 cf32 bfb8 0737 5a39
00000170: 5735 34b8 48f9 733a b3d8 6839 814d 6bba
00000180: 8a5a cf39 0caf 7b38 cd23 ceb2 8013 a9ba
00000190: 7bc8 a038 c36d 1eb7 d747 1939 2d30 823a
000001a0: a2f2 8639 249c 2b39 e716 513a 553c 293a
000001b0: cce7 0fb9 c119 d338 20f7 3fba 0201 7db9
000001c0: fa99 603a a532 4eb9 ec1b 803b fa16 00ba
000001d0: a3db 9238 5cbb 963a 2209 613b c67f 8a39
000001e0: d77a d4ba 0415 3fb6 7256 23b9 9b82 e439
000001f0: 4d13 99ba 0228 5e39 991d b239 4e4d 30ba
00000200: 6c76 8739 adb3 c9b6 f38c 073b c428 a53a
00000210: ece4 dd39 073f b539 5f47 b539 26f6 d63a
00000220: 276f 8739 24a1 263b c9f6 b9ba 68ce 08ba
00000230: f18e 8c3a 5180 eb39 dc61 a039 200d d038
00000240: 112e 8d39 0e98 b538 9d47 8539 98a6 aeb7
00000250: 4a8f d739 f3f3 88b8 c7f1 e139 6925 21b9
00000260: 9b0c ea38 bef1 6eb9 eb87 7bb8 2b8c 223b
00000270: b9e2 3439 e228 9639 57d6 8c37 c891 2d39
00000280: d2b3 96b8 045d e039 7dba 9f3b b3b3 9b3a
00000290: d327 0336 e3a3 d53a 07a5 3c3b 697c 9438
000002a0: 7d98 413b e384 beba 6346 f2b9 5ef4 59bb
000002b0: fbb4 29ba d130 0939 b1aa 2db9 b7c8 db38
000002c0: 07cf ff38 ba5b 903a b60b 31ba 2452 05b9
000002d0: efd8 d739 a4dc d3b8 6b33 1339 526c fa37
000002e0: f5e0 fdb7 6f74 ee39 f6be be37 c1fd a13a
000002f0: b926 fa39 96b8 3bb9 8631 f8b9 8410 493b
00000300: c4fe 473b 4287 8839 4fea d03a 2d75 203b
00000310: 5ce7 b73a c7da 6439 6701 84b9 fe63 d7b9
00000320: 5fef 053a 97ff 2038 86cb 43ba bf02 dab8
00000330: eea1 52b9 fd64 3dba db4e 533a b54a d0b9
00000340: 9aaa b639 d09c f638 556b 943a 4178 073b
00000350: 8239 863b 04be 7939 6441 06ba 819f 9e3a
00000360: 7a16 34b9 70ab 1438 9c1d 063a 076f b6ba
00000370: fff4 b838 b35a ed38 43fe 8839 f392 93b9
00000380: 8af0 c1ba d3af 1cb9 7035 abba cf1e 2eb9
00000390: 151f 7e37 7084 213a c413 9f3b a7a0 663a
000003a0: 8661 9eba ece0 c8b9 91fb 283b 6cc4 c7b7
000003b0: c0ed bf39 5cb3 36ba ecf8 87ba e2f6 aeba
000003c0: 9f22 0f3a 3122 cbb9 f9c5 6b3b 2df6 6a3b
000003d0: 3eb4 993a b425 263b e606 4f3b 9e07 03ba
000003e0: f319 04b7 2e70 933a 5efb 4f3a d41a 29ba
000003f0: 4a3d fd39 2a14 3437 c58b ceb8 a8e3 5239

exp_avg_sq f4 [6, 2048]
0.00020341067 7.872062e-05 0.00013455606 2.4484423e-05 8.8600704e-05 0.00013352763 9.041402e-05 0.000142541
1.2823556e-05 0.0001641111 0.00066442724 0.00058551 1.9876252e-05 0.00028048106 7.2680045e-06 4.27668e-06
0.00014098074 0.00013835312 0.00014007968 2.7959097e-05 0.0007431986 0.00024867782 5.1588904e-05 2.5356364e-06
0.00011329508 1.2706747e-05 3.0790205e-05 4.3072858e-05 0.00024134947 0.0001584593 0.0008792273 0.00015444402
0.00017370828 2.1993654e-05 0.0002114777 0.00046480348 5.7279325e-05 1.034415e-05 2.916854e-05 0.00052256
3.417188e-05 0.00031893956 7.386324e-05 1.0270805e-05 3.2738815e-05 0.00017138556 0.0006782578 1.06368e-05
0.00041768642 0.00036305762 0.0003226201 7.320461e-06 0.0002086361 5.216418e-05 9.732346e-05 0.00011167524
8.245278e-05 0.0003603577 0.0007167092 0.000107791195 0.00024558336 1.0943637e-06 6.612537e-05 2.4695948e-06
0.00018188443 0.00014584337 0.00017819864 0.00079726917 0.00022971808 8.2071536e-05 0.0004260097 1.9728523e-05
0.00060522236 8.4391104e-05 0.00030671977 0.00027754105 1.4420922e-05 3.672055e-05 0.00024697723 2.6453015e-05
5.986392e-05 0.0014566837 1.7152253e-06 4.6034154e-05 5.0212257e-06 8.014214e-06 0.00023367084 1.7583217e-05
3.1496756e-06 4.302621e-05 4.159517e-05 4.6137382e-05 1.2861395e-06 0.00028474303 4.1475305e-06 0.00018480439
0.0003302083 5.2278032e-05 4.635053e-06 0.00075252267 0.00024472075 1.5083513e-05 6.6215216e-05 6.332759e-05
1.6076921e-05 0.0020601854 3.5589674e-05 0.00067175826 4.5990164e-05 3.2444882e-06 0.00021817391 0.00042340858
0.0008152476 6.0349e-05 0.00045250184 5.7282283e-05 3.223439e-05 0.00049393653 0.00029982626 0.00024073427
0.0003049885 3.5788623e-06 2.8769671e-05 7.126663e-06 0.00014419806 0.00022988781 1.01427e-05 0.00030127753
7.315907e-06 0.00031719677 0.00020801963 5.884478e-05 0.00038373325 3.7993577e-06 0.00015392037 0.00022495927
0.00047490088 0.00033079024 0.00017641303 0.0002746804 0.0006257943 0.0002139697 0.00012934027 9.872514e-05
0.00016419128 1.1593153e-05 9.77282e-05 3.285688e-05 4.2239993e-05 0.00022125753 8.50749e-05 1.200788e-05
1.565356e-05 2.7527978e-05 1.2493283e-05 0.00021950206 1.4790258e-05 0.00015056429 3.2437623e-05 5.334126e-05
1.570275e-05 0.00036137732 0.00078732305 0.00013995421 4.306151e-07 0.00014268313 0.00024110236 3.9878e-06
0.00036322817 0.00038570992 2.5497078e-05 0.0004817949 8.394254e-05 3.1295844e-05 6.499279e-05 2.011166e-05
8.026871e-06 3.8245562e-05 0.00013537084 0.00028580823 7.0906106e-05 9.087329e-05 1.438481e-05 1.6168262e-05
1.6300199e-06 3.7437774e-05 1.2843432e-05 7.059599e-05 1.01628675e-05 3.4794062e-05 0.00010159132 0.00094803225
0.00043120864 1.4047653e-06 6.6374065e-05 0.00013885983 0.00015812743 9.5634074e-05 2.6760026e-05 0.00013492578
0.00017446328 2.3260553e-05 0.00012791378 9.589774e-05 4.8224e-05 5.6685e-05 7.283166e-05 1.5650818e-05
0.00010914785 3.6480353e-05 0.0002130867 0.00025735187 0.0008381513 7.0640517e-06 0.00029215196 0.0006426065
1.3256664e-06 0.00013097486 0.0002996351 0.00010050359 7.76644e-05 6.3038688e-06 2.2222526e-05 0.0003507917
0.00022741855 0.00061030267 0.00025726703 1.7167042e-05 4.8274265e-05 3.28443e-05 0.00052773854 0.0002667761
0.00018570342 0.00021674322 0.00020258914 1.3019185e-06 2.6631187e-05 0.00031411822 8.9458284e-05 0.00021201445
0.00038924773 0.0005945246 0.0004710607 0.0007120188 7.4097734e-05 0.000364345 0.00042579486 0.00021953274
3.0103765e-05 0.000120177516 7.4813186e-05 4.3271375e-05 3.4862533e-05 1.6177884e-05 3.2265194e-05 0.00013572817
00000000: a34a 5539 d016 a538 9e17 0d39 e663 cd37
00000010: 24cf b938 8d03 0c39 a89c bd38 0f77 1539
00000020: c124 5737 3d15 2c39 f52c 2e3a e97c 193a
00000030: edbb a637 880d 9339 afdf f336 6780 8f36
00000040: 3bd4 1339 e212 1139 5ae2 1239 b489 ea37
00000050: 37d3 423a f960 8239 2a61 5838 e729 2a36
00000060: d598 ed38 102f 5537 bb24 0138 21a9 3438
00000070: c112 7d39 1828 2639 f27b 663a 40f2 2139
00000080: 7625 3639 037f b837 1dc0 5d39 deb0 f339
00000090: 353f 7038 c98b 2d37 f6ae f437 68fc 083a
000000a0: c753 0f38 5837 a739 06e7 9a38 c650 2c37
000000b0: 0951 0938 f6b5 3339 1ccd 313a b574 3237
000000c0: ecfc da39 c558 be39 5625 a939 48a2 f536
000000d0: 54c5 5a39 ddca 5a38 221a cc38 3033 ea38
000000e0: 80ea ac38 64ee bc39 8ae1 3b3a f50d e238
000000f0: a4c1 8039 0de2 9235 caac 8a38 51bb 2536
00000100: 3bb8 3e39 88ed 1839 d5da 3a39 d4ff 503a
00000110: 7ae0 7039 d21d ac38 0e5a df39 ae7e a537
00000120: c9a7 1e3a 21fb b038 3bcf a039 ee82 9139
00000130: 63f1 7137 6404 1a38 b97c 8139 6be7 dd37
00000140: 6516 7b38 32ee be3a b136 e635 cc14 4138
00000150: 007c a836 c974 0637 8a05 7539 ac7f 9337
00000160: 045f 5336 0b77 3438 7976 2e38 a383 4138
00000170: 6b9f ac35 9049 9539 042b 8b36 0dc8 4139
00000180: cf1f ad39 1c45 5b38 cd86 9b36 f144 453a
00000190: dd4d 8039 320f 7d37 06dd 8a38 bece 8438
000001a0: eddc 8637 2d04 073b 1f46 1538 ef18 303a
000001b0: 90e5 4038 e2bb 5936 9dc5 6439 f0fc dd39
000001c0: 57b6 553a 3f1f 7d38 c53d ed39 6242 7038
000001d0: 6a33 0738 857b 013a 0032 9d39 9d6d 7c39
000001e0: dde6 9f39 632c 7036 6656 f137 9221 ef36
000001f0: df33 1739 0a0e 7139 912a 2a37 c9f4 9d39
00000200: 2a7b f536 6e4d a639 d81f 5a39 1ad0 7638
00000210: ce2f c939 78f8 7e36 af65 2139 0be3 6b39
00000220: 1efc f839 ea6d ad39 83fb 3839 fb02 9039
00000230: 580c 243a 0e5d 6039 849f 0739 a80a cf38
00000240: c32a 2c39 3780 4237 6ef3 cc38 cecf 0938
00000250: d92a 3138 5e01 6839 3d6a b238 7475 4937
00000260: c44f 8337 e2eb e637 3e9a 5137 232a 6639
00000270: ad23 7837 cbe0 1d39 a20d 0838 beba 5f38
00000280: 66b9 8337 3e77 bd39 5b64 4e3a acc0 1239
00000290: 4a2f e734 369d 1539 6cd0 7c39 f1ce 8536
000002a0: a96f be39 1c39 ca39 8fe2 d537 6b99 fc39
000002b0: 4f0a b038 a843 0338 bd4c 8838 76b5 a837
000002c0: 26ab 0637 dc69 2038 55f2 0d39 88d8 9539
000002d0: 6db3 9438 3a93 be38 4a56 7137 14a1 8737
000002e0: 0fc7 da35 8106 1d38 1f7a 5737 ef0c 9438
000002f0: 2f81 2a37 d7ef 1138 6d0d d538 5e85 783a
00000300: d813 e239 5e8b bc35 4e32 8b38 e79a 1139
00000310: 02cf 2539 278f c838 b87a e037 dd7a 0d39
00000320: 21f0 3639 a81f c337 9820 0639 b51c c938
00000330: 2044 4a38 0ec1 6d38 33bd 9838 e049 8337
00000340: 4ee6 e438 7b02 1938 0770 5f39 2fed 8639
00000350: 62b7 5b3a be07 ed36 f92b 9939 9874 283a
00000360: 8ded b135 4c56 0939 5818 9d39 74c5 d238
00000370: c2df a238 d285 d336 836a ba37 77ea b739
00000380: 3477 6e39 b8fc 1f3a cce1 8639 f101 9037
00000390: 197a 4a38 4cc2 0938 ef57 0a3a 15de 8b39
000003a0: 62b9 4239 9145 6339 1c6e 5439 94bd ae35
000003b0: 0a66 df37 3cb0 a439 8d9b bb38 3250 5e39
000003c0: f213 cc39 dfd9 1b3a b2f8 f639 c6a6 3a3a
000003d0: eb64 9b38 8f05 bf39 383d df39 5f32 6639
000003e0: 5887 fc37 d007 fc38 06e5 9c38 497e 3538
000003f0: 5c39 1238 beb5 8737 7d54 0738 4152 0e39

exp_avg f4 [6]
0.006108618 0.028859237 -0.039508045 0.010735069 -0.027129358 0.02220522
00000000: cd2a c83b 356a ec3c 30d3 21bd 25e2 2f3c
00000010: 633e debc b9e7 b53c

exp_avg_sq f4 [6]
0.016740108 0.015761873 0.03776084 0.010655958 0.01422563 0.0118666245
00000000: 8d22 893c 0b1f 813c 1cab 1a3d 5496 2e3c
00000010: 9e12 693c 3b6c 423c

exp_avg f4 [6]
0.022085344 -0.05623384 0.028164873 0.01644257 0.011393124 -0.016763901
00000000: 53ec b43c 7455 66bd 05ba e63c 92b2 863c
00000010: 3aaa 3a3c 7354 89bc

exp_avg_sq f4 [6]
0.037290044 0.15367289 0.0521913 0.008205984 0.19728053 0.12176804
00000000: 72bd 183d 6d5c 1d3e 8bc6 553d 6472 063c
00000010: e803 4a3e 8661 f93d

exp_avg f4 [6]
0.05939756 0.0060647056 -0.022559684 -0.06688717 -0.0068451506 0.010736143
00000000: db4a 733d 70ba c63b 16cf b8bc 24fc 88bd
00000010: 494d e0bb a6e6 2f3c

exp_avg_sq f4 [6]
0.1262257 0.0035085788 0.03212183 0.16682206 0.0027432377 0.0144391265
00000000: 4f41 013e 2ff0 653b 2e92 033d 67d3 2a3e
00000010: e4c7 333b 1692 6c3c

exp_avg f4 [6]
-0.0010329132 0.0010414858 -0.050658084 0.01598052 -0.009758192 0.007826401
00000000: d162 87ba 7782 883a da7e 4fbd 94e9 823c
00000010: d3e0 1fbc 4e3a 003c
