Results/UCI-HAR/Contrast experiment/DFENet/best.pth (torch, 596209 bytes, 132 tensors)

exp_avg f4 [27, 9]
00000000: 606a 46b4 4926 2535 34f3 c035 bb38 d535
00000010: e8be 8035 9652 c035 d654 7eb6 d8c4 9435
00000020: 2a5d 8735 3797 93b5 9269 6a36 d18f 5836
00000030: 4afa 0037 79bf 9a36 d845 c336 c869 1cb7
00000040: 0fcc 8a36 bfa7 7a36 0922 b835 adec 8bb6
00000050: 081b 7cb6 87f1 12b7 0f66 b4b6 bbf9 e2b6
00000060: 02a5 2337 8839 a8b6 49ea 9fb6 d20f 0e35
00000070: 4cd1 07b6 298e 18b6 bd65 9eb6 576f 3ab6
00000080: dbc2 71b6 c70d f336 3a76 25b6 2e32 0cb6
00000090: b9a1 f435 4542 c0b6 022c aeb6 d3b4 36b7
000000a0: 55cb e9b6 dd15 15b7 c6d1 2337 8c10 f1b6
000000b0: 3d6b f4b6 3135 3735 85ce 1cb6 9b91 23b6
000000c0: 85ee b3b6 7c6a 55b6 9e57 89b6 0858 0137
000000d0: c7f7 59b6 a96d 47b6 a667 4835 dd49 24b6
000000e0: fdeb 27b6 e307 bbb6 1bfe 5fb6 ff27 8fb6
000000f0: 2b29 0637 13ba 4eb6 82d9 33b6 562e d535
00000100: 587b 9fb6 9418 8eb6 c3e4 26b7 7339 cdb6
00000110: 9d46 00b7 23df 2937 0608 c2b6 f949 bbb6
00000120: 221f f0b5 2981 b736 5c70 a236 99ac 3f37
00000130: 1b71 e936 8002 1237 ba60 1eb7 c817 e436
00000140: 37fd dd36 34b6 bdb7 fd57 3037 08d4 c336
00000150: ad1b 4d38 afee 2ab8 4ce5 11b8 5b0c cbb7
00000160: be10 5537 710b ed36 5427 84b8 71cc 0238
00000170: 55bb 8937 ad50 0939 6c03 00b9 5f12 d5b8
00000180: cbb1 8cb8 d8e3 1738 061d a337 74b2 9738
00000190: 614f 16b8 20d2 9eb7 88ea 19b9 323a 1339
000001a0: 77aa f538 40a4 a138 1f1f 2eb8 0131 bcb7
000001b0: f7da 2f38 fd61 abb7 f87c 35b7 5c07 bcb8
000001c0: ecd4 a738 235a 8b38 2dbb 3b38 06cb cab7
000001d0: cb5a 5ab7 817c c838 140a 46b8 c243 d4b7
000001e0: cedc 40b9 13fb 4339 b087 2239 60c7 d638
000001f0: 7600 66b8 f8ec feb7 e392 3e38 6379 bab7
00000200: a513 45b7 919c cab8 a8ba b538 776a 9738
00000210: 9ad3 4a38 7af9 dab7 8f0a 6ab7 de3d 4538
00000220: de57 c1b7 d80b 4cb7 d155 d1b8 88a6 bc38
00000230: 9e0b 9d38 6538 5238 db30 e3b7 5869 73b7
00000240: 611b a438 92b6 22b8 8449 acb7 1315 25b9
00000250: b20b 1d39 45e5 0539 eb22 af38 d2a8 3cb8
00000260: 49e8 ccb7 7c50 c3b8 8149 4138 bfa8 ce37
00000270: 7d4f 4339 f514 3eb9 9b6a 1fb9 80e9 d0b8
00000280: 28c9 5f38 c0b5 f637 b16f 37ba 6e5b 9bba
00000290: b805 8fba 3082 b8ba d34d 3a3a e70b f63a
000002a0: ae59 56ba f117 9aba f819 a1ba eece feb9
000002b0: 0dcb d03a 6484 353a 17de 403b 22d6 063a
000002c0: 1715 79bb bbf8 c3b9 fcd6 d73a 09ef 563a
000002d0: 761c 5db8 1a9b afb8 3339 08ba 89c7 253a
000002e0: dd12 a0b9 7728 fbb9 fb15 84b8 1cc7 c1b8
000002f0: 7e9d 0dba 765d 61ba cefe b73a 3c0e c039
00000300: 2ca9 6e3b 4b91 faba 718e b4ba cf8a 86ba
00000310: a887 b03a 7e70 be39 441c 353a 2623 a439
00000320: e738 f737 3863 4e3a ad53 9a39 1419 96b9
00000330: 0916 423a 76fe 9a39 bf8b a538 ff7e 5539
00000340: 139b 81ba 86cb 8b39 b1ba 15bb 2d40 183a
00000350: 2815 083b ce7e 5239 2b3d 7fba 8e1d 7d39
00000360: ecca a339 da39 16ba 69a0 7237 e1e2 77ba
00000370: ce88 713a 964d 333a 5d58 b239 ec77 19ba
00000380: e8d4 34b8 cfbb 5a3a a0bc feb9 cde3 adb9
00000390: ead9 94b8 fe2a af3a 1f7e 86b8 1018 503a
000003a0: d20a fdb9 9b65 a8b9 a736 503a 7a9e c3ba
000003b0: 6729 6838 c3d9 37bb ac72 de3a e78e 2f3b
000003c0: 5bab 483a 2848 bdba 70bc 2bb8
-1.8478886e-07 6.1523e-07 1.4375896e-06 1.5886247e-06 9.592304e-07 1.432915e-06 -3.789833e-06 1.1084148e-06
1.0085398e-06 -1.0996363e-06 3.4930167e-06 3.227022e-06 7.6876695e-06 4.611848e-06 5.8195837e-06 -9.322954e-06
4.136476e-06 3.7350544e-06 1.3718974e-06 -4.1700755e-06 -3.756666e-06 -8.758513e-06 -5.376299e-06 -6.7643973e-06
9.753976e-06 -5.0134877e-06 -4.7658436e-06 5.2922144e-07 -2.0238394e-06 -2.2732513e-06 -4.720611e-06 -2.7780968e-06
-3.602522e-06 7.2435682e-06 -2.4655733e-06 -2.0890834e-06 1.8226484e-06 -5.7297607e-06 -5.1907273e-06 -1.0890147e-05
-6.967612e-06 -8.8861825e-06 9.764399e-06 -7.184286e-06 -7.284251e-06 6.8250216e-07 -2.3366022e-06 -2.4373646e-06
-5.362383e-06 -3.1801455e-06 -4.093118e-06 7.709496e-06 -3.2479745e-06 -2.9717141e-06 7.4656634e-07 -2.4480898e-06
-2.5022302e-06 -5.5739524e-06 -3.3377498e-06 -4.2663883e-06 7.996608e-06 -3.0804702e-06 -2.6799685e-06 1.5883222e-06
-4.7529284e-06 -4.234791e-06 -9.947634e-06 -6.116164e-06 -7.6458355e-06 1.0125138e-05 -5.7825846e-06 -5.581646e-06
-1.7890454e-06 5.468861e-06 4.8410566e-06 1.1424673e-05 6.9571083e-06 8.70286e-06 -9.440055e-06 6.797698e-06
6.6157913e-06 -2.26154e-05 1.0510904e-05 5.8361366e-06 4.8901584e-05 -4.075345e-05 -3.4784243e-05 -2.420524e-05
1.2699687e-05 7.0644824e-06 -6.301576e-05 3.1184816e-05 1.6418906e-05 0.00013095392 -0.00012208306 -0.00010160053
-6.708837e-05 3.62134e-05 1.944463e-05 7.2334806e-05 -3.5836714e-05 -1.8932915e-05 -0.00014678587 0.00014040692
0.00011714262 7.707672e-05 -4.1513817e-05 -2.2434166e-05 4.192718e-05 -2.0430418e-05 -1.0817537e-05 -8.9659094e-05
8.00284e-05 6.644826e-05 4.4758595e-05 -2.4174817e-05 -1.3014952e-05 9.559934e-05 -4.7216265e-05 -2.5303922e-05
-0.00018392803 0.00018690182 0.00015500071 0.00010241452 -5.4836702e-05 -3.0389507e-05 4.543633e-05 -2.2229453e-05
-1.1746689e-05 -9.661273e-05 8.66552e-05 7.220072e-05 4.8357622e-05 -2.6103797e-05 -1.3949945e-05 4.702608e-05
-2.304831e-05 -1.2162105e-05 -9.981881e-05 8.9955574e-05 7.488507e-05 5.0120423e-05 -2.7083259e-05 -1.4508456e-05
7.825229e-05 -3.879384e-05 -2.0538231e-05 -0.00015743477 0.00014977044 0.00012769278 8.351154e-05 -4.497992e-05
-2.4426861e-05 -9.313316e-05 4.608324e-05 2.4635692e-05 0.00018626261 -0.00018127619 -0.00015203135 -9.961706e-05
5.3354684e-05 2.941012e-05 -0.00069975393 -0.001185281 -0.0010911738 -0.0014076885 0.00071069336 0.0018771858
-0.00081768155 -0.0011756403 -0.0012291064 -0.0004860083 0.0015929654 0.000692433 0.002942925 0.00051436026
-0.0038006955 -0.00037378617 0.0016467269 0.0008199071 -5.2717012e-05 -8.37354e-05 -0.00051965116 0.00063239835
-0.00030531632 -0.000479046 -6.298345e-05 -9.240044e-05 -0.00054021913 -0.00085969956 0.001403773 0.000366317
0.0036416752 -0.0019116787 -0.0013775361 -0.0010264757 0.0013468163 0.00036323437 0.0006908814 0.00031306705
2.9471192e-05 0.0007873061 0.00029435512 -0.00028628914 0.0007403796 0.00029562757 7.893843e-05 0.00020360573
-0.0009888135 0.00026663783 -0.0022846872 0.0005807903 0.0020764563 0.00020074399 -0.0009736593 0.0002413897
0.0003124097 -0.00057306665 1.4461672e-05 -0.000945611 0.0009213806 0.00068398693 0.0003401664 -0.00058543566
-4.311363e-05 0.00083440257 -0.00048587192 -0.00033166856 -7.0977796e-05 0.0013364253 -6.41311e-05 0.0007938156
-0.00048263982 -0.0003211916 0.0007942714 -0.0014924549 5.535167e-05 -0.002805338 0.0016971431 0.0026788057
0.00076549285 -0.001444106 -4.0945073e-05

exp_avg_sq f4 [27, 9]
00000000: e602 cb2c c12a f82d 30f5 662e 266a 2230
00000010: ec58 232f ee27 d42e b3ae 2631 d643 a62e
00000020: 592b ee2e afb5 eb2d 118f 132f 4e15 9f2f
00000030: 50b4 6131 d6d0 4f30 c17f 0930 e254 e031
00000040: 55c9 5c2f 0eac c92f d2a2 2e2e 6410 452f
00000050: df4b da2f b0ec 9131 8810 8c30 1f77 3b30
00000060: cfb2 0c32 c528 972f a032 1130 2ebf 5d2d
00000070: a0ac 982e f95f 1b2f f554 e430 e649 cd2f
00000080: 395b 852f cfd0 9731 3036 012f 910e 5f2f
00000090: 8fc3 a02e 0777 ac2f 6726 4830 07f2 ef31
000000a0: 7aba ef30 4e16 a530 a753 7532 681c 0230
000000b0: 66cb 7830 acf4 952d 02b0 b62e 1f7a 3c2f
000000c0: b2b1 0731 c60c fa2f e752 a62f d743 ab31
000000d0: c8dc 3430 9ebf 8030 fd7e a92d 7dbd c12e
000000e0: e49a 472f d869 0f31 b3bf 0830 b50e b32f
000000f0: 593c aa31 18a3 6d2f 44b7 d02f cdec 632e
00000100: 275c 792f 9155 0c30 2572 b531 7bde b030
00000110: 9d54 7030 6a26 2132 4678 d22f 581b 4a30
00000120: 3ad4 682e 550c 932f a13c 2530 2a93 dc31
00000130: 5480 cb30 d2a8 8830 1c8a 5932 d376 d82f
00000140: 0894 5030 f0b9 c331 4670 ab30 f8b9 ba30
00000150: 6fe9 1f33 49a0 fb33 e22b 3e33 5f1d d131
00000160: c040 e730 121b d930 31ad 3533 ad78 1d32
00000170: 0268 2832 3717 9334 e1c0 5435 607f a034
00000180: 16ec 3833 0a2d 4d32 3927 3d32 eb44 6f33
00000190: 1cda 4e32 e8a7 5d32 7e47 c134 5dee 8a35
000001a0: c785 d134 e5cf 7333 8d2f 8932 0a1c 7c32
000001b0: 63d5 9d32 d198 8931 5fa3 9331 964c 0134
000001c0: f4c5 bf34 d507 1134 befa a132 cb75 b031
000001d0: d4f8 a331 3910 d133 2038 b432 0858 c132
000001e0: eb47 2835 4c36 ef35 d232 3435 ae7d d633
000001f0: 2716 f932 4130 e332 3ea6 b732 a6bf 9f31
00000200: 5e76 ab31 9459 1634 2d74 dd34 ba78 2734
00000210: a97d bb32 1214 cd31 d770 be31 11dc c532
00000220: 6911 ac31 f17a b831 44ae 2134 5594 ed34
00000230: 3196 3334 b10d ca32 8024 dd31 49e0 cc31
00000240: 53ec 8833 6ebe 6c32 4f39 7e32 67da dd34
00000250: 271f 9f35 1538 f034 a3be 8b33 5e18 9f32
00000260: fb04 9232 f08c c633 cf37 ab32 be95 b732
00000270: 929f 1f35 f11e e435 9de4 2b35 8c7d ca33
00000280: 7d7f e632 e590 d332 213b 0338 9e28 1837
00000290: ae1f 0537 8fa7 bd38 e2b7 4039 fa56 8d38
000002a0: 1b94 0f38 aebc 1337 bb7a fc36 f78f 1738
000002b0: c980 2437 6a0d 0737 284e c338 1408 0639
000002c0: 89cf 3b38 5b36 1b38 cc14 2137 3d23 0237
000002d0: 1dd8 2c37 080b 8036 ce90 6236 17ce 2038
000002e0: 6471 6f38 a5fb aa37 d670 3437 a696 7936
000002f0: bf6f 5936 0681 0a38 4645 1f37 83f9 1137
00000300: 94ce ce38 7ae6 3139 29c0 8238 c56a 0d38
00000310: b434 1c37 15ae 0b37 a1c9 2936 c72e 6635
00000320: 93d8 3835 6d87 1f37 8c76 6537 b1e4 d036
00000330: 69c8 2d36 f0ad 6035 6cde 3135 479f 8037
00000340: 4c45 b936 8aaa a336 48da 8538 063d d138
00000350: 62c5 1638 e533 8937 406d b736 964a 9b36
00000360: f46f 3636 7fcd 9935 5ab6 8335 6585 4c37
00000370: 3a0a af37 a851 0537 8a74 4336 ede3 9835
00000380: c390 7b35 f6f9 a036 7857 de35 9897 b535
00000390: ffdf a837 a47d 0e38 de4b 3c37 1ecb ac36
000003a0: b79e da35 86e6 ad35 e22d 0937 5490 4c36
000003b0: fa40 1b36 3e43 f437 0c70 2538 5dfb 6b37
000003c0: 8a2f 1237 1652 4836 f76b 1536
5.769929e-12 2.8213322e-11 5.2513716e-11 5.90861e-10 1.4856355e-10 9.647737e-11 2.4255484e-09 7.560856e-11
1.0830687e-10 2.679709e-11 1.34204e-10 2.893707e-10 3.2844305e-09 7.5602935e-10 5.002186e-10 6.528908e-09
2.0080411e-10 3.668394e-10 3.9707633e-11 1.7922869e-10 3.970788e-10 4.2469637e-09 1.0191039e-09 6.8199485e-10
8.189729e-09 2.7495708e-10 5.2822635e-10 1.2604846e-11 6.942824e-11 1.4131264e-10 1.661333e-09 3.734179e-10
2.4257377e-10 4.418417e-09 1.1751733e-10 2.0286907e-10 7.310696e-11 3.1371192e-10 7.281415e-10 6.983331e-09
1.7442539e-09 1.2011669e-09 1.4279897e-08 4.733409e-10 9.051092e-10 1.7047995e-11 8.307667e-11 1.7141887e-10
1.9746094e-09 4.548381e-10 3.025413e-10 4.9844675e-09 6.579737e-10 9.367687e-10 1.926947e-11 8.810284e-11
1.8153973e-10 2.0869404e-09 4.974893e-10 3.257036e-10 4.954512e-09 2.1612967e-10 3.7965198e-10 5.1824146e-11
2.2679157e-10 5.10533e-10 5.28077e-09 1.2868918e-09 8.7431734e-10 9.380168e-09 3.8284237e-10 7.352603e-10
5.2939188e-11 2.6747907e-10 6.011281e-10 6.4195733e-09 1.4806667e-09 9.943284e-10 1.2662465e-08 3.93746e-10
7.5880324e-10 5.6963856e-09 1.2473798e-09 1.3586137e-09 3.723238e-08 1.1717254e-07 4.4277733e-08 6.0860397e-09
1.6825865e-09 1.5796522e-09 4.2299863e-08 9.166041e-09 9.802536e-09 2.7397775e-07 7.925683e-07 2.9895e-07
4.3055557e-08 1.1942811e-08 1.1010166e-08 5.5709204e-08 1.20403705e-08 1.29020705e-08 3.600107e-07 1.0351174e-06
3.902662e-07 5.6766925e-08 1.5970523e-08 1.4674706e-08 1.8374243e-08 4.004598e-09 4.296836e-09 1.2041923e-07
3.5720552e-07 1.3507027e-07 1.8856891e-08 5.1356657e-09 4.772213e-09 9.735272e-08 2.098028e-08 2.2508189e-08
6.268953e-07 1.782269e-06 6.712918e-07 9.9880126e-08 2.8997489e-08 2.6448221e-08 2.1379602e-08 4.649297e-09
4.990212e-09 1.4002427e-07 4.1248987e-07 1.5597007e-07 2.1826809e-08 5.968567e-09 5.542556e-09 2.3033893e-08
5.007838e-09 5.3690816e-09 1.5057691e-07 4.4252616e-07 1.6725313e-07 2.3522121e-08 6.436096e-09 5.9626797e-09
6.3759806e-08 1.3780307e-08 1.4797776e-08 4.1323366e-07 1.185549e-06 4.474429e-07 6.5073685e-08 1.8521117e-08
1.6998902e-08 9.24573e-08 1.9932399e-08 2.1372099e-08 5.946432e-07 1.6996329e-06 6.403514e-07 9.429195e-08
2.6833499e-08 2.4629523e-08 3.1287902e-05 9.069363e-06 7.934794e-06 9.0434325e-05 0.00018379049 6.7396046e-05
3.423179e-05 8.805813e-06 7.524473e-06 3.6135283e-05 9.805147e-06 8.04975e-06 9.312882e-05 0.00012782245
4.4777556e-05 3.7005502e-05 9.60119e-06 7.756808e-06 1.0302317e-05 3.8159815e-06 3.3760912e-06 3.833891e-05
5.7087644e-05 2.038276e-05 1.0755108e-05 3.719158e-06 3.2400565e-06 3.3021926e-05 9.4932675e-06 8.7007675e-06
9.8613236e-05 0.00016965895 6.234676e-05 3.3716457e-05 9.3105955e-06 8.325577e-06 2.5300326e-06 8.5749747e-07
6.88605e-07 9.50867e-06 1.3677065e-05 6.2255062e-06 2.5895663e-06 8.3699615e-07 6.6261305e-07 1.5332958e-05
5.521497e-06 4.877632e-06 6.382592e-05 9.977263e-05 3.5946614e-05 1.6355838e-05 5.4665434e-06 4.628043e-06
2.7185279e-06 1.1459196e-06 9.813332e-07 1.2190406e-05 2.0866388e-05 7.94643e-06 2.91251e-06 1.1391218e-06
9.371544e-07 4.797471e-06 1.6565746e-06 1.352967e-06 2.0131467e-05 3.397245e-05 1.1223337e-05 5.1496454e-06
1.6288458e-06 1.2956596e-06 8.176519e-06 3.0482379e-06 2.3134621e-06 2.9118379e-05 3.9443417e-05 1.4065617e-05
8.713347e-06 2.9850103e-06 2.2265574e-06

exp_avg f4 [27]
00000000: e0a2 86b8 3846 43b9 bd4a 6439 cd57 0339
00000010: 02e5 9b39 72c5 0f39 6da6 1439 aef9 7e39
00000020: 29c2 8eb9 81f4 132d fb84 ccac e670 8cab
00000030: 512d a9ab 39d5 e1ad f62e f92c 81c8 36ad
00000040: cdb1 f5ac 33ac 392c db86 afbc 2d1d 603c
00000050: 0d3e 87bc 6cdf 19bd e008 1a3c a47d 0c3c
00000060: 418c 12bb 0090 06bc 0194 823b
-6.419956e-05 -0.00018622808 0.00021771617 0.00012525842 0.00029734528 0.00013711097 0.00014176378 0.0002431634
-0.0002722901 8.410273e-12 -5.8127925e-12 -9.978934e-13 -1.202075e-12 -2.5674228e-11 7.0822194e-12 -1.0390023e-11
-6.9830587e-12 2.638567e-12 -0.021426609 0.013678831 -0.01650908 -0.037566587 0.00940153 0.008574877
-0.002236143 -0.008213043 0.0039849286

exp_avg_sq f4 [27]
00000000: 9197 5b34 7656 9335 2f74 c235 1dad 1435
00000010: 4818 2836 50be 3035 cbb4 3935 01cb f635
00000020: 3e13 1636 5a64 ac1d 1e27 f81e 30e4 391f
00000030: 42a5 841e 07a2 821f 3208 a51e 1a48 a71e
00000040: f61f 381f 87b3 8b1f 2581 263c c39a 4d3c
00000050: 278c 8e3b 12a4 743c c860 bd3a 6dd0 233c
00000060: c3f0 aa3a f4b3 593b 5847 883b
2.0451104e-07 1.0977517e-06 1.448794e-06 5.538621e-07 2.5048084e-06 6.584205e-07 6.918096e-07 1.838751e-06
2.2362942e-06 4.563178e-21 2.62742e-20 3.9364026e-20 1.4044393e-20 5.5325193e-20 1.7473444e-20 1.7711633e-20
3.8989953e-20 5.916579e-20 0.010162626 0.012549105 0.0043502036 0.014931696 0.0014448399 0.009998423
0.0013041723 0.0033218833 0.0041588955

exp_avg f4 [9, 9]
00000000: 96fa 413b d4e7 a93a 8499 b7ba 2e5c d23a
00000010: e725 0739 697f 9bb9 0fe3 a639 59b2 e139
00000020: 3c27 2d3b 1dbd d73b 690e 4a3b a2b5 60bb
00000030: b623 a03b 1621 6a39 9f62 d0b9 6cb5 df39
00000040: a1f2 1f3a e9d0 ae3b fe4d 8cba d369 8639
00000050: d1a0 c43a 3cef 2bb9 1fd6 1f39 3043 fab9
00000060: 24e8 03ba e31a d7b7 bac1 17bb 6843 74bc
00000070: f9a5 d8ba 569a 363c da82 85bc a00b a43a
00000080: 3abc 63bb f176 c4ba 9002 733a 5183 66bc
00000090: 2aaf b53b bafb b53b 42df 60b9 56de 4c3c
000000a0: 3846 a0ba 36cb 90bb 8a59 f1b8 ec2f 8b3b
000000b0: 6cf0 8dba 1afa 32bb dc21 343a d129 13ba
000000c0: d0cf d1ba 380e 4639 c99e 39ba 5afb a939
000000d0: 6d62 c4b8 0284 88ba 1802 5e3b 9c41 10bb
000000e0: 1c7f 15bb af95 393b 01dd b1b8 9d8a 3e3b
000000f0: 4a3d aeb9 c2ce f6ba d768 4e3b 50ee 24ba
00000100: e6ca 29bb 6f90 86ba a124 54bb b100 b53a
00000110: 52ba 093b 7da9 5ab8 592c f1b9 65f3 073b
00000120: d622 cd3b b4ba 01ba 0e07 61bb 427a 5a3b
00000130: 44d0 3aba 47b5 2f3b 084c 2d3a aaaf f1ba
00000140: ebc6 d93b
0.0029598824 0.0012962767 -0.0014007543 0.00160492 0.00012888723 -0.00029658832 0.0003183116 0.00043048224
0.002642109 0.0065838234 0.0030831343 -0.003428795 0.0048870696 0.00022328304 -0.0003974633 0.00042669044
0.0006101523 0.0053349626 -0.0010704396 0.00025637317 0.001500154 -0.00016396953 0.00015243188 -0.00047733774
-0.0005031845 -2.5642517e-05 -0.0023156242 -0.014908649 -0.0016528956 0.011145195 -0.016297746 0.0012515672
-0.0034749643 -0.0014989061 0.0009270096 -0.014069394 0.005544563 0.00555369 -0.00021445475 0.012504181
-0.0012227958 -0.004418756 -0.000115084535 0.004247656 -0.0010829098 -0.0027309717 0.00068715005 -0.0005613836
-0.0016007368 0.00018888048 -0.0007080851 0.00032421463 -9.3643415e-05 -0.0010415318 0.003387576 -0.0022011762
-0.0022811359 0.0028317978 -8.481183e-05 0.002907432 -0.0003323353 -0.0018829929 0.0031495595 -0.0006291615
-0.002590829 -0.0010266433 -0.0032370465 0.001380941 0.0021015597 -5.21331e-05 -0.00046000144 0.002074444
0.0062602563 -0.00049487804 -0.003433648 0.0033337031 -0.0007126371 0.002681093 0.0006610756 -0.0018439193
0.0066460273

exp_avg_sq f4 [9, 9]
00000000: f7e0 6538 e01e 5e38 7d28 da37 f8ef 5238
00000010: b465 0e37 08c0 9737 72bc 1337 4218 3237
00000020: 2521 1238 c476 0a39 41bf 1939 58ea 8738
00000030: 1561 e638 f328 c637 e520 3838 8650 b237
00000040: 1633 0438 2e4d b838 4c8d a038 1240 c438
00000050: 8e81 0d38 0bcd 9738 f003 2d37 08a0 e637
00000060: 8b78 5137 5320 9537 e87d 4b38 17e9 503a
00000070: 261a 583a 5b7f e039 11f1 323a 005c 4739
00000080: c739 8a39 f68f 1339 e0e5 4e39 86c6 153a
00000090: 6a3b 6d39 4334 9739 1089 e438 3d74 8339
000000a0: 8bf9 2438 25c1 c938 750a 3f38 9909 6838
000000b0: 491a 2939 9753 0339 feab 3339 586c 8c38
000000c0: f9a3 1339 7fa1 bc37 776e 5638 442b e237
000000d0: daa6 1a38 0c25 c438 7603 b538 ccc1 ed38
000000e0: 6f70 3938 b051 9638 3e82 be37 0859 0338
000000f0: 2c41 9237 5f7a ce37 226f 7b38 0286 bf38
00000100: 4d1a f038 c9af 6c38 070b c038 b5b8 8337
00000110: 492c 2138 df2f a237 1218 d237 5688 8b38
00000120: afc2 b938 4df9 fa38 0a25 3a38 5ab2 a638
00000130: c475 a437 f6bb fe37 889b 8c37 372c d737
00000140: 9093 8638
5.480737e-05 5.295768e-05 2.6006479e-05 5.029139e-05 8.487539e-06 1.8090024e-05 8.805759e-06 1.0615275e-05
3.483998e-05 0.00013204949 0.00014662465 6.4809516e-05 0.000109853376 2.3622508e-05 4.3899654e-05 2.125675e-05
3.151883e-05 8.7881795e-05 7.655713e-05 9.357942e-05 3.3737677e-05 7.238433e-05 1.031252e-05 2.7492657e-05
1.2485437e-05 1.7777236e-05 4.851623e-05 0.00079693034 0.00082436425 0.00042819497 0.0006826083 0.00019012392
0.0002636446 0.00014072642 0.00019731326 0.0005713481 0.00022624215 0.00028839902 0.00010897417 0.0002507287
3.9333052e-05 9.620403e-05 4.5547687e-05 5.532205e-05 0.00016126888 0.00012524273 0.00017134842 6.695901e-05
0.00014080097 2.2486549e-05 5.1124454e-05 2.6961447e-05 3.6871854e-05 9.352909e-05 8.631397e-05 0.00011337138
4.421215e-05 7.167773e-05 2.2710414e-05 3.131575e-05 1.7434904e-05 2.4614097e-05 5.9946564e-05 9.1325506e-05
0.00011448991 5.6430497e-05 9.1573274e-05 1.5702428e-05 3.8426635e-05 1.9334197e-05 2.504516e-05 6.653431e-05
8.85775e-05 0.00011967365 4.438035e-05 7.9487174e-05 1.9605162e-05 3.0366686e-05 1.6761725e-05 2.5650586e-05
6.4171036e-05

exp_avg f4 [9]
00000000: 9461 10be 3c03 3dbd 2cdf 093e 328d 20bf
00000010: 6af8 243e 3841 093d dfb2 ed3e 2c66 80bd
00000020: c798 fe3c
-0.14099723 -0.046145663 0.1346404 -0.62715447 0.16110387 0.033509463 0.4642553 -0.06269488
0.03107871

exp_avg_sq f4 [9]
00000000: bfe1 c43e a2d7 3e3f 799a a93e ed4b 2e41
00000010: 21d8 bb3f 8b5d 4d3f 53ce b13f 5d7d 633f
00000020: b7c6 683f
0.3845348 0.7454778 0.33125666 10.893537 1.4675332 0.8022086 1.389109 0.88863164
0.90928215

exp_avg f4 [2048, 9]
00000000: 5e02 8438 51d9 4439 531e 0eba 36e9 09b8
00000010: 8440 393a 0959 1a39 780a 9937 c080 0339
00000020: 642b 0bba f6ff dbb7 f5a7 0836 ddac 20b7
00000030: 74fc 1237 e1df aa37 f8fa 9b37 3a21 4eb6
00000040: 82e3 5b37 2dce ecb5 8d3e 68b3 9735 f3b3
00000050: 0c44 2933 7665 75b4 ceeb 5634 bc2f ad33
00000060: 9945 b0b2 093c ae33 4353 e9b3 6770 bcb5
00000070: 2cad 4f35 b1a5 2436 bf53 89b6 3f3f d5b5
00000080: 8d66 b5b5 ed21 3334 9ab1 2236 b467 3b35
00000090: 7cf5 06a1 3e8c 8520 3dc3 1aa1 e3bd 1a21
000000a0: bc31 3522 3ed0 919f 9beb 82a0 08d5 4f21
000000b0: 7edb 14a0 e218 80b6 c5bf 9ab5 4d41 5335
000000c0: 150c 85b6 a613 f936 2b1c 6fb6 bf76 dbb5
000000d0: b69d 9135 a0cb 1b36 76c1 85a4 5f9b 0fa4
000000e0: 7acc 2f23 f627 21a4 7a02 2625 225d a524
000000f0: 211d 2ba4 c37c 8224 1d54 efa4 b507 60b4
00000100: 532f 5433 cb99 1335 9af1 88b4 1216 9c35
00000110: 82d2 0335 7c42 18b6 b9ad f4b3 ba6b 0234
00000120: 8b56 7d36 d580 1535 b90c 55b6 bfe4 52b6
00000130: f8fd fdb6 ceee 1737 0920 af36 db49 d936
00000140: ff05 e2b6 79d5 07b7 8672 dfb6 0f20 ea36
00000150: 1dab b336 12e8 1038 1450 9ab7 f135 56b6
00000160: 66cb 01b7 507f aab5 f653 a4b3 c7e5 1b33
00000170: 08aa 9033 a661 e4b3 e816 06b4 5e1b 60b4
00000180: 9164 4b33 ef36 6b34 7070 f333 1ec4 9cb7
00000190: 8620 ceb6 b0f3 b137 1ed7 0fb8 f53a 7a38
000001a0: f4a7 50b8 4d20 d5b6 a1fe c236 1176 5837
000001b0: 4574 24b4 4495 1cb4 7510 5d35 c959 2cb6
000001c0: e523 1b36 8089 0fb6 50bc 2534 8f99 9635
000001d0: e00f dab4 c383 ffac 2ccf 24ab 149b 1e2c
000001e0: 48c1 9eae 786b 0f2e a33e a02b 213a e029
000001f0: dfa1 5f2e 5402 ca2c 9e0d 03b7 d159 9f37
00000200: 1633 4db8 a5a0 3eb8 630c 0639 7f9e a536
00000210: de03 a637 1f39 fc37 8af5 cab8 5c2f 96ab
00000220: 9102 c52a b155 9625 09d6 8aaf cd03 132f
00000230: 0ad6 d62b 71cf 43a4 9363 0a2d edb7 8fab
00000240: 3517 9eaf 6f1b 6a2c 48b6 b62e 109b 18b0
00000250: 2fff 9730 6069 0b2e 0455 9fad 9254 f62f
00000260: 1d1d f8ae d3f4 c7b8 45f6 6838 6a31 1639
00000270: 3a80 9239 b237 dbb9 9a16 48b8 73d0 93b8
00000280: 1eda 76b7 a06d 4739 8065 d130 00fa 07af
00000290: 2935 0bb1 29d1 58b3 cefc 7b31 95c6 e430
000002a0: ebc6 3bae 1dc9 71b1 e33b 8caf 1f91 af33
000002b0: eddd 2436 3099 07b6 4003 fab5 1f19 0836
000002c0: f26a 8d35 d97d b3b6 f7c9 e635 8633 00b6
000002d0: 9eb1 88b8 a33f 4838 45e6 78b7 ab68 00b8
000002e0: 0c4a 9d37 635e ed38 5b8d 99b8 ca1d 4638
000002f0: c55c 09b8 436d 25b4 19a0 bcb4 ea16 2135
00000300: ce7b 12b6 d88f 1f35 a919 2634 2cf9 36b4
00000310: 24dd 4135 677e fab4 229f 03b6 6437 1a37
00000320: 7e34 6db6 a3d2 52b7 a8d9 b5b7 5ed4 e235
00000330: 46b4 2436 939e 9b37 6367 d9b6 3f19 d1b2
00000340: 4948 07b3 1aaf 7bb2 1948 9fb3 53a6 3133
00000350: ed5e 3332 963a f731 331c 3c33 8b6f 7eb2
00000360: 2110 2bad 1140 aa2d 1ef0 522d 4fc8 27af
00000370: 0e37 fd2d 05f8 862e 7609 e2ad 560c ba2d
00000380: 619e 00ad 8b53 41b7 4a85 0eb6 0693 beb6
00000390: 4520 94b7 67fc 9538 d9d6 a7b7 9912 0cb6
000003a0: 6fe6 a936 f35f a8b7 5ebd 1cb8 bf93 9f37
000003b0: a43e 3838 a65f f738 d8eb f838 7a41 4c38
000003c0: 3728 d0b9 68ab ba38 a6db db37 42c2 fcb6
000003d0: a589 a7b6 0b94 c6b5 03da 2234 2c70 9c36
000003e0: 7f1f de36 d2eb 9fb4 fab0 2737 7b84 2ab6
000003f0: 9851 afa2 cb59 aba6 e6ed 2c17 0564 a6ab
6.2946914e-05 0.00018772973 -0.0005421389 -3.288054e-05 0.00070668035 0.00014719753 1.8243896e-05 0.00012541097
-0.0005308895 -2.6226026e-05 2.0363343e-06 -9.576991e-06 8.761057e-06 2.0369831e-05 1.8594306e-05 -3.0715732e-06
1.3106388e-05 -1.7643375e-06 -5.40736e-08 -1.1325317e-07 3.9410267e-08 -2.2854314e-07 2.0016088e-07 8.064623e-08
-2.0520746e-08 8.113427e-08 -1.0865053e-07 -1.4039805e-06 7.736551e-07 2.453435e-06 -4.0926675e-06 -1.5888144e-06
-1.3515397e-06 1.6683016e-07 2.4243259e-06 6.9813836e-07 -4.572586e-19 2.262388e-19 -5.2435625e-19 5.242854e-19
2.4556403e-18 -6.1754396e-20 -2.2178767e-19 7.041627e-19 -1.2608711e-19 -3.817594e-06 -1.1529706e-06 7.869865e-07
-3.9651154e-06 7.4230657e-06 -3.5630171e-06 -1.6351331e-06 1.0849242e-06 2.3215325e-06 -5.800729e-17 -3.1139787e-17
9.530069e-18 -3.4945158e-17 1.4399044e-16 7.1715117e-17 -3.7104387e-17 5.658987e-17 -1.0379222e-16 -2.086443e-07
4.9403138e-08 5.4985566e-07 -2.5507762e-07 1.1629329e-06 4.910763e-07 -2.2688464e-06 -1.13937354e-07 1.2146384e-07
3.7750312e-06 5.56943e-07 -3.174688e-06 -3.1425586e-06 -7.5695534e-06 9.055902e-06 5.219136e-06 6.475702e-06
-6.736023e-06 -8.09633e-06 -6.65925e-06 6.9774756e-06 5.354536e-06 3.4548408e-05 -1.839552e-05 -3.1919883e-06
-7.736357e-06 -1.270304e-06 -7.6521175e-08 3.629773e-08 6.736451e-08 -1.06348395e-07 -1.2488056e-07 -2.0871582e-07
4.7356085e-08 2.1906065e-07 1.13360215e-07 -1.8687973e-05 -6.1430646e-06 2.121352e-05 -3.42942e-05 5.9659553e-05
-4.9747483e-05 -6.351655e-06 5.8112932e-06 1.2902093e-05 -1.5315989e-07 -1.4582935e-07 8.2352864e-07 -2.568226e-06
2.3117693e-06 -2.1388696e-06 1.543533e-07 1.1220562e-06 -4.0617215e-07 -7.2621644e-12 -5.8552013e-13 2.2539236e-12
-7.219342e-11 3.2609887e-11 1.1386069e-12 9.957682e-14 5.08481e-11 5.7414438e-12 -7.811379e-06 1.8996101e-05
-4.8923386e-05 -4.5449142e-05 0.0001278385 4.9358346e-06 1.9790543e-05 3.006734e-05 -9.677846e-05 -1.0671286e-12
3.499601e-13 2.607892e-16 -2.5254135e-10 1.3370922e-10 1.5265022e-12 -4.2459594e-17 7.866502e-12 -1.0211811e-12
-2.8756522e-10 3.3268629e-12 8.3087814e-11 -5.5517635e-10 1.1059224e-09 3.1698533e-11 -1.8113962e-11 4.480723e-10
-1.1282906e-10 -9.5346615e-05 5.5542467e-05 0.00014323523 0.00027942826 -0.0004181243 -4.7704765e-05 -7.048333e-05
-1.4713527e-05 0.00019018957 1.52356e-09 -1.2366996e-10 -2.025738e-09 -5.048165e-08 3.666901e-09 1.6645624e-09
-4.2695552e-11 -3.5184435e-09 -2.5508404e-10 8.17547e-08 2.4567082e-06 -2.0205734e-06 -1.8627397e-06 2.0280202e-06
1.0536444e-06 -5.3492663e-06 1.7195115e-06 -1.9103477e-06 -6.518069e-05 4.7742982e-05 -1.4835566e-05 -3.0615058e-05
1.875034e-05 0.000113186215 -7.321938e-05 4.7234622e-05 -3.2749744e-05 -1.5406572e-07 -3.5134215e-07 6.001052e-07
-2.182776e-06 5.9441436e-07 1.546929e-07 -1.7040719e-07 7.2219905e-07 -4.6658099e-07 -1.9613149e-06 9.192012e-06
-3.5346307e-06 -1.2566018e-05 -2.1678235e-05 1.6900119e-06 2.4542837e-06 1.8551282e-05 -6.4791398e-06 -2.4342283e-08
-3.149788e-08 -1.4649936e-08 -7.417129e-08 4.1362295e-08 1.0440755e-08 7.1953066e-09 4.3797808e-08 -1.4810108e-08
-9.723806e-12 1.9355214e-11 1.1990435e-11 -1.5259725e-10 2.878722e-11 6.1376716e-11 -2.5697427e-11 2.115123e-11
-7.311125e-12 -1.1523148e-05 -2.1237233e-06 -5.679557e-06 -1.7658002e-05 7.151887e-05 -2.0007998e-05 -2.087245e-06
5.0634185e-06 -2.007184e-05 -3.736966e-05 1.9023077e-05 4.3927357e-05 0.00011795694 0.00011869491 4.869837e-05
-0.00039702814 8.901098e-05 2.6209116e-05 -7.5328e-06 -4.9930118e-06 -1.4795236e-06 1.5166738e-07 4.662221e-06
6.619782e-06 -2.978764e-07 9.995181e-06 -2.5409088e-06 -4.7520236e-18 -1.1889847e-15 5.5876467e-25 -1.182277e-12

exp_avg_sq f4 [2048, 9]
00000000: 2dd7 ae34 e1a9 0935 1d5d 9535 8816 f536
00000010: 160a 2e36 d6b6 7836 38b2 6835 7848 3835
00000020: 0f99 dd35 e8f8 a134 1eb9 0a34 ff60 8534
00000030: c91d 5a34 3dc4 b834 f9fa a933 1b8c 6233
00000040: 9fd1 9f34 07af d833 2c95 b231 8ff0 1131
00000050: 8793 8a31 4692 3a32 2cf3 1532 b235 2231
00000060: d9bc 8d31 ed00 ca31 5669 9f31 7d72 fe30
00000070: fec6 0130 71a3 9330 d347 fd31 d4b0 9c30
00000080: 7180 7d2f 97f6 b72f 30de 6431 99b1 ff2f
00000090: c881 9b2f 5c9a 452f f9ca 612e 9ebd 392f
000000a0: 3381 d62f 5d12 c62e 1eac c62e f15e 902f
000000b0: dc6e a02e d9dd 7832 3308 ab31 4507 bd31
000000c0: 800b fb32 40e1 dc33 8494 bd31 81f6 ff31
000000d0: 5aed 8831 802b d432 10ef 2a2f b9c6 972e
000000e0: cad8 bb2e 8160 da2f 1831 462f e56d ea2e
000000f0: 0468 ad2e 4cd2 7f2f 62bb 212f b71f 4432
00000100: 50f4 f731 4916 8632 7ddb e633 11d4 ac32
00000110: 6e2b 4332 53a3 d732 65c5 3d33 d28a 3032
00000120: 7cf1 2933 53c8 5432 c1d9 3133 c93f a034
00000130: 1d67 f333 208c 1133 4a7b 3233 f17e 4533
00000140: 9e05 b232 7040 db32 85b8 5732 c79f f732
00000150: 0968 b833 d640 8233 bbc6 8132 23e1 7033
00000160: de3c 4833 7039 dd32 a9d8 6b30 2f3e 2f31
00000170: e8b1 4231 dd12 8f32 16da 3431 7af5 f730
00000180: 1506 b52f fe4e 0932 3f96 a630 a3c2 2133
00000190: 4b06 0e33 e4ca 2933 6e27 b134 db6b 3135
000001a0: 1097 8e33 2718 ae32 33c3 1f33 1fec f733
000001b0: 6503 1331 c32b 2631 752f 8831 c337 fe32
000001c0: ad7c 9e32 0981 7f32 2abe 9531 c185 a131
000001d0: e3c1 e431 2266 ea2e 2891 702e 128b 592e
000001e0: d4a7 0830 9c96 212f 639a 9d2e ef10 9e2e
000001f0: 977b c92f 0d3a 462e b172 1234 79b8 5b33
00000200: 455d db33 077f 8e35 affb 9c34 fe32 0434
00000210: 6bb5 2d33 80cb 6034 9de5 d133 e10d a730
00000220: a385 8330 1701 1c30 1ec4 2531 6bcc 1f31
00000230: 8ff6 b830 5fb4 da2f 9d7c be30 c155 b630
00000240: ac59 a02f e645 af2e ce19 8c2f 30e0 8e30
00000250: 931b 8130 1d94 e82e 5a38 ac2e a766 992f
00000260: 9988 412f 8d42 c035 c64d c234 e8c6 7135
00000270: 9ff2 5d37 be79 f036 121b d235 a80d a134
00000280: 4d18 1836 8562 4135 79f6 5030 f5ba 2b2f
00000290: e739 0531 8e91 bf31 7825 6130 0f69 0530
000002a0: 61a9 3e30 898d b230 d17a 1e2f 5b4c 1130
000002b0: d9e7 dc2f e317 4b30 5786 9f32 677e 2b32
000002c0: a195 e330 047d 0031 9f06 ba30 0045 a430
000002d0: 86d2 8735 cb37 0b35 ed03 1735 0888 c435
000002e0: eea9 0e37 f7cd b735 1b22 ae35 f1d8 2e35
000002f0: 850e 9f35 ad9f 3f32 24bc a431 685f 3932
00000300: 8796 0333 0c37 b232 2fa7 c631 8c64 a932
00000310: 5b52 aa32 db49 4932 f271 9d32 1d3b d332
00000320: 4bcd 6333 7786 c834 f7c3 ab34 5377 7233
00000330: 53f3 e132 c91b c333 0ab3 a033 e861 a830
00000340: 47f0 0430 a168 f330 5944 8532 c7c9 7d31
00000350: 5286 5430 a1f7 a230 af30 4831 ed59 b330
00000360: 88a3 d92e 74d9 a12e 25d7 d62d 53d7 402f
00000370: 57c3 aa2e b8ef ba2e 77ab 3f2e f1f9 1a2f
00000380: f112 312e dd72 0733 6b2f e732 096c 8c33
00000390: 8341 1d35 d795 0935 b624 8133 5b5f e932
000003a0: 2f2b dc33 1733 e533 e30f a535 197a bc34
000003b0: c225 3c35 804d 5536 d168 c735 2a29 4c35
000003c0: 6ecb 2836 28ea f135 96ff 9435 767f 0032
000003d0: ec43 ca31 5aef 5631 5cbd b332 8699 f633
000003e0: 52c9 d031 43b4 db32 44f2 5032 54a8 8c32
000003f0: 8cfb be2f 70ee 2230 4f60 382f 3cf6 8830
3.2566587e-07 5.1283683e-07 1.1128465e-06 7.304192e-06 2.5933891e-06 3.7061304e-06 8.668608e-07 6.86508e-07
1.6510329e-06 3.016969e-07 1.2919597e-07 2.4843754e-07 2.0313668e-07 3.4415453e-07 7.9153274e-08 5.274715e-08
2.9768577e-07 1.0090121e-07 5.1974407e-09 2.1237019e-09 4.0331005e-09 1.0859884e-08 8.728232e-09 2.3604625e-09
4.1251096e-09 5.879079e-09 4.6394844e-09 1.8513472e-09 4.721271e-10 1.074211e-09 7.3714346e-09 1.1400751e-09
2.3055848e-10 3.346272e-10 3.3304666e-09 4.651042e-10 2.828655e-10 1.7971885e-10 5.1339353e-11 1.6893018e-10
3.9018175e-10 9.0072595e-11 9.034572e-11 2.6260907e-10 7.29565e-11 1.4485942e-08 4.977687e-09 5.5014504e-09
2.9225475e-08 1.0285521e-07 5.5175082e-09 7.449501e-09 3.9851047e-09 2.469983e-08 1.5546342e-10 6.901985e-11
8.542285e-11 3.972254e-10 1.8025437e-10 1.0660609e-10 7.885606e-11 2.3266827e-10 1.4709436e-10 1.1415913e-08
7.2164212e-09 1.5609787e-08 1.0750134e-07 2.0119872e-08 1.1360369e-08 2.5103565e-08 4.418452e-08 1.0276112e-08
3.9568008e-08 1.2385573e-08 4.140907e-08 2.9848732e-07 1.13343255e-07 3.3887886e-08 4.1555985e-08 4.598309e-08
2.0724482e-08 2.5524258e-08 1.2556602e-08 2.8827243e-08 8.5870916e-08 6.06539e-08 1.5107949e-08 5.6084115e-08
4.6621487e-08 2.5753906e-08 8.5800395e-10 2.55012e-09 2.8331844e-09 1.6655969e-08 2.6317415e-09 1.8041384e-09
3.292803e-10 7.99241e-09 1.2120792e-09 3.7662755e-08 3.3067675e-08 3.9532907e-08 3.2997508e-07 6.609459e-07
6.6398684e-08 2.026725e-08 3.7197605e-08 1.1544784e-07 2.1393245e-09 2.4181055e-09 3.963516e-09 2.959485e-08
1.8450317e-08 1.4872293e-08 4.35809e-09 4.7009228e-09 6.6577157e-09 1.06592304e-10 5.4698607e-11 4.9463607e-11
4.971501e-10 1.4696372e-10 7.166958e-11 7.188016e-11 3.6649503e-10 4.5071547e-11 1.3639034e-07 5.1157688e-08
1.0214948e-07 1.0616794e-06 2.9240388e-07 1.2312009e-07 4.04447e-08 2.0935659e-07 9.774087e-08 1.2154794e-09
9.569486e-10 5.675402e-10 2.412214e-09 2.3253743e-09 1.3457838e-09 3.978213e-10 1.3859737e-09 1.3266616e-09
2.9167546e-10 7.970495e-11 2.5484187e-10 1.0395578e-09 9.393822e-10 1.0576449e-10 7.8316645e-11 2.7903477e-10
1.7601777e-10 1.4324484e-06 3.6191904e-07 9.0068943e-07 1.3229116e-05 7.16673e-06 1.5654098e-06 2.9998523e-07
2.266391e-06 7.204147e-07 7.602022e-10 1.561878e-10 1.938696e-09 5.5753793e-09 8.190777e-10 4.8534415e-10
6.93623e-10 1.2991431e-09 1.441365e-10 5.28592e-10 4.0182505e-10 7.3884915e-10 1.8571127e-08 9.982251e-09
1.6558951e-09 1.8697515e-09 1.3535163e-09 1.1952181e-09 1.0119554e-06 5.1862725e-07 5.6257596e-07 1.4642728e-06
8.503424e-06 1.3694506e-06 1.2973936e-06 6.513574e-07 1.1850649e-06 1.1153969e-08 4.7944173e-09 1.079011e-08
3.0637718e-08 2.074696e-08 5.781565e-09 1.9719913e-08 1.9828056e-08 1.1716533e-08 1.8329022e-08 2.4590515e-08
5.303927e-08 3.735074e-07 3.1993815e-07 5.645354e-08 2.6304098e-08 9.085449e-08 7.4831476e-08 1.2251435e-09
4.8362775e-10 1.7710314e-09 1.5514319e-08 3.6931043e-09 7.731603e-10 1.1857432e-09 2.9131504e-09 1.3049523e-09
9.8970665e-11 7.36006e-11 2.4424527e-11 1.7538797e-10 7.765404e-11 8.500883e-11 4.3580663e-11 1.4095015e-10
4.0261964e-11 3.1536604e-08 2.6913503e-08 6.5389095e-08 5.858239e-07 5.125452e-07 6.013708e-08 2.7168133e-08
1.02524034e-07 1.0672937e-07 1.2298082e-06 3.5106567e-07 7.00904e-07 3.1784584e-06 1.4857161e-06 7.6055824e-07
2.5152362e-06 1.8024048e-06 1.1101245e-06 7.479562e-09 5.8866956e-09 3.1277154e-09 2.0924453e-08 1.14831934e-07
6.076484e-09 2.5576929e-08 1.2162278e-08 1.6374692e-08 3.4739533e-10 5.9274097e-10 1.6768918e-10 9.965286e-10

exp_avg f4 [2048]
00000000: 6cc0 e0b9 b2e4 fab7 ae89 bbb4 7e96 5ab6
00000010: 5382 33a2 d1c2 44b7 0ada 1ca5 f267 2bb6
00000020: fdc5 0c35 04f9 afb7 16d6 2533 bcfa 2db8
00000030: ff38 41b6 87f9 0daf 7a21 d6b8 170e 8db0
00000040: 542e 02b1 d774 bc39 5086 7bb3 d2c7 eeb6
00000050: a5f8 9db8 b873 edb5 90db 5cb7 59d2 e7b3
00000060: b51c cfaf b99a 56b8 800d 99b9 8b9d 1db7
00000070: 0f08 c8ad 22d8 bda8 7689 52b5 919a 72b1
00000080: eb88 fab0 b8c6 beb5 51ab f7b6 ae94 88b6
00000090: 71eb b5b8 a591 c1b6 56be 10b3 85a6 28ad
000000a0: ebf4 1e37 2dfa 4237 308d 308e 3b49 1037
000000b0: 2151 7eb2 a6d7 e6b8 e2e5 a5b6 7f80 eeae
000000c0: aa5a 75b2 5bc8 5ab4 1382 b0b8 aa4d 3431
000000d0: c6a9 8db4 cf91 f1b1 ae0e 72ac 0eac 5ab5
000000e0: aed8 15b5 4fe1 26b4 d8dc 9a9d c9ed 4daf
000000f0: 58fd c9b6 9ca2 892f 7323 3e35 5e5b 35b1
00000100: 9a4b 8534 00d3 fdb5 6598 c9b6 d1b8 3e39
00000110: 04fb a8b4 353f a0b1 0736 b5b5 185c fdb7
00000120: 8402 c637 43b9 4eab bd34 1db7 26f8 629c
00000130: e6a8 01b6 1a7e 37b4 7f31 96b5 3fbf 2d34
00000140: cfe5 eeb3 4723 b0b4 6476 cbb6 895d e4b3
00000150: 46fe 0bac 15d4 b5b1 13d4 87ad 8dc2 21af
00000160: cb3c abb4 0330 89a9 4fd0 2cad 4cfa 0fae
00000170: 1ee0 64b6 1269 3ca3 e69c f3b1 b4fa 22b7
00000180: 74fe c3b6 7323 1eb6 18c6 9eaf 181d dfa7
00000190: 116c 703a c7fc 0838 e275 53a2 b561 c1ae
000001a0: eaf0 70b5 2a1a 7bac 4418 5ab6 143d 02b6
000001b0: af12 20aa f091 4bb5 4622 78af 7cf4 c8b6
000001c0: e6f8 d4b4 a001 6eb3 d148 c1b2 2a23 f7b4
000001d0: a3f4 f3a5 7015 10b6 14d2 a2b0 ba75 6fb6
000001e0: b622 1338 e4c6 49a4 aeba 6e39 30aa deb6
000001f0: b2c4 eab3 0ab4 7cb1 be13 edae c730 8cb3
00000200: 59f8 f6b5 8c11 1d35 e47f 74ba 11fb 7eaf
00000210: d4e2 db34 eeff 42ad 0ed4 15b7 89b8 edb5
00000220: 908f efb1 a53f 8eb4 f77f 94b4 e65f d4b6
00000230: ba9c 4cb5 1593 e6b5 24dc 4534 7625 31b3
00000240: dde1 8bb5 2ede 50af 6214 38b8 401c 92b6
00000250: 702a eeac 02e8 bd3a c4ec 72a7 4b84 e8b6
00000260: cf8e 75b5 992c d4b6 6da7 12b4 9960 81b5
00000270: c4cc 2aae d7cc 789f ea33 b3b1 81ed 4535
00000280: be47 d133 4163 5cb6 47e5 37b1 b90c c2b2
00000290: 5fd2 73b6 68b9 84b5 f68e 61b2 35a7 01b4
000002a0: d378 b5aa 3cee 0038 6a32 acb0 d8ef 4bb5
000002b0: 9f51 bdb3 cd86 88b4 a708 b0b1 4657 21b5
000002c0: 4efa 389f 37c1 e7b5 db5d 5bb6 9766 85b1
000002d0: 7534 52b5 1f27 99b9 8472 88b6 484b fca3
000002e0: b00d 8e8d d6de 51b8 034d c3b6 a796 16b7
000002f0: 3179 a9b6 8919 6fad c813 0e38 1767 3239
00000300: 8717 b9ad 6b68 fbb5 9c74 fcb6 bc18 b8ae
00000310: e355 4836 c859 5eb5 e357 44b6 3595 2cb6
00000320: a4f3 10a2 6f58 31b4 2311 d6b5 9910 06af
00000330: 97d3 1cb7 b99c 0636 40fd 2bb3 95e3 9635
00000340: 3312 16af 1dd4 2faf 090e 5234 2532 40b6
00000350: 623a a0ba 0f11 e3b0 51e5 2eb4 3be0 afb5
00000360: caf3 fbb2 7131 48b6 d152 2190 9689 46b6
00000370: e6ba a5b5 b15e 9ead f556 2fb5 06a8 f12a
00000380: 6098 2130 f620 edb6 a062 71b1 babd 3320
00000390: 5d69 d0b3 4611 4bad fc69 f4b2 dcf6 91b5
000003a0: 653b ae35 d968 8039 9892 04b5 c1be 9cb8
000003b0: baa4 0235 486b 8334 c453 c6b3 524a 9cb2
000003c0: d358 16b3 1e4c aa9e a9ad dd39 6433 fa94
000003d0: a9f7 8635 7c19 ccb0 aace b1b6 eb69 ceb5
000003e0: c457 c739 f018 a937 242a 22af fe92 9eb1
000003f0: 77cf a4b5 8590 9eb4 ac67 e337 5a2b 0cb6
-0.00042867975 -2.9908817e-05 -3.493164e-07 -3.257213e-06 -2.4328017e-18 -1.172787e-05 -1.3604718e-16 -2.554149e-06
5.2442175e-07 -2.0977583e-05 3.8611766e-08 -4.147993e-05 -2.8792417e-06 -1.2912525e-10 -0.00010210551 -1.0263105e-09
-1.8943824e-09 0.00035945207 -5.8562648e-08 -7.116215e-06 -7.532657e-05 -1.7691555e-06 -1.3164143e-05 -1.0795038e-07
-3.7673478e-10 -5.1165673e-05 -0.00029192492 -9.39461e-06 -2.2740946e-11 -2.1076948e-14 -7.843113e-07 -3.5303496e-09
-1.8228808e-09 -1.4213938e-06 -7.3811175e-06 -4.0704244e-06 -8.674607e-05 -5.7688035e-06 -3.3700722e-08 -9.586669e-12
9.474558e-06 1.162155e-05 -2.1761654e-30 8.600119e-06 -1.48031924e-08 -0.00011007422 -4.944145e-06 -1.08458124e-10
-1.42814915e-08 -2.0375721e-07 -8.416562e-05 2.6237594e-09 -2.6386823e-07 -7.0305997e-09 -3.4398417e-12 -8.14617e-07
-5.5822136e-07 -1.5541922e-07 -4.0991808e-21 -1.872912e-10 -6.01976e-06 2.5035696e-10 7.08321e-07 -2.6390903e-09
2.4828188e-07 -1.8911378e-06 -6.008008e-06 0.00018188661 -3.1475076e-07 -4.6637987e-09 -1.3501275e-06 -3.0202835e-05
2.360461e-05 -7.3443004e-13 -9.370208e-06 -7.509785e-22 -1.932081e-06 -1.7089079e-07 -1.1190276e-06 1.6181455e-07
-1.11245406e-07 -3.2808222e-07 -6.063654e-06 -1.0634091e-07 -1.9894238e-12 -5.2919042e-09 -1.5441903e-11 -1.4711983e-10
-3.1895465e-07 -6.092351e-14 -9.823322e-12 -3.2736744e-11 -3.41051e-06 -1.021375e-17 -7.090068e-09 -9.714324e-06
-5.841075e-06 -2.3564469e-06 -2.8880787e-10 -6.1926477e-15 0.00091713766 3.2660344e-05 -2.8658239e-18 -8.79398e-11
-8.9757543e-07 -3.568377e-12 -3.2498656e-06 -1.9407062e-06 -1.4217337e-13 -7.583576e-07 -2.2567645e-10 -5.988926e-06
-3.9669175e-07 -5.541517e-08 -2.250127e-08 -4.603292e-07 -4.2319553e-16 -2.147015e-06 -1.1846759e-09 -3.56823e-06
3.507986e-05 -4.3753394e-17 0.00022766992 -6.635928e-06 -1.0932253e-07 -3.6773167e-09 -1.0781019e-10 -6.5281306e-08
-1.8400707e-06 5.851259e-07 -0.00093269185 -2.3190362e-10 4.0956968e-07 -1.1084451e-11 -8.930465e-06 -1.7711583e-06
-6.9721366e-09 -2.649587e-07 -2.7660255e-07 -6.3292564e-06 -7.622399e-07 -1.7179142e-06 1.8427141e-07 -4.1245094e-08
-1.0422042e-06 -1.8996424e-10 -4.3888e-05 -4.354428e-06 -6.7690784e-12 0.0014488699 -3.3712597e-15 -6.9295397e-06
-9.1477426e-07 -6.323284e-06 -1.3658219e-07 -9.639363e-07 -3.8835393e-11 -5.2685482e-20 -5.2154876e-09 7.373383e-07
9.745371e-08 -3.2840328e-06 -2.6760334e-09 -2.2590358e-08 -3.6332274e-06 -9.888727e-07 -1.3129229e-08 -1.2074891e-07
-3.2235897e-13 3.073945e-05 -1.2528976e-09 -7.597241e-07 -8.815845e-08 -2.5430055e-07 -5.123258e-09 -6.0104173e-07
-3.9170563e-20 -1.7267074e-06 -3.2688174e-06 -3.8824726e-09 -7.830743e-07 -0.00029211582 -4.066447e-06 -2.7353778e-17
-8.754721e-31 -5.0037015e-05 -5.820418e-06 -8.975773e-06 -5.050701e-06 -1.3591247e-11 3.387386e-05 0.00017013807
-2.1042513e-11 -1.8731347e-06 -7.5237604e-06 -8.371745e-11 2.9852315e-06 -8.2832094e-07 -2.9257433e-06 -2.5716847e-06
-1.9644621e-18 -1.6516582e-07 -1.594923e-06 -1.2193126e-10 -9.347589e-06 2.005878e-06 -4.004437e-08 1.1242106e-06
-1.3648886e-10 -1.5991515e-10 1.956288e-07 -2.8639417e-06 -0.0012224431 -1.6521272e-09 -1.6288438e-07 -1.3103776e-06
-2.9331108e-08 -2.98311e-06 -3.181545e-29 -2.9584385e-06 -1.2347853e-06 -1.8004572e-11 -6.531912e-07 4.292679e-13
5.8787997e-10 -7.0669876e-06 -3.5126178e-09 1.5224665e-19 -9.70492e-08 -1.15430495e-11 -2.8453535e-08 -1.0875187e-06
1.2981296e-06 0.0002449218 -4.9387154e-07 -7.47419e-05 4.866848e-07 2.447871e-07 -9.2353304e-08 -1.8194587e-08
-3.500538e-08 -1.8030931e-20 0.00042281792 -2.5263819e-26 1.0055857e-06 -1.4850197e-09 -5.29907e-06 -1.5379022e-06
0.00038021628 2.0157982e-05 -1.4748786e-10 -4.6151163e-09 -1.2279332e-06 -2.9534945e-07 2.7108785e-05 -2.088686e-06

exp_avg_sq f4 [2048]
00000000: 37fe 6d36 f0c3 0e35 dd83 0b32 0abf 2a31
00000010: 3595 992f d112 8833 30be 972f 8fb1 3333
00000020: e672 e933 e911 7f33 6e32 0732 6227 7934
00000030: fcd8 9132 d9f5 662f c162 da34 ced5 3d31
00000040: bb14 1830 a2d0 f336 aafd 4731 84aa f331
00000050: c955 8a36 115a c332 3e9d 0034 582d 5631
00000060: 149c 082f 3ce4 4634 a8f4 4036 6229 9433
00000070: 9ebe b330 8d46 f72f 9c56 6c32 5c8f 4731
00000080: 0f72 0330 d869 e732 4fc0 1830 be0e ef32
00000090: e1b5 2636 0d00 5933 70d6 4c30 ce5f 3930
000000a0: 7be2 cf33 8684 3a32 c65b d12e d7bd 4334
000000b0: d1da 5b31 4b64 6b36 4aec ea32 8f0c 8b30
000000c0: cc37 2f30 665f 8432 f561 9e34 5346 3b31
000000d0: 4a85 0632 4441 8f31 d904 a930 70f0 cf31
000000e0: 46fc 2531 49c6 ad31 1c76 6c2f 17c9 d330
000000f0: 9430 ef33 1b12 bc2e 18ba e731 bbc2 d62f
00000100: e8a6 f831 0f15 0833 44c8 c832 9ea0 9b36
00000110: 2194 7632 00ea 2631 c33e 9933 5e3c bd33
00000120: b0ab 4234 a39a c02f 9a3a 7f34 fb0d 0f2f
00000130: f199 2f34 a582 ee31 5d78 9432 7a38 1231
00000140: 0cab 2932 28f0 8d31 3f55 3833 dbbd 9d31
00000150: 8a06 f02f 2a3e 1731 08aa 832f ed6c c930
00000160: a9a8 3732 e397 c32f f7fb c130 8fad 4230
00000170: afa7 4433 b4fb 992e 7603 0430 9a2a 9033
00000180: 79cd ed32 f27f f532 d6fd 1831 17f1 0e2f
00000190: e0cd 1237 4257 0030 8bad 872f 7986 4730
000001a0: d01b 3e31 b96c 3730 d573 cc30 0560 4833
000001b0: fc9e 912f b493 2433 a060 7730 fb1b d431
000001c0: 30bb cb2f da72 b030 b759 7331 f21b 4b31
000001d0: 0a73 d12f d60b ab32 ad30 a230 7c6d 8833
000001e0: 0cbf 9634 dab7 572f e3d9 bf36 5d7d d432
000001f0: 6694 152f 831a 3c31 5985 ad30 e1fd 1832
00000200: d321 bd32 ae79 0532 300c 7d38 f561 1a30
00000210: 2c71 9931 bdc5 a02e 590d 1034 922d 1c2f
00000220: 4772 6730 34ff 8a2e 6e55 4c32 0638 0032
00000230: c8ba 8c33 cb53 b034 5f69 dc31 d563 8731
00000240: 21d7 6233 440d 2231 ac82 9b33 f6d8 e732
00000250: a72a 7730 e7d3 0838 5018 bb2f 48a1 8b32
00000260: fec8 9831 d557 ab32 aa60 912f ca2d ba32
00000270: 4302 3730 6660 702f 588f ce30 9887 7632
00000280: b957 6c31 da8f 5a32 e8fb 0331 73fa c830
00000290: a1bd 9333 bf1d a833 1a60 752f 749d 0a32
000002a0: 5a9c cd2f 0130 b737 62b9 bb30 b246 5f32
000002b0: 0fbc bb31 1443 1031 485c 8231 a28c fc32
000002c0: 62b2 552f 5428 d52f eff8 0b33 0014 6d30
000002d0: ac3d da33 3e14 b135 f82b 5531 4c16 632f
000002e0: 1756 ac2e e13c 4037 2c2a 0733 2fef 1334
000002f0: 7ef3 d132 1efe 4830 334b 8734 54ca 3a34
00000300: 0cf4 a230 7cb1 e62e 60c6 3932 527f f630
00000310: 453c 0732 28b5 c42e d190 6d33 90fd ab32
00000320: 95f2 862f 4415 2e32 b9ac 3732 802f bc2f
00000330: 0f0a bd32 53d3 1d32 4e73 e030 5d30 ed31
00000340: 0fe8 6f30 0ac2 bc30 a259 0830 4e79 4c34
00000350: e767 ff37 30be d630 69bf 1432 979a 0133
00000360: 4f77 6930 bba9 0f34 7d8f db2e 73ac 4532
00000370: 0f47 8333 5872 5830 a791 ea32 7fe8 9d2e
00000380: 9d76 b230 cbfc 8f32 dfdc 0f30 196c 4f2f
00000390: 5fb3 ea30 3372 c230 54d2 ef31 4b4d d432
000003a0: 4a55 ac31 fd4d 9036 e8ca 4332 0d78 6e35
000003b0: fb05 0130 a66c a933 639a c431 b43a 9031
000003c0: aa7d 9231 bacf f82e d478 2a37 cdc2 082f
000003d0: 00f0 8d31 4468 b530 9eac 7c33 ab08 fd33
000003e0: 0e9e d336 bff3 c333 d7e5 8830 a1ed e430
000003f0: 0b48 cf31 00e1 0632 47b5 d132 ff68 2e31
3.5463725e-06 5.318425e-07 8.120847e-09 2.484685e-09 2.7936556e-10 6.336416e-08 2.7601876e-10 4.1838174e-08
1.0870808e-07 5.9388103e-08 7.869501e-09 2.320426e-07 1.6978895e-08 2.1005721e-10 4.0677517e-07 2.7624654e-09
5.532674e-10 7.2662524e-06 2.9102503e-09 7.091616e-09 4.122707e-06 2.2741945e-08 1.1978133e-07 3.1166874e-09
1.2424578e-10 1.8523218e-07 2.8752638e-06 6.8993145e-08 1.3078141e-09 4.4979168e-10 1.3756701e-08 2.9039802e-09
4.781961e-10 2.6940072e-08 5.5570565e-10 2.7829966e-08 2.4841795e-06 5.0524296e-08 7.45195e-10 6.7438755e-10
9.680385e-08 1.0856757e-08 9.520522e-11 1.8229854e-07 3.1993077e-09 3.5076107e-06 2.7348637e-08 1.011715e-09
6.374392e-10 1.5410205e-08 2.9501066e-07 2.7252056e-09 7.830133e-09 4.1692676e-09 1.2297746e-09 6.0518275e-09
2.415406e-09 5.057505e-09 2.1506036e-10 1.5409424e-09 1.1138141e-07 8.5524664e-11 6.7441412e-09 3.9064738e-10
7.236725e-09 3.168412e-08 2.3374135e-08 4.6380583e-06 1.4352765e-08 2.4289193e-09 7.136034e-08 8.811979e-08
1.8130117e-07 3.5034473e-10 2.3770045e-07 1.3010741e-10 1.6354149e-07 6.941564e-09 1.7284203e-08 2.12779e-09
9.875986e-09 4.1309427e-09 4.291837e-08 4.5908854e-09 4.3660392e-10 2.2008728e-09 2.3949576e-10 1.4655633e-09
1.0690351e-08 3.5578215e-10 1.4114211e-09 7.082343e-10 4.5787313e-08 7.002346e-11 4.802624e-10 6.713272e-08
2.768387e-08 2.8579937e-08 2.22632e-09 1.3000477e-10 8.750212e-06 4.669013e-10 2.4679667e-10 7.2586875e-10
2.7664449e-09 6.6729516e-10 1.4875875e-09 4.6653458e-08 2.6488312e-10 3.831856e-08 8.999539e-10 6.173193e-09
3.705849e-10 1.2838328e-09 3.541215e-09 2.9556273e-09 3.809862e-10 1.9912402e-08 1.1800886e-09 6.3529086e-08
2.8078682e-07 1.9619453e-10 5.717609e-06 2.4737057e-08 1.3604193e-10 2.737267e-09 1.2625306e-09 8.90529e-09
2.2017877e-08 7.769286e-09 6.033125e-05 5.616408e-10 4.465752e-09 7.311083e-11 1.3415901e-07 1.4204307e-10
8.419971e-10 6.3208466e-11 1.1893787e-08 7.463319e-09 6.553233e-08 3.2843522e-07 6.414822e-09 3.9403667e-09
5.2815384e-08 2.3581643e-09 7.241519e-08 2.6990602e-08 8.991869e-10 3.2622276e-05 3.4032377e-10 1.6255072e-08
4.4466324e-09 1.9946961e-08 2.644403e-10 2.1674072e-08 6.6578226e-10 2.186212e-10 1.5029213e-09 1.4349915e-08
3.4392384e-09 1.2721978e-08 1.92062e-09 1.4623097e-09 6.879714e-08 7.8285204e-08 2.2316762e-10 8.068458e-09
3.7400377e-10 2.1837654e-05 1.365873e-09 1.2996383e-08 5.463796e-09 2.0992887e-09 3.793989e-09 2.9400613e-08
1.9435611e-10 3.877313e-10 3.2589863e-08 8.624852e-10 1.0162634e-07 1.3193419e-06 3.1020573e-09 2.0653451e-10
7.836947e-11 1.1458266e-05 3.1470492e-08 1.3777456e-07 2.444153e-08 7.31207e-10 2.5200424e-07 1.7396206e-07
1.1856414e-09 1.04907166e-10 1.08135225e-08 1.7935042e-09 7.871738e-09 8.945228e-11 5.5312572e-08 2.0022327e-08
2.4546823e-10 1.0132968e-08 1.06912745e-08 3.4230752e-10 2.200707e-08 9.186652e-09 1.6330917e-09 6.903106e-09
8.727747e-10 1.373395e-09 4.960389e-10 1.9043111e-07 3.0446752e-05 1.5624604e-09 8.6582554e-09 3.017575e-08
8.4934454e-10 1.337966e-07 9.9844556e-11 1.150612e-08 6.113088e-08 7.8742834e-10 2.730742e-08 7.180833e-11
1.2984916e-09 1.6762348e-08 5.2336974e-10 1.8864944e-10 1.7076721e-09 1.4147815e-09 6.979727e-09 2.4715197e-08
5.015555e-09 4.3006135e-06 1.1396629e-08 8.8836606e-07 4.6938425e-10 7.889439e-08 5.7219025e-09 4.1976254e-09
4.2634456e-09 1.1314634e-10 1.0160922e-05 1.2438335e-10 4.130925e-09 1.3199117e-09 5.8830317e-08 1.1782807e-07
6.30669e-06 9.124732e-08 9.960627e-10 1.6656722e-09 6.0326832e-09 7.850986e-09 2.4413238e-08 2.5380016e-09
