Results/UCI-HAR/Ablation experiments/Frequency_domain/best.pth (torch, 531195 bytes, 88 tensors)

exp_avg f4 [27, 9]
0	0xbb4c85bc	-0.0031207642
1	0x3a3a7f93	0.0007114347
2	0xba1c1953	-0.00059547013
3	0xba68ab43	-0.00088756176
4	0xbb0ac49c	-0.0021174317
5	0xb9f573ea	-0.00046816404
6	0xba045a80	-0.0005048886
7	0x3b025583	0.0019887395
8	0xbb0b0bce	-0.0021216753
9	0xbbb221b4	-0.0054361466
10	0x3a889c1b	0.00104225
11	0xba893850	-0.0010469053
12	0x3ae1d24a	0.0017228809
13	0xbb8a18c3	-0.0042143776
14	0x3ac165a9	0.0014755029
15	0x3ce549ee	0.027989354
16	0xbb2fd0d4	-0.0026827352
17	0xbbab2a21	-0.005223528
18	0x3b5827da	0.0032982738
19	0xba1e5227	-0.00060394633
20	0x3a1ad0a0	0.00059057213
21	0x39ad41ae	0.00033046067
22	0x3af878ba	0.0018956878
23	0xba449879	-0.0007499527
24	0x39787c31	0.00023697388
25	0xbae7a59e	-0.0017673259
26	0x3b33fe98	0.0027464982
27	0x3ae98903	0.0017817322
28	0xba009753	-0.00049053616
29	0x3a3a0260	0.0007095691
30	0x3b8c596a	0.00428312
31	0xbac23df7	-0.0014819492
32	0x3b0a112f	0.002106737
33	0x3b01894b	0.001976567
34	0x3adb8a9c	0.0016749683
35	0xb943de3d	-0.0001867944
36	0x3aaa2846	0.0012981973
37	0xb8717ba4	-5.7574027e-05
38	0xb8af9bd6	-8.373677e-05
39	0xbb58e419	-0.0033094941
40	0x3b0d57d4	0.0021567242
41	0xbb4b2a8e	-0.0031000706
42	0xb9bd6fb5	-0.00036132117
43	0xbb2e0e9d	-0.0026559003
44	0x3b2d78c8	0.0026469696
45	0xba8cbcbe	-0.0010737402
46	0x39be1653	0.00036256257
47	0xb8a60bad	-7.9176716e-05
48	0x3b0f278a	0.0021843635
49	0xbb22c6b3	-0.0024837672
50	0x39f17e5c	0.00046061247
51	0x3cc940a8	0.024566963
52	0xbb4fd193	-0.003171061
53	0xbb3b7a00	-0.0028606653
54	0xba5b8b41	-0.00083749375
55	0x39aef946	0.0003337359
56	0xb9df3b9a	-0.0004257828
57	0xbb16ddaa	-0.0023020306
58	0x3a68ba29	0.00088778377
59	0xbac1cfba	-0.0014786639
60	0x3c0baa1a	0.008524442
61	0xbb4f4bdb	-0.0031630907
62	0x39f2c9dc	0.00046308234
63	0xb92209b0	-0.00015453133
64	0x36cd4cd3	6.1184196e-06
65	0xb9c3f7db	-0.00037377965
66	0xbb8de6ef	-0.004330508
67	0x3b03fa16	0.0020138077
68	0xbb0254b6	-0.0019886917
69	0xbbbcccbf	-0.0057617123
70	0xba8cd613	-0.0010744951
71	0x3a93aafc	0.0011266167
72	0x3b0ade19	0.002118951
73	0xb9c812ea	-0.00038161065
74	0x39e48617	0.00043587454
75	0xb9fb7227	-0.000479595
76	0x3b090e03	0.0020912893
77	0xb90dfd94	-0.00013541273
78	0xbc613680	-0.013745904
79	0x3ae505af	0.0017473007
80	0x3b221c85	0.0024736237
81	0xba44a989	-0.00075020693
82	0xba4d0374	-0.0007820644
83	0x3a544d4b	0.0008098676
84	0x396695cd	0.00021990314
85	0xba6e3b5d	-0.00090878253
86	0xbb031710	-0.002000276
87	0x3b778134	0.003776622
88	0xbb653639	-0.0034974946
89	0xbb542020	-0.003236778
90	0xba1c03d2	-0.0005951497
91	0x3a15850a	0.0005703723
92	0x3a2c8c8d	0.0006582223
93	0x3ac9e755	0.0015404025
94	0xbb0b027b	-0.0021211195
95	0xb9e13145	-0.00042952053
96	0x3a42199b	0.0007404328
97	0x39875cff	0.00025818494
98	0xb9dfc8ef	-0.00042683582
99	0x3a7e6258	0.00097039854
100	0x3a444453	0.0007486988
101	0xba6a635c	-0.00089411973
102	0xbb227bec	-0.0024793101
103	0x3ade9416	0.0016981389
104	0x3ab3eb82	0.0013726803
105	0xbb999c05	-0.0046877884
106	0x3b87a96c	0.0041400697
107	0x3b89f20a	0.0042097615
108	0x3ac3348a	0.0014892977
109	0xbabffb7c	-0.0014647092
110	0xb9911b15	-0.00027676733
111	0xb9928df3	-0.0002795305
112	0x3b66a416	0.0035193018
113	0xba25e5dc	-0.0006328502
114	0x3aad1078	0.0013203761
115	0xb98332fe	-0.0002502426
116	0x3a5eb275	0.000849522
117	0xba662897	-0.0008779852
118	0x3a92a11e	0.0011186933
119	0xb93f1bdc	-0.00018225558
120	0xbab6940a	-0.0013929617
121	0xbac5dbc8	-0.0015095407
122	0x39945f35	0.00028299695
123	0xbb2470d1	-0.0025091658
124	0x3ab29a15	0.0013626242
125	0x3a6dcd5a	0.0009071432
126	0x3b015f78	0.0019740742
127	0x3b054cbc	0.0020339927
128	0xba910110	-0.0011062939
129	0x3a45da7c	0.00075475103
130	0x3ac3d3d7	0.0014940453
131	0x3b00e5dd	0.001966826
132	0xbc568cc1	-0.013095082
133	0x3c2ca4ce	0.010537339
134	0x3c6ebe1f	0.014571696
135	0xbb05b053	-0.0020399287
136	0x3a0b70e0	0.0005319249
137	0x3a17a80b	0.0005785233
138	0x3a0f99e8	0.0005477951
139	0xbaedca9a	-0.0018142045
140	0xba0d7bab	-0.0005397151
141	0x3bc1c94d	0.0059138895
142	0xbb8db23b	-0.0043242252
143	0xbc05c52d	-0.008164686
144	0xbaca39ef	-0.0015428643
145	0x3a17eb82	0.0005795286
146	0x3994c6bf	0.00028376837
147	0xba486617	-0.0007644607
148	0xbb31bc06	-0.0027120127
149	0xb8c64337	-9.4538955e-05
150	0xbb4dab2c	-0.0031382544
151	0x3a7f00c6	0.0009727593
152	0x3af68562	0.0018808062
153	0x3a1a0722	0.00058756967
154	0xb9b4c823	-0.0003448139
155	0xb9f94d19	-0.00047550423
156	0xba8ebb7e	-0.0010889617
157	0x3988839c	0.00026037998
158	0x3a385222	0.0007031282
159	0xba9375d7	-0.0011250329
160	0x39db40e0	0.0004181927
161	0x3a222ce0	0.00061864965
162	0x3bf08b62	0.0073408345
163	0xbb901f4f	-0.0043982635
164	0xbaaf4a2d	-0.0013373547
165	0x3c85c3c1	0.016328694
166	0xbbfbbdb4	-0.0076825265
167	0x3a14bdb6	0.0005674021
168	0xbbbb4937	-0.005715515
169	0xbb345c87	-0.002752097
170	0xba40e83a	-0.0007358823
171	0xbb39adb7	-0.0028332302
172	0x3b0cd812	0.0021491093
173	0xb997e838	-0.0002897398
174	0xbcb4cc72	-0.022070143
175	0x3c6ebe94	0.014571805
176	0x3c1278b1	0.008939908
177	0x3cd10eed	0.025519812
178	0x3c8e1427	0.017343594
179	0x3c155dc3	0.009116593
180	0xba499b17	-0.00076906517
181	0x3af3aa4a	0.0018590179
182	0x3a897b4f	0.0010489019
183	0xbbca35b5	-0.006170953
184	0x3adfbd30	0.0017069932
185	0xbbc98578	-0.006149944
186	0xba920f5b	-0.0011143492
187	0xbbc17da0	-0.0059048682
188	0xbb3a1917	-0.0028396302
189	0xbc31c9a2	-0.010851296
190	0x3be9eeff	0.0071390863
191	0x3b2b5b48	0.0026146937
192	0xbcd5f7d9	-0.02611916
193	0x3c24820e	0.010040773
194	0x3b6edd0b	0.003644767
195	0x3d0798ec	0.033104822
196	0x3d17a899	0.03702602
197	0x3cc1ed91	0.02367285
198	0xbb01ed88	-0.0019825418
199	0x3b038d57	0.0020073259
200	0x3a62a801	0.00086462504
201	0x3c03a1fc	0.008034226
202	0xbbe17a31	-0.0068810214
203	0xbb8e4387	-0.004341546
204	0x3c8be051	0.017074736
205	0x3c27c94f	0.010240867
206	0x3c08e23a	0.008354718
207	0x3b3c5181	0.0028735104
208	0x3a6c6ed7	0.0009019202
209	0xb9442ea5	-0.00018709393
210	0x3b854363	0.004066871
211	0xb9ec041b	-0.00045016487
212	0x3aaa2ae2	0.0012982751
213	0x3cfa97f7	0.03059004
214	0x3c7ac3f4	0.015305508
215	0x3c475207	0.012165553
216	0xbbffa1e5	-0.0078012818
217	0x3b3d0e3d	0.0028847598
218	0x39963a66	0.0002865374
219	0xbce963a1	-0.02848989
220	0x3c81ab56	0.01582877
221	0x3c13c9d2	0.009020286
222	0x3ca1c988	0.019749418
223	0x3d019876	0.03163954
224	0x3c7fa404	0.015603069
225	0x3c16c4ff	0.009202241
226	0xbbd2f796	-0.006438206
227	0xbaeb570b	-0.0017955018
228	0x3cd69bab	0.026197275
229	0xbc54955f	-0.012975066
230	0xbc0a4153	-0.008438426
231	0xbd1b7ddf	-0.037961837
232	0xbd39c9ae	-0.045358352
233	0xbcef346d	-0.029199803
234	0x3b37a249	0.0028020313
235	0xbb0ae8c9	-0.002119588
236	0xba84ad05	-0.0010122365
237	0x3bd6c066	0.0065536974
238	0xbb5f03eb	-0.0034029435
239	0xb9c0da1f	-0.00036783607
240	0xbb18fc73	-0.002334383
241	0xbc3b4a8e	-0.011431349
242	0xbbfc3c95	-0.0076976516

exp_avg_sq f4 [27, 9]
0	0x3860106d	5.342106e-05
1	0x3791740f	1.7339391e-05
2	0x3722fd5b	9.714941e-06
3	0x38d65909	0.00010220899
4	0x3895ee8e	7.149308e-05
5	0x383ee2be	4.55107e-05
6	0x3b377310	0.0027992167
7	0x38b04410	8.4050116e-05
8	0x39496ca2	0.00019209323
9	0x3989a549	0.00026253823
10	0x38a8c0b1	8.046756e-05
11	0x382e3176	4.1530897e-05
12	0x39e6ae3a	0.00043998827
13	0x3988ec7b	0.00026116133
14	0x391138c1	0.0001384942
15	0x3d765c02	0.06014634
16	0x3a537eca	0.0008067904
17	0x3b4d11e5	0.0031291184
18	0x388d5d81	6.7408204e-05
19	0x37a6918a	1.9856514e-05
20	0x3743594d	1.1643698e-05
21	0x38e4ca84	0.00010909609
22	0x38a9f336	8.1038495e-05
23	0x383a6d59	4.4447694e-05
24	0x3b2c2426	0.0026266663
25	0x38992ddb	7.30415e-05
26	0x39423954	0.00018522638
27	0x393a89e2	0.00017789708
28	0x3868a4d2	5.546661e-05
29	0x37f0329d	2.8633798e-05
30	0x39d2e77b	0.00040226788
31	0x3923f233	0.00015635118
32	0x397a089b	0.00023845064
33	0x3bdd189b	0.006747318
34	0x39715e29	0.00023018628
35	0x39f524ce	0.00046757463
36	0x38622dac	5.3925134e-05
37	0x3795546d	1.7801498e-05
38	0x378d05d5	1.6811226e-05
39	0x39df0187	0.00042535012
40	0x391e7911	0.00015113155
41	0x394c9f09	0.00019514201
42	0x3bf302d4	0.0074161086
43	0x3938b62f	0.00017615476
44	0x3a07f42e	0.0005186227
45	0x36f7ac48	7.38123e-06
46	0x36b84fab	5.492902e-06
47	0x36a7c070	4.9993905e-06
48	0x39738bf5	0.00023226424
49	0x386b42a3	5.6090426e-05
50	0x38026940	3.1092437e-05
51	0x3d10ba8f	0.035334166
52	0x39f0e3c8	0.00045946077
53	0x3af1f590	0.0018460024
54	0x38bc7fd8	8.988351e-05
55	0x37e93466	2.7800164e-05
56	0x3788deac	1.6316153e-05
57	0x39bd7a4b	0.00036140005
58	0x38de93d0	0.00010613317
59	0x39188809	0.00014546527
60	0x3c2ae6ef	0.010431035
61	0x3995222d	0.00028444958
62	0x3a284c7e	0.00064200896
63	0x386b3e3a	5.608632e-05
64	0x37b89c08	2.2007167e-05
65	0x375f4c75	1.3309637e-05
66	0x3979e0ce	0.00023830237
67	0x38c070d1	9.176287e-05
68	0x39113227	0.00013846961
69	0x3bb791d3	0.0056021004
70	0x38c76c61	9.5092466e-05
71	0x39ba013c	0.00035477604
72	0x381f880f	3.803527e-05
73	0x37708d78	1.4338053e-05
74	0x36e1b7c6	6.7269166e-06
75	0x38af8ad3	8.370508e-05
76	0x3849d8f6	4.8124195e-05
77	0x37f34932	2.9001942e-05
78	0x3c3cc5fa	0.011521811
79	0x39201d82	0.00015269782
80	0x3a1a1732	0.000587809
81	0x37a443a1	1.9581816e-05
82	0x36c7a3d3	5.949734e-06
83	0x3654ccf9	3.1709772e-06
84	0x39931bd8	0.0002805877
85	0x3864a049	5.4508713e-05
86	0x38147d03	3.5402376e-05
87	0x3a716ad3	0.00092093385
88	0x3a6d0bb4	0.00090425764
89	0x3a27adbb	0.0006396432
90	0x38202830	3.81844e-05
91	0x36d40bea	6.3194793e-06
92	0x366e87b7	3.554376e-06
93	0x3989cd63	0.000262837
94	0x38bce3d8	9.006978e-05
95	0x3819884b	3.6604975e-05
96	0x3986c93a	0.00025708397
97	0x3984d416	0.00025335018
98	0x3939c873	0.00017717648
99	0x37b9ef19	2.2165057e-05
100	0x36c58849	5.886923e-06
101	0x364bc950	3.0366537e-06
102	0x3992de7d	0.00028013057
103	0x382c33f0	4.1056366e-05
104	0x3802d864	3.1195945e-05
105	0x3a662426	0.000877919
106	0x3a63c30b	0.00086884265
107	0x3a1f57b9	0.00060784403
108	0x3882933f	6.22631e-05
109	0x3759e725	1.2988025e-05
110	0x36fb8568	7.4959135e-06
111	0x39b02a10	0.00033600675
112	0x390bcf2f	0.00013333255
113	0x382b9cd8	4.091565e-05
114	0x3a4933f7	0.0007675285
115	0x3a45f07e	0.000755079
116	0x39f680ad	0.00047016647
117	0x377b099d	1.4963004e-05
118	0x36936f0a	4.393868e-06
119	0x362909cd	2.5188667e-06
120	0x3916a95f	0.0001436821
121	0x3867f606	5.530382e-05
122	0x37956daf	1.781326e-05
123	0x39be376b	0.00036280914
124	0x39c25fd5	0.00037073964
125	0x39740645	0.00023271989
126	0x385f932c	5.3304408e-05
127	0x381425b9	3.532108e-05
128	0x37c3c758	2.3338638e-05
129	0x3ad0059f	0.0015870816
130	0x392498ec	0.00015697227
131	0x3909e273	0.00013149697
132	0x3be4e631	0.0069854488
133	0x3bed6499	0.007244658
134	0x3b9032ad	0.0044005723
135	0x382084ae	3.827054e-05
136	0x377e2af8	1.5149584e-05
137	0x3774f9d3	1.46017e-05
138	0x3a57b1a5	0.000822807
139	0x38dba433	0.00010473318
140	0x38742e26	5.8217112e-05
141	0x3b7c21eb	0.0038472365
142	0x3b88ffbc	0.0041808765
143	0x3b175eba	0.0023097233
144	0x37914975	1.7319553e-05
145	0x36582ee0	3.2213793e-06
146	0x3612509a	2.1802612e-06
147	0x391f6421	0.00015200723
148	0x389e7146	7.555126e-05
149	0x37b65ecb	2.1740232e-05
150	0x399451d1	0.00028289718
151	0x3991b5fa	0.00027792138
152	0x39398ef1	0.00017696225
153	0x379e75a0	1.8889841e-05
154	0x366dbad7	3.5424507e-06
155	0x35ee2f91	1.7746225e-06
156	0x39254da5	0.00015764551
157	0x380b8dd2	3.3272263e-05
158	0x379764f4	1.8047613e-05
159	0x399acb15	0.00029524477
160	0x399caf3b	0.00029885196
161	0x395e2749	0.00021186205
162	0x3a04942a	0.00050574786
163	0x389fbd83	7.61701e-05
164	0x386b8025	5.614771e-05
165	0x3b55c067	0.0032615901
166	0x3a678a21	0.00088325335
167	0x39724b71	0.00023107023
168	0x3ba66289	0.0050776643
169	0x3b05fc0d	0.0020444423
170	0x3aabfdd7	0.0013121915
171	0x396496bf	0.00021799932
172	0x382b6502	4.0863648e-05
173	0x37b05263	2.10192e-05
174	0x3b225b8c	0.0024773804
175	0x3a1e3a4b	0.0006035908
176	0x39106434	0.00013770239
177	0x3b92f6b7	0.004484977
178	0x3b5e57fa	0.003392695
179	0x3b0fae7f	0.0021924076
180	0x3a11150e	0.00055344484
181	0x38ac3e41	8.213195e-05
182	0x386198ab	5.3786363e-05
183	0x3b6d6fc9	0.003622996
184	0x3a428951	0.00074209744
185	0x397b2034	0.00023949222
186	0x3c41b21b	0.011822249
187	0x3b9556ab	0.004557451
188	0x3b572aa2	0.0032831808
189	0x3a8865ea	0.0010406349
190	0x3926001d	0.00015831036
191	0x38c5ce85	9.432159e-05
192	0x3bb97aae	0.0056603765
193	0x3ad2728a	0.0016055864
194	0x39e3d1b3	0.00043453052
195	0x3c1b0b04	0.009463076
196	0x3bc48d71	0.0059983064
197	0x3b801ee5	0.003909933
198	0x397af4e4	0.00023933087
199	0x38268cf8	3.970877e-05
200	0x37eed1c9	2.84695e-05
201	0x3b6c5350	0.00360604
202	0x3a2baf8b	0.000654929
203	0x394eee51	0.0001973447
204	0x3c17dc8a	0.009268889
205	0x3acfbb76	0.0015848714
206	0x3a83f8f1	0.0010068697
207	0x398dcf09	0.0002704787
208	0x385c5ea8	5.2540243e-05
209	0x37f7b0b0	2.9526971e-05
210	0x3b4b0ff6	0.0030984855
211	0x39f50054	0.00046730286
212	0x395e19d6	0.00021181194
213	0x3bd54956	0.0065089865
214	0x3b5a2d92	0.0033291322
215	0x3b1b2707	0.0023674385
216	0x3985250b	0.00025395336
217	0x383c112f	4.4838696e-05
218	0x37fa3486	2.982678e-05
219	0x3b737dd3	0.0037153855
220	0x3a58aded	0.0008265663
221	0x39385479	0.00017579076
222	0x3b9b0a0b	0.004731422
223	0x3b3a34ae	0.0028412747
224	0x3aebd6f5	0.0017993139
225	0x3a2e42d1	0.00066475297
226	0x38ea92f8	0.000111853646
227	0x387307bb	5.7942914e-05
228	0x3bc8776b	0.0061177514
229	0x3aaeaca2	0.0013326595
230	0x39b83a6a	0.00035138737
231	0x3c1c7e3d	0.009551582
232	0x3c17f02e	0.009273572
233	0x3bca6ea7	0.0061777416
234	0x3929f26a	0.00016207402
235	0x37bccaae	2.2505727e-05
236	0x375117ba	1.2462895e-05
237	0x3a248c1e	0.00062769826
238	0x393ffca6	0.00018309298
239	0x3851ca4d	5.001789e-05
240	0x3a7caff7	0.0009639258
241	0x3a0a0b2e	0.0005265948
242	0x39b58bd5	0.00034627193

exp_avg f4 [27]
0	0xbaa25beb	-0.0012387013
1	0x3a9fc318	0.001218888
2	0x3aae6655	0.0013305644
3	0xbae4775c	-0.0017430591
4	0x3b0dff1d	0.0021666952
5	0x3b0034a2	0.0019562622
6	0x3b2d0d2b	0.0026405554
7	0x3aa921ef	0.001290379
8	0xba18658c	-0.00058134715
9	0x2fd062f7	3.7905298e-10
10	0xb004f853	-4.837421e-10
11	0xaead6ef8	-7.886841e-11
12	0x3071e0f9	8.7994995e-10
13	0xafb1a5b8	-3.2313863e-10
14	0x2fa9bddc	3.0875824e-10
15	0xb0132e56	-5.3544136e-10
16	0xaf8bd1c8	-2.543301e-10
17	0x2f42f2ce	1.7730459e-10
18	0x3affc9d2	0.0019515103
19	0xbb5ca89d	-0.0033669837
20	0x3b507fdb	0.003181449
21	0x3c62dbc1	0.013846339
22	0x3ba4de65	0.0050313943
23	0xb9c9fe46	-0.00038527156
24	0xbb9ee3da	-0.0048489394
25	0xbbdfd427	-0.0068307105
26	0xbba2a807	-0.004963878

exp_avg_sq f4 [27]
0	0x3910fa9c	0.0001382627
1	0x3a22ab0e	0.00062052987
2	0x391e134c	0.00015075243
3	0x39d8128a	0.00041212543
4	0x39ed17ec	0.00045221986
5	0x3995fb62	0.0002860679
6	0x39b89444	0.0003520568
7	0x3994b91e	0.00028366683
8	0x38f1513f	0.00011506909
9	0x2420b060	3.4843865e-17
10	0x245acbdc	4.744389e-17
11	0x242ad71b	3.7045075e-17
12	0x2421983d	3.504026e-17
13	0x23d9f2dc	2.3630042e-17
14	0x24cdcbe7	8.925e-17
15	0x2482b62e	5.668714e-17
16	0x23ca8ebb	2.1961333e-17
17	0x241dc5d4	3.4211515e-17
18	0x3c0c2c87	0.008555538
19	0x3c20d109	0.009815463
20	0x3c4ea53f	0.01261264
21	0x3c45bc90	0.012068883
22	0x3bafb4f7	0.005362149
23	0x3b9fc687	0.004875961
24	0x3c0b0c78	0.0084868595
25	0x3c1eaa0c	0.009684097
26	0x3ac15e79	0.0014752886

exp_avg f4 [9, 9]
0	0x3c02c89b	0.007982398
1	0xbc1514a7	-0.009099162
2	0xbccdd20c	-0.025124572
3	0x3c6c7af6	0.014433613
4	0x3a9edc0d	0.0012120024
5	0x3be6931b	0.0070365793
6	0xbca5b6ea	-0.020228822
7	0xbc0ca42d	-0.008584064
8	0x3c65a7d1	0.014017061
9	0x3b4f83d7	0.0031664276
10	0xbc2f0554	-0.010682423
11	0xbbf5aede	-0.0074976524
12	0xbb06289c	-0.0020470982
13	0xba49c73b	-0.0007697229
14	0x3b5d648f	0.0033781861
15	0xbbe4b036	-0.006979014
16	0x3b6fd8e9	0.0036597794
17	0x3b21a110	0.002466265
18	0x3b83a69d	0.0040176646
19	0x3bb424f8	0.005497571
20	0x3b9bda0d	0.0047562183
21	0xbaa3e6eb	-0.0012504732
22	0xbbf2b5a0	-0.0074069053
23	0xbaecb8e3	-0.0018060472
24	0x3ba3dcc9	0.005000685
25	0xbb9b6bee	-0.004743091
26	0x3c508139	0.012726122
27	0x3aafbe3c	0.0013408135
28	0x3b964bfd	0.004586695
29	0x3baaaf8a	0.005208914
30	0xbb29d29b	-0.0025912884
31	0xbb22866e	-0.0024799365
32	0xbb6dd65f	-0.0036291105
33	0x3afa8720	0.0019113757
34	0x3af95585	0.0019022679
35	0x3796baa2	1.7968301e-05
36	0xbac440aa	-0.0014972885
37	0xbb1a062e	-0.0023502219
38	0xba3e6e90	-0.00072644
39	0x3b45d5f5	0.0030187343
40	0x396aa1b2	0.00022376215
41	0x3a2f3583	0.0006683694
42	0x3a800786	0.0009767867
43	0xbb2d94d5	-0.0026486416
44	0x3ad23740	0.0016038194
45	0xbb93e82b	-0.0045137606
46	0x3b056619	0.0020355044
47	0x3c5b42d8	0.013382636
48	0xbb75920b	-0.0037471082
49	0xbba70925	-0.0050975257
50	0xba92efc9	-0.0011210378
51	0x3c8445e0	0.0161466
52	0xbbfa2f35	-0.007635022
53	0x3bc85978	0.006114181
54	0xb940b632	-0.0001837842
55	0x3c34e02b	0.011039774
56	0x3ae5076e	0.0017473528
57	0x3b4ee6a1	0.003157057
58	0xba6f5683	-0.0009130018
59	0xbc38d39f	-0.011280923
60	0xbc2d510d	-0.010578406
61	0x3c38a314	0.01126935
62	0xbc8ab4bc	-0.016931884
63	0xbcb78be2	-0.022405569
64	0x3c7fc228	0.015610255
65	0x3d37caa5	0.04487099
66	0xbc8f46c8	-0.017489806
67	0x3b0d1a71	0.0021530653
68	0xbc8f9f21	-0.017531933
69	0x3d0710be	0.03297495
70	0x3be84d6b	0.007089307
71	0xbcf53ab1	-0.029935213
72	0x3b9de51b	0.0048185713
73	0xbcc71bbd	-0.024305219
74	0xbcb26594	-0.021776952
75	0xbaa41d2b	-0.00125209
76	0x3af334ae	0.0018555128
77	0x3ca873a2	0.02056295
78	0xbbd7b6c7	-0.006583068
79	0xba2d203d	-0.000660423
80	0x3c48e212	0.012260931

exp_avg_sq f4 [9, 9]
0	0x3adc8694	0.0016824775
1	0x3b3054e8	0.0026906077
2	0x3bd24db1	0.006417953
3	0x3b4fe5a4	0.003172257
4	0x3a5fabb0	0.00085323583
5	0x3adb5121	0.0016732552
6	0x3bdfe5f6	0.0068328334
7	0x3a338a2b	0.0006848897
8	0x3a6d5501	0.0009053499
9	0x3ae11516	0.0017172422
10	0x3b12bbe3	0.0022389821
11	0x3b96cb10	0.0046018437
12	0x3b16354a	0.0022919946
13	0x3a8ff036	0.0010981623
14	0x3ae44a83	0.0017417226
15	0x3b986775	0.004651005
16	0x3a92e1f4	0.0011206255
17	0x3a72d978	0.0009263973
18	0x3a847b75	0.0010107594
19	0x3a8282f5	0.0009957241
20	0x3a637345	0.00086765393
21	0x3a925c4a	0.001116642
22	0x39ce4e57	0.0003934975
23	0x3a73a45b	0.0009294205
24	0x3aaafb0a	0.0013044786
25	0x3a0a492f	0.00052751874
26	0x39d6dbe6	0.00040981098
27	0x3a545f9e	0.0008101406
28	0x3aa5cb8a	0.001264916
29	0x3a69cc14	0.00089186546
30	0x3a735e01	0.0009283722
31	0x391e77ef	0.00015112733
32	0x3a19406e	0.00058460876
33	0x3b0a750e	0.00211269
34	0x39ad2036	0.0003302113
35	0x395b3f64	0.00020909082
36	0x39ffd851	0.00048798558
37	0x39b9968b	0.00035398113
38	0x3a23e158	0.00062515354
39	0x3a14d8cf	0.0005678059
40	0x390ab6f8	0.00013228867
41	0x39783474	0.00023670663
42	0x3a56b03c	0.0008189713
43	0x3992f6a3	0.0002803105
44	0x39647942	0.00021788946
45	0x3a362d1e	0.0006949472
46	0x3abe2b30	0.001450872
47	0x3a95f5d0	0.0011441056
48	0x3aa71619	0.0012747674
49	0x39b907fd	0.000352919
50	0x3a7f604c	0.00097418274
51	0x3b3e36f7	0.002902446
52	0x39be1882	0.00036257884
53	0x3a0e8d98	0.0005437969
54	0x3ab0cc3c	0.0013488601
55	0x3ad61b22	0.001633499
56	0x3b384977	0.002811996
57	0x3b0811a4	0.0020762468
58	0x3a48c151	0.0007658201
59	0x3aa0fe9e	0.0012282913
60	0x3b649535	0.0034878973
61	0x3a160114	0.00057222066
62	0x3a7e8f04	0.0009710642
63	0x3bd2c378	0.006431993
64	0x3c33bb07	0.010969884
65	0x3c65f696	0.014035841
66	0x3c37b433	0.011212396
67	0x3b28201e	0.002565391
68	0x3be14f0a	0.0068758773
69	0x3cbf5645	0.023356566
70	0x3b179e27	0.0023135038
71	0x3b9807c8	0.0046395995
72	0x3a95b866	0.0011422753
73	0x3b5f8fcb	0.0034112807
74	0x3b964490	0.00458581
75	0x3b5c86cc	0.003364968
76	0x39da1164	0.00041593157
77	0x3b089b9a	0.00208447
78	0x3be52ad1	0.0069936295
79	0x3a062814	0.00051176664
80	0x3a0c0147	0.00053407665

exp_avg f4 [9]
0	0x3c1b6fe6	0.009487128
1	0xbc41e2b1	-0.011833833
2	0xbb91c521	-0.0044485484
3	0xbc23693c	-0.00997382
4	0x3c7e5c79	0.015524977
5	0x3cc9f253	0.024651682
6	0xbc38d360	-0.0112808645
7	0x3cceca84	0.025243051
8	0xbc81a855	-0.015827337

exp_avg_sq f4 [9]
0	0x3c837bb1	0.016050192
1	0x3cec2f21	0.028831067
2	0x3cc11065	0.023567388
3	0x3c11f94e	0.0089095365
4	0x3c434841	0.011919082
5	0x3c1330e8	0.008983828
6	0x3ca25b47	0.019818915
7	0x3d87be2c	0.06628069
8	0x3c1b5776	0.0094813015

exp_avg f4 [2048, 9]
0	0xb8e355dd	-0.00010840197
1	0x3a8e5c33	0.0010861218
2	0xba6fcfab	-0.00091480714
3	0xbae72e1f	-0.0017637647
4	0xba6f7e7c	-0.0009135974
5	0xb98db0c9	-0.0002702533
6	0x3a8dc1ca	0.00108152
7	0x3aebdbd7	0.0017994595
8	0x3aea1727	0.0017859683
9	0xba046714	-0.000505076
10	0xbb6d8539	-0.0036242737
11	0x3b521295	0.0032054533
12	0x3a629ccf	0.0008644582
13	0xbb0055b1	-0.0019582326
14	0xb9f9efc4	-0.0004767162
15	0x39e84129	0.00044299036
16	0x3a92d144	0.0011201282
17	0x3b733bde	0.003711454
18	0x34df1836	4.1554603e-07
19	0x35514678	7.796111e-07
20	0x329cdecc	1.8262106e-08
21	0xb2788160	-1.4464916e-08
22	0xb3e71e68	-1.07623066e-07
23	0xb3a8a0c7	-7.852355e-08
24	0xb564d83c	-8.525128e-07
25	0x319d9f4d	4.587412e-09
26	0xb4ebd4de	-4.3927042e-07
27	0xb4a4de78	-3.0709248e-07
28	0x3557e122	8.042135e-07
29	0xb4a72dba	-3.1139444e-07
30	0xb600a99d	-1.9172214e-06
31	0x34faae37	4.6692887e-07
32	0xb4f7e3ae	-4.6172994e-07
33	0xb54008d2	-7.153841e-07
34	0xb5b40a18	-1.3413983e-06
35	0x35e793ad	1.725382e-06
36	0xba71fd9f	-0.0009231213
37	0xb706910b	-8.020793e-06
38	0x397c90c6	0.00024086525
39	0xbab4a80f	-0.0013782996
40	0xba88c153	-0.0010433592
41	0xb9931a09	-0.00028057423
42	0x3b68c85e	0.0035519819
43	0xbaa24014	-0.0012378716
44	0x3ada7c97	0.0016669211
45	0xba7b3151	-0.0009582239
46	0x395af3e5	0.00020880958
47	0x3b9d9a06	0.004809621
48	0xbac0e7cf	-0.0014717522
49	0xbaaeba76	-0.0013330716
50	0xb981e1f1	-0.00024773137
51	0xbab7afff	-0.0014014243
52	0x3b3499d3	0.0027557507
53	0x3a8d3228	0.0010772394
54	0x343ce513	1.7592201e-07
55	0x3545ba99	7.3659754e-07
56	0xb4aa13f8	-3.1679497e-07
57	0xb50c5e36	-5.229116e-07
58	0xb41b166d	-1.4443658e-07
59	0x35a86199	1.254538e-06
60	0xb496c3f5	-2.8082255e-07
61	0xb5769e36	-9.187237e-07
62	0xb457cdf5	-2.0098362e-07
63	0x39286318	0.00016058644
64	0xb9e2af0a	-0.00043236493
65	0xba8e30d9	-0.0010848298
66	0xba7e3571	-0.00096972944
67	0x3a4277a7	0.0007418342
68	0x3a2629e1	0.0006338638
69	0x3b0fa73d	0.002191975
70	0xbabbf641	-0.0014340357
71	0xba7fe258	-0.0009761206
72	0xb00b0137	-5.056963e-10
73	0xb0163ba4	-5.4654437e-10
74	0xb0046822	-4.81693e-10
75	0x2f9a2164	2.8036162e-10
76	0xafa5fd6b	-3.019339e-10
77	0xafafecfc	-3.2000702e-10
78	0xaf530bb3	-1.9194495e-10
79	0xaee34f1b	-1.0336817e-10
80	0xafd353b2	-3.8440146e-10
81	0xb9fe8c45	-0.00048551164
82	0xba301977	-0.0006717662
83	0x3aa2d66b	0.0012423521
84	0x3aa1a712	0.0012333116
85	0xb9b88664	-0.00035195344
86	0x39c1dbec	0.00036975683
87	0xbae29e06	-0.0017289526
88	0x3a95895e	0.0011408736
89	0x38a81330	8.014438e-05
90	0x33bbe458	8.7494016e-08
91	0x33c46cd9	9.1467605e-08
92	0xb03de76a	-6.908666e-10
93	0xaf8f5db9	-2.6078142e-10
94	0x32189802	8.882127e-09
95	0xb356b7e4	-4.9993005e-08
96	0xb4061b9b	-1.2489765e-07
97	0xb37c1302	-5.869061e-08
98	0xb2c8b486	-2.3365157e-08
99	0x3a209fb8	0.00061273156
100	0xbacfec87	-0.0015863337
101	0xbb93aee7	-0.004506934
102	0x3951dec0	0.00020014774
103	0x3a9dcd45	0.0012039325
104	0x3abfb017	0.0014624622
105	0x3bad95b4	0.005297387
106	0xbb9114f2	-0.0044275457
107	0xbb18838c	-0.0023271767
108	0xb548f24c	-7.4858394e-07
109	0xb6148584	-2.2131435e-06
110	0xb6698497	-3.4796883e-06
111	0x3525dec0	6.1791434e-07
112	0x36f19f27	7.2008875e-06
113	0x36511541	3.1155798e-06
114	0xb61298f8	-2.1844735e-06
115	0x349b4eaa	2.8928235e-07
116	0xb53b6dd2	-6.982274e-07
117	0x3a599d6d	0.00083013513
118	0xbb7410e5	-0.0037241515
119	0x3b77d4d6	0.003781607
120	0x3a64c5f6	0.0008727008
121	0xb846476e	-4.7273403e-05
122	0x3a92df1d	0.0011205409
123	0xbbaf6060	-0.005352065
124	0x3b5eca17	0.0033994967
125	0x3ac34629	0.0014898229
126	0x302e0b28	6.3316685e-10
127	0x34088722	1.2715148e-07
128	0xb289c936	-1.60404e-08
129	0xb206a863	-7.838113e-09
130	0x34004008	1.1944223e-07
131	0xb17dc64b	-3.6929062e-09
132	0xb2ab0784	-1.9910438e-08
133	0xb23b2901	-1.0894156e-08
134	0x31fa184e	7.2787207e-09
135	0xba0f4d17	-0.00054665044
136	0xba912425	-0.0011073394
137	0x3aecc23d	0.0018063259
138	0x39d5aa5d	0.00040753456
139	0xbb08626e	-0.0020810622
140	0xba387940	-0.00070371106
141	0x3a9f21d2	0.0012140817
142	0x3a69122f	0.0008890954
143	0x3b0ba7fb	0.002130984
144	0xb92f7ade	-0.00016735072
145	0xb95a6bda	-0.00020830278
146	0x38b17320	8.4614614e-05
147	0x399257f5	0.00027912823
148	0x388b4d65	6.642452e-05
149	0x37be2677	2.2667677e-05
150	0xb902b04a	-0.00012463439
151	0xb936f41a	-0.00017447807
152	0x37ab5ffc	2.0429485e-05
153	0x37dab8a2	2.6073601e-05
154	0x378cca01	1.6783366e-05
155	0xb81671a3	-3.586862e-05
156	0xb7c7ab70	-2.380248e-05
157	0x351001d4	5.364684e-07
158	0xb788ae86	-1.6293732e-05
159	0xb5963817	-1.1192195e-06
160	0x381e1168	3.7686346e-05
161	0x36b55c71	5.404982e-06
162	0x38efdf9e	0.0001143806
163	0xb9e3e6a4	-0.00043468655
164	0x3b271b46	0.0025498434
165	0x3a3ea388	0.0007272293
166	0xb911cfbe	-0.00013905668
167	0x3a81a19c	0.0009890082
168	0xbbb01ea1	-0.005374745
169	0x3b090de1	0.0020912813
170	0x3a55ac7c	0.00081510074
171	0xbb3c9f15	-0.0028781344
172	0x39d30108	0.00040245824
173	0x39745777	0.00023302237
174	0x3b04df50	0.0020274706
175	0xb91f7d06	-0.00015209996
176	0x38780e78	5.9141283e-05
177	0xba78e3ab	-0.00094943744
178	0x390f7482	0.00013680945
179	0x3a1b2d5b	0.0005919539
180	0x34014d2c	1.2042136e-07
181	0x3575ddda	9.159245e-07
182	0xb5cb9e03	-1.5170666e-06
183	0x34ee6763	4.4406178e-07
184	0xb503b088	-4.905819e-07
185	0x34290dcd	1.5744372e-07
186	0xb242f596	-1.1348126e-08
187	0x3501b4af	4.8319174e-07
188	0xb50a24f2	-5.146277e-07
189	0x32d4bdb0	2.4766308e-08
190	0x3307956c	3.1568035e-08
191	0xb3100643	-3.3533308e-08
192	0xb12614a0	-2.4167903e-09
193	0xb2845b74	-1.540841e-08
194	0xb229483b	-9.853518e-09
195	0xb3c68cc1	-9.2456965e-08
196	0xb266c6bd	-1.343295e-08
197	0xb36beb80	-5.4929387e-08
198	0x37ce90b9	2.4624505e-05
199	0xb8b64673	-8.6915585e-05
200	0xba56822c	-0.0008182849
201	0x3a3179ee	0.0006770183
202	0xba0d3c25	-0.00053876854
203	0xba84777b	-0.0010106409
204	0x3aa8405d	0.0012836565
205	0xb7fe6c9e	-3.0329738e-05
206	0x3a206551	0.0006118613
207	0xb8018b4b	-3.0885723e-05
208	0xb837b03e	-4.379474e-05
209	0x3806587e	3.2030504e-05
210	0x38054268	3.1771517e-05
211	0x3875d520	5.861104e-05
212	0x36eb0a30	7.0047317e-06
213	0xb8bc15c3	-8.968592e-05
214	0x3884febb	6.341698e-05
215	0xb813f4a6	-3.5275378e-05
216	0x38d9928b	0.00010374662
217	0xb906d3e7	-0.00012858176
218	0x3ac8f27c	0.0015331055
219	0x38c4fa10	9.392586e-05
220	0x3a1599b0	0.00057068
221	0x3965cea7	0.00021916126
222	0xbb5d37ec	-0.0033755256
223	0x3b051e9a	0.002031243
224	0xb87c332a	-6.0129132e-05
225	0x32e0830e	2.6136629e-08
226	0x320b650a	8.1138385e-09
227	0xb1a53f7d	-4.80935e-09
228	0x3034c658	6.576548e-10
229	0xb1432f23	-2.8403029e-09
230	0x330047f1	2.9867753e-08
231	0xb3b3cb02	-8.372264e-08
232	0xb247db43	-1.1633179e-08
233	0xb0d61c51	-1.5578597e-09
234	0xb813d815	-3.5248773e-05
235	0x392a409c	0.00016236532
236	0xb8927860	-6.984244e-05
237	0x38e2433c	0.00010789043
238	0x39a3bf50	0.00031232322
239	0x3969e8ec	0.00022307382
240	0xba828727	-0.0009958491
241	0x3a038429	0.0005016947
242	0xb8e5f67c	-0.00010965482
243	0xba346a8f	-0.00068823335
244	0x3a3009ac	0.00067153084
245	0xba4652e0	-0.000756545
246	0x39052106	0.0001269617
247	0xbaf00f3a	-0.0018315085
248	0xbace6409	-0.0015746366
249	0x3a72c54a	0.0009260966
250	0x3b406d2e	0.0029361951
251	0x3b36d510	0.0027897991
252	0xb9d844d7	-0.0004125002
253	0x3a76ae75	0.00094101514
254	0xb9a1bf10	-0.00030850666
255	0xba3c1fa4	-0.00071763457

exp_avg_sq f4 [2048, 9]
0	0x373275ae	1.0637026e-05
1	0x396bf68b	0.00022503191
2	0x38035af1	3.131753e-05
3	0x3822025c	3.8626007e-05
4	0x370b627f	8.3079785e-06
5	0x37d23c49	2.5062023e-05
6	0x37fa5350	2.9841118e-05
7	0x379e474f	1.8868273e-05
8	0x37d4347b	2.5296808e-05
9	0x385b1f3f	5.224277e-05
10	0x39845338	0.00025239005
11	0x38c99e38	9.6138974e-05
12	0x37ebae4f	2.8095352e-05
13	0x3786a810	1.6052305e-05
14	0x38418835	4.614164e-05
15	0x38c9e5c5	9.627225e-05
16	0x386a1d91	5.5817483e-05
17	0x38195455	3.6556583e-05
18	0x32b76398	2.1349294e-08
19	0x338a3156	6.4351e-08
20	0x333182bf	4.1329937e-08
21	0x3289bec5	1.6035651e-08
22	0x3206a7ab	7.83795e-09
23	0x320a60b7	8.054648e-09
24	0x3356297a	4.986348e-08
25	0x32caaa8e	2.3593454e-08
26	0x325374cf	1.2308376e-08
27	0x330205bf	3.027321e-08
28	0x343bc94b	1.7488962e-07
29	0x33a8e1d3	7.864187e-08
30	0x333a8403	4.3426564e-08
31	0x330d7834	3.2938445e-08
32	0x32b14a97	2.0639431e-08
33	0x338bfd26	6.518739e-08
34	0x3346832b	4.6219764e-08
35	0x33555bbc	4.967636e-08
36	0x3757850a	1.2845974e-05
37	0x3860707d	5.3510525e-05
38	0x3801ef02	3.097859e-05
39	0x37092e98	8.176685e-06
40	0x380b9cd7	3.328625e-05
41	0x36fb06b3	7.481163e-06
42	0x38b9d8be	8.861859e-05
43	0x37cf388b	2.4702653e-05
44	0x37d24a97	2.5068684e-05
45	0x37a058b6	1.9114796e-05
46	0x36af4a9d	5.2240925e-06
47	0x38e1b787	0.00010763021
48	0x382acab1	4.071993e-05
49	0x37da64c7	2.6034553e-05
50	0x3774c2d6	1.4588897e-05
51	0x3a10c017	0.00055217877
52	0x3911f7fe	0.00013920662
53	0x38646e57	5.4462198e-05
54	0x3281a6a3	1.5093354e-08
55	0x32dc3c5e	2.5638823e-08
56	0x32f29bbb	2.8243326e-08
57	0x32e1b9c7	2.627793e-08
58	0x32e186ca	2.6254742e-08
59	0x3353844e	4.9247596e-08
60	0x33f9246a	1.160159e-07
61	0x334e3513	4.8011383e-08
62	0x32b63386	2.1211019e-08
63	0x37dae1dd	2.60928e-05
64	0x385f0cfb	5.3179432e-05
65	0x37d0e629	2.4902709e-05
66	0x3791dc74	1.7388003e-05
67	0x3761ccd2	1.34587335e-05
68	0x3834b662	4.30852e-05
69	0x38c7f9b2	9.535569e-05
70	0x38027da9	3.1111445e-05
71	0x382392e1	3.899902e-05
72	0x31082d62	1.9816402e-09
73	0x30648298	8.31315e-10
74	0x30a7ae60	1.220041e-09
75	0x30be53eb	1.384817e-09
76	0x311a1e97	2.2427338e-09
77	0x30e40a26	1.6592068e-09
78	0x32038afe	7.656807e-09
79	0x313dd1b5	2.7622324e-09
80	0x30d87337	1.5748814e-09
81	0x37574439	1.2830883e-05
82	0x37ae5fee	2.0787087e-05
83	0x3782d56f	1.5596595e-05
84	0x3804e0b3	3.168052e-05
85	0x374e1b61	1.22849315e-05
86	0x36c4dcdd	5.866967e-06
87	0x38d7fd50	0.00010299182
88	0x376869fd	1.3852955e-05
89	0x371a185f	9.18479e-06
90	0x320e66d6	8.28887e-09
91	0x3180a780	3.744333e-09
92	0x3148ca80	2.9218938e-09
93	0x3119d66f	2.2386322e-09
94	0x31296dad	2.465508e-09
95	0x316536ea	3.33551e-09
96	0x323679fb	1.0621529e-08
97	0x31c2de5a	5.6714216e-09
98	0x313f1fc4	2.7812215e-09
99	0x37c74356	2.3754004e-05
100	0x3808a1a3	3.2575463e-05
101	0x37fb54af	2.9960966e-05
102	0x379e1eb1	1.884936e-05
103	0x376272d4	1.3497385e-05
104	0x37816381	1.5424333e-05
105	0x396eb17b	0.00022763565
106	0x38e0f123	0.000107260676
107	0x37e6cc67	2.7513319e-05
108	0x32da07e2	2.5382125e-08
109	0x34b99b20	3.4571804e-07
110	0x3325fc10	3.8646306e-08
111	0x32c21135	2.2592397e-08
112	0x3416b97f	1.4037322e-07
113	0x339d316e	7.3198734e-08
114	0x3393bf93	6.880068e-08
115	0x3352f201	4.9114536e-08
116	0x32c53188	2.2956343e-08
117	0x37e38dc0	2.7126516e-05
118	0x3989c6cf	0.000262788
119	0x38f4370b	0.00011645079
120	0x37c9d634	2.4060813e-05
121	0x3810d024	3.452612e-05
122	0x38194a64	3.6547324e-05
123	0x39915ac6	0.00027724187
124	0x38382e4a	4.391213e-05
125	0x381c951d	3.733217e-05
126	0x318d1e41	4.1070796e-09
127	0x33281d50	3.9142208e-08
128	0x31fcbcb0	7.3556166e-09
129	0x3206a579	7.837451e-09
130	0x32c12ef9	2.2489518e-08
131	0x31dd31a9	6.4375922e-09
132	0x3284fdd1	1.5482245e-08
133	0x32218248	9.401056e-09
134	0x31c31a27	5.67822e-09
135	0x381977ce	3.658962e-05
136	0x3913cb43	0.00014094733
137	0x388f1285	6.822221e-05
138	0x3772515b	1.4443266e-05
139	0x3735c0ec	1.0833359e-05
140	0x3806d069	3.2142187e-05
141	0x38856714	6.361134e-05
142	0x382fdfb0	4.1931577e-05
143	0x37e18619	2.6884534e-05
144	0x3630f42e	2.6368175e-06
145	0x3591b125	1.0854898e-06
146	0x35c7860d	1.4865669e-06
147	0x35a174ab	1.202939e-06
148	0x35c4b389	1.465539e-06
149	0x3624b777	2.4544695e-06
150	0x3607dfba	2.0246794e-06
151	0x366c221c	3.5186595e-06
152	0x35aa372b	1.2682043e-06
153	0x34a135f3	3.002784e-07
154	0x35007743	4.7857264e-07
155	0x3417955c	1.4117308e-07
156	0x3403c5d9	1.2272302e-07
157	0x341196f6	1.3559097e-07
158	0x33ff6241	1.1892235e-07
159	0x342cf9d1	1.6109631e-07
160	0x348f86a3	2.6733787e-07
161	0x33fec4f1	1.186362e-07
162	0x3719a4d9	9.157892e-06
163	0x37a1722c	1.9245861e-05
164	0x3830ab1a	4.212102e-05
165	0x372e1a2b	1.0377301e-05
166	0x37ce939e	2.4625853e-05
167	0x370b9069	8.318669e-06
168	0x3929c782	0.00016191418
169	0x383a8b11	4.447537e-05
170	0x37d80ebf	2.5756073e-05
171	0x37ee984e	2.8442733e-05
172	0x372f5b57	1.045208e-05
173	0x380310dc	3.1248535e-05
174	0x38850454	6.3427404e-05
175	0x37aa5ecd	2.0309724e-05
176	0x37d347ee	2.5186655e-05
177	0x37a1a926	1.9271461e-05
178	0x38594bc0	5.180738e-05
179	0x38345307	4.299267e-05
180	0x32766b21	1.4343443e-08
181	0x32aed165	2.0351488e-08
182	0x328a6347	1.611046e-08
183	0x32bc0210	2.1887018e-08
184	0x324b74dc	1.1842726e-08
185	0x32de927a	2.5910811e-08
186	0x32a664a2	1.9370706e-08
187	0x32ad8972	2.0202354e-08
188	0x32014f69	7.526844e-09
189	0x310907b6	1.9940507e-09
190	0x31f7e427	7.214584e-09
191	0x316bbb2a	3.4303391e-09
192	0x30f736bf	1.7987175e-09
193	0x2fc3e930	3.5635983e-10
194	0x3117232a	2.199338e-09
195	0x328784a8	1.5776394e-08
196	0x31253b34	2.4044313e-09
197	0x31fe2d3a	7.3975146e-09
198	0x3855c472	5.096611e-05
199	0x3813c684	3.5232413e-05
200	0x385b6242	5.230518e-05
201	0x3853aef0	5.0469243e-05
202	0x37ca40d9	2.4110474e-05
203	0x37d7540f	2.566914e-05
204	0x38e3066b	0.00010825399
205	0x388b7eff	6.6516914e-05
206	0x380bd5c6	3.3339275e-05
207	0x35c6c713	1.4810088e-06
208	0x35a7aa3c	1.2492014e-06
209	0x3558ca8c	8.0761015e-07
210	0x34b2301a	3.3190082e-07
211	0x3581476a	9.632033e-07
212	0x35049a11	4.939803e-07
213	0x35b193f5	1.3230589e-06
214	0x351ebf5a	5.913804e-07
215	0x34f206c6	4.508094e-07
216	0x3768c22e	1.3873489e-05
217	0x37aeb568	2.082689e-05
218	0x38c1dee5	9.2444745e-05
219	0x37559cf6	1.2732335e-05
220	0x37cac7db	2.4173341e-05
221	0x37574922	1.2832026e-05
222	0x39a91f20	0.00032257382
223	0x38c77d16	9.5123585e-05
224	0x3862cf4e	5.4075666e-05
225	0x313c9a49	2.7445302e-09
226	0x30a3baa1	1.1912854e-09
227	0x31047e98	1.9280488e-09
228	0x30e94bd0	1.6974528e-09
229	0x317b84c3	3.6600774e-09
230	0x3123f30e	2.3857782e-09
231	0x3314fd7b	3.4689474e-08
232	0x3181626d	3.765584e-09
233	0x314dff33	2.997649e-09
234	0x362b31e4	2.5510026e-06
235	0x35099f06	5.1267887e-07
236	0x36771238	3.6816473e-06
237	0x35b09762	1.315708e-06
238	0x35d649e2	1.5965745e-06
239	0x3589ad5e	1.0257752e-06
240	0x37bed317	2.2748061e-05
241	0x36b76469	5.4655143e-06
242	0x361b7fb6	2.3171137e-06
243	0x37760684	1.466426e-05
244	0x36bb83c3	5.5883734e-06
245	0x36bb12f8	5.5752425e-06
246	0x374358a6	1.1643546e-05
247	0x36d95945	6.4774963e-06
248	0x377cc676	1.5066578e-05
249	0x373f8d80	1.1417433e-05
250	0x37310c2f	1.0552859e-05
251	0x36f1d4fa	7.2071534e-06
252	0x378a5761	1.6491571e-05
253	0x397f2c0f	0.00024335108
254	0x38260410	3.9581268e-05
255	0x37933ebb	1.7552977e-05

exp_avg f4 [2048]
0	0xb9f8b1be	-0.00047434674
1	0x3b48c29f	0.0030633581
2	0xb6881ff1	-4.0568343e-06
3	0xb6e5374f	-6.8311706e-06
4	0x3ab42c72	0.0013746156
5	0x39f058a5	0.00045842413
6	0xb68792b2	-4.040391e-06
7	0x3ae17830	0.0017201956
8	0xb1555784	-3.1045326e-09
9	0x3aace9df	0.0013192258
10	0xb4d48c93	-3.9590358e-07
11	0x3b665dc4	0.0035151104
12	0xb73307ed	-1.0671077e-05
13	0x3a2a6afc	0.0006500927
14	0xb51b1967	-5.7778965e-07
15	0x3acb09b5	0.0015490564
16	0xb7127fb3	-8.73201e-06
17	0x372d3910	1.0324889e-05
18	0xbb478e7a	-0.0030449913
19	0xba09c72d	-0.0005255815
20	0xb6049896	-1.975835e-06
21	0xb48a1234	-2.5717748e-07
22	0x39afd898	0.00033539976
23	0x38b986ae	8.8465735e-05
24	0xbaa89316	-0.0012861218
25	0xb347ae7a	-4.6491984e-08
26	0xb98e6580	-0.00027159974
27	0x391652d2	0.00014335968
28	0x3a856546	0.0010177277
29	0xb6f601f0	-7.331597e-06
30	0x39c0f0b6	0.00036800437
31	0xb1ea5798	-6.8202546e-09
32	0x3ad4ab46	0.001622536
33	0xb6b65e32	-5.4349885e-06
34	0xb88c6612	-6.694732e-05
35	0x3a83b7ec	0.001004932
36	0xb12df1d0	-2.5312268e-09
37	0xb7a8cdf5	-2.0123067e-05
38	0x3a19bd4a	0.0005864693
39	0x394b8f08	0.00019412872
40	0xb75dc04f	-1.3217402e-05
41	0xbb4f6c93	-0.0031650409
42	0x3b395d0c	0.002828422
43	0xb943d678	-0.00018676545
44	0x379cfd88	1.8714709e-05
45	0xb47a8559	-2.3331576e-07
46	0x3ad03dbe	0.0015887541
47	0xb86847cd	-5.537998e-05
48	0xb9158fb7	-0.00014263285
49	0xba83801c	-0.0010032686
50	0x3b36b81c	0.0027880734
51	0x365cac4c	3.2882845e-06
52	0x3a98a9e5	0.0011647312
53	0x37b7b129	2.1897797e-05
54	0x3a4e9b2b	0.0007881398
55	0x3b6d4dd5	0.0036209722
56	0xb9e331fa	-0.0004333405
57	0x38631f41	5.4150125e-05
58	0xb71e2f4a	-9.428544e-06
59	0xb4078030	-1.2619489e-07
60	0xb62f7f10	-2.6150992e-06
61	0x38b273a4	8.509241e-05
62	0x3b049e56	0.0020235977
63	0xb886c07c	-6.425471e-05
64	0x39c023dc	0.0003664781
65	0xba953d31	-0.0011386034
66	0x3b5f72c2	0.00340955
67	0xb9d689fb	-0.00040920064
68	0xb31ff936	-3.724673e-08
69	0x3ace6746	0.0015747331
70	0x3a96545e	0.0011469235
71	0x3a36db64	0.0006975441
72	0xb7d1a838	-2.4993074e-05
73	0xb9bf6a9a	-0.00036509783
74	0xb4ae4ef4	-3.2467472e-07
75	0x3810d801	3.4533445e-05
76	0x388186f3	6.1763356e-05
77	0x3ac69c6a	0.0015152816
78	0x3a2c8edc	0.0006582567
79	0xb98b963a	-0.00026624074
80	0x3a579f56	0.0008225342
81	0xb64b0672	-3.025311e-06
82	0xb33be788	-4.3749907e-08
83	0xba59acbb	-0.0008303632
84	0x37e2a6d3	2.7018983e-05
85	0xb170ae7c	-3.502378e-09
86	0xb8f202b9	-0.00011539966
87	0xbac88b7f	-0.0015300362
88	0x39008027	0.00012254772
89	0xb6ddbe44	-6.608463e-06
90	0x39a90a07	0.00032241663
91	0xbaa6eaaa	-0.001273473
92	0xb7b4caa5	-2.1552036e-05
93	0xb4e5ad2e	-4.278058e-07
94	0xbaa494bf	-0.0012556537
95	0xb9b6a325	-0.00034835297
96	0x3a9adfe3	0.0011815991
97	0xb9926b62	-0.00027927296
98	0xb8c488b4	-9.371471e-05
99	0xba90d8fc	-0.0011050995
100	0xb95f86b9	-0.00021317125
101	0x3ad4f4e0	0.0016247295
102	0xbafaeaf7	-0.0019143511
103	0xb6b94bf3	-5.5222713e-06
104	0xbaae87ec	-0.0013315654
105	0x3a1dda53	0.00060216076
106	0xbab9a3df	-0.0014163217
107	0xbb122688	-0.0022300798
108	0xbb053e52	-0.0020331335
109	0xba98a46a	-0.0011645679
110	0xb991c5d3	-0.00027803946
111	0x3acad3b2	0.0015474467
112	0xb789e69f	-1.6439064e-05
113	0x39b7fb92	0.00035091914
114	0xbae04496	-0.0017110284
115	0xb589debb	-1.0272119e-06
116	0x39b5f405	0.0003470482
117	0x3a06e278	0.0005145441
118	0xb73e9f6d	-1.1362002e-05
119	0xb53a6b38	-6.9446423e-07
120	0xbab9c0b7	-0.0014171813
121	0xbaa8bb27	-0.0012873159
122	0xb93e85ab	-0.00018169607
123	0x3a1afa4f	0.00059119327
124	0xb8489558	-4.7822803e-05
125	0xb0ff7278	-1.8586226e-09
126	0xb8685d56	-5.5400036e-05
127	0xb9482a4a	-0.0001908924
128	0xba3462de	-0.00068811874
129	0x388ac89e	6.617721e-05
130	0xb8252538	-3.937373e-05
131	0x3a0df65c	0.00054154336
132	0xb48bef20	-2.6064754e-07
133	0xb543c199	-7.292488e-07
134	0x3a1f1583	0.0006068574
135	0x3a5b1d8e	0.0008358591
136	0x394db6dd	0.00019618445
137	0xb96f0a83	-0.00022796732
138	0x37c27990	2.318321e-05
139	0xba33539e	-0.0006840768
140	0x38d457e7	0.00010125321
141	0xb5b97f28	-1.3820581e-06
142	0xbacdbaf9	-0.0015695981
143	0xb6cd3236	-6.1153214e-06
144	0x3a874799	0.001032102
145	0xb38d5275	-6.580823e-08
146	0xbad5d29c	-0.0016313377
147	0x34067ec5	1.2525841e-07
148	0x3c1d996e	0.0096191
149	0xba0a7c1a	-0.0005282775
150	0xbaab2cb9	-0.0013059593
151	0x39dc1936	0.00041980454
152	0xba60369d	-0.000855306
153	0x3ab3050c	0.001365812
154	0xb900dcd9	-0.00012289303
155	0xb6b0fce9	-5.2746514e-06
156	0x3be7b686	0.007071319
157	0x9bb17c9a	-2.9362716e-22
158	0xba343068	-0.0006873668
159	0xb5454105	-7.3482835e-07
160	0xba530db5	-0.0008051054
161	0x3a151dba	0.00056883285
162	0xba60e32a	-0.0008578772
163	0xb6814105	-3.852069e-06
164	0xb1dc289e	-6.4074603e-09
165	0xba17c754	-0.0005789895
166	0xb4e76f47	-4.3108068e-07
167	0x3b0a5e5e	0.0021113376
168	0xba824ffa	-0.0009942048
169	0x39db047c	0.00041774276
170	0xba1dc771	-0.0006018794
171	0xb823216a	-3.8893348e-05
172	0x38b3ce70	8.573837e-05
173	0xb71c02c9	-9.298973e-06
174	0xb92f2c19	-0.00016705728
175	0xb95bde22	-0.00020968218
176	0xbade969d	-0.0016982142
177	0x3b7de33d	0.003874018
178	0x359b6163	1.1576743e-06
179	0xb8740c25	-5.8185444e-05
180	0x37d6df94	2.56149e-05
181	0x3a49aee5	0.0007693603
182	0xbb3542ea	-0.0027658292
183	0x3a68d2aa	0.0008881489
184	0x399d7851	0.00030035016
185	0xb51b5479	-5.7864924e-07
186	0x3a758640	0.0009366013
187	0xb5d8540f	-1.6117718e-06
188	0x39bc3665	0.0003589868
189	0x3a27f5d0	0.00064071734
190	0x393d12d8	0.00018031464
191	0x3af47346	0.0018650077
192	0x38b4d63d	8.622974e-05
193	0xb7254cdb	-9.852661e-06
194	0xb079c233	-9.0861646e-10
195	0x38ac26a3	8.208796e-05
196	0xbac6b94c	-0.0015161424
197	0x38ee832f	0.00011373159
198	0xb7ef40e1	-2.8521232e-05
199	0xb8e53d07	-0.00010930938
200	0xbb8995b8	-0.004198756
201	0xb70b3034	-8.296269e-06
202	0xb0194e92	-5.577273e-10
203	0xb88bd9f6	-6.668635e-05
204	0xb9309353	-0.0001683955
205	0xb8bc893c	-8.9901005e-05
206	0x396ff45b	0.00022883846
207	0x3a863bae	0.0010241175
208	0xb68c3623	-4.1786275e-06
209	0xb8806c52	-6.123692e-05
210	0xb5b06e19	-1.3145064e-06
211	0x39b0d66c	0.00033729093
212	0xb7863796	-1.5999929e-05
213	0x3a0f5d8c	0.00054689567
214	0x3a5ce7c6	0.0008426871
215	0x36dd2030	6.5900604e-06
216	0xb9e3e4df	-0.00043467336
217	0xb205e0af	-7.792706e-09
218	0x3b20bfd6	0.0024528406
219	0xbac8f478	-0.0015331646
220	0x39027e60	0.00012444844
221	0x3a040375	0.00050359155
222	0x3ab32006	0.001366616
223	0xba7b6d63	-0.000959119
224	0xb910c392	-0.00013805766
225	0xba887f54	-0.0010413923
226	0xba9a2044	-0.0011758883
227	0xb5b96088	-1.3811668e-06
228	0x39d62ffa	0.00040853006
229	0xb806f7f8	-3.217903e-05
230	0xbb31355b	-0.002703986
231	0x3af0e81f	0.0018379724
232	0xb96c9e0a	-0.00022565588
233	0x389b571f	7.4072035e-05
234	0xba6bbbcc	-0.00089925225
235	0xbafcb124	-0.0019278866
236	0xbb24aff9	-0.0025129302
237	0xb621efe6	-2.4130509e-06
238	0x383c4d26	4.4894543e-05
239	0x3815072f	3.553106e-05
240	0xb6be2fbe	-5.667999e-06
241	0x392fa290	0.0001674986
242	0x39d8144d	0.00041213856
243	0xb8b02c58	-8.400594e-05
244	0xba8c2b4c	-0.0010694056
245	0xba4adf5a	-0.00077389705
246	0xb70db093	-8.445367e-06
247	0x3b2d3f7c	0.0026435545
248	0xb8a1d3a6	-7.716501e-05
249	0xb5a0d4e2	-1.1982886e-06
250	0xb928f011	-0.0001611116
251	0xb49446f7	-2.7618782e-07
252	0xba057997	-0.00050916657
253	0xb66d35d0	-3.5347075e-06
254	0xa8dba983	-2.4387398e-14
255	0xbaf0dfcb	-0.0018377242

exp_avg_sq f4 [2048]
0	0x38c6d6ef	9.48141e-05
1	0x390bb649	0.0001332398
2	0x332fd973	4.094313e-08
3	0x33b924cd	8.621428e-08
4	0x38b6c657	8.71538e-05
5	0x39102473	0.00013746489
6	0x33874893	6.2996286e-08
7	0x38bc743b	8.986188e-05
8	0x316cb18c	3.4443444e-09
9	0x386bd302	5.6224882e-05
10	0x31c16eed	5.62965e-09
11	0x38f126b5	0.00011498985
12	0x3425a345	1.542622e-07
13	0x390730be	0.00012892761
14	0x32de168a	2.5854451e-08
15	0x38a68d4e	7.941817e-05
16	0x361ef27b	2.3684977e-06
17	0x348846f3	2.5383596e-07
18	0x38926cf0	6.982114e-05
19	0x38372be1	4.3671465e-05
20	0x32e27f0f	2.6367642e-08
21	0x32087d1e	7.94469e-09
22	0x38a631ed	7.924796e-05
23	0x35e18cab	1.6804746e-06
24	0x38e05be7	0.000106982705
25	0x320e3073	8.276504e-09
26	0x3708a9bf	8.145754e-06
27	0x37939d2c	1.7596954e-05
28	0x39436c4f	0.00018636997
29	0x33d96705	1.0123589e-07
30	0x36c5de3b	5.8969285e-06
31	0x319347d7	4.2864303e-09
32	0x38bd5c9b	9.0294714e-05
33	0x336d622c	5.527015e-08
34	0x37d0145e	2.4805016e-05
35	0x394b48da	0.00019386728
36	0x3111d472	2.1221038e-09
37	0x333afebe	4.3538186e-08
38	0x36a8f97c	5.035834e-06
39	0x38d51d09	0.0001016204
40	0x33405d31	4.478824e-08
41	0x38b0ebda	8.436265e-05
42	0x38ee1c5f	0.00011354009
43	0x38deea10	0.000106293825
44	0x34ccbeb4	3.8136716e-07
45	0x32294124	9.851906e-09
46	0x38aac415	8.142755e-05
47	0x348ae367	2.586996e-07
48	0x37d1dd50	2.5017798e-05
49	0x37f05e49	2.8654134e-05
50	0x3965cad8	0.00021914707
51	0x32b60940	2.1191795e-08
52	0x37b3e327	2.1444239e-05
53	0x35309b73	6.579132e-07
54	0x387bda09	6.0046124e-05
55	0x387ad30b	5.9801194e-05
56	0x37fae97a	2.9911043e-05
57	0x35545982	7.9106405e-07
58	0x34f0373c	4.4743672e-07
59	0x320e422b	8.280533e-09
60	0x33856a34	6.2126134e-08
61	0x3586cf78	1.0044159e-06
62	0x39399b1a	0.00017700755
63	0x348536cc	2.481305e-07
64	0x3853b1f1	5.047204e-05
65	0x3862260d	5.3918036e-05
66	0x389be26a	7.433149e-05
67	0x36bb4c16	5.581892e-06
68	0x2faa8296	3.1015607e-10
69	0x38dbaa5c	0.00010474466
70	0x3969f928	0.0002231343
71	0x3985bf91	0.00025510465
72	0x33421260	4.5185857e-08
73	0x37336016	1.0691603e-05
74	0x3219cccd	8.952338e-09
75	0x37a4b9e0	1.9636878e-05
76	0x37fa64fc	2.9849347e-05
77	0x38055ebd	3.1797903e-05
78	0x390c9933	0.00013408512
79	0x384bea45	4.8617152e-05
80	0x375b679f	1.3077543e-05
81	0x342617af	1.5468571e-07
82	0x3118704b	2.2182742e-09
83	0x3774b0fb	1.458474e-05
84	0x35af16a0	1.3045101e-06
85	0x3195db86	4.3614277e-09
86	0x3555fc8b	7.971618e-07
87	0x3886e29c	6.431827e-05
88	0x36d094ee	6.2162208e-06
89	0x34818822	2.4127172e-07
90	0x359242a8	1.0897247e-06
91	0x37c542d2	2.3515346e-05
92	0x346ff801	2.2348833e-07
93	0x3240dfcb	1.12267555e-08
94	0x393a3498	0.00017757935
95	0x371498eb	8.857091e-06
96	0x38e44bcb	0.00010886005
97	0x35ffe02c	1.9064223e-06
98	0x34cd2052	3.8207742e-07
99	0x39154fe1	0.00014239505
100	0x3692e762	4.3780756e-06
101	0x39103935	0.00013754221
102	0x39657dac	0.00021885958
103	0x33183c44	3.544507e-08
104	0x37cbb393	2.4283107e-05
105	0x391e9bdc	0.00015126116
106	0x37fcb752	3.0126106e-05
107	0x37cc3b60	2.4346344e-05
108	0x38927aa4	6.984666e-05
109	0x3905bda1	0.0001275451
110	0x378947a1	1.6365027e-05
111	0x39071832	0.00012883617
112	0x3643ac04	2.915739e-06
113	0x380c03ff	3.3382323e-05
114	0x38b7b6c5	8.7601635e-05
115	0x32a5dfac	1.9310242e-08
116	0x38300992	4.1970583e-05
117	0x37852702	1.5873e-05
118	0x34293632	1.5759068e-07
119	0x32a2656a	1.89054e-08
120	0x38998efd	7.322242e-05
121	0x38362f95	4.3436496e-05
122	0x39729dc4	0.00023137691
123	0x37a73211	1.9931265e-05
124	0x3761f507	1.3468095e-05
125	0x3140b57d	2.8042841e-09
126	0x34ff5702	4.7560758e-07
127	0x37b2782a	2.127521e-05
128	0x37e5894d	2.7362863e-05
129	0x38aeb5e3	8.3308456e-05
130	0x3587578d	1.0083764e-06
131	0x373573e8	1.0815427e-05
132	0x31c6b609	5.7832534e-09
133	0x32d1a264	2.4404649e-08
134	0x382449d0	3.916939e-05
135	0x383dc12f	4.5241028e-05
136	0x363e91d3	2.8397087e-06
137	0x38cbe680	9.722728e-05
138	0x35572f0c	8.0162204e-07
139	0x38194c3f	3.6549052e-05
140	0x3653fc5e	3.1588347e-06
141	0x330ba273	3.2511206e-08
142	0x38f70918	0.00011779572
143	0x33d77c06	1.00342774e-07
144	0x33e6b14a	1.0742458e-07
145	0x3201fada	7.565825e-09
146	0x38d76831	0.00010271406
147	0x34335e0b	1.6704887e-07
148	0x3a266797	0.00063478336
149	0x38336425	4.2770193e-05
150	0x38292b30	4.033296e-05
151	0x381ac339	3.6898276e-05
152	0x3898fd83	7.295145e-05
153	0x389871a9	7.269096e-05
154	0x3783854a	1.5678484e-05
155	0x332d5996	4.036118e-08
156	0x39bb239b	0.00035693948
157	0x2f8ef650	2.6004665e-10
158	0x371ed6b6	9.467525e-06
159	0x32634202	1.32281475e-08
160	0x3774339f	1.4555552e-05
161	0x37f1622a	2.877515e-05
162	0x3919f5e8	0.00014682824
163	0x32b43336	2.0978046e-08
164	0x318eab8d	4.152247e-09
165	0x369bdfe9	4.6454265e-06
166	0x315d6772	3.2218535e-09
167	0x38983db6	7.259419e-05
168	0x3815d914	3.5726538e-05
169	0x396a9915	0.00022373007
170	0x372daec2	1.03522925e-05
171	0x3526c00a	6.211927e-07
172	0x37b1be83	2.1188758e-05
173	0x3421d43d	1.5071505e-07
174	0x350811f9	5.06901e-07
175	0x363b5385	2.7913786e-06
176	0x3888b7c2	6.519213e-05
177	0x381f4cf8	3.7980237e-05
178	0x34a81190	3.1305217e-07
179	0x37ac3c05	2.0531947e-05
180	0x38009fd0	3.0666415e-05
181	0x38bbe3b1	8.959266e-05
182	0x3895ce8e	7.1433475e-05
183	0x37956115	1.7807391e-05
184	0x3932c1fb	0.00017047666
185	0x32184ac2	8.864562e-09
186	0x37a4b510	1.9634637e-05
187	0x32a0bdae	1.8712708e-08
188	0x36fda578	7.5592507e-06
189	0x38a8a223	8.0410646e-05
190	0x369b5b8d	4.630018e-06
191	0x3867de1b	5.5281544e-05
192	0x3640af15	2.871214e-06
193	0x3423ce04	1.5255506e-07
194	0x31231298	2.3730191e-09
195	0x388a4dc2	6.594836e-05
196	0x37fde90e	3.0268475e-05
197	0x38aee49d	8.339549e-05
198	0x3501a284	4.8292736e-07
199	0x37630fd4	1.353394e-05
200	0x39213229	0.00015372843
201	0x31cc387b	5.9436025e-09
202	0x3170491e	3.4966159e-09
203	0x36cb406a	6.0573702e-06
204	0x36254055	2.4624362e-06
205	0x38c3c1de	9.334435e-05
206	0x390652c9	0.00012810076
207	0x3777e3c0	1.4775374e-05
208	0x333466e4	4.2003094e-08
209	0x381b9e46	3.7102283e-05
210	0x3301dee9	3.023789e-08
211	0x391aba04	0.0001475588
212	0x33da0f15	1.01541595e-07
213	0x37b81efa	2.1948934e-05
214	0x39831c1c	0.0002500721
215	0x3843507b	4.6566576e-05
216	0x387b9801	5.9984628e-05
217	0x31b13bc3	5.158172e-09
218	0x3883edb9	6.290846e-05
219	0x394101db	0.00018406606
220	0x38767d34	5.8767575e-05
221	0x372ffa60	1.0489108e-05
222	0x38ede0fd	0.00011342948
223	0x37611a93	1.3417232e-05
224	0x35189b26	5.6850183e-07
225	0x379deb33	1.8825382e-05
226	0x376feb0b	1.4300235e-05
227	0x330cf360	3.281764e-08
228	0x36669c4c	3.4363648e-06
229	0x34cf4ce1	3.861269e-07
230	0x3926101f	0.00015836999
231	0x390a3c57	0.00013183184
232	0x368e3396	4.237935e-06
233	0x3678ae39	3.705629e-06
234	0x386b6abc	5.612777e-05
235	0x38a6175f	7.91985e-05
236	0x379a3da2	1.838693e-05
237	0x33079c52	3.157431e-08
238	0x36e12098	6.709317e-06
239	0x3935f587	0.00017352971
240	0x333fee87	4.4687592e-08
241	0x3882491d	6.2125015e-05
242	0x3791151c	1.7295177e-05
243	0x35c05bb3	1.4331803e-06
244	0x38e748a1	0.000110284665
245	0x37be203d	2.2664777e-05
246	0x3423daab	1.5260109e-07
247	0x39daf734	0.0004176438
248	0x36860cb8	3.994992e-06
249	0x319db5fa	4.5899897e-09
250	0x37740ee5	1.4547001e-05
251	0x31bfe504	5.5848677e-09
252	0x37b9a522	2.2130615e-05
253	0x32a2bec3	1.894603e-08
254	0x3084d4b9	9.664723e-10
255	0x396e5614	0.00022729515
