Results/CE/Ablation experiments/Baseline/best.pt (torch, 379003 bytes, 88 tensors)

exp_avg f4 [18, 6]
00000000: d129 6f39 c0aa a9ba 4641 7839 9129 3a39
00000010: 2315 003b 84cb 7a3a 0b50 563a ede5 a9bb
00000020: 619b 853b ae0b de39 e3f3 633b e4a9 b73b
00000030: f442 0b3a e8b6 45bb 0d80 293b e78b 9d39
00000040: b424 383b 56e0 893b 3853 98b9 3d34 6f3a
00000050: 2059 fe39 dc53 6cb9 03c8 43bb e0de f4b9
00000060: 76c3 b939 bcce 2ebb 0478 003b 42a3 6339
00000070: 5a92 7a3a 4125 303b 9c62 d139 71e7 0fbb
00000080: fd70 f53a 87ee 9139 47f4 133b 1d36 523b
00000090: 4aeb aa39 7f27 ab3a 6507 b03a 7c37 0ab9
000000a0: f336 88b8 6ac2 95ba a7d3 7939 ea98 9c3a
000000b0: c129 973b 50d8 13b9 b524 0e3b 4eb9 90b9
000000c0: 47f0 c639 7cac 5f39 4820 783b 87cb 82b9
000000d0: 22a7 a3b9 2c70 f5ba c860 c5b9 ec7d 74bb
000000e0: d358 66bb 1e83 8a38 3a6f 44bb 59fe a0ba
000000f0: ac31 1639 84fb 113b 7e22 a53a b65f 1cb8
00000100: 75d3 be3a c2f6 cd39 7760 e239 8b3a 8d3a
00000110: 812f 8a3a 41a1 20b9 f311 88ba eb5a f4ba
00000120: 54d6 7a3a 5d63 cb3b 6be7 863c a8fe 0f3a
00000130: c421 60bb 606b bc3b fa13 95ba a223 95bb
00000140: b165 83bc f20d 67ba 682e 4b3b 5f79 c3bb
00000150: d5a2 273a 1507 053c 745f 553c c5ac 8139
00000160: 333b f6ba 450c 703b 4c6f a0b8 5009 f73a
00000170: e374 3d3c 557a c5b9 32b3 ed39 d680 2e3b
00000180: bbe3 753a 3738 283b 1120 843c 7ffe 1139
00000190: 5cb2 94ba c6bc 893b 5f48 b5ba bcac 2dbc
000001a0: 9081 f2bc 2bb8 0cba 3478 673b ba47 28bc
0.00022808394 -0.0012944564 0.0002367544 0.00017753827 0.0019543848 0.00095670694 0.00081753795 -0.00518488
0.0040773605 0.00042351842 0.003478282 0.0056049693 0.0005312406 -0.0030168835 0.0025863678 0.0003004961
0.0028098049 0.004207651 -0.00029053702 0.00091249106 0.0004851306 -0.00022537954 -0.0029873855 -0.00046705361
0.0003543158 -0.0026673516 0.0019602785 0.00021709225 0.0009558551 0.0026877674 0.00039937056 -0.0021958018
0.001872569 0.00027834272 0.002257602 0.003207571 0.0003260023 0.0013058035 0.0013429938 -0.00013181375
-6.4952204e-05 -0.0011425738 0.00023825337 0.0011947427 0.0046131318 -0.00014099595 0.002168936 -0.00027603883
0.00037944524 0.00021331193 0.0037861038 -0.00024947172 -0.00031214306 -0.0018725446 -0.00037646876 -0.00373065
-0.0035148158 6.604775e-05 -0.0029973523 -0.0012282833 0.00014323619 0.002227516 0.001259878 -3.7282436e-05
0.0014558869 0.00039284496 0.0004317795 0.0010774893 0.0010542722 -0.00015318861 -0.0010381326 -0.0018642818
0.00095686805 0.0062069134 0.01646777 0.0005492964 -0.0034199813 0.005750105 -0.0011373751 -0.004551367
-0.016039701 -0.00088140287 0.0031003002 -0.0059653963 0.00063948083 0.008119364 0.013023246 0.0002473352
-0.0018785953 0.0036628407 -7.650125e-05 0.001884738 0.0115635125 -0.00037665913 0.00045337674 0.0026627085
0.0009379943 0.0025668272 0.016128572 0.00013923085 -0.0011344659 0.0042034118 -0.0013830772 -0.010600265
-0.029602796 -0.00053680193 0.003531945 -0.010271007

exp_avg_sq f4 [18, 6]
00000000: 1f15 8d36 7390 e33a b089 863a 3cfd 8c36
00000010: 28c7 a139 02d7 f539 a819 e137 014b 133c
00000020: 4453 ed3b 74bb df37 7017 273b 53a9 513b
00000030: 636a 2537 5a17 783b 7c19 393b 4366 2437
00000040: 3635 8d3a 19b2 973a 977c fb36 1fe5 5f3b
00000050: 563d df3a b921 fb36 a92e 023a eaf6 563a
00000060: 62c7 8e36 3500 b03a d5bc 9e3a c973 8d36
00000070: e28b 123a 9404 fe39 6cb8 ca36 c861 173b
00000080: 1cf9 de3a 8f88 c936 1f29 303a e128 333a
00000090: 10b4 9435 8589 8b39 89ff 823a a14e 9635
000000a0: d0c3 1639 256b 8b38 6b76 dd35 3401 6438
000000b0: 22bb e539 4198 dd35 6ac3 2338 7b67 ed37
000000c0: 05cd 2636 7284 b339 8ad3 903a 538b 2636
000000d0: 48d7 0f39 cf7f 0a39 a719 c735 3c27 cb39
000000e0: 0078 af3a 65b1 c635 7257 ce39 93e9 ac38
000000f0: 2300 b435 120a 8539 6e14 1c3a f646 b435
00000100: 3902 5a39 e03a 7738 1b98 ec35 8cb4 013a
00000110: 7254 153b 15b4 f035 ca63 5739 802c 0f39
00000120: de5b 0838 d1be 163b db2d 253c 3451 0738
00000130: 2f5b b93a 2800 f13a 6c5f f237 7ae3 0e3b
00000140: 2a5f 283c 5e14 f137 8f49 923a 0e78 b73a
00000150: 99d5 2138 9b9d 8a3a 3831 cf3b 2925 2038
00000160: 844f 9d3a a1ef c53a 63db 7937 9b4c 553a
00000170: e1fe 553b 0150 7737 b485 b239 b093 e339
00000180: d7ba cd37 8ff6 173b ae04 5e3c 2c1c cc37
00000190: a4a6 6c3a 9b84 983a f253 4638 a741 8d3b
000001a0: 4abb a73c 8abd 4438 9732 243b f8b9 623b
4.2045863e-06 0.0017361775 0.0010264423 4.2018055e-06 0.00030856696 0.00046890235 2.6834037e-05 0.00899005
0.007242592 2.6670961e-05 0.0025496148 0.0031991794 9.8595365e-06 0.0037855715 0.002824395 9.798971e-06
0.0010773304 0.0011573463 7.494887e-06 0.0034163666 0.0017031829 7.4843088e-06 0.00049660594 0.0008200245
4.255141e-06 0.0013427796 0.001211072 4.2156066e-06 0.0005590302 0.00048450066 6.0415387e-06 0.0023099054
0.0017011496 6.0061643e-06 0.00067199947 0.00068343995 1.1079264e-06 0.00026614606 0.0009994368 1.1198755e-06
0.0001437806 6.647994e-05 1.6500247e-06 5.4360557e-05 0.00043817709 1.6510095e-06 3.9044222e-05 2.8300788e-05
2.4855265e-06 0.0003424022 0.0011049372 2.4817025e-06 0.00013717741 0.00013208318 1.4834121e-06 0.0003874841
0.0013387203 1.4803778e-06 0.00039356534 8.245106e-05 1.3411085e-06 0.0002537524 0.0005953972 1.3431697e-06
0.00020790928 5.894422e-05 1.7627639e-06 0.0004947863 0.002278593 1.7933804e-06 0.00020541172 0.0001365412
3.2510485e-05 0.002300192 0.010081734 3.2262134e-05 0.0014141555 0.0018386887 2.8893082e-05 0.0021803067
0.010276595 2.8738923e-05 0.0011160838 0.0013997571 3.858432e-05 0.0010575535 0.006323006 3.818158e-05
0.0012001847 0.0015101322 1.48926365e-05 0.000813672 0.003265314 1.4740975e-05 0.00034050422 0.0004340685
2.4524908e-05 0.0023187732 0.01355092 2.4331814e-05 0.0009027517 0.0011636199 4.728506e-05 0.004310805
0.020475049 4.6906564e-05 0.0025054568 0.003459571

exp_avg f4 [18]
00000000: 7046 a6bb 8454 69bc 39ee 25bc 715d ca3b
00000010: 03fc c6bb 6683 fbbb b2a4 e5ae d98a c4ad
00000020: b7e8 ed2e 517c a6ae 145e 8baf cf19 90af
00000030: 6e0d a3bd 0c4b a03d 16e0 86bd 7f3a 70bc
00000040: 7495 0ebd b80d ef3d
-0.005074315 -0.0142413415 -0.0101275975 0.00617569 -0.0060725226 -0.007675576 -1.044297e-10 -2.2344281e-11
1.0818851e-10 -7.570889e-11 -2.53508e-10 -2.6211786e-10 -0.07961546 0.07826814 -0.0658571 -0.014662384
-0.0348105 0.116725385

exp_avg_sq f4 [18]
00000000: 17ba 823a 591f f33b 61e2 3b3b 14e6 d93a
00000010: 965a a63a 4238 e33a 0a55 9123 4e75 ad23
00000020: fa28 9623 cd74 9d23 6a10 4923 e30b bf23
00000030: ffcb 303e 4254 0b3e 2074 233e d377 7b3c
00000040: 4cda fb3c 1881 ac3e
0.0009973672 0.0074195084 0.0028668868 0.0016624355 0.0012691792 0.0017335492 1.5756947e-17 1.8806378e-17
1.6280387e-17 1.7071441e-17 1.0899708e-17 2.0713296e-17 0.17265318 0.1360636 0.15962267 0.015348393
0.03074374 0.3369224

exp_avg f4 [6, 6]
00000000: 4d5f 05bd 15a2 273d 6d56 ecbc 6035 46bd
00000010: 940a e0bc 6eb9 d73c 5526 873b 221a 9fbb
00000020: ead3 803b b3fa 8d3b 123a a13a 81b1 3abc
00000030: 0ebc e8ba 6649 8ab8 3557 7c3a cfab 29b9
00000040: 680e cbba bc72 133b 8386 a73c 8766 b5bc
00000050: 7383 4e3c f7a2 d93c 4383 573c 99ba 2ebc
00000060: 7c93 363b 808c 01bc d91b f63b 9d5d 223c
00000070: 7ed2 e83b 5e7e 9dba e00c ec39 0691 c139
00000080: 416d deb9 9e41 e239 056d b93a 6695 b5ba
-0.03256159 0.040926058 -0.028849805 -0.048390746 -0.027348794 0.026333537 0.0041244426 -0.00485541
0.003931512 0.004332864 0.0012300631 -0.011394859 -0.001775624 -6.594024e-05 0.0009626032 -0.000161811
-0.0015491964 0.0022498807 0.020449882 -0.022143615 0.012604582 0.026566966 0.013153854 -0.010664606
0.0027858904 -0.007907033 0.007510644 0.009910014 0.0071051707 -0.001201581 0.0004502302 0.0003691988
-0.0004242454 0.00043154968 0.001414687 -0.0013853728

exp_avg_sq f4 [6, 6]
00000000: acfc ca3c c81f ce3c 0c40 3c3c 71f3 ff3c
00000010: fd0b 643c 1728 bd3c 566d a43b d0b0 b83b
00000020: 9294 3f3b bd59 db3b b5ee 343b 50cc c53b
00000030: d764 033b e904 0c3b abf5 893a ce08 233b
00000040: a815 6c3a 6969 063b e648 ac3b 953f b73b
00000050: 164b 433b 30ad e23b 4f84 6e3b 7bfd e03b
00000060: b817 813b 021a c83b f034 673b e426 393c
00000070: 3adb 0c3c c4fd e23a 2f3b e53a e46f 0d3b
00000080: a6cc 993a 01b8 363b 5ce1 b13a f315 fe3a
0.024778686 0.025161639 0.011489879 0.031244012 0.013918874 0.023090405 0.0050179167 0.005636312
0.0029232842 0.0066940472 0.00276081 0.006036319 0.002004912 0.0021365231 0.0010525485 0.0024877074
0.00090059126 0.0020509607 0.0052577136 0.0055922964 0.0029799393 0.006917618 0.003639478 0.0068661547
0.003939595 0.006106616 0.0035279356 0.011300776 0.00859719 0.001731806 0.0017488952 0.0021581585
0.0011733964 0.002788067 0.0013571191 0.0019385203

exp_avg f4 [6]
00000000: ac16 1fbe d949 233d 492c 81bb b90f a73d
00000010: f8ff 393c dc96 153b
-0.15535992 0.03986535 -0.003942047 0.08157296 0.011352532 0.0022825515

exp_avg_sq f4 [6]
00000000: 6e93 0d3f ac22 123e ffbb 553d 5f43 1e3e
00000010: 8c22 543d b2ab 373d
0.55303085 0.14271039 0.05218124 0.15455388 0.05179076 0.044841476

exp_avg f4 [2048, 6]
00000000: 15ad 063a f635 f8b9 e582 3d3a 702f 4f38
00000010: e055 a5b9 42ce ddb9 a996 d1ba 71d1 5d3a
00000020: c35a 5fba 56c8 03ba 2d8d b23a 35b9 6639
00000030: aad2 9739 0a74 98b9 1f04 c839 883d 97b8
00000040: d2ba 9eb8 72df 25b9 acd9 693a c963 e439
00000050: 0a01 d637 938e bf39 bfda 26ba 0710 17ba
00000060: 3f3e 5337 853a 8bb9 f816 2f38 bfe6 abb8
00000070: 3730 e738 f30d d0b7 4c1e f5b8 85d7 b43a
00000080: c0a5 2eb9 6c90 c8b9 8c82 9338 16b8 2dba
00000090: ce12 0ab9 f4b7 323a a7b8 70b9 38f3 4eba
000000a0: 3ed5 f439 3975 eab7 d4ac c1ba 907c 8dba
000000b0: 4a04 a83a 9807 b13a 5fbb 21ba 6e4b 3139
000000c0: 3750 8bba f8b8 afb7 5064 f839 0053 02ba
000000d0: 8bb1 6c39 0a97 7b39 5205 0f3a 77a2 35ba
000000e0: ed9e 983a deda e739 ce3a f6ba b069 e539
000000f0: c157 3439 89d7 dd39 9a5d a7b9 99b7 1eb9
00000100: 803e 35b9 a113 0b39 0595 50bb e6a0 de3a
00000110: 47be 2db9 d66b aab9 c27f bb3a ec8c afb9
00000120: 5ed9 8c3a 9d60 ab3a a3fa 2cba f94c b3ba
00000130: 94cf 443a 19de 2fba cf6c 133b 303d e83a
00000140: abec 3dba 3e75 61ba c0e4 16b9 d356 98ba
00000150: d597 9fba 3986 0f39 2069 983a bd4c 88b9
00000160: 71a4 7dba 795b cc39 15f8 8db9 1f52 9839
00000170: 9265 a6b8 9c67 ad38 a1ef 8c39 208a 7db9
00000180: b5fb f0ba b7e9 44bb dbb7 db39 0fec 383b
00000190: 5331 d3b9 7435 b73a 6209 243a a755 ff3a
000001a0: 9d9a ebb9 f89f eeba 7488 7eba eb42 173a
000001b0: 0f43 47ba f2ec 2eba 880f 92b9 6786 bf38
000001c0: 38af 703a ac3c a139 2f21 a7b9 e128 953a
000001d0: 255e f639 c08b 11ba 1b7a eeb9 1fd9 a2b9
000001e0: d354 4c3a e7b5 9239 58bf 8fb8 e2e5 fdb8
000001f0: 794a 3db9 3419 acb9 e8ae 4bbb e1b5 963a
00000200: 068d 32b9 a361 dcba 6029 e03a 2f90 353a
00000210: d2ff ba3a cacc 01ba 642e 86b9 71b2 b239
00000220: 76ff 44ba 842b 5739 adc2 243b 040f 163b
00000230: 9c44 68bb b3f9 0bba 1534 8a3a cab7 c7b9
00000240: f8d9 723b 17aa 0cbb a052 383b a941 583a
00000250: beda 30bb 15cb aaba 8edb 34b8 a074 2bb8
00000260: 08f0 4ab9 058a d6b8 e9a8 063a 50f6 a1b8
00000270: d6ca c439 285e 47ba 3039 f3b9 9874 953b
00000280: 49a9 2cbb 2530 98b9 f1f7 203a afc9 093a
00000290: 1a6e dcb9 61ec 0538 02b8 2bb9 4769 82b9
000002a0: d25e 17b9 8428 df39 adde 73b9 e963 74b9
000002b0: 4f08 41b9 195f 9539 d10a 01ba 2c6e 4c39
000002c0: 07ed 37b9 c385 62b9 75bc f039 402e 5b38
000002d0: 29d4 bb3a 7b9c 0a39 6fc4 2138 deb2 b339
000002e0: 8de0 97ba a22a 61b9 ac47 9b3a 7c06 55ba
000002f0: 6289 16ba 7021 4eba 0943 103a 5097 1a3a
00000300: b25b d5b8 0356 c838 ff1b 4739 cbc0 07b9
00000310: 1d8a 64b8 6656 fcb7 3955 d4b6 f351 a4b8
00000320: b31b 8db8 23a3 1d38 023c 9a38 caf4 1538
00000330: 9a8e 9939 ea9e 43b9 1601 7cb8 03a7 0638
00000340: f75d d7b8 019f 2239 73fc 76b9 419d ffb9
00000350: 0ac7 7639 8665 9339 2196 80b9 a23b 7b39
00000360: 8943 88b8 656b 2e39 2416 8d38 16ef 1b38
00000370: 54a0 bcb8 89da 36b8 15c3 8cb9 78d7 6d39
00000380: d12a 383a 51c4 7b3a a22b 2fba c147 54ba
00000390: f8dd 313a 17f6 6039 7023 ccb9 002e 033a
000003a0: 2420 91b9 2e2c a5b9 12bc 473a 96a8 01ba
000003b0: bbe8 94b8 5ab1 ed36 687f 8cb9 e29a 6239
000003c0: 4107 f6b7 7cd5 f038 47f7 6fb9 3498 e639
000003d0: da09 1cb9 2dce 48b8 a456 4eb9 75b2 c8b9
000003e0: 18af efb7 0210 d0b8 d873 a339 2031 7c39
000003f0: 2196 b6ba 4477 90ba 4a1b 623a 7e44 eeb9
0.00051374856 -0.0004734245 0.00072292826 4.9396825e-05 -0.00031535234 -0.0004230608 -0.0015990335 0.000846169
-0.00085202995 -0.0005027106 0.0013622396 0.00022003504 0.0002895792 -0.00029078155 0.00038150043 -7.211702e-05
-7.568825e-05 -0.00015818866 0.000892068 0.00043561895 2.5511272e-05 0.00036536585 -0.0006364993 -0.0005762581
1.2591073e-05 -0.00026555746 4.1744643e-05 -8.196895e-05 0.00011023919 -2.4802028e-05 -0.000116881536 0.001379714
-0.0001665568 -0.00038254575 7.0338225e-05 -0.0006626857 -0.00013167711 0.0006817572 -0.00022956972 -0.0007894519
0.00046698184 -2.794956e-05 -0.0014776238 -0.0010794569 0.0012818661 0.0013506291 -0.0006169583 0.00016908135
-0.0010628764 -2.0947758e-05 0.00047376985 -0.00049714744 0.00022572854 0.00023993492 0.000545581 -0.0006928811
0.0011644043 0.00044222822 -0.0018785836 0.00043757027 0.00017198829 0.0004231299 -0.0003192246 -0.0001513645
-0.00017284788 0.00013263385 -0.0031827104 0.0016985207 -0.0001656945 -0.0003250527 0.0014305043 -0.00033483596
0.0010745933 0.0013075058 -0.0006598627 -0.0013679556 0.0007507738 -0.00067088153 0.0022495275 0.0017718431
-0.0007245044 -0.00086005393 -0.00014390331 -0.0011622555 -0.0012175987 0.00013687545 0.0011628009 -0.00025997116
-0.0009675688 0.00038978065 -0.0002707845 0.00029052884 -7.934416e-05 8.2685816e-05 0.00026881418 -0.00024179416
-0.0018385561 -0.0030046531 0.00041907918 0.0028216874 -0.00040281806 0.0013977722 0.00062575017 0.0019480482
-0.0004493789 -0.0018205633 -0.0009709664 0.00057701644 -0.000760124 -0.0006672881 -0.00027858862 9.132624e-05
0.0009181383 0.00030753517 -0.00031877446 0.0011379981 0.0004699092 -0.00055521354 -0.00045485873 -0.00031060816
0.0007794622 0.00027982818 -6.854412e-05 -0.00012106799 -0.00018052188 -0.00032825174 -0.0031079594 0.0011498296
-0.00017027938 -0.0016813766 0.0017102174 0.0006926087 0.0014266914 -0.00049514754 -0.00025593035 0.00034083755
-0.0007514873 0.00020520209 0.002514045 0.0022897134 -0.0035441285 -0.0005339637 0.0010544086 -0.0003809317
0.003705619 -0.0021463686 0.002812542 0.000824953 -0.002698585 -0.0013030494 -4.311982e-05 -4.0878193e-05
-0.0001935364 -0.00010230023 0.0005136864 -7.7229575e-05 0.00037535158 -0.0007605278 -0.0004639118 0.004561018
-0.002634602 -0.0002902757 0.0006140462 0.00052561885 -0.00042043702 3.1929816e-05 -0.00016376379 -0.0002487397
-0.00014435805 0.0004256406 -0.00023257239 -0.00023306873 -0.0001840901 0.00028490348 -0.0004922571 0.00019495998
-0.0001754054 -0.0002160287 0.0004591678 5.2256742e-05 0.0014330196 0.00013218999 3.8568334e-05 0.00034274807
-0.0011587307 -0.00021473554 0.0011846921 -0.00081262714 -0.00057425175 -0.0007863259 0.0005503153 0.0005897181
-0.00010173711 9.552764e-05 0.00018988548 -0.00012946424 -5.4488064e-05 -3.0080973e-05 -6.3280136e-06 -7.8353936e-05
-6.728563e-05 3.758365e-05 7.3544696e-05 3.5752346e-05 0.0002928868 -0.00018655849 -6.0082493e-05 3.210363e-05
-0.00010269501 0.00015508757 -0.00023554433 -0.00048754553 0.00023534536 0.00028113666 -0.00024525917 0.0002395944
-6.497565e-05 0.0001663394 6.727528e-05 3.7177546e-05 -8.994402e-05 -4.3595708e-05 -0.00026848228 0.0002268235
0.0007025423 0.00096041436 -0.0006682222 -0.00080978504 0.000678509 0.0002145398 -0.00038936315 0.0005004108
-0.00027680502 -0.0003150417 0.0007619272 -0.0004946081 -7.1005394e-05 7.083797e-06 -0.00026797806 0.00021610738
-2.9328863e-05 0.00011483856 -0.00022884934 0.0004398242 -0.0001488099 -4.7875732e-05 -0.00019677967 -0.00038279934
-2.8572555e-05 -9.9211946e-05 0.00031176093 0.00024050893 -0.001393024 -0.0011021872 0.0008625282 -0.00045445928

exp_avg_sq f4 [2048, 6]
00000000: 76d1 d637 29e0 ce37 3940 f737 2a10 2e36
00000010: c170 a136 02ca 8a37 31ee 9039 57bf 6a39
00000020: 604d 5739 f165 2d39 64b7 2c39 2fc4 7038
00000030: ccf5 9c37 88b1 0d37 af43 ed36 c97c 7b35
00000040: dbd5 de35 dc08 dd36 5782 e138 60aa 7538
00000050: 829b 4638 6447 3637 1845 6637 b241 0738
00000060: 8d8c 3137 11dc 1237 42be 2c36 35ca 8935
00000070: cb63 6136 d4bf 6835 9f4b b436 814b 9a37
00000080: 7f59 a837 6552 d537 4412 6238 131b 0b37
00000090: ad22 8839 5710 7039 9895 c037 d628 1339
000000a0: 1cde 9d37 9839 7938 8685 8c39 d721 cc37
000000b0: 6608 9938 450e 0338 67dd 9d37 0d8e b537
000000c0: eb77 8538 c6f7 b237 45ea 8837 f54b 2036
000000d0: 1219 3e37 e469 c036 3f57 843a 9a8e 8038
000000e0: 4b33 8138 6b03 8038 01df 3938 5f07 8b39
000000f0: 9070 1637 c945 5f36 7204 5837 05ec 5f36
00000100: b82e 1536 ffbd a836 059a 1039 e554 4f38
00000110: 0f01 1938 666d d637 3c7b 8a37 8b6f 2838
00000120: a54c 9d37 2dd8 df37 7042 ad36 a27e 0c38
00000130: 4def 4537 2d34 4737 bbab e438 5f3a 0c39
00000140: 40ab 2238 8097 2d38 5fb7 2538 7db6 1e38
00000150: 7168 5a38 d0c5 2338 457c 5738 f029 a536
00000160: 3e3b cb37 effe 2037 f641 e036 9026 0337
00000170: debb 5c36 2305 2936 133f 9936 b2ed c735
00000180: 47ae 9739 a25d 1939 5ab3 cb38 00c5 1b39
00000190: 693f a538 b323 fe38 d8ad 8038 96e1 fd38
000001a0: fc47 4937 303e 9d38 dc7c 0f39 be89 2d37
000001b0: 7c36 e037 9a24 2937 f557 ea36 2175 2f36
000001c0: 6b00 d537 a9dd d635 8224 7e38 83ea 5939
000001d0: 8428 7d37 1ca3 a839 23aa e538 bb5f 8538
000001e0: 08a4 0339 932e 9736 4ec9 8e36 cea3 4637
000001f0: 39e5 db36 7694 2638 c642 7b39 264a af38
00000200: 1949 3c38 ca24 4337 31c9 1b38 bd39 4938
00000210: 9397 1739 48de 1939 6a68 5038 db25 8a37
00000220: 9ce7 a537 f14b 1937 879a 8938 1d8a a138
00000230: 7dae 0d39 86a8 2b38 a1aa 0338 1a38 3037
00000240: e069 1d3b aa1f 683b 8d56 013a 87b7 c538
00000250: 111c cb39 92dc 3a38 6467 6b38 5337 4238
00000260: d19f 6037 9f2e a036 c8e3 2c37 3b04 7837
00000270: 1540 4c36 0c21 3c38 6b64 5238 66da f539
00000280: 93d1 f339 cff5 8137 1281 bd37 cc77 1136
00000290: 5a97 b735 e920 1035 0184 8636 e662 d435
000002a0: f5d3 c436 fa72 2b36 2955 d735 63f1 4735
000002b0: 6a75 2f37 78c3 5736 a641 2137 1500 1c37
000002c0: 3180 8537 6bf5 6637 f0cd f737 770e 2337
000002d0: 8991 2a39 e201 3139 f3dd 5d38 d89d 8a38
000002e0: fe54 c238 65c0 eb38 3bd4 5a39 aa16 f937
000002f0: 3d7f 7238 7f6e 9339 2ece 7237 1c2a 1939
00000300: 7afe cc35 fa3e 8436 79fc 4835 09bb 7b36
00000310: 6e4e 9136 61af cb34 3343 6b34 1e2f f334
00000320: 30b2 ea34 716a b234 2837 8c35 75e3 6c34
00000330: 34e1 5436 22bb a536 1dbe dc35 7495 1335
00000340: ff5f bb35 8207 8f35 41c9 e138 b2b5 b636
00000350: e375 d536 e292 6438 39bc 1738 bb85 2138
00000360: f305 b036 e4d0 7336 3ff0 8035 c3f6 9b35
00000370: c5d0 c836 c40d 4736 c630 fb38 e998 1539
00000380: 79a9 3637 93c4 f037 a13c fa37 c4ef 2037
00000390: f1f8 8937 124e 3237 c82f 0238 d6ae bf35
000003a0: ebe7 ce36 b7d4 8536 9cba 5a38 566e a137
000003b0: 7af2 2d36 df6e d236 17c6 fa35 cd71 e535
000003c0: 504b 6735 07aa 8435 e959 7236 4b4c 1336
000003d0: 9525 bc34 03a8 bd34 e956 4837 88ae 7836
000003e0: f130 2536 7f6b af34 f7a4 e736 140e b834
000003f0: 1aeb 1f38 2315 1237 6152 8936 51ee 1936
2.5608326e-05 2.4661496e-05 2.94746e-05 2.593743e-06 4.8113e-06 1.654495e-05 0.00027643287 0.00022387259
0.00020532822 0.00016536542 0.00016471517 5.740317e-05 1.8711107e-05 8.44559e-06 7.07103e-06 9.368637e-07
1.6602529e-06 6.5873446e-06 0.00010753114 5.8571226e-05 4.7351707e-05 1.0864667e-05 1.3725155e-05 3.224769e-05
1.0582747e-05 8.753516e-06 2.5740742e-06 1.0266145e-06 3.35857e-06 8.670588e-07 5.3732215e-06 1.839339e-05
2.0068836e-05 2.5429947e-05 5.389961e-05 8.291349e-06 0.00025965777 0.0002289427 2.2957844e-05 0.00014034225
1.8819286e-05 5.9419865e-05 0.00026802364 2.4334453e-05 7.297173e-05 3.1246123e-05 1.8818957e-05 2.1643029e-05
6.364271e-05 2.1334632e-05 1.6321554e-05 2.388607e-06 1.133072e-05 5.734373e-06 0.0010096802 6.130077e-05
6.1607534e-05 6.104152e-05 4.4315126e-05 0.00026517638 8.966905e-06 3.327021e-06 1.2875638e-05 3.336697e-06
2.2229924e-06 5.0289086e-06 0.00013790287 4.943171e-05 3.647903e-05 2.556173e-05 1.6508267e-05 4.0158204e-05
1.8751549e-05 2.6684336e-05 5.163536e-06 3.3496537e-05 1.1797832e-05 1.1873472e-05 0.000109038745 0.00013373185
3.87833e-05 4.138751e-05 3.9509843e-05 3.784009e-05 5.207252e-05 3.9046456e-05 5.137573e-05 4.9222654e-06
2.4227073e-05 9.5960995e-06 6.683399e-06 7.817187e-06 3.2891908e-06 2.5185952e-06 4.567098e-06 1.4895834e-06
0.0002893081 0.00014626098 9.713201e-05 0.0001485534 7.879624e-05 0.00012118313 6.1358965e-05 0.00012105999
1.1997294e-05 7.497927e-05 0.00013684056 1.0343674e-05 2.6728252e-05 1.0081707e-05 6.983983e-06 2.614521e-06
2.5391773e-05 1.6008754e-06 6.059232e-05 0.00020782095 1.5089408e-05 0.00032164983 0.00010951261 6.3597654e-05
0.0001255424 4.5055726e-06 4.2553647e-06 1.1839858e-05 6.5533936e-06 3.971575e-05 0.000239621 8.3584615e-05
4.489077e-05 1.1631471e-05 3.7142254e-05 4.7975907e-05 0.00014456948 0.00014674023 4.9688308e-05 1.646851e-05
1.9777384e-05 9.137192e-06 6.561452e-05 7.702804e-05 0.0001351181 4.0926527e-05 3.1391744e-05 1.050348e-05
0.0024019405 0.0035419264 0.00049338565 9.427877e-05 0.00038740088 4.4551278e-05 5.6124656e-05 4.630473e-05
1.3388651e-05 4.773799e-06 1.0305033e-05 1.4782937e-05 3.043567e-06 4.485347e-05 5.0161423e-05 0.0004689276
0.00046504717 1.5492462e-05 2.2590659e-05 2.1676415e-06 1.3678612e-06 5.369207e-07 4.0088785e-06 1.5824014e-06
5.8659302e-06 2.554791e-06 1.6043533e-06 7.448454e-07 1.045815e-05 3.2151274e-06 9.611633e-06 9.298344e-06
1.591453e-05 1.3766209e-05 2.9540592e-05 9.718925e-06 0.0001626668 0.00016880737 5.2897212e-05 6.6097535e-05
9.266472e-05 0.000112415095 0.00020869162 2.9693667e-05 5.7815796e-05 0.0002812035 1.4472329e-05 0.00014606904
1.5273247e-06 3.941238e-06 7.48732e-07 3.7510783e-06 4.330467e-06 3.7939301e-07 2.1910527e-07 4.529656e-07
4.3715545e-07 3.323253e-07 1.0446865e-06 2.2061961e-07 3.1721547e-06 4.9391683e-06 1.6446608e-06 5.497925e-07
1.3960524e-06 1.0656515e-06 0.000107663225 5.445175e-06 6.3616185e-06 5.449623e-05 3.61765e-05 3.8509937e-05
5.2459013e-06 3.6331412e-06 9.606664e-07 1.1620217e-06 5.9847684e-06 2.9661323e-06 0.000119776974 0.00014266711
1.0887504e-05 2.8701766e-05 2.9830555e-05 9.592568e-06 1.6447595e-05 1.0627804e-05 3.1038915e-05 1.4281493e-06
6.166277e-06 3.988472e-06 5.2149044e-05 1.9244075e-05 2.5920149e-06 6.271395e-06 1.8684103e-06 1.709495e-06
8.61638e-07 9.884251e-07 3.6113145e-06 2.1949115e-06 3.5045073e-07 3.5326238e-07 1.1941164e-05 3.705647e-06
2.4615404e-06 3.2674504e-07 6.903541e-06 3.4282914e-07 3.812751e-05 8.707199e-06 4.0925083e-06 2.2937495e-06

exp_avg f4 [2048]
00000000: d785 7239 afe7 8fba 10cf 9d39 776b dc39
00000010: 26f4 d438 1b87 3339 7996 af39 424c abba
00000020: aa84 32ba b468 8d39 59b5 5339 64c2 10bb
00000030: 9c50 d23a 1ce2 143b 2439 90ba 01ef 9cb9
00000040: 0a09 0ebb a0f8 b23a 0a6f 35ba c7ae ad39
00000050: 5493 083a 9443 efba fe72 9f3a b699 2f3b
00000060: 8510 1b3b 13bc 9238 f1e9 18bb 1b9f e839
00000070: 611e 0439 b5a5 86b9 e828 aa3a b4a8 7f3a
00000080: b073 17b8 30f5 5ab8 72be d339 bbf7 dcb9
00000090: aec2 8eb8 e966 14ba 1e49 033a 7c59 1c3a
000000a0: d406 74b9 f755 ffb8 c96a 95ba 00ba 1a3a
000000b0: 1df8 c3b9 712c 8cbb 558e 013a 1d21 673a
000000c0: 3eec 73ba 948a 5b39 d39c c6b8 db5f a3ba
000000d0: a70e 1b3b e4fd fbba 8a4c 95b9 b71c 6f3a
000000e0: c9a1 aeb9 624e 1fba c36f e939 3b50 b63a
000000f0: 3076 183a a82e 9739 c4eb 29ba 3bbd 56ba
00000100: f997 01ba c150 3a39 f4c8 6539 1827 cb3a
00000110: 2252 0f39 f2dc 193b 718b c139 a785 0fb9
00000120: 7aed e3b8 4f32 db3a ede5 b13a 6548 a0b9
00000130: 4532 1bb5 a642 0a39 db43 03ba 5643 8b3a
00000140: e399 a939 eabf e238 1988 003a 893d 393b
00000150: c283 28b9 0578 923a 2a0a 95b8 6035 5b3b
00000160: 2b23 7536 78ed ec38 7acc 143a 4bbe 093a
00000170: 91f7 cdb8 c824 de38 1fdc 6938 d12c 07bb
00000180: e352 1b3a d4fe 4aba df3b ed38 b42b 8e38
00000190: 9b6d 57b8 71dc 0e39 f578 2dba a65f e238
000001a0: 6600 283a 4514 6aba 21fa 9fb9 2284 9239
000001b0: 3d31 f9b8 5a10 853b ca22 553a 7560 c3ba
000001c0: 7745 9739 8f7a 88ba 8a72 c13a aa9c 6aba
000001d0: 7ef1 fe38 9285 8a38 dfa8 973a ebe3 033b
000001e0: 1bf7 803a e20a 1e3a f131 7738 47a3 843b
000001f0: 8acb 32bb 57bd 763a 60d2 0239 dd88 0b3b
00000200: 359d a5bb e229 6ab7 9891 39bb 2294 c539
00000210: b28a a937 41eb 4a3b 3d86 6939 a953 07bb
00000220: 106b 2e3a 2cae e435 c214 533a 561b d3ba
00000230: 2c3b ecb8 6886 a739 4afb 9938 63f0 203a
00000240: a17a 783a 7ae3 683b 368f 69b9 6978 3cba
00000250: dad2 033b a199 4d3a a791 d2ba 988c 9e38
00000260: 72c2 ef38 256d 073b 4309 a8b9 49e5 7a39
00000270: af01 5139 1406 8fbb 43f3 84bb 2b56 bfb6
00000280: a3f3 cc36 4456 cf39 948e 883a 5e76 e339
00000290: 7603 913a 518d 983a ade3 5338 fe02 0fb9
000002a0: f1fa b23a 95e8 d5ba ebd4 ef3a fc6c f4ba
000002b0: 3dab 2a3a 3946 d53a c71b 05b6 ff68 72ba
000002c0: 2de6 4b3a 58c5 0639 54f9 983a 1dae 7eba
000002d0: fc89 f539 414e 0c3b 44c3 0e39 928c ab39
000002e0: 18a0 b3ba 7c11 253b f5cb 1fb9 817f 0d3b
000002f0: d38d 823b b572 613a 7cd7 d33a d961 083b
00000300: 96d5 ce3a 80a5 af3b c459 a0b9 2375 a33a
00000310: 3b10 0e3a 9c2a 513a b6df 253b 9c87 6138
00000320: 11c9 bab8 3ab6 203a 430b fdb9 1561 87b8
00000330: a48d 9cb8 8a23 b939 c125 e23a 45bb ea3a
00000340: 1d4f 9db9 f11f 01b9 b407 0bbb d061 8039
00000350: a4f7 4f3b 38ac 9d39 02d5 e339 e233 b038
00000360: 9fd6 15b4 cdbf 513b 4940 76b9 b225 1d3b
00000370: 27ba 013a 9443 caba 447e 82ba b4fc a13a
00000380: 0d43 d239 2fe3 09bb cb0c d23a bc9d f5ba
00000390: a179 9239 7aa2 0a3a b223 4f3a b78e 673a
000003a0: b8d5 a9bb 9353 2db5 6657 c239 5347 3a3a
000003b0: f0e4 133b 3534 f4ba 94ec 163b 367b 1fbb
000003c0: a319 053b 5120 2dba 7d04 5eba fa5f 85b8
000003d0: fcf9 1f3b 3fe5 8a3b 3541 4c3a 79a2 51b9
000003e0: 34d4 a6b6 b88e 6239 0ea8 9039 7ef8 183b
000003f0: ff1d 293a b6e0 2239 078e 9fba 916e f23a
0.00023128778 -0.0010979081 0.00030099647 0.00042041737 0.00010154424 0.00017121101 0.00033490712 -0.0013068991
-0.00068099296 0.00026971626 0.00020190085 -0.0022088522 0.0016045752 0.002271778 -0.0011003357 -0.0002993271
-0.0021672868 0.0013654418 -0.0006921148 0.0003312735 0.0005209942 -0.0018254393 0.0012165008 0.00267945
0.002366097 6.996854e-05 -0.00233328 0.0004436903 0.00012599818 -0.00025681933 0.0012982162 0.0009752617
-3.6108948e-05 -5.22036e-05 0.0004038695 -0.00042146244 -6.8073496e-05 -0.0005661087 0.0005008149 0.0005964262
-0.00023272197 -0.0001217536 -0.0011399622 0.000590235 -0.00037378157 -0.0042777588 0.00049421686 0.0008816885
-0.0009304917 0.00020937092 -9.4705865e-05 -0.001246448 0.0023659857 -0.0019225446 -0.0002847652 0.00091214053
-0.00033308406 -0.00060770486 0.00044524492 0.0013909409 0.0005815951 0.00028835726 -0.000648197 -0.00081916497
-0.0004943605 0.00017768425 0.00021914003 0.0015499322 0.0001366814 0.002347764 0.0003691572 -0.00013687332
-0.00010868437 0.0016723367 0.0013572552 -0.00030571516 -5.781515e-07 0.00013185534 -0.00050073647 0.0010624926
0.00032348846 0.000108122666 0.00049030926 0.0028265438 -0.00016070812 0.0011174685 -7.106767e-05 0.0033448562
3.6528315e-06 0.00011297589 0.00056762213 0.0005254491 -9.8212746e-05 0.00010592636 5.5756533e-05 -0.0020626078
0.0005925132 -0.0007743661 0.000113121925 6.779228e-05 -5.1362073e-05 0.00013624296 -0.000661745 0.00010794336
0.0006408751 -0.0008929412 -0.00030513204 0.00027945737 -0.000118824166 0.004060787 0.0008130489 -0.0014906066
0.0002885272 -0.0010412502 0.0014758867 -0.00089497364 0.00012156645 6.605232e-05 0.0011570713 0.0020124863
0.0009839268 0.00060288433 5.89359e-05 0.0040477845 -0.0027281963 0.0009412369 0.00012476137 0.0021291294
-0.005054141 -1.39572385e-05 -0.002831554 0.00037685136 2.0210955e-05 0.0030962976 0.00022270619 -0.002064923
0.0006653527 1.7038014e-06 0.00080521044 -0.0016106169 -0.000112643786 0.00031952863 7.342415e-05 0.0006139336
0.00094787223 0.0035535977 -0.00022273962 -0.00071895734 0.002011469 0.0007843022 -0.0016065136 7.560215e-05
0.00011432626 0.002066442 -0.00032050358 0.00023927273 0.0001993242 -0.0043647382 -0.0040573194 -5.702275e-06
6.108037e-06 0.0003954639 0.0010418468 0.00043385004 0.0011063654 0.0011638795 5.051836e-05 -0.00013638657
0.0013655109 -0.0016319925 0.0018297707 -0.0018648203 0.0006510502 0.0016271538 -1.9834713e-06 -0.0009247213
0.00077781343 0.00012852752 0.0011670985 -0.0009715276 0.00046832848 0.0021408948 0.00013614917 0.00032720395
-0.0013704328 0.0025187423 -0.00015239402 0.002159089 0.003984192 0.00086001615 0.0016162242 0.0020810275
0.0015780206 0.0053603053 -0.0003058446 0.0012470823 0.00054192886 0.00079790666 0.0025310344 5.3770476e-05
-8.906623e-05 0.00061306695 -0.0004826431 -6.4553846e-05 -7.465042e-05 0.00035312428 0.0017253683 0.0017908594
-0.00030004318 -0.00012314298 -0.0021214308 0.00024486938 0.0031733299 0.00030073687 0.00043455517 8.401998e-05
-1.3954785e-07 0.0032005191 -0.00023484336 0.0023978767 0.00049486983 -0.0015431517 -0.0009955843 0.0012358637
0.00040104278 -0.0021039953 0.0016025541 -0.0018739025 0.0002793791 0.0005288493 0.00079017424 0.0008833217
-0.005182948 -6.456914e-07 0.0003706768 0.0007105965 0.0022566877 -0.0018631282 0.0023029195 -0.0024334914
0.002030947 -0.0006604242 -0.0008469297 -6.359811e-05 0.0024410477 0.004238754 0.0007791699 -0.00019992319
-4.971889e-06 0.00021606206 0.0002759103 0.0023341472 0.0006451308 0.00015533235 -0.0012173065 0.0018496086

exp_avg_sq f4 [2048]
00000000: adbc e937 58ad bc39 4d46 8a37 f60c 9938
00000010: 28b2 4737 8071 8b37 9fda 9139 bbb1 1839
00000020: 4fcd 3638 88a4 2b3a a038 1837 f944 0239
00000030: d2a2 3438 a950 d638 ef3e 3c38 9bd8 cf36
00000040: c210 ad39 f9d0 fa38 4013 c537 ee57 6039
00000050: 96bf c838 9730 0d39 ff51 0239 6ed6 ca38
00000060: 9163 063b 17ef 1638 b0c0 7d39 2b8b 8837
00000070: 23f8 0337 65d6 c437 bed4 fc38 bb2d b239
00000080: 6a6e 8a36 899e 9535 4c2f a036 fc0c 0139
00000090: 9d5e e736 5ded 1339 8812 ba37 3307 5738
000000a0: 8713 1236 76ef fe36 bd6f 0a38 7e32 5538
000000b0: 237c c036 ee31 013a bc04 3636 6d4a be38
000000c0: 3eca 9a37 67e2 8537 3f5b e234 82e0 a039
000000d0: 0e1a 4239 4b75 ba39 5ee1 8437 89f1 ba38
000000e0: 1873 e038 36ab ef38 4147 3537 1cfd 433a
000000f0: 5ab2 7b38 df65 8b39 f7e4 1b39 0caf 5d38
00000100: 9fa1 8a37 0249 ae37 bc80 2f3a 1de7 4139
00000110: 6ac1 2736 1bfa 3f3a 9c9c 0d37 8f23 f835
00000120: 8d91 2837 39f2 b039 cc6b 6838 6284 e037
00000130: 5eda 6533 135c 0738 2f8b 1d39 6b7c 9b39
00000140: 6750 9738 c86b b036 eda4 2938 4e0d f339
00000150: 9c58 4e3a cefc 2239 8d33 c934 89c0 5339
00000160: ae38 be34 451f 8736 a232 2c38 11a2 a237
00000170: 5d45 6135 9625 f337 05f8 c437 9a6a 943a
00000180: 4bc4 1c38 4563 5e39 4a81 4134 924c 1e37
00000190: a8a3 0035 d163 5b37 7e1f c538 5abf 5b35
000001a0: 7afe 8f39 8d6e 193a d88b 293a b78d a237
000001b0: 314b 0936 609b 1a39 4c50 3c39 e955 0e3a
000001c0: 63a9 c437 c2df 8639 8b65 cf38 9bf4 743a
000001d0: 40a0 b138 92d8 7c39 63f1 8c38 399a 1e39
000001e0: 4f0f 7c37 18e6 0c39 42bf 9c35 2f4e 513b
000001f0: d80a 5539 138a 9939 55a1 1e38 2319 4239
00000200: 41dd bc39 6bdf 0638 304c 8e3a 0bdb f538
00000210: b758 6337 aa71 b439 2999 5937 f537 d238
00000220: 0d98 4c37 af14 5f38 f9d1 b638 10da 1d38
00000230: 69b6 c136 fde0 703a 2674 8034 98a6 3938
00000240: 8809 8a39 47ba 743a 723a eb39 2ea0 d438
00000250: 5a5e d738 c776 5638 575d 933a a813 8b35
00000260: 060c 2837 0071 ef39 b903 163a 543e 1b38
00000270: 19fa fa38 d0cd 0d3b 396b 353a 3555 fc34
00000280: 9f26 0837 87b5 c637 3d53 363a 7917 8839
00000290: ad73 c638 31df d339 bb8a 0438 86fe a636
000002a0: 7c80 e638 bb0e 4a3a 7fb3 573a 8b29 8839
000002b0: bf82 ae3a 12ee 2239 3561 9338 2553 5238
000002c0: 2491 e137 6430 013a 9cc3 c139 6899 4639
000002d0: f06c 6b38 bade 873a c61d ba37 32e3 3337
000002e0: e0db 3a39 d843 b638 9027 be39 bfdf f739
000002f0: fe42 4239 0f89 5b38 bb2a 6037 7d2e 9c39
00000300: 29ab 9438 3e79 113a af9d 8539 6b8f 1d38
00000310: 6998 8537 d2cf 2f39 0b21 0439 fb1a 1539
00000320: 1078 ff36 e0a2 2d3a 28cc b03a 5023 7737
00000330: bf8e b737 3d65 a837 ab9c cc38 d9e1 9e3a
00000340: 29cf 1939 617b ea37 eb1a 953a 8a9e 3138
00000350: 0262 8b39 4d18 7337 ee59 8138 0165 0237
00000360: ff7b c532 41aa 163b dc9f e439 3bb2 603a
00000370: d1d9 6637 aa56 c939 bca8 2439 154c 4439
00000380: aed4 9637 8b07 043a 4159 0a39 a772 cc39
00000390: 38b5 0537 5891 7c39 a04c f738 0062 223a
000003a0: cb97 193b d236 fa36 5285 1c39 a8d4 9939
000003b0: 691b 7d39 525b d139 0bfc 9239 571e 473a
000003c0: 7844 003a 23da 313a fa14 4b3a a036 7e38
000003d0: 541d d138 d904 de3a 7c22 b139 12cb 4d39
000003e0: dd10 5a36 e029 3036 a97a 8a39 421a ac39
000003f0: 628f 153a b6c2 af36 2085 0938 ee22 5e39
2.7863623e-05 0.00035987305 1.6483618e-05 7.298023e-05 1.19028045e-05 1.6622944e-05 0.0002781944 0.0001456206
4.358339e-05 0.00065476494 9.07309e-06 0.0001242346 4.3066982e-05 0.00010219339 4.4881304e-05 6.194297e-06
0.00033009617 0.00011959853 2.3493194e-05 0.00021395061 9.572429e-05 0.00013464909 0.00012428312 9.672051e-05
0.0020506124 3.5985457e-05 0.00024199742 1.6277269e-05 7.865982e-06 2.3464856e-05 0.00012055923 0.00033984878
4.1255744e-06 1.1147505e-06 4.7738777e-06 0.00012307236 6.895351e-06 0.00014107437 2.2181557e-05 5.12667e-05
2.1767062e-06 7.597667e-06 3.300583e-05 5.0830182e-05 5.7364973e-06 0.00049283996 2.712287e-06 9.073769e-05
1.8452407e-05 1.5960262e-05 4.216217e-07 0.0003068485 0.00018510988 0.00035564075 1.5840571e-05 8.9141606e-05
0.0001070259 0.000114282986 1.0805031e-05 0.0007476376 6.0009166e-05 0.00026588046 0.00014867248 5.285353e-05
1.6526143e-05 2.0776413e-05 0.0006694903 0.0001849201 2.499752e-06 0.00073233404 8.440718e-06 1.8487789e-06
1.0047469e-05 0.00033749806 5.5413504e-05 2.6764526e-05 5.351682e-08 3.227226e-05 0.00015024537 0.00029656602
7.215217e-05 5.257756e-06 4.044634e-05 0.00046358485 0.000787148 0.00015543701 3.7476676e-07 0.00020194253
3.5431498e-07 4.026954e-06 4.105515e-05 1.9387373e-05 8.391997e-07 2.898536e-05 2.3480514e-05 0.0011323274
3.737611e-05 0.0002120855 1.8021561e-07 9.435362e-06 4.7921867e-07 1.30766575e-05 9.399558e-05 8.186231e-07
0.00027464685 0.000585296 0.0006467677 1.9377896e-05 2.0458358e-06 0.00014744466 0.0001795899 0.0005429672
2.3443898e-05 0.00025725184 9.889443e-05 0.00093443104 8.4698666e-05 0.00024113272 6.720682e-05 0.00015125507
1.5023935e-05 0.00013437157 1.1678569e-06 0.003193747 0.00020317303 0.00029285307 3.7820388e-05 0.00018510646
0.00036023 3.2156164e-05 0.0010856446 0.0001172331 1.355091e-05 0.00034416962 1.2969868e-05 0.00010024003
1.219475e-05 5.3186606e-05 8.717547e-05 3.7634803e-05 5.7730836e-06 0.00091887993 2.3926367e-07 4.426259e-05
0.00026328512 0.0009335619 0.00044866238 0.000101387835 0.00010269573 5.1132196e-05 0.0011243027 1.0362028e-06
1.001638e-05 0.00045669824 0.00057226006 3.7012927e-05 0.00011967513 0.0021637566 0.00069205795 4.7000654e-07
8.115224e-06 2.368797e-05 0.00069551525 0.0002595743 9.462922e-05 0.00040411347 3.1600455e-05 4.976816e-06
0.00010991187 0.00077078835 0.0008228346 0.00025970893 0.0013314112 0.00015538212 7.0276124e-05 5.0145336e-05
2.6889677e-05 0.000492817 0.0003695757 0.000189399 5.6129822e-05 0.001036606 2.2186792e-05 1.0722129e-05
0.00017820252 8.691073e-05 0.000362691 0.00047278215 0.00018526238 5.2341315e-05 1.3361389e-05 0.00029789275
7.089071e-05 0.00055493775 0.0002548522 3.7565285e-05 1.5925807e-05 0.0001676672 0.0001260081 0.00014219798
7.6135693e-06 0.00066236965 0.0013488578 1.4730569e-05 2.1881771e-05 2.0074303e-05 9.75666e-05 0.0012121751
0.0001466839 2.7952427e-05 0.001137582 4.234774e-05 0.00026585168 1.4489587e-05 6.16795e-05 7.772121e-06
2.2990205e-08 0.0022989663 0.00043606653 0.000857148 1.3759783e-05 0.00038402277 0.00015703117 0.0001872036
1.798043e-05 0.00050365244 0.00013193955 0.00038995335 7.969611e-06 0.00024086738 0.0001179215 0.00061944127
0.0023436423 7.4569625e-06 0.00014926985 0.00029340875 0.00024138171 0.00039931625 0.00028035077 0.00075957685
0.0004893015 0.0006784519 0.0007746961 6.0609193e-05 9.9713594e-05 0.00169387 0.00033785764 0.00019625973
3.2494347e-06 2.6250418e-06 0.000264128 0.0003282596 0.00057052646 5.2380738e-06 3.2787328e-05 0.00021184582

exp_avg f4 [6, 2048]
00000000: ef8c 3f39 d88e 6cba b992 49b9 dc6f 3fb8
00000010: 474b 89b7 8763 32b8 8427 ffba b450 1db9
00000020: f2f8 18ba 4d27 85bb d31c d1b8 4218 0bba
00000030: 2514 97ba 8290 2bbb d5d0 32ba 18ca 41b7
00000040: fed7 f8ba 9ca8 8fba f788 57ba 83d3 41ba
00000050: ecd7 29ba 622f ecba 8a7e 82ba fa24 63b9
00000060: 6a81 cbba a150 82b9 fef4 51b9 8620 08ba
00000070: ba54 beb9 9c8b bfb8 f437 b4bb cb6d 1939
00000080: c71e 4238 4888 14b8 b8ec 72b8 cb20 92ba
00000090: 5a60 b7b8 1cc3 beb9 f7aa d6b9 0a24 22ba
000000a0: ba37 d5b6 000f 2bba b7c1 6239 3b52 92b7
000000b0: 8581 32b9 e87a a9ba eb40 94b9 3149 6aba
000000c0: fc15 cdb9 5055 17b9 9e2f 69b8 94a4 abba
000000d0: 0892 e8ba 3b06 88ba ccaa 1cba 52bc 14ba
000000e0: 664a d4b9 b268 feb9 70e3 1838 68b6 98ba
000000f0: 7362 e3b9 10d3 18ba 0ead 91ba 4eed 6f39
00000100: 57b0 ddb8 4fd6 3cb7 1ec9 81b8 68a1 dcba
00000110: dd56 97b7 1301 e7ba 14b7 05b9 1669 d9b9
00000120: 4994 1bba f7f4 6fbb b89c b3b9 ec59 8fb8
00000130: 72e0 9a35 65f4 1dba 2ff6 9bb9 5ef1 16bb
00000140: e00b 36ba d028 24b9 4bb5 97b9 02b5 f5ba
00000150: e562 b4b8 3d3c 8cb9 ff2c e1b7 23aa 2a3a
00000160: 6a9f a537 9d4b 8637 973d 93ba cb19 55ba
00000170: 6a00 86b7 ebf7 ddb9 fd2e 0bb9 0467 f1ba
00000180: 1b0f b5b9 dd18 afba 7afa 51b8 f4f2 a6ba
00000190: b966 54b8 9d61 c538 e906 2eba 253b 97b8
000001a0: e392 9437 e100 bcbb a13b dbba 54b3 48ba
000001b0: 7a71 9a37 b72f 09ba ce9f 16b9 9c97 4fbb
000001c0: 34a1 6ab9 4091 91ba b017 6cb9 3309 f1ba
000001d0: a983 2bba 88d3 47bb d50a 32b8 5f52 08bb
000001e0: 4e15 3cb9 47d4 25ba 0f5b 04b8 6370 5fba
000001f0: 8776 40ba 4728 31b9 8562 a4b9 2039 f7ba
00000200: 9fae 87ba 8f34 d4ba f709 b0ba 09c9 8d38
00000210: 6077 aeb9 5e84 1aba 44be a6b9 1c18 06bb
00000220: 98af f8b9 c006 93b7 fd2f 46ba 5f0a 58b9
00000230: 9150 74b9 094f e1ba 58eb 5936 48dc 1fba
00000240: 1f57 19bb dc5e 3dba 5eb9 67ba 4203 1aba
00000250: 84c4 9fba 867a 11ba 7fa5 4fbb f90d d138
00000260: 1c13 22b9 6952 4bbb 77fb a0ba 1816 4039
00000270: b004 11b9 e96d 3cbb 517e 2cbb 2f89 c3b7
00000280: e3dd 6db7 b1ed 38b9 0c3f 12bb cdb3 06ba
00000290: 9183 abba 405d d6ba 06f9 8039 7ceb b8b8
000002a0: 31cd a439 bfc7 98bb e877 093a a495 77b9
000002b0: 4fb6 f8ba ec97 15ba e459 05ba 6fe1 e5b9
000002c0: e29d 2bba e5f6 80bb d319 c638 ab7a 80ba
000002d0: 81d8 86ba fcd8 c839 1f92 e4b9 1e8e 8e39
000002e0: d5de 0d39 1d89 92b9 dc14 aeba 1683 b439
000002f0: 8b13 fbb9 784f a4b9 9878 b2b9 cd9a 5dbb
00000300: b456 13b9 e4b5 e8b9 d48d e0b7 2cf7 2ab9
00000310: c471 e2b9 9b8f 8d39 976d a7ba 4fa3 87ba
00000320: 35fa b038 c141 e6ba 6cd2 47bb 4271 f4b9
00000330: 4ef0 deb8 14f8 eab9 5d4a 87b9 3ad2 80b9
00000340: f37e 13ba 9c79 23ba 6088 90ba d5b1 95ba
00000350: c42d 0abb 6e74 10b9 dcc6 11ba a527 5138
00000360: 1839 56b4 a1b9 02bb 6c04 6fbb 936d 1dbb
00000370: ad68 a2b8 2aaf c7b8 536e 88ba 3bef 0cbb
00000380: 121e 72ba 74eb 5fba 7600 54ba 21e8 00b9
00000390: e281 56b9 7e4e f1b8 58dd 0bb9 8398 94ba
000003a0: 5c4e 25bb b4ac a8b9 81be e9ba 0f3f 06b9
000003b0: 927a fc39 a1a1 2abb 1a45 dfba 4575 9cba
000003c0: 5aed af38 5f67 b9bb 520c 4cbb e7ea 2dbb
000003d0: ada7 c8b9 80b3 1cbb ee24 06bb dd6c 92b9
000003e0: 10a7 ba36 9cee 9ab8 620d baba 1a43 eab9
000003f0: 63c9 04ba b5de fdb8 4d9c 9639 e6dc b9b8
0.00018267681 -0.0009023971 -0.00019223512 -4.5642126e-05 -1.6366726e-05 -4.25312e-05 -0.0019466733 -0.00015002751
-0.00058354356 -0.004063523 -9.9712655e-05 -0.0005306044 -0.0011526389 -0.0026178663 -0.00068212795 -1.155075e-05
-0.0018985269 -0.0010960284 -0.00082220085 -0.00073938834 -0.0006479013 -0.0018019492 -0.0009955924 -0.00021662182
-0.0015526239 -0.00024855605 -0.0002002306 -0.00051928347 -0.0003630275 -9.133594e-05 -0.005499834 0.00014632118
4.6281868e-05 -3.541287e-05 -5.7917758e-05 -0.0011148689 -8.744067e-05 -0.00036384992 -0.0004094464 -0.000618518
-6.354382e-06 -0.00065253675 0.00021625204 -1.7442848e-05 -0.00017023653 -0.0012930306 -0.00028277127 -0.0008937298
-0.00039117027 -0.00014432264 -5.5595876e-05 -0.0013095313 -0.0017743716 -0.0010377833 -0.00059763785 -0.0005673814
-0.00040491222 -0.0004852466 3.645144e-05 -0.0011651041 -0.00043370164 -0.00058297906 -0.0011114196 0.00022881219
-0.00010570947 -1.1255571e-05 -6.18866e-05 -0.0016832771 -1.8041052e-05 -0.0017624222 -0.0001275207 -0.0004146776
-0.0005934877 -0.0036614516 -0.00034258305 -6.8355206e-05 1.1539216e-06 -0.00060254923 -0.00029747325 -0.002303205
-0.00069445185 -0.00015655463 -0.00028936038 -0.0018745961 -8.6014894e-05 -0.00026747762 -2.6843043e-05 0.00065103377
1.9743766e-05 1.6009255e-05 -0.0011233565 -0.00081291486 -1.5974238e-05 -0.00042337118 -0.00013273577 -0.0018417542
-0.00034534265 -0.001335885 -5.0062758e-05 -0.0012737201 -5.0640407e-05 9.411874e-05 -0.0006638603 -7.2112576e-05
1.7711374e-05 -0.0057374095 -0.0016726145 -0.00076561165 1.8411072e-05 -0.00052332453 -0.00014364647 -0.003167606
-0.00022376032 -0.001110591 -0.00022515538 -0.0018389582 -0.0006542751 -0.0030491073 -4.2448595e-05 -0.002080105
-0.00017937014 -0.0006325882 -3.1556057e-05 -0.0008523522 -0.00073418807 -0.0001689504 -0.0003135392 -0.0018861629
-0.0010351724 -0.001618998 -0.0013430704 6.76085e-05 -0.00033276808 -0.0005894358 -0.00031803746 -0.0020461148
-0.00047433074 -1.7526909e-05 -0.00075602514 -0.00020603229 -0.00023299667 -0.0017189692 3.2472508e-06 -0.0006098193
-0.0023397875 -0.0007223913 -0.00088395725 -0.0005875119 -0.0012189304 -0.00055495685 -0.0031684337 9.968499e-05
-0.00015456643 -0.0031024462 -0.0012281974 0.00018318777 -0.00013830024 -0.0028752035 -0.0026320408 -2.3309693e-05
-1.4177963e-05 -0.00017636154 -0.002231541 -0.0005138487 -0.0013085474 -0.0016354695 0.000245996 -8.817666e-05
0.00031433397 -0.0046624835 0.00052440027 -0.00023611501 -0.0018975231 -0.0005706537 -0.0005086942 -0.00043846245
-0.00065466587 -0.003935682 9.446186e-05 -0.0009802183 -0.0010287912 0.0003830864 -0.00043596418 0.00027190236
0.00013529819 -0.00027949447 -0.0013281363 0.00034429942 -0.0004788901 -0.00031339726 -0.00034040655 -0.0033814192
-0.00014051312 -0.00044386007 -2.6768925e-05 -0.00016304542 -0.0004319084 0.0002700061 -0.0012773749 -0.0010348352
8.438939e-05 -0.0017567204 -0.0030490411 -0.0004662369 -0.00010630545 -0.0004481679 -0.00025804612 -0.00024570693
-0.0005626522 -0.0006236078 -0.0011026971 -0.0011420796 -0.0021084407 -0.00013776284 -0.00055609434 4.9866405e-05
-1.9951074e-07 -0.001994707 -0.0036471142 -0.002402161 -7.744259e-05 -9.521686e-05 -0.0010408856 -0.0021504897
-0.0009236048 -0.000854186 -0.0008087227 -0.00012293506 -0.00020457015 -0.00011506396 -0.0001333853 -0.0011336956
-0.0025223708 -0.0003217213 -0.0017833264 -0.00012802727 0.00048156508 -0.002603628 -0.0017034144 -0.0011936805
8.3888604e-05 -0.0056580747 -0.0031135273 -0.0026537718 -0.000382719 -0.0023910701 -0.002046879 -0.000279284
5.5626806e-06 -7.387737e-05 -0.0014194662 -0.00044681953 -0.00050654094 -0.000121054625 0.00028726683 -8.862633e-05

exp_avg_sq f4 [6, 2048]
00000000: 9864 9536 8260 b538 3286 1338 db81 5c39
00000010: 16c1 9537 42a5 d337 124f 283a ecfb 0f39
00000020: 653d 2838 be2a 193c 4557 a637 584b e038
00000030: 8182 b838 40f0 213b 67fe a137 d56a ca36
00000040: 30d5 ce39 585b ee38 7af9 7d37 2c0f 4139
00000050: 5c4e 343a 7e4a a439 09a5 d539 18d3 cd37
00000060: 4bd6 203a 0128 c438 6c27 2136 d1bc c738
00000070: 2bec 4036 0dbd a136 54db ec3b f66d a238
00000080: b36d 6636 554f 9b34 6cfc 8a37 ed0a 113a
00000090: 0d8f 4d37 4939 0339 230f f537 04bb 9339
000000a0: 66ae 1d35 3a02 3b37 1e10 3437 0889 0937
000000b0: e3ea c136 aecf 143a a3b3 3436 b91b 8f38
000000c0: 2fba 1b37 7e71 f138 b9d3 1a35 b83f 1639
000000d0: 8b55 bc39 8e7f 4339 74e8 9037 5c16 423a
000000e0: c020 9539 ee4d 3839 b214 3238 ace4 1e38
000000f0: db35 0d3a af9d 0838 e8c2 6b39 6d8a 9437
00000100: 8422 2f38 a17c 6038 575e 2b38 0221 033a
00000110: ff9b 1238 1a97 9539 5680 b536 65ef 3537
00000120: a2eb a538 0654 3a3a 0a55 cb37 e970 a138
00000130: fb52 5636 7907 2337 8186 d639 74f5 da39
00000140: 068b 9f39 3c3f f237 a378 ca36 c4d0 0038
00000150: ceb6 2a38 0053 cb37 d245 cb34 5e8f e837
00000160: 1b6b 8035 cb73 bb37 25aa 0439 4993 9738
00000170: 0cbd 0635 9d45 ff38 f46f ed35 ad94 2b3b
00000180: 9ae5 8b38 b4d0 bb39 ee5e 8c35 065b 1f39
00000190: 81ec e734 077f 2b38 3d79 0b38 183c 0336
000001a0: 545a 2936 3a21 423b a790 cb38 9c1a 3439
000001b0: 8c06 5536 064d c437 274a 3839 d519 bf3a
000001c0: 8170 0639 8530 a839 c11d 1539 b0e5 1f3a
000001d0: c8da 8d38 fa8a 543a ca80 e538 c760 f739
000001e0: 4b96 1038 66f9 9a39 60d5 a136 2ffc 333a
000001f0: 10a4 3c39 0855 5739 f965 b135 2f4e 013a
00000200: 1b64 1b38 8ea6 0a39 5be8 e73a b20e 9239
00000210: f69a a338 aba6 7e38 aa85 0938 7284 8a39
00000220: 8ade 8538 cc9f dd38 fcf9 3537 d2ac 9f35
00000230: 99fe 6a37 d265 9d3a aacc 4936 bffd 9f38
00000240: 41f5 b53a 745b 8238 edd5 fb38 172a bc37
00000250: 0240 3c38 7742 5438 216f 813b 8919 9335
00000260: 0415 6c37 9ce4 9339 d21c 4f39 62b6 1237
00000270: 6670 e036 a4d5 613b d01d 823a 65a8 a637
00000280: 40e1 8c37 fcaf 1339 a0c9 0239 e807 613a
00000290: 2a7b d338 35f2 e739 a0e7 1b37 0bed 6f35
000002a0: fa85 9039 b7eb 4a3b f05f 9a39 cb52 1d39
000002b0: b22f b638 c0c2 9237 606a fd37 3882 bc38
000002c0: f63c af38 fb21 3d3a 53fc ab38 d876 8438
000002d0: a6b9 2f37 89bf 2a39 f38c 6d37 9ca8 2a38
000002e0: ff72 8537 577c 9537 9e47 393a f8e3 1738
000002f0: 09bf 0338 e67c 8338 1f27 ed37 8e6c 2e3a
00000300: ebb5 ba38 4f3c 8c38 ecf4 1c36 2c92 e436
00000310: 1ea7 bc38 f6b6 7b38 3bbd a637 5b03 1e39
00000320: ce94 e937 c608 a939 1e4a a63b 0fbf 1638
00000330: 1fc0 9d38 dfa4 1e37 0701 c338 b5f5 0739
00000340: 1497 4137 d9b2 b238 0b41 2f38 5ac0 cf38
00000350: bdef e139 3fb7 9138 c7da 9539 e171 3138
00000360: 4ad3 3634 8a17 1b3a 0d27 873a d4f5 d539
00000370: 00b8 e437 6d6b 9737 bfcd 4f39 a357 3239
00000380: eaac 8239 895a ee39 6c1e 4538 bf6d e837
00000390: 37d8 2238 2613 8d36 dd4f 2c39 04ca dc39
000003a0: 330d 6b3b ab57 c936 1a8e d238 3ca8 f137
000003b0: 2442 8637 c3fb 723a 8e8d 843a 7d65 6b3a
000003c0: a1e5 5e39 1e84 c83b c98b 5f3b 999e 7339
000003d0: d560 6337 4266 773a 968f b03a b915 713a
000003e0: 834d 8037 5b58 5d37 2acc d93a 195b 4238
000003f0: b080 5c3a 59b8 7b36 28b2 e836 a5e4 1639
4.4522567e-06 8.6487285e-05 3.517251e-05 0.0002102921 1.7852097e-05 2.5230114e-05 0.0006420474 0.00013731391
4.01115e-05 0.009348569 1.982938e-05 0.00010695186 8.798112e-05 0.002470985 1.9311161e-05 6.032506e-06
0.0003945022 0.000113657385 1.5138061e-05 0.00018411566 0.00068781315 0.0003133602 0.00040749487 2.4536203e-05
0.0006135448 9.3534596e-05 2.4013816e-06 9.524229e-05 2.8747697e-06 4.8201823e-06 0.0072282944 7.745244e-05
3.4336524e-06 2.8928721e-07 1.6568425e-05 0.0005532939 1.2252259e-05 0.00012514474 2.9213325e-05 0.00028177362
5.874084e-07 1.1146587e-05 1.0732589e-05 8.197741e-06 5.7791926e-06 0.00056766986 2.6926652e-06 6.823935e-05
9.282069e-06 0.00011512915 5.767757e-07 0.00014328852 0.0003592189 0.00018644167 1.7274382e-05 0.00074038445
0.00028443895 0.00017576638 4.245778e-05 3.7883103e-05 0.0005386748 3.257178e-05 0.00022483955 1.7707434e-05
4.1755397e-05 5.352183e-05 4.0857438e-05 0.0005002172 3.4954395e-05 0.00028532074 5.4091606e-06 1.0844179e-05
7.911703e-05 0.00071078574 2.4239085e-05 7.6981094e-05 3.1936786e-06 9.717297e-06 0.00040917474 0.00041763077
0.00030430424 2.8878094e-05 6.034113e-06 3.0712006e-05 4.070141e-05 2.4238136e-05 3.7862497e-07 2.7723316e-05
9.567915e-07 2.2346057e-05 0.00012651885 7.227675e-05 5.019399e-07 0.00012172314 1.7690459e-06 0.0026181147
6.670803e-05 0.00035822915 1.0458441e-06 0.0001519733 4.3199182e-07 4.088788e-05 3.3253094e-05 1.95555e-06
2.523554e-06 0.0029621855 9.706738e-05 0.0001717605 3.1743284e-06 2.3400888e-05 0.00017575231 0.0014579842
0.00012821147 0.00032079607 0.00014220832 0.0006099595 6.764155e-05 0.00081078673 0.0001094356 0.00047183616
3.4472247e-05 0.00029558985 4.823014e-06 0.00068658864 0.00017990195 0.00020535674 1.3217206e-06 0.000493261
3.704811e-05 0.00013222752 0.0017693149 0.0002785824 7.8013094e-05 6.071354e-05 3.278783e-05 0.0002642009
6.383385e-05 0.00010567866 1.0846645e-05 1.189672e-06 1.4006765e-05 0.0012008494 3.0070464e-06 7.628975e-05
0.0013882295 6.2159175e-05 0.000120084595 2.2430946e-05 4.4882305e-05 5.060664e-05 0.003950015 1.0959785e-06
1.4071589e-05 0.00028208352 0.00019751795 8.744742e-06 6.688805e-06 0.0034459615 0.0009927098 1.9867157e-05
1.679419e-05 0.00014084572 0.00012472877 0.0008584247 0.00010084205 0.00044240212 9.292649e-06 8.937938e-07
0.0002756564 0.003096325 0.00029444648 0.0001500353 8.68732e-05 1.7495244e-05 3.0209485e-05 8.988794e-05
8.356005e-05 0.00072148413 8.2009145e-05 6.316387e-05 1.04740375e-05 0.00016283816 1.4159118e-05 4.0688188e-05
1.5908385e-05 1.7820084e-05 0.0007067862 3.6213518e-05 3.141075e-05 6.269831e-05 2.8270819e-05 0.0006653749
8.903056e-05 6.6869536e-05 2.3388375e-06 6.811946e-06 8.9956666e-05 6.001346e-05 1.987686e-05 0.00015069304
2.7845057e-05 0.0003224073 0.0050747534 3.5940724e-05 7.522129e-05 9.455921e-06 9.298516e-05 0.00012966136
1.1538872e-05 8.5210144e-05 4.1783827e-05 9.9063574e-05 0.00043093963 6.948271e-05 0.00028582496 4.2306146e-05
1.7026937e-07 0.00059162884 0.0010311321 0.00040809682 2.72654e-05 1.8050627e-05 0.00019817705 0.0001700805
0.00024924363 0.0004546235 4.6996793e-05 2.770766e-05 3.8825176e-05 4.2043566e-06 0.0001643295 0.00042112183
0.0035866022 6.0004727e-06 0.00010040049 2.8807779e-05 1.6004844e-05 0.0009269083 0.0010112987 0.00089796615
0.00021257113 0.006119265 0.0034110418 0.00023233368 1.35528e-05 0.000943754 0.0013470526 0.00091966573
1.5294883e-05 1.3193198e-05 0.0016616632 4.6338046e-05 0.000841151 3.750922e-06 6.934879e-06 0.00014390291

exp_avg f4 [6]
00000000: 22fc 64bc f3fa 39bc a333 5f3c ebc5 2d3d
00000010: 1d01 a2bb 4bcc fdbc
-0.013976129 -0.011351335 0.013623151 0.042425077 -0.0049439804 -0.030981204

exp_avg_sq f4 [6]
00000000: 5b74 693d 74cb fb3d 41b0 123d 6c74 a13d
00000010: b658 523d 3366 053d
0.05699573 0.12294665 0.03581262 0.07883534 0.051354133 0.032568168

exp_avg f4 [6]
00000000: 20fb adbd b77b 9f3d 0247 883d 59ae bbbc
00000010: 83e6 1c3c 3bf7 a9bb
-0.08495164 0.077872686 0.06654169 -0.022910284 0.009576443 -0.005186943

exp_avg_sq f4 [6]
00000000: e247 6a3e a0dc 2f3e fb1c 573d 7852 7b3c
00000010: bb6d 363e cd79 903c
0.22878984 0.17174006 0.052517872 0.015339486 0.17815296 0.017636204

exp_avg f4 [6]
00000000: cf07 b0bd c787 d13c 9411 973a 9e35 483d
00000010: 5632 8c3a 6a66 7a3c
-0.08595239 0.025577439 0.0011525624 0.04887926 0.0010696154 0.0152832065

exp_avg_sq f4 [6]
00000000: 3310 7e3e afab 833d 683c b53d 7938 7d3d
00000010: c68a be3c f270 123d
0.24810867 0.064292304 0.08849412 0.061821435 0.023259532 0.035752244
