Results/CA/Contrast experiment/DFENet/best.pt (torch, 598129 bytes, 132 tensors)

exp_avg f4 [27, 9]
0	0x38afcc42	8.382696e-05
1	0x37c76f13	2.3774372e-05
2	0xb70d6c07	-8.429407e-06
3	0x38f8c424	0.000118620956
4	0xb7898833	-1.6395095e-05
5	0x385784e7	5.138377e-05
6	0xb81d608d	-3.7521637e-05
7	0x375e6fcb	1.325826e-05
8	0x3803a636	3.138763e-05
9	0x3893bad1	7.0443035e-05
10	0x381d6efd	3.7535083e-05
11	0xb4396df2	-1.7269466e-07
12	0x38b2152b	8.491644e-05
13	0xb6e0f435	-6.7041497e-06
14	0x382986ef	4.0418407e-05
15	0xb79f4019	-1.8984125e-05
16	0x36d9043a	6.467596e-06
17	0x376db682	1.4168794e-05
18	0x34218831	1.504384e-07
19	0x3201bca8	7.551684e-09
20	0xb408b5fe	-1.2732195e-07
21	0x349c76b6	2.9143638e-07
22	0xb3c4742e	-9.148094e-08
23	0xb47865f4	-2.313389e-07
24	0xb3fded44	-1.1824389e-07
25	0x33dd6593	1.0309591e-07
26	0x349ee8f8	2.95993e-07
27	0x381a1af5	3.6741567e-05
28	0x37efb308	2.8574388e-05
29	0x369a3bc3	4.596515e-06
30	0x3854c671	5.072955e-05
31	0xb6824848	-3.8827166e-06
32	0x37da57d3	2.6028521e-05
33	0xb7457142	-1.1768485e-05
34	0x360bf319	2.0854116e-06
35	0x36f0a355	7.1715717e-06
36	0x38cb831e	9.704217e-05
37	0x381a1ec4	3.6745114e-05
38	0x355016b2	7.7519064e-07
39	0x38fbcdbd	0.000120069344
40	0xb79037de	-1.7192153e-05
41	0x38370801	4.3638054e-05
42	0xb812977a	-3.4950186e-05
43	0x37a46f24	1.9602077e-05
44	0x380acf9f	3.3095126e-05
45	0x3930c47a	0.00016857861
46	0x38dc401a	0.00010502357
47	0x3669ce89	3.4839925e-06
48	0x396c23fc	0.00022520119
49	0xb58b61ae	-1.0384736e-06
50	0x38dbcab7	0.00010480492
51	0xb80df08d	-3.384105e-05
52	0x3794a1a3	1.7718243e-05
53	0x378c2505	1.670654e-05
54	0xb889eee0	-6.577163e-05
55	0xb7eaf109	-2.8007214e-05
56	0x3755711d	1.2722126e-05
57	0xb8b1d8e2	-8.480415e-05
58	0x363b618a	2.7921947e-06
59	0xb842b5ae	-4.6422407e-05
60	0x37520448	1.2517972e-05
61	0xb6a684ef	-4.962661e-06
62	0xb71ea4ba	-9.455887e-06
63	0x3924f59b	0.00015731754
64	0x38a52672	7.874974e-05
65	0xb706e387	-8.039998e-06
66	0x394d0934	0.00019553752
67	0xb77d1d0c	-1.5086738e-05
68	0x38e419f1	0.00010876719
69	0xb7f02303	-2.8626533e-05
70	0x37aff896	2.0977383e-05
71	0x37d32838	2.5171888e-05
72	0xb8743085	-5.821932e-05
73	0xb810f0e0	-3.4556608e-05
74	0x34047a14	1.233787e-07
75	0xb8a1f0d1	-7.721934e-05
76	0x36e43ff7	6.802376e-06
77	0xb824cd25	-3.9291703e-05
78	0x379d06f3	1.8719094e-05
79	0xb6edad08	-7.083294e-06
80	0xb790ffc5	-1.728524e-05
81	0xb8575348	-5.1337556e-05
82	0x38349c57	4.3060947e-05
83	0xb7c063f7	-2.2934733e-05
84	0xb8e2b13e	-0.00010809534
85	0x38824e76	6.2134975e-05
86	0xb80b932a	-3.327724e-05
87	0xb485b2a6	-2.4903164e-07
88	0x386a05d8	5.579539e-05
89	0x38632baf	5.41617e-05
90	0xb83d25d1	-4.509633e-05
91	0x37e282a8	2.7002141e-05
92	0xb8272591	-3.985089e-05
93	0xb88579f5	-6.3646505e-05
94	0x36eca134	7.0521146e-06
95	0x3725a730	9.873693e-06
96	0x37113cf3	8.656864e-06
97	0x38091790	3.268529e-05
98	0x381e4bb1	3.774063e-05
99	0xb4c15479	-3.6010513e-07
100	0x33bddb5e	8.840901e-08
101	0xb3ce69ab	-9.6118434e-08
102	0xb509286f	-5.1095316e-07
103	0x34fa4f21	4.6623703e-07
104	0xb4423c82	-1.808967e-07
105	0x339c4041	7.276004e-08
106	0x3487b273	2.5275548e-07
107	0x348fe47d	2.6802073e-07
108	0xb7f0b885	-2.8696153e-05
109	0x37328ff7	1.0643146e-05
110	0xb80bac54	-3.3300676e-05
111	0xb7de758d	-2.6519201e-05
112	0xb7b0b078	-2.106301e-05
113	0x37b54a9e	2.1611628e-05
114	0x37040abe	7.870314e-06
115	0x3754c4cb	1.2682004e-05
116	0x37b0dfc2	2.108503e-05
117	0xb8a7b116	-7.9961654e-05
118	0x3838694b	4.396708e-05
119	0xb84838fc	-4.7736787e-05
120	0xb8f07bcc	-0.00011467151
121	0x3806e7b7	3.216389e-05
122	0x362eb5a8	2.6033758e-06
123	0x37a17489	1.9246962e-05
124	0x386ee267	5.6954475e-05
125	0x387ba2e1	5.9994756e-05
126	0xb8e835ff	-0.000110726796
127	0x38412ef6	4.605852e-05
128	0xb8ad2328	-8.255831e-05
129	0xb9135bad	-0.00014053164
130	0x375fe90c	1.3346096e-05
131	0x3817a461	3.6154295e-05
132	0x380ecc1a	3.4045523e-05
133	0x38b0e338	8.434657e-05
134	0x38af6a38	8.364435e-05
135	0x3812f259	3.5034816e-05
136	0xb7d68dd6	-2.5576835e-05
137	0x37aa9394	2.03343e-05
138	0x3868eca3	5.5533495e-05
139	0xb7a1b1f4	-1.9275561e-05
140	0x36f32139	7.245832e-06
141	0xb6cbba78	-6.0715793e-06
142	0xb7f953b0	-2.9722083e-05
143	0xb80b1408	-3.3158838e-05
144	0xb8e02155	-0.00010687361
145	0x38799aae	5.9510283e-05
146	0xb883fbcb	-6.293467e-05
147	0xb9195faf	-0.00014626862
148	0x384b2a80	4.8438553e-05
149	0x3703fe8c	7.867475e-06
150	0x37e9b570	2.7860253e-05
151	0x38ab04bf	8.1547994e-05
152	0x38a458c5	7.836664e-05
153	0x3858277c	5.1535186e-05
154	0xb7bc62ea	-2.2457407e-05
155	0x3824e425	3.9313123e-05
156	0x3870b159	5.7385627e-05
157	0x37386950	1.0991775e-05
158	0xb7b3a3ed	-2.1414797e-05
159	0xb772966c	-1.4459347e-05
160	0xb7dd5343	-2.6384025e-05
161	0xb8166b27	-3.586258e-05
162	0xb83fad43	-4.569931e-05
163	0x38d1a5fe	9.996815e-05
164	0xb824b2fc	-3.926734e-05
165	0x3602999c	1.9460922e-06
166	0xb9285c4e	-0.00016056115
167	0xb80552d0	-3.1786796e-05
168	0x37e42c37	2.7200307e-05
169	0xb60becf1	-2.0850532e-06
170	0xb5b2ec11	-1.3330738e-06
171	0xb8e9e7c3	-0.00011153475
172	0x3898bc79	7.2830306e-05
173	0xb8e6adce	-0.00010999628
174	0xb8d36740	-0.00010080496
175	0x3912c44b	0.0001399677
176	0x38e020b2	0.00010687242
177	0xb87ce8d7	-6.029833e-05
178	0x37fad33a	2.9900682e-05
179	0x388a739e	6.601888e-05
180	0x399a2d87	0.0002940709
181	0xb9227042	-0.00015491343
182	0x397d2b44	0.00024144078
183	0x3919e177	0.00014675209
184	0xb9fba1dd	-0.00047995048
185	0xb9bb4d11	-0.00035724838
186	0x397673f3	0.00023503583
187	0xb8a1443c	-7.689788e-05
188	0xb8ea481b	-0.0001117142
189	0xb8a9ccaf	-8.096673e-05
190	0x380546e7	3.1775704e-05
191	0x3846dd07	4.7412726e-05
192	0x3694e4a7	4.4373623e-06
193	0x3993efc8	0.00028216676
194	0x39058412	0.00012733068
195	0xb93b09ae	-0.00017837316
196	0x37a49692	1.9620438e-05
197	0x378c43ea	1.6720925e-05
198	0xb88025b8	-6.110541e-05
199	0xb8853d0f	-6.353307e-05
200	0x38a465c8	7.8390876e-05
201	0x3763c5fa	1.3576349e-05
202	0x39bf0ad1	0.00036438418
203	0x38ad6b04	8.269216e-05
204	0xb915a7e4	-0.00014272291
205	0x37284acb	1.0030994e-05
206	0x3667a864	3.4519699e-06
207	0xb7c1eef3	-2.3118662e-05
208	0xb7823c16	-1.5525187e-05
209	0xb6b4b50b	-5.385494e-06
210	0xb8acc208	-8.23774e-05
211	0x39085105	0.00013000153
212	0x3883cc8a	6.284665e-05
213	0xb819b21c	-3.664392e-05
214	0x373baf5f	1.11869e-05
215	0x38682137	5.5344044e-05
216	0xb75c0c44	-1.3115878e-05
217	0xb907a0da	-0.00012934525
218	0x393d4921	0.00018051687
219	0xb6b2587d	-5.315115e-06
220	0x3809d352	3.2860153e-05
221	0xb8791f60	-5.9395446e-05
222	0x38a2baeb	7.759578e-05
223	0x3727e7c3	1.0007937e-05
224	0x36b6f59f	5.4526167e-06
225	0xb4e322eb	-4.230745e-07
226	0x36be3bd9	5.6694084e-06
227	0xb6f2cd36	-7.2360517e-06
228	0xb60a47f2	-2.060548e-06
229	0xb5ffd2a6	-1.9060287e-06
230	0x3637961a	2.7356496e-06
231	0xb58a5a25	-1.0308037e-06
232	0xb4191a72	-1.4258856e-07
233	0x352d9177	6.46592e-07
234	0xb8a84dd2	-8.0253594e-05
235	0x381d35a1	3.7481663e-05
236	0xb86fad10	-5.7143217e-05
237	0xb845fc72	-4.7203568e-05
238	0x38d87400	0.00010321289
239	0x38d31e99	0.00010066963
240	0xb8629c3d	-5.4028107e-05
241	0x37ac83e4	2.0565414e-05
242	0x38161d10	3.5789853e-05

exp_avg_sq f4 [27, 9]
0	0x34bfc2a9	3.5718156e-07
1	0x3580ec8c	9.605587e-07
2	0x35830062	9.760372e-07
3	0x353a3582	6.9368264e-07
4	0x357fdd85	9.5317256e-07
5	0x356759de	8.618498e-07
6	0x3445e6b8	1.843099e-07
7	0x33f401c2	1.1362455e-07
8	0x3409ffea	1.285222e-07
9	0x342ba3fc	1.5985273e-07
10	0x34f51e0c	4.5656668e-07
11	0x34ea0184	4.3587e-07
12	0x34af2a08	3.2626872e-07
13	0x34f6032e	4.5823384e-07
14	0x34dda511	4.128456e-07
15	0x33ac1ed9	8.014985e-08
16	0x335e2d1c	5.172943e-08
17	0x3382dbb7	6.0935626e-08
18	0x3139b129	2.7021747e-09
19	0x31e87703	6.7656187e-09
20	0x31d62467	6.232358e-09
21	0x315cb155	3.2115015e-09
22	0x3158b759	3.1536358e-09
23	0x31609267	3.267951e-09
24	0x31a2883e	4.7303095e-09
25	0x31474114	2.8995304e-09
26	0x31430c49	2.8383218e-09
27	0x3368d6c0	5.4212023e-08
28	0x342d92f1	1.6165338e-07
29	0x34197838	1.4292971e-07
30	0x33e03b4d	1.04415996e-07
31	0x341f3831	1.4828471e-07
32	0x340d184d	1.3140489e-07
33	0x3302eeec	3.0485282e-08
34	0x32a01737	1.8637008e-08
35	0x32adeec8	2.0248436e-08
36	0x34bffe5f	3.5761602e-07
37	0x358a0953	1.0284515e-06
38	0x3581f1bd	9.681604e-07
39	0x353104f8	6.594487e-07
40	0x35776a6e	9.2169546e-07
41	0x355d4f8b	8.2444666e-07
42	0x3423c245	1.5251233e-07
43	0x33c19753	9.0147886e-08
44	0x33ce508f	9.607276e-08
45	0x35576e01	8.025382e-07
46	0x361f8ed6	2.3775988e-06
47	0x3616f237	2.249273e-06
48	0x35dc98e4	1.6435774e-06
49	0x361fef5a	2.3832167e-06
50	0x360ff858	2.1453216e-06
51	0x34da3303	4.064278e-07
52	0x348452d9	2.4647196e-07
53	0x349b6dfb	2.895102e-07
54	0x342f0b57	1.630227e-07
55	0x34e216cd	4.211237e-07
56	0x34ebf5e7	4.3951079e-07
57	0x34b58e30	3.3817332e-07
58	0x34f640e2	4.586828e-07
59	0x34dff7f4	4.1717396e-07
60	0x33ce76f9	9.6142635e-08
61	0x3389cab8	6.416434e-08
62	0x33aa6e7d	7.9363396e-08
63	0x35427258	7.2437024e-07
64	0x3610a644	2.1554451e-06
65	0x360823bd	2.0286382e-06
66	0x35c78b6c	1.4867232e-06
67	0x36101038	2.1467113e-06
68	0x36012a00	1.9246945e-06
69	0x34cbf321	3.7988596e-07
70	0x347a2261	2.3295571e-07
71	0x349432fa	2.7604239e-07
72	0x34067391	1.2521765e-07
73	0x34c7d496	3.7221315e-07
74	0x34b52dfe	3.374734e-07
75	0x34811232	2.404136e-07
76	0x34b66a4b	3.397748e-07
77	0x34a220e4	3.0198782e-07
78	0x33667b7b	5.3663353e-08
79	0x330f29fa	3.333296e-08
80	0x331bd572	3.6282877e-08
81	0x33afad03	8.180543e-08
82	0x341e567a	1.4746357e-07
83	0x34acec00	3.220921e-07
84	0x33cfdc99	9.679315e-08
85	0x34924cb2	2.7250422e-07
86	0x343cd530	1.7586422e-07
87	0x3373c6b1	5.6758555e-08
88	0x3344971d	4.5772243e-08
89	0x32daa73e	2.5454593e-08
90	0x330f3cca	3.335007e-08
91	0x338dc832	6.6022395e-08
92	0x3417993b	1.4118716e-07
93	0x33332451	4.1709715e-08
94	0x33e81a10	1.08080826e-07
95	0x3399c01e	7.1595636e-08
96	0x32dc382e	2.5636918e-08
97	0x329c5414	1.8199025e-08
98	0x32324091	1.0375644e-08
99	0x314b762d	2.9607563e-09
100	0x317eaea1	3.706113e-09
101	0x3211e071	8.491143e-09
102	0x31098093	2.000921e-09
103	0x3260fc51	1.3095886e-08
104	0x32086bfb	7.940794e-09
105	0x312c5152	2.507552e-09
106	0x318e1c66	4.1359725e-09
107	0x30c9d775	1.4685911e-09
108	0x326c08ab	1.3738979e-08
109	0x32faec1d	2.9211202e-08
110	0x33b84fa8	8.582657e-08
111	0x32a6d76f	1.9422911e-08
112	0x33952892	6.945733e-08
113	0x334841aa	4.662585e-08
114	0x3223d9dd	9.537385e-09
115	0x32211763	9.376751e-09
116	0x31a065db	4.6681925e-09
117	0x33a435c7	7.646627e-08
118	0x34334872	1.669703e-07
119	0x34ca6b4b	3.7703498e-07
120	0x33e66687	1.0728859e-07
121	0x349b3465	2.8909122e-07
122	0x344e0138	1.9185688e-07
123	0x33880ac8	6.3349546e-08
124	0x3332afb8	4.160367e-08
125	0x32d64f1d	2.4948855e-08
126	0x34286df7	1.5686224e-07
127	0x34c7897b	3.716667e-07
128	0x355f63a7	8.3218987e-07
129	0x34830cde	2.4410014e-07
130	0x35262e9e	6.1907656e-07
131	0x34d60cd6	3.9869946e-07
132	0x340b7b09	1.2990144e-07
133	0x33a8fc77	7.869033e-08
134	0x3340e1b2	4.4908752e-08
135	0x3362bf6c	5.2793823e-08
136	0x3398ed04	7.1211645e-08
137	0x34301f74	1.640272e-07
138	0x33479889	4.6472028e-08
139	0x342702a4	1.5554048e-07
140	0x33d37ed1	9.848521e-08
141	0x330b4036	3.242186e-08
142	0x3323cc80	3.8137387e-08
143	0x32922483	1.701324e-08
144	0x3424a5ef	1.5334057e-07
145	0x34a2786c	3.026247e-07
146	0x35350ea5	6.7449065e-07
147	0x34520990	1.9561253e-07
148	0x351232c7	5.446313e-07
149	0x34babeaf	3.478394e-07
150	0x33fb1b62	1.1693079e-07
151	0x33b8ba34	8.602038e-08
152	0x33492e4c	4.6841066e-08
153	0x32db21dd	2.5510355e-08
154	0x33871db2	6.291829e-08
155	0x34334a02	1.6697598e-07
156	0x333d7956	4.4115346e-08
157	0x3417bdb9	1.4131992e-07
158	0x33bb88ee	8.7327734e-08
159	0x32b52944	2.1089939e-08
160	0x327b59ad	1.4630513e-08
161	0x31ef7e53	6.970177e-09
162	0x34a8dc3b	3.1452677e-07
163	0x35497cd5	7.505999e-07
164	0x35203e8f	5.969568e-07
165	0x34a56b75	3.081183e-07
166	0x34a245ea	3.022572e-07
167	0x348b0d48	2.590043e-07
168	0x337e629c	5.9228668e-08
169	0x32ee23a5	2.7723056e-08
170	0x32c37445	2.2753861e-08
171	0x34c185cb	3.6046399e-07
172	0x35433404	7.2718854e-07
173	0x355eb76f	8.2968376e-07
174	0x34b5868f	3.3811781e-07
175	0x34f946bb	4.6431327e-07
176	0x34db609d	4.0862224e-07
177	0x33b75853	8.5376676e-08
178	0x33625295	5.2694833e-08
179	0x3335ec1b	4.2357083e-08
180	0x35e08ff5	1.6731198e-06
181	0x366d6bc1	3.5378473e-06
182	0x3680abf8	3.834717e-06
183	0x35e1bda6	1.6819001e-06
184	0x35f1e3cf	1.80222e-06
185	0x35c48057	1.464049e-06
186	0x34c727b2	3.709552e-07
187	0x34530e3c	1.9656085e-07
188	0x341f5fa8	1.4842828e-07
189	0x35793d51	9.2848956e-07
190	0x361cdeb8	2.337545e-06
191	0x36589aa5	3.2276523e-06
192	0x35aa329d	1.2680717e-06
193	0x35fa6b16	1.8657618e-06
194	0x35bb0c27	1.3936123e-06
195	0x34730108	2.2631514e-07
196	0x34080068	1.2666135e-07
197	0x33c1a571	9.0173565e-08
198	0x3543a7e4	7.2887474e-07
199	0x36064d53	2.0012565e-06
200	0x361a4e3b	2.2993324e-06
201	0x358395fd	9.803913e-07
202	0x35b286d5	1.3301275e-06
203	0x359038d1	1.0745372e-06
204	0x343342fc	1.6695043e-07
205	0x33d6942c	9.992104e-08
206	0x3397092b	7.033153e-08
207	0x34976d77	2.8205588e-07
208	0x351d5460	5.860984e-07
209	0x351e1682	5.889234e-07
210	0x34970f4c	2.8137072e-07
211	0x34be5338	3.5450807e-07
212	0x349af295	2.8861237e-07
213	0x33998ae6	7.149883e-08
214	0x332c2de2	4.00886e-08
215	0x331a3310	3.590236e-08
216	0x34c4e160	3.6671827e-07
217	0x3514e557	5.546803e-07
218	0x354e6a1e	7.68954e-07
219	0x34c24ecb	3.6192645e-07
220	0x35117528	5.4187194e-07
221	0x34cb9411	3.791943e-07
222	0x339bdcee	7.257937e-08
223	0x3334381f	4.1960558e-08
224	0x32e3a468	2.6501041e-08
225	0x320edc5f	8.315594e-09
226	0x328fc943	1.6738914e-08
227	0x32a15690	1.878223e-08
228	0x321a32fd	8.975573e-09
229	0x3289e17e	1.6051441e-08
230	0x32278821	9.7516315e-09
231	0x311e435e	2.303032e-09
232	0x30e65aa9	1.676047e-09
233	0x308fc9b8	1.0461951e-09
234	0x3439773d	1.7272846e-07
235	0x34c0bc7f	3.5899936e-07
236	0x34e1af8b	4.203724e-07
237	0x3436b744	1.7016743e-07
238	0x346c829b	2.2026727e-07
239	0x343d050d	1.7603834e-07
240	0x332afbbc	3.981016e-08
241	0x32d2113f	2.445506e-08
242	0x328fc171	1.6735358e-08

exp_avg f4 [27]
0	0xb98cc025	-0.0002684604
1	0xb94c881e	-0.00019505664
2	0xb4e1c42a	-4.2052244e-07
3	0xb8eb0e36	-0.0001120832
4	0xb993f077	-0.00028217185
5	0xb9f7b7ee	-0.0004724855
6	0x392ef60d	0.00016685594
7	0xb9ddca8f	-0.00042303323
8	0x39330ce3	0.00017075571
9	0xab11ee38	-5.1844943e-13
10	0xac3259a9	-2.5345093e-12
11	0x291f9ba4	3.544009e-14
12	0x2d0a8e2a	7.8759586e-12
13	0x2d1158df	8.262029e-12
14	0x2e14902e	3.377936e-11
15	0xac3a198d	-2.6446373e-12
16	0x2d1d9dee	8.959484e-12
17	0xaa6abfe9	-2.0849957e-13
18	0xba812a88	-0.0009854594
19	0x39f99ffe	0.00047612184
20	0xba76640e	-0.00093990646
21	0xbaa16802	-0.0012314322
22	0xba9cdb62	-0.0011967237
23	0x3a7fff56	0.0009765526
24	0xb92171b0	-0.00015396508
25	0x378f1a09	1.7059052e-05
26	0x39dfdc03	0.00042697796

exp_avg_sq f4 [27]
0	0x35a6f2dc	1.2438645e-06
1	0x351a87bb	5.7566984e-07
2	0x318a2345	4.0203383e-09
3	0x344ebc91	1.9253845e-07
4	0x35a8ce74	1.2577061e-06
5	0x3643b8f1	2.9164914e-06
6	0x35163e4c	5.597001e-07
7	0x362fda82	2.620422e-06
8	0x34f25e6b	4.514471e-07
9	0x1fc488bb	8.323543e-20
10	0x1f69a437	4.9475505e-20
11	0x1da70ed0	4.4219848e-21
12	0x1eb6d164	1.9356601e-20
13	0x2008b886	1.1580702e-19
14	0x20701d11	2.0338408e-19
15	0x1f69d6ab	4.9517238e-20
16	0x203436ec	1.5264765e-19
17	0x1f3af761	3.959166e-20
18	0x38a82501	8.017757e-05
19	0x3928add8	0.0001608649
20	0x3a262f69	0.0006339462
21	0x39e98766	0.00044542103
22	0x39ab8416	0.00032714073
23	0x3914e87b	0.00014200986
24	0x38837b0e	6.2694875e-05
25	0x36209fbc	2.3934836e-06
26	0x3892f3c9	7.007231e-05

exp_avg f4 [9, 9]
0	0x381d4c08	3.7502527e-05
1	0xb8e0d93f	-0.000107216176
2	0x39c0b3bc	0.00036755006
3	0xb9147c4b	-0.00014160683
4	0xb86cff08	-5.65043e-05
5	0x36e5c8d0	6.8481095e-06
6	0x38bee3b2	9.1023176e-05
7	0x36977a2e	4.5143743e-06
8	0xb8c9ba2e	-9.6191055e-05
9	0x37adb745	2.0708549e-05
10	0x37de9e8a	2.6538288e-05
11	0xb58c27f2	-1.0442438e-06
12	0xb8aebed6	-8.3325125e-05
13	0xb742910a	-1.1597071e-05
14	0xb785b285	-1.5937965e-05
15	0x37c4c6b3	2.3457547e-05
16	0xb4bc303c	-3.5052824e-07
17	0x3686a22c	4.0123905e-06
18	0x38a9a54a	8.0893355e-05
19	0xb89450df	-7.072253e-05
20	0x396cfd81	0.00022601151
21	0xb9cb87ad	-0.00038820264
22	0xb9a997d9	-0.00032347327
23	0xb9b3e739	-0.00034313815
24	0x38cc5056	9.742442e-05
25	0xb69e0239	-4.7090257e-06
26	0xb87c793e	-6.0194398e-05
27	0xb7a7b319	-1.999135e-05
28	0x38884d1b	6.4993474e-05
29	0xb96feab4	-0.0002288025
30	0x38df693d	0.00010653071
31	0x38c76dce	9.509512e-05
32	0x380179b1	3.086933e-05
33	0xb876caff	-5.8840025e-05
34	0xb5efe83a	-1.7874474e-06
35	0x387b8fc0	5.997694e-05
36	0xb87fa0bb	-6.094643e-05
37	0x3986db04	0.0002572165
38	0xba2163d0	-0.0006156536
39	0x39af91bc	0.00033487182
40	0x39b33fda	0.00034189114
41	0x398a8619	0.00026421322
42	0xb925cdbf	-0.00015812273
43	0xb5a04780	-1.1941738e-06
44	0x39107acf	0.0001377866
45	0x3831b4b3	4.2368378e-05
46	0xb8cef008	-9.867555e-05
47	0x396a68ba	0.00022354993
48	0xb7c9a5b6	-2.4038232e-05
49	0xb8c6a637	-9.472336e-05
50	0xb89a46bd	-7.356468e-05
51	0x38097b78	3.2778335e-05
52	0x362ac61d	2.544729e-06
53	0xb833ae00	-4.2838976e-05
54	0xb85520b8	-5.081363e-05
55	0x39efda32	0.000457482
56	0xba97b9bf	-0.0011575742
57	0x3a3e9f1e	0.0007271635
58	0x3a1a8d49	0.0005895687
59	0x3a17ffac	0.0005798291
60	0xb9b02543	-0.00033597098
61	0xb6633529	-3.385658e-06
62	0x39b06b0d	0.00033649095
63	0x378597b6	1.5925481e-05
64	0xb9a61d6d	-0.0003168391
65	0x3a1a43ad	0.0005884718
66	0xb921f801	-0.00015446545
67	0xb9b75efb	-0.00034975246
68	0xb9c22ba1	-0.0003703507
69	0xb7f31d92	-2.8981627e-05
70	0xb4f94775	-4.6431856e-07
71	0xb9132858	-0.00014034042
72	0xb6cd41be	-6.1171295e-06
73	0xb923e5ca	-0.00015630494
74	0x3a185a24	0.0005811772
75	0xb95052ef	-0.00019867321
76	0xb8cdcc1a	-9.8131786e-05
77	0x3864ea22	5.457749e-05
78	0x3924c9bd	0.00015715412
79	0x36e1beee	6.7277497e-06
80	0xb92a9061	-0.00016266249

exp_avg_sq f4 [9, 9]
0	0x34840222	2.4588468e-07
1	0x34b8936f	3.4379943e-07
2	0x362a9aed	2.5422153e-06
3	0x35b8718d	1.3742116e-06
4	0x357df4f4	9.46063e-07
5	0x35639bbe	8.4790724e-07
6	0x3513c8d4	5.505401e-07
7	0x31acc129	5.0278186e-09
8	0x348600e2	2.4960087e-07
9	0x34a93e49	3.1524021e-07
10	0x351d426e	5.8583726e-07
11	0x369eb1e8	4.729478e-06
12	0x362917f6	2.519691e-06
13	0x35eb2943	1.7520873e-06
14	0x35a6561d	1.2393026e-06
15	0x3581f09c	9.681276e-07
16	0x321b187f	9.027757e-09
17	0x34d34836	3.9354353e-07
18	0x3579451d	9.28603e-07
19	0x3592da35	1.0941354e-06
20	0x36b10492	5.275543e-06
21	0x36490e60	2.9959701e-06
22	0x3635c505	2.7085782e-06
23	0x36729bb0	3.6151432e-06
24	0x35bbfc69	1.4006047e-06
25	0x328971b4	1.6000605e-08
26	0x35076371	5.0436125e-07
27	0x33f23b13	1.1279749e-07
28	0x3422c71c	1.5159861e-07
29	0x3584f8b6	9.907151e-07
30	0x350ee85d	5.3237255e-07
31	0x34e7466e	4.3078347e-07
32	0x34f904e2	4.6383417e-07
33	0x34697211	2.1741313e-07
34	0x31016912	1.8831696e-09
35	0x33bede2a	8.887976e-08
36	0x34e2cdad	4.224543e-07
37	0x3531e234	6.6266807e-07
38	0x36957ad4	4.454845e-06
39	0x362cbabb	2.5738689e-06
40	0x3604c75e	1.978558e-06
41	0x35e8f074	1.7355328e-06
42	0x35597ab9	8.1017384e-07
43	0x31d42b4a	6.1749335e-09
44	0x34dd11b4	4.1177339e-07
45	0x34b4facc	3.3710091e-07
46	0x34c7785c	3.7154211e-07
47	0x3604c420	1.9783693e-06
48	0x359dd9b1	1.1760768e-06
49	0x358443ab	9.85446e-07
50	0x359f25f8	1.1857474e-06
51	0x34ff428b	4.7545868e-07
52	0x31e69b27	6.71152e-09
53	0x34523f07	1.9580703e-07
54	0x360fbca0	2.1418455e-06
55	0x366a06f8	3.4872774e-06
56	0x37a8dd6e	2.0130272e-05
57	0x372de587	1.0365045e-05
58	0x371bf274	9.2951705e-06
59	0x372232cd	9.66778e-06
60	0x3678ea9d	3.7091443e-06
61	0x32ebbf22	2.7444518e-08
62	0x35ed6d14	1.7689622e-06
63	0x36289262	2.5119157e-06
64	0x365b095d	3.2638993e-06
65	0x37b66017	2.1740836e-05
66	0x3724ff00	9.834534e-06
67	0x37092638	8.174735e-06
68	0x371da9c4	9.397456e-06
69	0x36a330f4	4.8634774e-06
70	0x33057667	3.1074162e-08
71	0x35f370ae	1.8137705e-06
72	0x3548dcdf	7.4827216e-07
73	0x35617633	8.3991034e-07
74	0x364f0f56	3.085433e-06
75	0x360c32c5	2.0891177e-06
76	0x3615e419	2.23355e-06
77	0x365ae7d4	3.2619473e-06
78	0x3556dc95	8.00422e-07
79	0x3202cf6a	7.614156e-09
80	0x34a14680	3.0039882e-07

exp_avg f4 [9]
0	0xbbd11f32	-0.0063818926
1	0x3a8cf448	0.0010753954
2	0x3bfa0766	0.0076302765
3	0x3aebf423	0.0018001836
4	0x3a85eb1d	0.0010217164
5	0xbab4c20e	-0.0013790743
6	0x3b32e1d8	0.0027295258
7	0x3b5af335	0.0033409123
8	0xbc0bb48f	-0.008526935

exp_avg_sq f4 [9]
0	0x3a225aea	0.0006193357
1	0x3a513b1a	0.0007981524
2	0x3b1a4242	0.0023538028
3	0x39a02ac7	0.0003054945
4	0x3a678dc0	0.0008833073
5	0x3a4d26d0	0.0007825913
6	0x3baf3641	0.0053470437
7	0x3bf3ba2f	0.0074379663
8	0x3b08a1a1	0.0020848291

exp_avg f4 [2048, 9]
0	0xae99e21a	-6.997798e-11
1	0xb077bc28	-9.012546e-10
2	0xaffd33ea	-4.605732e-10
3	0x2ead5493	7.8821526e-11
4	0xae05356d	-3.028815e-11
5	0xaab4caf5	-3.2115253e-13
6	0x29b410d2	7.9965236e-14
7	0xaa835353	-2.3328092e-13
8	0x275088e5	2.894001e-15
9	0xb222c7e2	-9.475089e-09
10	0xb3fd3e8d	-1.17926085e-07
11	0x34c60218	3.6881897e-07
12	0xb4024533	-1.2132368e-07
13	0x339c4392	7.276607e-08
14	0x34115e99	1.3538592e-07
15	0x3215ccff	8.719552e-09
16	0x32ad0da3	2.0146052e-08
17	0x3401d8b4	1.2092897e-07
18	0x35ddd952	1.6529032e-06
19	0x358f05d7	1.065603e-06
20	0xb550d45c	-7.779506e-07
21	0xb5849376	-9.877683e-07
22	0xb5f0e034	-1.7946645e-06
23	0xb5d72b4e	-1.6031352e-06
24	0x35bde512	1.4148266e-06
25	0xb4767c27	-2.2955702e-07
26	0x35c64697	1.4772694e-06
27	0x288a8174	1.5377219e-14
28	0xaadf0003	-3.9612766e-13
29	0xaa100422	-1.2791203e-13
30	0x9f90375e	-6.107797e-20
31	0xa83d704d	-1.0515959e-14
32	0x23e644cb	2.4965785e-17
33	0x96d462c8	-3.4312787e-25
34	0x1680b46b	2.0793375e-25
35	0x90c269f4	-7.6682754e-29
36	0xb21058e9	-8.402119e-09
37	0xb27deae3	-1.4779945e-08
38	0x3310d172	3.3718102e-08
39	0xad28240c	-9.557698e-12
40	0xb0de82e0	-1.6189823e-09
41	0x31d3fa58	6.169369e-09
42	0xb22aab4d	-9.934252e-09
43	0xb1d7cb82	-6.2804597e-09
44	0x2e9a19fe	7.007726e-11
45	0xb90a121c	-0.00013167452
46	0x387ec661	6.0743074e-05
47	0xb8b0804a	-8.41623e-05
48	0x392ebe97	0.00016664933
49	0xb8f22072	-0.00011545503
50	0xb8ad7ab7	-8.27214e-05
51	0x384d2752	4.891243e-05
52	0x388d4c2a	6.7375906e-05
53	0x36a4fa6a	4.916733e-06
54	0xb6948f12	-4.4273993e-06
55	0x3621dc65	2.4119156e-06
56	0xb5b635e1	-1.3575738e-06
57	0x3564afa6	8.519222e-07
58	0x3637c9c6	2.7386573e-06
59	0x36067aeb	2.0039104e-06
60	0xb64c1ec4	-3.0416277e-06
61	0xb5be5fec	-1.418402e-06
62	0xb4790318	-2.3191058e-07
63	0x3953f6af	0.00020214425
64	0x39c3d62c	0.0003735287
65	0xb9026ca1	-0.00012438234
66	0xb910f5e9	-0.00013824519
67	0xb9b9fcd0	-0.0003547431
68	0xb8561888	-5.1044422e-05
69	0x37dc5a84	2.6268193e-05
70	0xb867345f	-5.5123466e-05
71	0x36113c13	2.1641652e-06
72	0xb6aaf5ac	-5.094995e-06
73	0xb756f66d	-1.28127695e-05
74	0x377237bc	1.4437301e-05
75	0xb70ec2e9	-8.509241e-06
76	0x37b2e42d	2.1325506e-05
77	0x3759dea4	1.29860455e-05
78	0xb69c576d	-4.65934e-06
79	0xb7213320	-9.608251e-06
80	0x3619f5a6	2.2941763e-06
81	0x2f7c7d3e	2.2963761e-10
82	0x3053272e	7.681703e-10
83	0xafb42a3a	-3.2771813e-10
84	0x2d9d98ae	1.7916637e-11
85	0x2e37c77b	4.1786557e-11
86	0xae707c23	-5.4679938e-11
87	0x2a69d6fe	2.0769148e-13
88	0x2b98e123	1.0862738e-12
89	0x2acf80c4	3.6859936e-13
90	0x360ce413	2.0994382e-06
91	0xb4defd13	-4.1534858e-07
92	0xb309b1e8	-3.2059603e-08
93	0x339ff0df	7.447829e-08
94	0xb4c63b9c	-3.6923745e-07
95	0xb4ab4c11	-3.1906578e-07
96	0xb47cb74b	-2.353601e-07
97	0xb53be1a0	-6.9991256e-07
98	0x338420c1	6.152687e-08
99	0x342f4c63	1.6325934e-07
100	0x35a7642a	1.2471621e-06
101	0x34399811	1.7284789e-07
102	0xb5155158	-5.5625196e-07
103	0x33a61ee6	7.735598e-08
104	0x34e95ed5	4.346863e-07
105	0x347e5955	2.3688092e-07
106	0xb58fe266	-1.0720221e-06
107	0xb4e72ed2	-4.306117e-07
108	0xb52c7b6d	-6.42546e-07
109	0x3546d531	7.407098e-07
110	0x34ef14e6	4.4532425e-07
111	0x33de47ed	1.0350764e-07
112	0x32fc340d	2.9360331e-08
113	0xb4ff2400	-4.7523645e-07
114	0xb45738d3	-2.0044108e-07
115	0xb3398391	-4.3193328e-08
116	0xb3c5d132	-9.21158e-08
117	0x367af386	3.7394652e-06
118	0x386f6264	5.7073674e-05
119	0xb8380bee	-4.388013e-05
120	0xb77d0522	-1.508117e-05
121	0xb7485b57	-1.1942196e-05
122	0xb6758c3b	-3.658947e-06
123	0xb6e5c6f0	-6.847891e-06
124	0xb63b59ed	-2.7917515e-06
125	0x35f71439	1.840882e-06
126	0x2fbe8db3	3.4661482e-10
127	0xb004017f	-4.8023446e-10
128	0xb0907703	-1.0511204e-09
129	0x2fd2e406	3.8360798e-10
130	0xafd64726	-3.8976927e-10
131	0x2fbed72f	3.4713696e-10
132	0x300cc70e	5.1214577e-10
133	0x2f556429	1.9407821e-10
134	0x2ba7d9d3	1.1926522e-12
135	0xb032e89f	-6.5086597e-10
136	0x3109c2d1	2.0046864e-09
137	0xafe92c11	-4.2413764e-10
138	0xae3cdd6a	-4.2942906e-11
139	0x2f4c971b	1.8607375e-10
140	0xb0202abf	-5.8268407e-10
141	0x2d6106eb	1.2791305e-11
142	0xad8a5ca4	-1.5729924e-11
143	0x2aa09387	2.8524077e-13
144	0xb8a93642	-8.068654e-05
145	0x38194cd4	3.6549594e-05
146	0x3822f323	3.885025e-05
147	0xb802b97e	-3.116717e-05
148	0x3865b448	5.4765755e-05
149	0xb85cd1be	-5.2647425e-05
150	0x3798289d	1.8138724e-05
151	0x385b8e92	5.2346448e-05
152	0x37ae0fb1	2.0749723e-05
153	0xb650deb4	-3.1124046e-06
154	0xb695611b	-4.4518506e-06
155	0xb7128f8a	-8.735698e-06
156	0x369aa50c	4.6087716e-06
157	0x364cb3df	3.0503068e-06
158	0x35a13854	1.2011828e-06
159	0x34c8c519	3.739631e-07
160	0x35fec699	1.8982274e-06
161	0x34a410a8	3.05595e-07
162	0xb851a88a	-4.9986447e-05
163	0xb8c1a7e1	-9.234227e-05
164	0x38f903dc	0.00011873964
165	0x384d6a83	4.8975005e-05
166	0xb7c9a125	-2.4036106e-05
167	0x37b5a46c	2.1653446e-05
168	0x3733f03c	1.0725165e-05
169	0x37268239	9.924691e-06
170	0xb7b98086	-2.2113567e-05
171	0xb7bdfeb9	-2.264917e-05
172	0xb8444629	-4.6795383e-05
173	0x384dd236	4.9071583e-05
174	0x37bf9e4b	2.2842685e-05
175	0xb6ef3add	-7.1296076e-06
176	0xb5e72c3e	-1.7223717e-06
177	0x3791215c	1.7300881e-05
178	0x375df848	1.3230434e-05
179	0xb688f309	-4.081409e-06
180	0x2e63612a	5.1700123e-11
181	0xaeb00064	-8.003623e-11
182	0x2ce430f3	6.485584e-12
183	0xabb9b705	-1.3195839e-12
184	0xad4a6ceb	-1.1506555e-11
185	0x2c67e059	3.2951612e-12
186	0x2ab46d65	3.205033e-13
187	0xac7e3b25	-3.6128403e-12
188	0xac6a8f42	-3.3332924e-12
189	0x399c037e	0.0002975724
190	0x39464bf4	0.00018911046
191	0xb967e95d	-0.00022116811
192	0xb8593298	-5.178395e-05
193	0x38af187b	8.34921e-05
194	0xb97eb432	-0.00024290456
195	0xb935c1e8	-0.00017333741
196	0xb8bcfcf8	-9.011658e-05
197	0x37ebb5d3	2.8098852e-05
198	0x36c0662e	5.733941e-06
199	0x36ce307e	6.1449236e-06
200	0xb4bdf5d8	-3.5382868e-07
201	0x35ef645f	1.78361e-06
202	0xb6a20fe6	-4.829827e-06
203	0xb735eb7b	-1.0843268e-05
204	0xb662ed2e	-3.381468e-06
205	0xb69f5b62	-4.7492076e-06
206	0x3705b1d8	7.968825e-06
207	0x31fd6df9	7.3757715e-09
208	0x338711a2	6.289635e-08
209	0x34ddcb85	4.1312538e-07
210	0x3542e20f	7.259959e-07
211	0xb4cbb8c1	-3.7946123e-07
212	0x344ed3b3	1.9262261e-07
213	0xb5955773	-1.1126816e-06
214	0xb5cc72de	-1.5232615e-06
215	0x35a00909	1.1923559e-06
216	0xaabbe399	-3.33758e-13
217	0x2b5b866a	7.7990967e-13
218	0xab06ca28	-4.788691e-13
219	0xaa8bdf2b	-2.4846214e-13
220	0xaa012022	-1.146865e-13
221	0x27d8ab00	6.013744e-15
222	0xa5f8d8fa	-4.316817e-16
223	0xa6416d36	-6.7108335e-16
224	0xa64782a0	-6.9219024e-16
225	0xb5bae6da	-1.3925267e-06
226	0xb70c4e89	-8.362936e-06
227	0x374433bd	1.1694557e-05
228	0x36448f70	2.9289768e-06
229	0xb669ef56	-3.4859017e-06
230	0xb6057a3e	-1.9889699e-06
231	0x35b153d1	1.3211921e-06
232	0x35c252e8	1.4478255e-06
233	0x35acf063	1.288496e-06
234	0x38ac4065	8.2135935e-05
235	0xb9ae7a69	-0.0003327907
236	0xb8235fe7	-3.8951544e-05
237	0x396c1543	0.00022514634
238	0x387b10be	5.9858656e-05
239	0xb7a3adcb	-1.9512043e-05
240	0x38bf782d	9.129974e-05
241	0xb83dc084	-4.5240406e-05
242	0xb74f8f4d	-1.2371526e-05
243	0xb930120f	-0.00016791395
244	0xb8ebba6d	-0.00011240398
245	0x393c956f	0.00017984746
246	0x388388c2	6.27204e-05
247	0x372e99c1	1.0407007e-05
248	0x37cc2a2b	2.4338331e-05
249	0x3890b119	6.899442e-05
250	0xb772ddbf	-1.4475953e-05
251	0xb6161ddb	-2.236912e-06
252	0x389999ca	7.324254e-05
253	0x38c74fb3	9.5039046e-05
254	0xb8e4ca4b	-0.00010909567
255	0xb7dba30a	-2.6182755e-05

exp_avg_sq f4 [2048, 9]
0	0x31089322	1.987424e-09
1	0x3192c4c5	4.2715294e-09
2	0x315bd6fb	3.1990897e-09
3	0x3125da4e	2.4134752e-09
4	0x311e747d	2.3058242e-09
5	0x308c69eb	1.0216444e-09
6	0x30334c78	6.522849e-10
7	0x304917c4	7.3157147e-10
8	0x301c324b	5.682394e-10
9	0x31e888ab	6.767626e-09
10	0x32bcb4a8	2.1968233e-08
11	0x32b390ce	2.0904192e-08
12	0x31569b77	3.122947e-09
13	0x31a4e091	4.7985584e-09
14	0x3167fbe0	3.3758099e-09
15	0x312e2b79	2.5345044e-09
16	0x31364d72	2.6528508e-09
17	0x30c5a9a2	1.4381849e-09
18	0x2ec481a8	8.93608e-11
19	0x2f28594b	1.5311234e-10
20	0x2eae3182	7.921398e-11
21	0x2e54eb2e	4.84121e-11
22	0x2e4d21e3	4.66417e-11
23	0x2e6b8aa5	5.3555955e-11
24	0x2e2cbd6b	3.927651e-11
25	0x2e503525	4.7340926e-11
26	0x2dcf9e5a	2.3603498e-11
27	0x30704b42	8.741844e-10
28	0x30d4a5a8	1.5472112e-09
29	0x3087be82	9.876688e-10
30	0x2fa44ec1	2.9887384e-10
31	0x3051cbe1	7.6323486e-10
32	0x3000ac91	4.681136e-10
33	0x2f411a88	1.7562674e-10
34	0x2f424557	1.7668832e-10
35	0x2f15dacf	1.3629207e-10
36	0x2e8d73f7	6.432537e-11
37	0x2f7642f7	2.239736e-10
38	0x2ebe5db0	8.656842e-11
39	0x2de3e0ee	2.5906801e-11
40	0x2e848f7a	6.0281516e-11
41	0x2e598f0f	4.946715e-11
42	0x2e4dfbf9	4.68354e-11
43	0x2e11e322	3.3170917e-11
44	0x2d99517f	1.7430278e-11
45	0x361abeb1	2.3058785e-06
46	0x3682508d	3.8836793e-06
47	0x3757184d	1.2820657e-05
48	0x3605a172	1.9912518e-06
49	0x35f113b9	1.7961639e-06
50	0x35970760	1.1252523e-06
51	0x35565f94	7.9860297e-07
52	0x356b5332	8.7665387e-07
53	0x35276dc7	6.2372095e-07
54	0x3310b060	3.3688025e-08
55	0x32f4f646	2.851733e-08
56	0x32da2362	2.539463e-08
57	0x31eda38c	6.916201e-09
58	0x32a00876	1.8630299e-08
59	0x32519f86	1.2201673e-08
60	0x31fc5930	7.3443047e-09
61	0x31c94ea1	5.858809e-09
62	0x318eeedc	4.159899e-09
63	0x36dfe565	6.672623e-06
64	0x36c7e699	5.9575073e-06
65	0x35d50c2d	1.587328e-06
66	0x356186ac	8.4015005e-07
67	0x360633c0	1.9997678e-06
68	0x35935c84	1.0979279e-06
69	0x352a9893	6.355196e-07
70	0x35a6a729	1.2416614e-06
71	0x34e2b95e	4.2230653e-07
72	0x332127c7	3.752191e-08
73	0x337812ee	5.7759216e-08
74	0x33351f4c	4.217081e-08
75	0x3316841a	3.5044742e-08
76	0x34397990	1.7273692e-07
77	0x3307c00c	3.1606803e-08
78	0x324f58c7	1.2069171e-08
79	0x3251b857	1.2207315e-08
80	0x3233fedb	1.0477119e-08
81	0x3103d510	1.918412e-09
82	0x318aa007	4.0345216e-09
83	0x316c4b27	3.438524e-09
84	0x30b48b3e	1.3136299e-09
85	0x30e10434	1.6372099e-09
86	0x30be4960	1.3845174e-09
87	0x30896b1e	9.998506e-10
88	0x306087d5	8.1683754e-10
89	0x309b0a7c	1.1280714e-09
90	0x332e7c87	4.062579e-08
91	0x32bf5e7a	2.227829e-08
92	0x321371c3	8.582393e-09
93	0x319c121c	4.5422563e-09
94	0x31d344f1	6.148746e-09
95	0x318f5b54	4.1722306e-09
96	0x318e00c0	4.132829e-09
97	0x322fe1e0	1.0237699e-08
98	0x318778e6	3.9427617e-09
99	0x3238d302	1.0758187e-08
100	0x3264e285	1.3322851e-08
101	0x33185280	3.546529e-08
102	0x31b4f483	5.2664872e-09
103	0x32812ec3	1.5038841e-08
104	0x31bdea72	5.5272773e-09
105	0x3181638c	3.7657113e-09
106	0x31b14553	5.1592592e-09
107	0x314dd24e	2.995097e-09
108	0x31bb4e76	5.4513363e-09
109	0x32a07f23	1.8684267e-08
110	0x32848ad5	1.5429956e-08
111	0x31280ade	2.4453395e-09
112	0x318a7c01	4.030426e-09
113	0x3136e184	2.6612677e-09
114	0x310e5955	2.07145e-09
115	0x3116ed5e	2.19628e-09
116	0x308706f5	9.82452e-10
117	0x339107fc	6.753541e-08
118	0x342bdbd6	1.6005592e-07
119	0x34185beb	1.4189543e-07
120	0x32cc0ed1	2.3755463e-08
121	0x339074e7	6.726787e-08
122	0x3317ff31	3.5389522e-08
123	0x32f3e4ee	2.8393028e-08
124	0x32e80824	2.7012057e-08
125	0x324ec207	1.2034895e-08
126	0x2e103e90	3.2797376e-11
127	0x2e5882f9	4.922904e-11
128	0x2e072a5e	3.0733076e-11
129	0x2da723d5	1.9001615e-11
130	0x2e040756	3.001984e-11
131	0x2d8c0578	1.5918586e-11
132	0x2d11a1d9	8.278233e-12
133	0x2cfad0e1	7.1286176e-12
134	0x2d109483	8.2184285e-12
135	0x30a60980	1.208079e-09
136	0x318f52ce	4.1712616e-09
137	0x313a21c7	2.7085763e-09
138	0x30168178	5.475367e-10
139	0x3093c5e8	1.0751906e-09
140	0x30c3bcde	1.4241797e-09
141	0x2fd45bb2	3.862773e-10
142	0x2fff6c24	4.6461068e-10
143	0x2f77afc2	2.2526961e-10
144	0x3497a005	2.824237e-07
145	0x355607f5	7.973279e-07
146	0x354d3ce9	7.6457087e-07
147	0x340c7693	1.3081653e-07
148	0x3491ea71	2.7178933e-07
149	0x34432a99	1.8176287e-07
150	0x33fa275f	1.1648694e-07
151	0x340d4be6	1.315926e-07
152	0x3349af25	4.6958252e-08
153	0x335a9d40	5.09001e-08
154	0x339ed96a	7.396996e-08
155	0x33bd7d8e	8.8238366e-08
156	0x3297804d	1.7637058e-08
157	0x32b810da	2.1428082e-08
158	0x32a9819a	1.9733125e-08
159	0x327bf2b3	1.4665306e-08
160	0x324aacf1	1.179727e-08
161	0x32076654	7.881301e-09
162	0x34b73ed9	3.4132134e-07
163	0x35b39a19	1.3381388e-06
164	0x35d043f0	1.551698e-06
165	0x33f5f487	1.1453181e-07
166	0x3483dcbe	2.4561263e-07
167	0x341315b5	1.3698339e-07
168	0x345b710c	2.043709e-07
169	0x344c811f	1.9045955e-07
170	0x3418f72e	1.4246027e-07
171	0x3384fef7	6.193107e-08
172	0x349a43ec	2.8734155e-07
173	0x345b9112	2.044874e-07
174	0x3393978a	6.872786e-08
175	0x33f888ee	1.1573307e-07
176	0x331bb6cc	3.6255003e-08
177	0x32d2ddef	2.4548141e-08
178	0x32d7754a	2.5082631e-08
179	0x3293e3c6	1.7216632e-08
180	0x2ff972f9	4.537453e-10
181	0x3092ecae	1.0690167e-09
182	0x30500378	7.567489e-10
183	0x2f867158	2.4454994e-10
184	0x2fa8089e	3.0565145e-10
185	0x2f925036	2.6614239e-10
186	0x2f311e30	1.6108781e-10
187	0x2f172017	1.374477e-10
188	0x2f121f22	1.3289683e-10
189	0x36a4f703	4.916337e-06
190	0x3746437d	1.1817433e-05
191	0x376c170f	1.4072065e-05
192	0x35e9860e	1.7398868e-06
193	0x36f7c80a	7.3844612e-06
194	0x36407332	2.8677282e-06
195	0x36e529e8	6.8296104e-06
196	0x36decd91	6.6400466e-06
197	0x3684aa56	3.9537363e-06
198	0x33605328	5.2229694e-08
199	0x3382cad0	6.090488e-08
200	0x3347133b	4.6350788e-08
201	0x3306903d	3.133049e-08
202	0x3335fff4	4.2375135e-08
203	0x32d61a66	2.4924883e-08
204	0x32c3d8c7	2.2799567e-08
205	0x32d518dd	2.480777e-08
206	0x328557b2	1.5523117e-08
207	0x3303d907	3.06982e-08
208	0x330ff570	3.3518006e-08
209	0x32f392f9	2.8355759e-08
210	0x32802ab5	1.4920582e-08
211	0x329643d7	1.7493148e-08
212	0x326ed32c	1.3901438e-08
213	0x3285e670	1.5588029e-08
214	0x3287892c	1.5778447e-08
215	0x32247759	9.573193e-09
216	0x2fb3412d	3.260622e-10
217	0x2fc2d7fe	3.5441866e-10
218	0x2fc855c7	3.6440737e-10
219	0x2fa4270f	2.985918e-10
220	0x2f5f4b97	2.0308587e-10
221	0x2f11397a	1.3208093e-10
222	0x2ec51263	8.961789e-11
223	0x2e92f718	6.683204e-11
224	0x2eb20cf2	8.0968024e-11
225	0x3291fa29	1.6993981e-08
226	0x33a2c12d	7.578851e-08
227	0x338415b0	6.150674e-08
228	0x322557e8	9.624252e-09
229	0x32ba5e1c	2.1696046e-08
230	0x324fe51d	1.210108e-08
231	0x31bd4f14	5.509614e-09
232	0x31ae5706	5.07396e-09
233	0x31935938	4.288406e-09
234	0x35dc7311	1.6424766e-06
235	0x3591496b	1.0824709e-06
236	0x35a5d657	1.2355839e-06
237	0x358905a3	1.0208936e-06
238	0x3553ee41	7.895033e-07
239	0x351557f4	5.5634814e-07
240	0x34c6ee13	3.7053596e-07
241	0x34d8f8cf	4.0414167e-07
242	0x3463f796	2.1231094e-07
243	0x351b2c57	5.780652e-07
244	0x35a69234	1.2410515e-06
245	0x354cc8b4	7.6287984e-07
246	0x34b9fd2f	3.464315e-07
247	0x351fb529	5.949574e-07
248	0x350b3642	5.186049e-07
249	0x346fe99f	2.23436e-07
250	0x3468948a	2.1660722e-07
251	0x33e4ea3f	1.06596865e-07
252	0x34cc703b	3.807962e-07
253	0x359bb843	1.1602027e-06
254	0x35b1e5e8	1.3254439e-06
255	0x351c3d54	5.820377e-07

exp_avg f4 [2048]
0	0xb115e1c6	-2.181069e-09
1	0xb58dffef	-1.0579805e-06
2	0xb6ed6fec	-7.07618e-06
3	0xac3f48db	-2.7183175e-12
4	0xb4c46e8d	-3.658828e-07
5	0x392bb112	0.00016373795
6	0x35cae807	1.5117702e-06
7	0xb8e9f8ff	-0.00011156685
8	0x37122a22	8.712088e-06
9	0xb23286a7	-1.039158e-08
10	0xb5904534	-1.0748977e-06
11	0xb6175660	-2.255103e-06
12	0xb4de619e	-4.1421748e-07
13	0xb854610b	-5.0635117e-05
14	0xb1e5d237	-6.688676e-09
15	0xb1f98d59	-7.262923e-09
16	0xb737117a	-1.0911719e-05
17	0xb5c85e9b	-1.4928695e-06
18	0xb9184f8d	-0.00014525485
19	0xb88058f9	-6.120088e-05
20	0xb002da91	-4.7604326e-10
21	0xb7ec1333	-2.8142333e-05
22	0x3680805f	3.8296416e-06
23	0xb656c797	-3.2004662e-06
24	0xac67fc6b	-3.2967195e-12
25	0xb7590c0e	-1.2937015e-05
26	0x39be27a2	0.00036269153
27	0xb95f5b22	-0.00021300887
28	0xb8b5b7fe	-8.665024e-05
29	0x377eeac0	1.5194237e-05
30	0x92bd3b0a	-1.1942131e-27
31	0xb4c3f054	-3.6496442e-07
32	0x37551047	1.2699579e-05
33	0xb9ff5cc4	-0.00048706506
34	0x3a65679e	0.0008751097
35	0x3793eff6	1.7635506e-05
36	0xa9c3c847	-8.694482e-14
37	0xb40f2dfb	-1.333464e-07
38	0xaf9ad9d9	-2.8167227e-10
39	0x3ad7a9ea	0.0016453837
40	0xb13c7e97	-2.7429559e-09
41	0x39fda9da	0.0004838247
42	0xb42bda35	-1.6004999e-07
43	0xb4b26784	-3.32304e-07
44	0xb897463b	-7.2133225e-05
45	0xa6860938	-9.300617e-16
46	0xaf923412	-2.6594243e-10
47	0xb282a59b	-1.52093e-08
48	0xa7c3102b	-5.41409e-15
49	0x3649b04c	3.0053952e-06
50	0xb979f664	-0.00023838278
51	0xb9237cc4	-0.0001559137
52	0x390d181f	0.00013455794
53	0xb7a229e4	-1.9331412e-05
54	0x3946cc38	0.00018958829
55	0xb1a0bd77	-4.6781525e-09
56	0xb7246efe	-9.801004e-06
57	0xb50923ae	-5.10884e-07
58	0xab54925a	-7.5520634e-13
59	0xb919771a	-0.00014635586
60	0xabb81891	-1.3080805e-12
61	0x38b8819c	8.797945e-05
62	0xae3b4df4	-4.2588114e-11
63	0xb158cb9b	-3.1547873e-09
64	0xb4e8baf1	-4.3349385e-07
65	0xb69574bc	-4.4541357e-06
66	0xb51e2cc5	-5.8924735e-07
67	0xb5470e02	-7.415366e-07
68	0x9f28437d	-3.563121e-20
69	0xacc73dbe	-5.662775e-12
70	0xa60474a4	-4.5954777e-16
71	0x37a1712e	1.9245399e-05
72	0xb95b57d9	-0.00020918193
73	0x39066b66	0.00012819245
74	0x3a0b924f	0.0005324231
75	0xb2b22c16	-2.0741975e-08
76	0xae181e5e	-3.458777e-11
77	0x36646fe5	3.4039779e-06
78	0x374c7c85	1.21883395e-05
79	0xae0bd690	-3.179551e-11
80	0xaeb51e6a	-8.23633e-11
81	0x39d98205	0.00041486337
82	0xaf0987e2	-1.2508353e-10
83	0xb2c221b8	-2.2599906e-08
84	0xada46716	-1.869042e-11
85	0xafe1daac	-4.1082637e-10
86	0xb5a69bd4	-1.2413316e-06
87	0x392759a0	0.00015959749
88	0xb484f395	-2.4764145e-07
89	0xa7a3caee	-4.5461605e-15
90	0x3927c9a3	0.00016001477
91	0xb22ab6a2	-9.936828e-09
92	0xb6fb805d	-7.4953264e-06
93	0x3136fd05	2.662831e-09
94	0xb8e42062	-0.00010877919
95	0xad8a560a	-1.5726993e-11
96	0xa28b8e2b	-3.782655e-18
97	0xb5c9df05	-1.5040574e-06
98	0xb40cfd13	-1.3130584e-07
99	0x3926b67f	0.00015898979
100	0xb22ac188	-9.939306e-09
101	0xb405cea1	-1.2461761e-07
102	0x372b77b9	1.0220269e-05
103	0xb87dfaba	-6.0553408e-05
104	0xa9ae115b	-7.730163e-14
105	0x38b94960	8.8351546e-05
106	0x395f753d	0.00021310612
107	0x39800799	0.00024419723
108	0xabe112b4	-1.5992403e-12
109	0xa7abdcef	-4.770157e-15
110	0xb1063e59	-1.9535007e-09
111	0x3928279b	0.00016036483
112	0x37fd4955	3.0194098e-05
113	0x3a90a148	0.0011034394
114	0xa94dd043	-4.5699782e-14
115	0x3975712b	0.00023407179
116	0xb5ca10c4	-1.5055052e-06
117	0x37c84aa1	2.387661e-05
118	0xb0c0f5ed	-1.4039735e-09
119	0xb1c7d671	-5.8160414e-09
120	0x39de5a05	0.0004241021
121	0xb9903d2a	-0.0002751139
122	0xad59d2ca	-1.23818265e-11
123	0xa38e6efe	-1.5442678e-17
124	0xb1c0076a	-5.5887783e-09
125	0x9514bd3c	-3.0037642e-26
126	0xb08e5e0c	-1.035859e-09
127	0x390473f8	0.00012631703
128	0xb73facd8	-1.14247305e-05
129	0xb121d23b	-2.3548086e-09
130	0x3a209036	0.0006125005
131	0xa29d69e0	-4.2667035e-18
132	0xb801c777	-3.0941763e-05
133	0xad5abd35	-1.2433878e-11
134	0xb8a723b2	-7.969829e-05
135	0xae4ea87f	-4.6988632e-11
136	0x88e44ffa	-1.3741053e-33
137	0xb6199093	-2.288293e-06
138	0xb9a6c0ea	-0.0003180572
139	0xb5a161e2	-1.2023922e-06
140	0xb9b68c07	-0.00034818074
141	0xb9584411	-0.00020624722
142	0xb4e2948b	-4.220386e-07
143	0xb4933036	-2.7415962e-07
144	0xb4715258	-2.247483e-07
145	0xb838f8ec	-4.4100845e-05
146	0xb93ba910	-0.0001789669
147	0xb10402c6	-1.9210105e-09
148	0xb20caa41	-8.187784e-09
149	0x38d623c4	0.00010210977
150	0x3785c8cd	1.594834e-05
151	0xb369d7a2	-5.4445657e-08
152	0xb11d9070	-2.292861e-09
153	0xb9747321	-0.00023312542
154	0xb103499b	-1.9104849e-09
155	0xb27c0fe5	-1.46719445e-08
156	0x378ed2fe	1.702597e-05
157	0xb5ff4d52	-1.9021484e-06
158	0xb98d247b	-0.00026920796
159	0xa9d2fba0	-9.3695234e-14
160	0xab69496d	-8.288013e-13
161	0xab28d57c	-5.998186e-13
162	0xb0741090	-8.879022e-10
163	0xae693659	-5.3026337e-11
164	0xb999fa09	-0.00029368725
165	0x34cb265e	3.7839612e-07
166	0xaedc6f10	-1.00241704e-10
167	0xacc8eb0f	-5.7104386e-12
168	0xad24cded	-9.368045e-12
169	0xb8a3db76	-7.8133235e-05
170	0xb320b2f5	-3.7415663e-08
171	0x93a2338f	-4.094539e-27
172	0x38b253fc	8.503345e-05
173	0xb1f596a4	-7.1475643e-09
174	0xb7c279e7	-2.3183367e-05
175	0xb3cef04d	-9.636333e-08
176	0x363312e5	2.6684077e-06
177	0x37d7fddd	2.5748212e-05
178	0x361abc83	2.3057517e-06
179	0xb86c50c4	-5.6342004e-05
180	0xb4028292	-1.2154695e-07
181	0xad4f5392	-1.1785144e-11
182	0xb0d07fa2	-1.5170267e-09
183	0xa76fd7cf	-3.3284903e-15
184	0xb61412e9	-2.2064726e-06
185	0xb3027990	-3.0378544e-08
186	0xb7f32e59	-2.898944e-05
187	0xb1569566	-3.1226022e-09
188	0xb52c7b28	-6.425421e-07
189	0xafd03784	-3.7874426e-10
190	0x3aa142ab	0.0012303194
191	0x3a11523e	0.0005543566
192	0xb26eac82	-1.3892647e-08
193	0xa69b23a8	-1.076495e-15
194	0x36ebe8a2	7.030628e-06
195	0xada7a960	-1.906092e-11
196	0xb9117cd3	-0.00013874778
197	0xb2781ac7	-1.4441588e-08
198	0xb5853fcb	-9.927838e-07
199	0xb6968c4d	-4.4866815e-06
200	0xb97983c7	-0.00023795581
201	0xb308d7cd	-3.1861237e-08
202	0xb4cc1154	-3.801057e-07
203	0x38ec3c5a	0.00011264598
204	0x3832daab	4.2642157e-05
205	0xaf2c0b8c	-1.5647411e-10
206	0x381128af	3.4608584e-05
207	0xadef6441	-2.7215676e-11
208	0xb8049362	-3.1608513e-05
209	0x347bd103	2.3452235e-07
210	0x9ea5fdff	-1.7575105e-20
211	0x39d3bdb1	0.00040386387
212	0xb8b8ccbd	-8.811939e-05
213	0x396b2948	0.00022426725
214	0xa5d1c3f6	-3.638851e-16
215	0xb60b2f74	-2.0740235e-06
216	0xacc9ffbc	-5.741156e-12
217	0x3a22f3db	0.0006216147
218	0xb4e4a5ff	-4.2589087e-07
219	0x39278222	0.0001597484
220	0xa71d75f7	-2.1852076e-15
221	0xb13fe8df	-2.792653e-09
222	0xae04b94b	-3.01779e-11
223	0x37da4fdc	2.6024813e-05
224	0xb3983dd9	-7.0893016e-08
225	0x33febe92	1.1862461e-07
226	0xb8ab2478	-8.160708e-05
227	0xb49c6fec	-2.9138698e-07
228	0xac2191cf	-2.2960416e-12
229	0xb64e284f	-3.0719855e-06
230	0xb9fd27a0	-0.00048285443
231	0x38bc664a	8.9835914e-05
232	0xb262d392	-1.3203037e-08
233	0xb8572bfc	-5.1300958e-05
234	0xb61d35ed	-2.3426212e-06
235	0xaf31704e	-1.6137955e-10
236	0xb64e85c1	-3.0774247e-06
237	0xb0bf1105	-1.3901916e-09
238	0xb274e716	-1.4255212e-08
239	0xb64209c9	-2.8913948e-06
240	0xb0e2b81e	-1.6495993e-09
241	0x9e8c9a14	-1.4886802e-20
242	0xba29493b	-0.00064577506
243	0xb1bc7787	-5.485109e-09
244	0xb4110fc6	-1.3509916e-07
245	0x3978496e	0.00023678478
246	0xab0a711e	-4.918443e-13
247	0xb6d81b9d	-6.4405162e-06
248	0xb5d28d18	-1.5687283e-06
249	0xb6e35f6b	-6.7762353e-06
250	0xb676fc67	-3.6803774e-06
251	0xb30569f1	-3.106283e-08
252	0xb5ee590e	-1.77583e-06
253	0xa98a2608	-6.1350285e-14
254	0xa98c129b	-6.2204765e-14
255	0xb9bb8e5b	-0.00035773483

exp_avg_sq f4 [2048]
0	0x316f37e8	3.4810856e-09
1	0x329a8611	1.7988926e-08
2	0x2f645580	2.0766855e-10
3	0x30ab62af	1.2469935e-09
4	0x2f4195e6	1.7606502e-10
5	0x379ca612	1.8673982e-05
6	0x32da879b	2.5440206e-08
7	0x37498454	1.2011344e-05
8	0x34924881	2.7247373e-07
9	0x31a3523c	4.7532733e-09
10	0x331c3394	3.636849e-08
11	0x333c0654	4.3777916e-08
12	0x325a19eb	1.2695163e-08
13	0x3421671c	1.5031804e-07
14	0x2edb537d	9.9737975e-11
15	0x3131a235	2.5849094e-09
16	0x357a1553	9.316329e-07
17	0x3425ea38	1.5452031e-07
18	0x35bd3fa2	1.4100117e-06
19	0x34bf973f	3.5686568e-07
20	0x3023c190	5.9574123e-10
21	0x38340314	4.291821e-05
22	0x33f0e062	1.1216686e-07
23	0x33651bc6	5.3343477e-08
24	0x2fac7005	3.1366212e-10
25	0x33bd5843	8.817053e-08
26	0x36f94460	7.428738e-06
27	0x3516c240	5.6162025e-07
28	0x366713d2	3.443322e-06
29	0x3454c96a	1.9817313e-07
30	0x2f3f3d1b	1.7393058e-10
31	0x327ca3b5	1.4705553e-08
32	0x3507230b	5.0342413e-07
33	0x37edb0aa	2.8334867e-05
34	0x3828c43b	4.0237075e-05
35	0x340e0b17	1.3228815e-07
36	0x3082ea3c	9.525318e-10
37	0x324821e2	1.1649236e-08
38	0x30280ef4	6.1139294e-10
39	0x3885ef6c	6.38653e-05
40	0x30f3c6f6	1.7737125e-09
41	0x36e73dd0	6.8915324e-06
42	0x31ccf5ae	5.965112e-09
43	0x323f6fe5	1.1143105e-08
44	0x34a2bb5d	3.0311176e-07
45	0x30261aba	6.042843e-10
46	0x300f1ec5	5.2066823e-10
47	0x32192118	8.913297e-09
48	0x3036afa1	6.64608e-10
49	0x34175bb8	1.4096338e-07
50	0x37c7e34a	2.3828488e-05
51	0x358c4ddf	1.0453476e-06
52	0x36145574	2.2103459e-06
53	0x33a7cf39	7.814237e-08
54	0x34d390ba	3.9407115e-07
55	0x3176fd54	3.5941712e-09
56	0x36185f9d	2.270542e-06
57	0x32d5293d	2.4815217e-08
58	0x30947d40	1.0804015e-09
59	0x35ef3dee	1.7824912e-06
60	0x309c1e3b	1.1359086e-09
61	0x37bfa84d	2.2847345e-05
62	0x3104072c	1.9212605e-09
63	0x31687ff4	3.3833176e-09
64	0x324a7f83	1.178694e-08
65	0x341f282c	1.4822643e-07
66	0x327c8f4d	1.4700913e-08
67	0x3270bfa5	1.40134135e-08
68	0x2fb66c2b	3.3182465e-10
69	0x308365c6	9.56043e-10
70	0x30209dae	5.843174e-10
71	0x30b43b18	1.3113519e-09
72	0x3632e83b	2.6659243e-06
73	0x35591959	8.0875685e-07
74	0x380133e2	3.0804316e-05
75	0x31a0bbea	4.6779762e-09
76	0x30e76b0f	1.683789e-09
77	0x339ab16e	7.203458e-08
78	0x34c084e7	3.5859486e-07
79	0x30ec9749	1.7214258e-09
80	0x3109bd71	2.0043809e-09
81	0x37ab6adc	2.0434549e-05
82	0x3002c09a	4.756743e-10
83	0x31b897ff	5.3723848e-09
84	0x310b132b	2.0238058e-09
85	0x3184d53b	3.865947e-09
86	0x332b2a39	3.985244e-08
87	0x35db9cb8	1.6362383e-06
88	0x337cfe83	5.89048e-08
89	0x304494c0	7.151577e-10
90	0x36cd716c	6.12268e-06
91	0x31a6f972	4.8595945e-09
92	0x33c5c6c9	9.209686e-08
93	0x2eb41278	8.188733e-11
94	0x34cbc953	3.795818e-07
95	0x2f4605b4	1.8010021e-10
96	0x2efcc393	1.1494374e-10
97	0x331959d7	3.5704797e-08
98	0x322e4aee	1.014517e-08
99	0x34e9c63c	4.3543866e-07
100	0x31a1817f	4.7004387e-09
101	0x322dd3a4	1.0118047e-08
102	0x35c99cf3	1.5021345e-06
103	0x3406a5b4	1.2540005e-07
104	0x2fc00b47	3.493261e-10
105	0x37a0b0eb	1.915587e-05
106	0x3787f62f	1.6207892e-05
107	0x3503c3e2	4.908635e-07
108	0x2f9ad85c	2.816617e-10
109	0x30489f05	7.2985556e-10
110	0x31933695	4.2844683e-09
111	0x3503bba4	4.9074356e-07
112	0x35767c63	9.182315e-07
113	0x385317f0	5.0328614e-05
114	0x3083a8be	9.579464e-10
115	0x3660b62b	3.3484637e-06
116	0x370b0f0f	8.288552e-06
117	0x34e68725	4.293917e-07
118	0x314ad125	2.9513754e-09
119	0x319e9ba3	4.616099e-09
120	0x374dbeaa	1.2263345e-05
121	0x35f976b0	1.8586488e-06
122	0x30314555	6.449075e-10
123	0x2f5d1f7f	2.0111023e-10
124	0x30c447c4	1.4281274e-09
125	0x2f443edc	1.7848428e-10
126	0x31452155	2.868622e-09
127	0x38505d82	4.967815e-05
128	0x35234838	6.0827324e-07
129	0x3159a28b	3.167005e-09
130	0x380c0b76	3.3389275e-05
131	0x2fea626a	4.263428e-10
132	0x3411fd0a	1.3596232e-07
133	0x310401dc	1.9209585e-09
134	0x34d41d66	3.9509467e-07
135	0x31027bdf	1.8987902e-09
136	0x2f007ee0	1.1686607e-10
137	0x311342aa	2.142921e-09
138	0x37b9ac1f	2.2133869e-05
139	0x32f1ae5d	2.8135384e-08
140	0x36590552	3.2338617e-06
141	0x36f13b7e	7.1892855e-06
142	0x3247fdd0	1.1641035e-08
143	0x325ad869	1.2738476e-08
144	0x32755c9e	1.4281936e-08
145	0x361f1a26	2.3708067e-06
146	0x360d378f	2.1042977e-06
147	0x2ed270bf	9.569722e-11
148	0x30e8e188	1.6944322e-09
149	0x372c6c7b	1.02772565e-05
150	0x34c65692	3.6943362e-07
151	0x321d80b3	9.167866e-09
152	0x316a74de	3.4117913e-09
153	0x35d65939	1.597021e-06
154	0x314cb4c6	2.9788665e-09
155	0x320b390a	8.103834e-09
156	0x34c7ddab	3.7227923e-07
157	0x2e97a51f	6.8960164e-11
158	0x371f89b9	9.509205e-06
159	0x3059cb0e	7.92327e-10
160	0x30a69e9c	1.2123169e-09
161	0x2fad8866	3.1565434e-10
162	0x3133bbba	2.6154638e-09
163	0x312e69a0	2.5380373e-09
164	0x3607c801	2.0232985e-06
165	0x328e25e0	1.65482e-08
166	0x303d4926	6.886175e-10
167	0x30c9a918	1.4672734e-09
168	0x3082a37d	9.505211e-10
169	0x36993cc2	4.5668285e-06
170	0x31aef804	5.0922626e-09
171	0x2f454b6e	1.7943844e-10
172	0x35159383	5.5721483e-07
173	0x31b719e7	5.3289457e-09
174	0x3550f25d	7.7838723e-07
175	0x32254a41	9.621147e-09
176	0x34189922	1.4211813e-07
177	0x34aaeea6	3.1838607e-07
178	0x318f45f7	4.169802e-09
179	0x348085d0	2.393922e-07
180	0x320f1941	8.329438e-09
181	0x3021cdfc	5.886418e-10
182	0x302ead4e	6.354711e-10
183	0x30335d8c	6.525276e-10
184	0x2f254ac0	1.5033219e-10
185	0x31ed3d24	6.9045587e-09
186	0x356ab199	8.743023e-07
187	0x2f127dbf	1.3323297e-10
188	0x33be547d	8.862933e-08
189	0x31260c24	2.416308e-09
190	0x38a682b1	7.93984e-05
191	0x37bfcbe6	2.2863922e-05
192	0x3194c8dd	4.3302024e-09
193	0x302f9d3b	6.3888067e-10
194	0x33e35b4c	1.0587118e-07
195	0x30095f99	4.997616e-10
196	0x356ec6a1	8.895095e-07
197	0x319bacdd	4.530746e-09
198	0x33405612	4.4781764e-08
199	0x3223e972	9.540928e-09
200	0x35930589	1.0953964e-06
201	0x2f75c3aa	2.2352134e-10
202	0x32e270f4	2.6361228e-08
203	0x359cd0ec	1.168371e-06
204	0x34b66e57	3.3980425e-07
205	0x30871cbf	9.830713e-10
206	0x3558ddc9	8.078901e-07
207	0x2ffe51e0	4.6260507e-10
208	0x3469851e	2.1748244e-07
209	0x32b01937	2.0500563e-08
210	0x2fc1881a	3.5203201e-10
211	0x3854f81a	5.07758e-05
212	0x36528471	3.136953e-06
213	0x364b2105	3.0268577e-06
214	0x3026e023	6.0708966e-10
215	0x33718034	5.6228785e-08
216	0x30418aae	7.0410067e-10
217	0x379fc1b2	1.9044473e-05
218	0x3201dc4e	7.55888e-09
219	0x34e9f3b1	4.357694e-07
220	0x3039a494	6.753649e-10
221	0x2f7ae050	2.281706e-10
222	0x30ba6ad9	1.3563649e-09
223	0x34e0d77d	4.188004e-07
224	0x321af882	9.020484e-09
225	0x30e3f7bf	1.6586837e-09
226	0x348244db	2.4264486e-07
227	0x2f1bfe5d	1.4187536e-10
228	0x2fd9e9f9	3.9638318e-10
229	0x336019e6	5.217762e-08
230	0x3772e8de	1.4478543e-05
231	0x3516c65d	5.616801e-07
232	0x319367b5	4.290053e-09
233	0x343acb26	1.7396505e-07
234	0x332129cc	3.7523748e-08
235	0x31137922	2.1460171e-09
236	0x33b61beb	8.480114e-08
237	0x31624381	3.29257e-09
238	0x31e07b43	6.5332713e-09
239	0x33c7b9b9	9.3004424e-08
240	0x30b1ca14	1.2935879e-09
241	0x2fbc1d73	3.4217926e-10
242	0x3724774c	9.802938e-06
243	0x3187c4a5	3.951373e-09
244	0x3219bc5e	8.948602e-09
245	0x36200187	2.3842747e-06
246	0x3028e4c1	6.1443123e-10
247	0x3598fa23	1.1397682e-06
248	0x32dc618d	2.5655732e-08
249	0x3430ca34	1.6464838e-07
250	0x36daad3b	6.517073e-06
251	0x321b3237	9.033605e-09
252	0x31ccc73f	5.959833e-09
253	0x2fcc1659	3.7123263e-10
254	0x3069eae4	8.5098706e-10
255	0x37e81da1	2.7670352e-05
