Results/UCI-HAR/Ablation experiments/Time_domain/best.pth (torch, 596209 bytes, 132 tensors)

exp_avg f4 [27, 9]
00000000: e282 3a2f 54fc c02d 393f 3b2f faaf ad30
00000010: 8d29 93b0 707e 06b0 3b8b 5bb2 38cd 0d31
00000020: 176f 0db2 19cf 771d 803d 371c cfb5 969d
00000030: 5da1 8d9e 60f2 051e 91cc f91c d1bc 1121
00000040: 4856 221f 7fbc 7e1f aea7 d7b0 cc18 57b1
00000050: f828 e4af bc17 12b2 32c4 1631 5863 3631
00000060: 0d07 4133 94b6 f931 7226 8532 f7b3 192d
00000070: fd6a 522f ae4e 092f 125a 1631 1209 0730
00000080: 737a 35ad 179f 34b2 5df6 6430 48cb d8b1
00000090: fba5 1bae 9242 392e 2fdf 3c2d 9591 2f30
000000a0: 6c77 96af 1d6b 01af 5614 42b1 2040 7e2f
000000b0: 8c51 b9b0 726a d515 d844 ce16 9051 8b96
000000c0: 3a86 5c97 11de 4417 7124 f295 c7b3 c019
000000d0: 36c4 fb17 bad4 b617 67ec a630 191c 3d31
000000e0: 4754 01b0 ad13 f3b0 ee1f 8530 f947 5daf
000000f0: c75d 3434 a710 a532 cc91 9332 3e01 beb1
00000100: 68be afb1 1d92 db31 1b50 c531 d8b2 91b1
00000110: 5319 0131 ab39 e4b4 9671 9c31 d3c8 72b3
00000120: 252f d42e db5a 45ae 119a 4dad d8cb 9ab0
00000130: bd71 f02f 40e5 4a2f a3cd 8031 1d69 eeaf
00000140: 11b7 1831 e8a8 4c31 d586 18b0 1708 fcaf
00000150: 8af6 5eb0 f2d4 5431 7f52 4330 9db6 5332
00000160: 7300 01b2 1419 8eb2 2c23 d81f c4ce 8e9e
00000170: 2c80 471d f4f7 27a0 3679 851e 53a8 8f9d
00000180: 4998 fe20 e765 c5a0 f4d9 1ea1 259e e831
00000190: 5b9d 8db1 d695 81b0 129a 0f31 3ea2 f532
000001a0: 69c9 b630 46e1 87b3 e5eb c832 2afd e3b2
000001b0: 80eb fc30 ec1b 84af 43b9 a3af 50a9 abaf
000001c0: cd31 9b31 3047 07b1 2dc6 2b32 b0ff 81b2
000001d0: cde2 f4b2 bd97 2a2f 57d3 8cae f0e3 8e2e
000001e0: 14c5 a62e d4b0 2630 b0ea d2ae ee32 1131
000001f0: a614 fdb0 3062 76b1 4724 1018 e3f3 a415
00000200: eafb 5917 ef03 0999 0c77 0517 afc4 7596
00000210: eba5 b719 73e1 8a99 de09 de99 6cf9 1733
00000220: 09b9 b6b1 7953 adb0 1dde a0b3 8a6b 9431
00000230: eb1a c4b0 0e30 2434 b78a 01b4 d90e 44b4
00000240: 10c3 b5b3 4091 5632 4563 0932 fd1b 2e34
00000250: 0f34 af32 97c9 0532 5587 b9b4 cb95 8b34
00000260: ee7f cd34 d601 1bb0 f83d 0e2f 0327 ba2c
00000270: 3edc 412f f6d7 92b0 6202 0b2f c497 8cb1
00000280: 39b9 7931 51a1 eb31 4098 70b9 67a0 dc39
00000290: dea6 053a 8888 b5ba 96ae bf3a 8036 7b3a
000002a0: 11a8 673b ac2f 9b3a 2bb7 7639 ad79 b63a
000002b0: 7563 90ba dd4e 6f36 31b9 483b 8a7f 5bbb
000002c0: a9df 72bb 776a 503d 3781 ec3a 2a73 dc3b
000002d0: 7566 0cb9 e3a2 9439 6322 5839 cccf fdb9
000002e0: 72ab 163a ad98 f339 c5f4 f53b f08d 683a
000002f0: af01 2cba 2f94 cab9 fd23 0137 4adf 8d39
00000300: 8a41 df39 9c19 383a 6596 2a39 4e7e 5ebc
00000310: 70c7 7a38 8f63 beba ce42 39ba 7f66 0838
00000320: 79de 1ab8 e802 d939 b406 693a 89c1 8d3a
00000330: 0aad c8bc 582f 7f39 42d8 62bb fd98 13ba
00000340: 449a 73ba a6c4 da3a 0676 163c ab8f feba
00000350: 212d 8abb ad2a f83b bef6 8f3b eb70 2fbb
00000360: 57c1 283a 8a7f 82ba 8c30 b8ba 1504 ee3a
00000370: 2b77 8cbb f0b0 ecba fc4b fbbb 1ec7 f0b9
00000380: 44fa 483b 2b16 a6b9 58b0 d638 eb69 bfb8
00000390: 8de5 fa38 d339 2539 66b7 cb35 0b3b 81bc
000003a0: 5cdd 52ba d744 2dbb eeda c73a b0de c739
000003b0: 14a7 c9b8 93f8 92bb 1c3c 323b 51b3 fc38
000003c0: c633 2c3d 09d8 adbb 864b 343b
1.69631e-10 2.1939929e-11 1.7030012e-10 1.2637422e-09 -1.0707467e-09 -4.8928595e-10 -1.2779135e-08 2.0634854e-09
-8.232539e-09 3.2797245e-21 6.062911e-22 -3.9892655e-21 -1.4995694e-20 7.091083e-21 1.6530317e-21 4.9377807e-19
3.4376205e-20 5.3942512e-20 -1.5690966e-09 -3.1300713e-09 -4.1502068e-10 -8.503715e-09 2.1939397e-09 2.6540956e-09
4.4942727e-08 7.2676105e-09 1.550072e-08 8.737003e-12 1.9137399e-10 1.248803e-10 2.1879072e-09 4.9125604e-10
-1.0315848e-11 -1.0513552e-08 8.329602e-10 -6.309538e-09 -3.539034e-11 4.2123256e-11 1.07361195e-11 6.3871514e-10
-2.7369695e-10 -1.1770536e-10 -2.8242275e-09 2.3123947e-10 -1.3483699e-09 8.6197956e-26 3.3324541e-25 -2.2508134e-25
-7.125525e-25 6.3611303e-25 -9.7800516e-26 1.9924946e-23 1.6270025e-24 1.1815174e-24 1.2145279e-09 2.7519091e-09
-4.704969e-10 -1.7686169e-09 9.686099e-10 -2.0125403e-10 1.6797922e-07 1.92161e-08 1.7179353e-08 -5.529869e-09
-5.114817e-09 6.39035e-09 5.7425615e-09 -4.2403876e-09 1.8786366e-09 -4.2510268e-07 4.5531108e-09 -5.6527664e-08
9.6490184e-11 -4.487331e-11 -1.16871105e-11 -1.1262911e-09 4.3736562e-10 1.8453239e-10 3.7486685e-09 -4.3366635e-10
2.2222972e-09 2.978192e-09 -5.5488886e-10 -4.584428e-10 -8.111348e-10 3.0971106e-09 7.105782e-10 1.2323338e-08
-7.50889e-09 -1.654238e-08 9.1537745e-20 -1.5120351e-20 2.6403694e-21 -1.4227491e-19 1.4132054e-20 -3.802583e-21
4.3130048e-19 -3.3440531e-19 -5.382094e-19 6.7700676e-09 -4.1215293e-09 -9.428571e-10 2.0896818e-09 2.8595533e-08
1.3299487e-09 -6.3274044e-08 2.3390337e-08 -2.6541404e-08 1.8402346e-09 -2.40305e-10 -2.9781164e-10 -3.1225023e-10
4.5167554e-09 -1.968555e-09 9.99857e-09 -1.513385e-08 -2.8508476e-08 1.5515318e-10 -6.4040044e-11 6.497902e-11
7.583814e-11 6.0641736e-10 -9.591383e-11 2.1129227e-09 -1.8414041e-09 -3.5853525e-09 1.862988e-24 6.662386e-26
7.043444e-25 -7.083528e-24 4.3124876e-25 -1.9853005e-25 1.898877e-23 -1.4359924e-23 -2.2958247e-23 3.5384275e-08
-5.317933e-09 -1.2611131e-09 -7.490983e-08 4.3195927e-09 -1.4268527e-09 1.5291172e-07 -1.2064525e-07 -1.8259324e-07
-8.463951e-08 1.24894655e-08 7.997021e-09 1.6215195e-07 2.0396355e-08 7.787455e-09 -3.4557402e-07 2.5999756e-07
3.8277307e-07 -5.639128e-10 1.293684e-10 5.290769e-12 1.7631493e-10 -1.0684278e-09 1.2642823e-10 -4.09179e-09
3.6339556e-09 6.8577397e-09 -0.00022944901 0.0004208118 0.00050984125 -0.0013849894 0.0014624174 0.0009583011
0.0035347978 0.0011839769 0.00023528624 0.001392176 -0.0011015969 3.565968e-06 0.003062796 -0.0033492767
-0.0037059581 0.050882783 0.001804388 0.006727596 -0.00013389609 0.0002835012 0.00020612175 -0.0004841074
0.0005747593 0.00046462324 0.0075059854 0.0008871248 -0.000656153 -0.00038638848 7.697378e-06 0.0002705998
0.00042582705 0.0007022859 0.0001626849 -0.013579918 5.9790385e-05 -0.001452552 -0.00070671446 3.2520384e-05
-3.6923655e-05 0.0004139163 0.00088892435 0.0010815124 -0.024496574 0.00024336332 -0.0034613763 -0.0005630402
-0.0009292702 0.0016690686 0.009183412 -0.0019421479 -0.0042168056 0.0075734467 0.0043934276 -0.0026770185
0.0006437501 -0.0009956222 -0.0014052554 0.0018159176 -0.004286667 -0.0018058103 -0.00766897 -0.0004592472
0.0030666748 -0.00031678504 0.00010237162 -9.1273185e-05 0.00011963686 0.00015757167 1.5178055e-06 -0.015775224
-0.00080438494 -0.0026438737 0.0015247741 0.00038122153 -9.6155476e-05 -0.0044851988 0.0027196473 0.00012049697
0.042041562 -0.0053052944 0.0027510836

exp_avg_sq f4 [27, 9]
00000000: fdf9 fe28 6ffc 1f29 346d 8329 807f a12a
00000010: da43 e82a cd1d 2d2a 1a8f cc2f 9dcb 962c
00000020: 8c2b e02c 113d c728 984c 7f28 ba41 7f29
00000030: bbf2 192a fc49 642a a38e 2929 fd07 1b2f
00000040: e1fe 3e2c d491 dc2b 7de1 0029 2bca a229
00000050: 08c5 152a c292 bd2b 55eb 542b a1cb b32a
00000060: f824 c030 544e ac2d 8cd8 e62d ee5f 3928
00000070: d952 1e29 9af7 f428 bbc0 c92a 7cdf 802a
00000080: eb4a b129 69de 2230 b2fa 8b2c ae76 a62c
00000090: 1fe8 9b28 ab78 4e29 48cd 9f29 5a62 282b
000000a0: 8438 f92a 8b9f 352a 45c1 3030 8639 292d
000000b0: 82ea 182d 6742 5129 3958 0429 4bac 6e29
000000c0: de59 152a 6e0e da29 4375 a929 2393 db2e
000000d0: 4f1f c92b da54 7f2c 56d6 9528 64f8 3629
000000e0: 356c 9d28 aa6e 372a 7d99 602a 5431 8e29
000000f0: 47c4 f72e 1366 902b bbb9 0c2c 5b73 6128
00000100: ca2c ab28 85f2 9a29 bfa7 482a 8208 b42a
00000110: 10bc 8e29 d501 152f 3431 182c c9c9 792c
00000120: c261 6728 0254 1c29 b42f a429 35a5 362b
00000130: caa7 ed2a ea11 272a 10ab 1430 fe2f 1f2d
00000140: 4b2f 2c2d 7731 e62d 7d67 252c 16f2 f72b
00000150: d586 4f2e bf7e 3b2f 6141 a32d bb16 a62f
00000160: 04e4 a02e 3802 0e2f f8e9 962c ac04 032c
00000170: cf91 f82a 36d1 0a2e 6d26 d92d 616b 6e2c
00000180: bf11 b82e 42c6 062e 2d4b 0b2e e174 562e
00000190: b2f6 752c e6cb a42c f50b 8c2e 1a0c 0630
000001a0: d571 cb2d 5ad6 5130 88a4 9f2f 1981 d72f
000001b0: 6340 0c2e 9d51 db2b 64fb 382c 1788 b72d
000001c0: 62ac 912f e06f 1b2d bb16 1830 c97e 522f
000001d0: d1d9 992f 38e3 812d c12e fb2b c129 c32b
000001e0: d4b8 d92d 3c94 122f 4024 d42c 34e6 ac2f
000001f0: 0f11 122f 29e0 372f f173 cb2b 50ec e22a
00000200: 67f4 762a d406 8c2d 6b17 142d 54f1 5a2c
00000210: af98 912e 606c 782e e08e 912e 2906 c12c
00000220: 9544 522c cff1 0c2b 7cbb 9e2d 704a 452e
00000230: 9c57 872c 20a1 a72e fda7 6a2e 0763 1c2e
00000240: e2f8 e42c 8f75 472c 0bfe a12b 07c5 012e
00000250: f69e 5c2e 721f 862c 9957 ca2e c417 9e2e
00000260: 085e a72e b4d5 902d 2847 e52b d811 da2b
00000270: bdf6 a52d d77b 3c2f e57a fc2c 7706 b22f
00000280: a718 172f 9a0f 3b2f a8c1 4237 680e 3436
00000290: d2a6 2836 3589 1f38 e853 2338 f9bf 5937
000002a0: 066c f93b 8224 1738 8734 d938 bb53 0f38
000002b0: efe5 4c37 0b02 2737 7dca 4439 f6d3 0039
000002c0: e68b 8638 6178 ba3d e163 c939 eb6b 983a
000002d0: a9e7 8636 efa2 a635 fe3f 9135 dc7e bc37
000002e0: 58fa 8037 e2de c836 370d 123c 740f 3438
000002f0: 03f0 fc38 9972 f836 34a6 0d36 6bf9 f735
00000300: df1f 1d38 46af d637 baf6 4937 ca4c 9b3c
00000310: 9bab b438 e371 8539 653a 0637 e03f 3336
00000320: a800 1336 cc78 1f38 3d3f d937 eb44 6337
00000330: 9fb7 4a3c 4348 6638 0436 3c39 0239 f238
00000340: b516 1b38 ba59 fc37 fd3e 323a 53d7 d539
00000350: 73f9 6a39 5aff 9e3e fcac ac3a b758 7d3b
00000360: 9c6a 2938 17e2 4037 c421 1a37 64e9 2239
00000370: 2fe2 0f39 8b55 7f38 a385 3b3d b6db 6b39
00000380: 9e5b 273a 60aa d036 085e 1636 85e1 f135
00000390: 12ba f637 3861 af37 7d27 1f37 3eee 433c
000003a0: c683 7038 e283 2b39 dbea 1738 34ed 4737
000003b0: 7397 3137 8ea9 9d39 ef94 1639 21a6 a038
000003c0: 070a 453e b12e 5c3a bf7f 1f3b
2.830808e-14 3.5524043e-14 5.8365124e-14 2.8687816e-13 4.125856e-13 1.5375826e-13 3.7209064e-10 4.285862e-12
6.3712976e-12 2.2119922e-14 1.4171952e-14 5.6678383e-14 1.3673344e-13 2.0276136e-13 3.7649256e-14 1.4100006e-10
2.714211e-12 1.5672416e-12 2.861729e-14 7.229316e-14 1.3302217e-13 1.3469991e-12 7.564412e-13 3.1938083e-13
1.3980346e-09 1.958892e-11 2.6244139e-11 1.0290364e-14 3.5154906e-14 2.7196822e-14 3.5838506e-13 2.289244e-13
7.873375e-14 5.925132e-10 3.9784504e-12 4.73118e-12 1.7309123e-14 4.584585e-14 7.096629e-14 5.982208e-13
4.42705e-13 1.6131382e-13 6.430308e-10 9.6193106e-12 8.692271e-12 4.6464917e-14 2.938641e-14 5.2996056e-14
1.3265037e-13 9.683648e-14 7.525449e-14 9.985104e-11 1.4290599e-12 3.6284782e-12 1.6635276e-14 4.0627563e-14
1.7477429e-14 1.629206e-13 1.9948449e-13 6.314624e-14 1.12671254e-10 1.0260147e-12 1.9998298e-12 1.2515023e-14
1.9004238e-14 6.881044e-14 1.7821767e-13 3.1980327e-13 6.3386904e-14 1.3552122e-10 2.1627812e-12 3.5497042e-12
1.2844274e-14 3.4711824e-14 7.291338e-14 6.488866e-13 4.2216084e-13 1.4838795e-13 5.408518e-10 9.04876e-12
9.787569e-12 2.616994e-11 2.3505358e-12 1.7617598e-12 4.7186106e-11 1.705258e-10 1.8559989e-11 3.0211375e-10
7.316461e-11 1.2915613e-10 4.289232e-12 1.8618813e-12 4.4154825e-13 3.1563384e-11 2.4687108e-11 3.3881441e-12
8.3705036e-11 3.064416e-11 3.167171e-11 4.8761776e-11 3.4953537e-12 4.6837976e-12 6.368587e-11 4.8766113e-10
2.312898e-11 7.633837e-10 2.9038838e-10 3.9200002e-10 3.18895e-11 1.5583538e-12 2.6287523e-12 2.0865127e-11
2.6497832e-10 8.835571e-12 5.532958e-10 1.9144432e-10 2.7985306e-10 1.4766507e-11 1.78476e-12 1.3867172e-12
2.4752124e-11 1.3331286e-10 6.029427e-12 3.1450187e-10 1.3284683e-10 1.6723391e-10 1.4456198e-12 4.030964e-13
2.1933983e-13 1.591919e-11 8.418026e-12 3.1113627e-12 6.6209586e-11 5.6484928e-11 6.619216e-11 5.486074e-12
2.9880866e-12 5.007357e-13 1.804578e-11 4.4858728e-11 3.8466574e-12 7.622902e-11 5.3354644e-11 3.5558247e-11
6.5077813e-12 2.834486e-12 1.1510249e-12 2.95062e-11 5.0163394e-11 3.812e-12 9.201457e-11 7.18923e-11
7.610984e-11 1.6465808e-11 1.6291178e-12 1.5494784e-12 1.8867902e-11 1.7142497e-10 7.175915e-12 3.2382605e-10
1.3742128e-10 1.7013094e-10 1.160839e-05 2.6830476e-06 2.5131053e-06 3.8036338e-05 3.8940372e-05 1.2978905e-05
0.0076117544 3.6035206e-05 0.0001035715 3.4171837e-05 1.2212883e-05 9.954451e-06 0.0001876745 0.00012285993
6.415676e-05 0.09104992 0.00038412123 0.0011628842 4.02048e-06 1.2415384e-06 1.0821966e-06 2.247042e-05
1.5375364e-05 5.9864115e-06 0.0089142835 4.2929736e-05 0.00012061002 7.404317e-06 2.110738e-06 1.8475524e-06
3.74614e-05 2.5592406e-05 1.2037979e-05 0.018957514 8.615033e-05 0.0002545259 8.000618e-06 2.6710259e-06
2.190509e-06 3.8021055e-05 2.5897863e-05 1.3546301e-05 0.01237288 5.4903572e-05 0.000179492 0.00011550078
3.6976027e-05 3.0082523e-05 0.0006799547 0.00040786955 0.00022408906 0.31054193 0.0013174112 0.0038657614
4.0392028e-05 1.1496732e-05 9.186977e-06 0.00015536469 0.00013721803 6.0876406e-05 0.045781743 0.00022493195
0.00063841965 6.2187173e-06 2.2406475e-06 1.8021534e-06 2.9412131e-05 2.0906897e-05 9.486333e-06 0.011958657
5.7343183e-05 0.00016356961 3.621993e-05 1.19165525e-05 1.0585284e-05 0.00030071702 0.00014360597 7.6603385e-05
0.19242106 0.00083992915 0.0024337617

exp_avg f4 [27]
00000000: e917 73b2 da42 1421 c637 1533 1788 54b2
00000010: c1a3 51b1 40c1 c219 4cfd 3434 a23a e5b4
00000020: 21e1 a331 d7e3 0d28 0c77 1217 9b27 21a8
00000030: 1af3 4427 9027 a226 df8a c90f 5638 542a
00000040: a917 c2aa 2aa7 1ea7 66f7 ad3b f879 7a3d
00000050: ab64 1d3c 5866 81bc 63d7 e8bc 7f0f 333c
00000060: 3fc8 10bc 0db2 a1bc e756 323d
-1.4149898e-08 5.023283e-19 3.474249e-08 -1.2370967e-08 -3.0506586e-09 2.0137183e-23 1.6855955e-07 -4.2697235e-07
4.7695186e-09 7.876477e-15 4.7325403e-25 -8.945883e-15 2.733225e-15 1.1251732e-15 1.9873621e-29 1.8848928e-13
-3.447774e-13 -2.2017525e-15 0.005309033 0.061151475 0.009606521 -0.015795872 -0.028423017 0.0109289875
-0.008836805 -0.019738222 0.043539908

exp_avg_sq f4 [27]
00000000: 8897 c72f 73b3 182f fa66 bd30 9421 1e30
00000010: c790 2c30 93fb da2e 31cc f32e a821 142f
00000020: 42ef 1130 3bde b31c de74 871c dbdb 371d
00000030: 093e d61c 3746 3c1d 992f aa1b fea7 1a1c
00000040: 0707 9f1c cdce c91c 66f6 393c 533a 0c3e
00000050: 862c 5d3c 06b7 ea3c bba5 983c 5cc0 ee3e
00000060: 7990 8f3d 0824 943c c5e0 943e
3.6305559e-10 1.3888073e-10 1.3780828e-09 5.752778e-10 6.2778976e-10 9.958181e-11 1.1086632e-10 1.3472479e-10
5.30907e-10 1.1902672e-21 8.96376e-22 2.433351e-21 1.4177368e-21 2.4917893e-21 2.81549e-22 5.117145e-22
1.0523554e-21 1.3354521e-21 0.01135025 0.13694124 0.013499385 0.028651726 0.018633714 0.46631134
0.07009978 0.018083587 0.29077736

exp_avg f4 [9, 9]
00000000: a21f c53a d329 663d 399e 92bb d5cd 593b
00000010: a832 45bb 10d0 11bd 70c8 60bd 4d38 453b
00000020: 328d 50bd 2ec1 8b39 9877 553c 9c3e beba
00000030: 86c5 133a 4d4d 8aba a843 00bc 7dde 47bc
00000040: 12c8 ae3a 084e 39bc 0b4a cbb9 84a0 673c
00000050: f6a5 61bb d87b 013b ed4a a4ba c47a 06bc
00000060: 0a3f 51bc 3b03 413b 7998 48bc 61fb 4a3a
00000070: 41e3 26bd 84d7 683b 2e5c f1ba e420 a33a
00000080: a52e cd3c 9a54 233d a0c4 89ba 7c5a 183d
00000090: 5495 84b8 3876 a4bc 36cb 053b 5c9d a9ba
000000a0: 3a67 3a3a 55ed 473c 36a5 9d3c 9186 37ba
000000b0: 08b7 943c 6cad 9bba 4753 8cbc 2527 b83a
000000c0: a8cd 50ba 03ef 0e3b 814d 2c3c 9852 7e3c
000000d0: d01c 0abb 89b5 6c3c 44b1 51ba 9a18 2dbc
000000e0: e652 0bba 64a1 fc38 ec1b b639 86f5 e43b
000000f0: 70c4 2b3c 38e3 e138 0deb 1c3c 2362 313a
00000100: 41e4 433c 817b 403b 0af9 05bb 4a57 e839
00000110: af55 fdbb b0e7 52bc 2e90 67bb 4bf6 3dbc
00000120: f46f 89ba 8f9a 9bbc 8cc5 e93a b844 d0ba
00000130: f47e ab3a dd07 4a3c 48d3 963c 9113 12bb
00000140: 4768 8c3c
0.0015039335 0.05619223 -0.004474428 0.0033234258 -0.0030090008 -0.035598814 -0.054878652 0.0030093372
-0.050915904 0.00026656076 0.013029002 -0.0014514509 0.0005637038 -0.0010551602 -0.0078286305 -0.012199041
0.0013334772 -0.011310108 -0.00038774344 0.014137391 -0.0034431196 0.0019757655 -0.0012534537 -0.008207981
-0.012771377 0.0029451388 -0.012243384 0.0007743147 -0.04074407 0.0035528848 -0.0018414313 0.0012445715
0.025046656 0.039875604 -0.0010510869 0.037195668 -6.322065e-05 -0.020075902 0.0020415313 -0.0012940574
0.0007110719 0.01220258 0.019243818 -0.0007000948 0.018153682 -0.0011877245 -0.017129553 0.0014049752
-0.00079652155 0.0021809943 0.010516525 0.015522622 -0.0021074302 0.014447578 -0.0007999132 -0.0105649475
-0.0005314782 0.00012046358 0.00034734549 0.0069872765 0.010483846 0.00010771159 0.009577525 0.00067666377
0.011956275 0.002937049 -0.0020442628 0.00044315524 -0.0077311615 -0.012872621 -0.003533374 -0.011594365
-0.0010485635 -0.018994598 0.0017835363 -0.001588962 0.00130841 0.012330976 0.018411294 -0.0022289495
0.017139567

exp_avg_sq f4 [9, 9]
00000000: eb5f 423a e8d8 a33d 78e9 f039 7880 6439
00000010: 6c60 283a 7e87 033d 387b 9e3d b8de 8039
00000020: 0de4 813d acdf e038 7832 453c 140c 8b38
00000030: d956 0838 05ae c238 3bcf 9d3b 63b4 3e3c
00000040: bd9f 1e38 4657 1c3c efe2 a039 19a1 fb3c
00000050: 4933 3839 f259 ab38 133d 9439 1a1a 4a3c
00000060: 0e77 f33c 087e d938 70cb c63c 16f7 d73a
00000070: 4d77 3a3e 973a 873a c8c6 003a 0b79 c33a
00000080: 1185 943d 568e 333e a737 213a 8bd2 133e
00000090: 4d11 363a bb7d 943d e0b1 d839 d084 4c39
000000a0: 0782 163a e951 f13c 9429 913d efba 7139
000000b0: d373 6b3d d16b f839 2d38 5c3d e16e 9a39
000000c0: fe7d 0c39 0d2f d739 d69b b13c 0a81 553d
000000d0: abd3 3a39 5a5c 2e3d 949f ee38 e3ce 313c
000000e0: 3d45 8638 5d55 bc37 9f4c c038 ac56 8e3b
000000f0: 8fb2 2c3c 20f6 ec37 b169 0c3c ab14 c339
00000100: 491f 223d 5a50 6439 c911 db38 6184 ac39
00000110: 165b 823c f8b4 1c3d 35ce 0439 8a2e 003d
00000120: 2fee 6639 c9db b43c f2a8 0539 fba9 7038
00000130: c6bc 4b39 d849 113c e139 af3c 3a00 9138
00000140: 6a06 8f3c
0.00074148056 0.08000356 0.00045950315 0.00021791633 0.00064230594 0.032111637 0.07738346 0.0002458
0.06342325 0.000107228145 0.0120359585 6.630286e-05 3.250581e-05 9.2830545e-05 0.0048159636 0.011639687
3.7818903e-05 0.009542292 0.00030686657 0.030716466 0.00017566713 8.170669e-05 0.00028274264 0.012335325
0.029719856 0.000103708415 0.024266928 0.0016476836 0.18209572 0.0010317144 0.0004912433 0.0014913393
0.07251943 0.17534766 0.00061499554 0.14435785 0.0006945327 0.07250544 0.00041331258 0.00019504433
0.00057414215 0.029458003 0.070880085 0.00023053189 0.057483505 0.00047382576 0.05376451 0.0002945578
0.00013398376 0.0004104305 0.021680754 0.052125014 0.00017817195 0.042568542 0.00011378448 0.010852548
6.4025146e-05 2.2451097e-05 9.169545e-05 0.004343828 0.010540619 2.8248003e-05 0.008570121 0.00037208697
0.039580617 0.00021773708 0.000104460465 0.00032905026 0.015912574 0.038258523 0.00012665319 0.031294383
0.0002202324 0.022077458 0.00012746805 5.7378766e-05 0.00019429912 0.008867703 0.021389904 6.914181e-05
0.017459113

exp_avg f4 [9]
00000000: 6fec 41be 30b1 2bbd a247 2ebd 2a2b 063e
00000010: d807 8b3d 79ad 7a3d 3ad9 243d f864 54bd
00000020: 5f47 7c3d
-0.18937849 -0.041917026 -0.042548783 0.13102403 0.067886055 0.061200593 0.040246226 -0.051854104
0.061591502

exp_avg_sq f4 [9]
00000000: d3f4 833f 0b9f 1e3e ed56 c93e b8ff 1140
00000010: a9f0 6f3f fcbf 2e3f d88d 093e 58fe 003f
00000020: a9ad 8e3e
1.030909 0.15490358 0.39324132 2.2812328 0.93726593 0.68261695 0.13433015 0.503881
0.27866867

exp_avg f4 [2048, 9]
00000000: 81c0 8f2f da1c 0e2e aeac 682f 5024 3031
00000010: ab42 23b2 8c62 fb2f ad96 beb3 b027 0234
00000020: 43b0 d332 7c89 2f26 b502 141d 6b75 171e
00000030: 947a bc2c 5a5a c529 4481 f127 aab8 d0b0
00000040: 1aca 1c31 a6a9 0ab1 9143 852c 04c7 ffae
00000050: c5e7 64b0 0952 1fb1 36e1 09b1 469f 74b0
00000060: 44fc 15b2 105c 1432 187f c0af c170 b932
00000070: b6e3 90b2 cd8c 9131 4d32 d0b3 bb1f 3733
00000080: d222 3e33 7cce 30b4 246e 6134 7e63 dab2
00000090: 7045 7e39 c78f 65b9 1095 3c38 e5c0 1bb8
000000a0: 98f2 6cb9 8c01 8f3a cef4 ebb9 51e6 783a
000000b0: c451 42ba be28 10b9 936c 6eb8 132a ceb8
000000c0: 0afd 67b9 d7f2 5538 31aa c038 84fb f7b9
000000d0: fcc5 373a 14c7 9739 85df d632 e9bf a931
000000e0: 074b 4133 2ab2 8231 95e5 7433 e835 8433
000000f0: 7d62 8fb4 51bf 3133 4d56 93b4 715c 78b9
00000100: 5217 71b9 9a3c 39b9 ce56 90b9 f275 a1b9
00000110: 2023 c239 d6cc 4bb9 89c0 8fb9 e991 8c3a
00000120: 5572 1db0 26e1 25af c878 acaf dffc 46b0
00000130: 6bb2 8fb0 3ba4 ecae 88e8 a7b3 9d2b fdb2
00000140: df85 69b2 3de9 acac 5ac6 87ac e508 0cac
00000150: e59c 17ad 5015 84ad 4d0d 73ac 0f4f 81af
00000160: 3c98 9aad d478 f8ad 5a40 45b9 580b b0b9
00000170: b9ee 18b9 7953 31ba 669b 6bba 6b74 403a
00000180: 4d44 97ba cc81 623b 9d11 64b9 903f 55b4
00000190: 570f 25b4 1c7c 33b4 f796 8934 5fa0 8b35
000001a0: 96ca 9cb4 f97a 98b3 4dd1 6a34 b781 94b4
000001b0: 0b0d 21b6 a495 ecb5 1920 d2b5 1fba 52b6
000001c0: 7865 2fb4 8481 1eb6 e072 81b5 7b1b bcb6
000001d0: 4afe 5437 843b abb7 3e13 81b8 89e8 90b8
000001e0: a487 27b8 1f5e 49b7 64e8 35b8 21d5 2eb9
000001f0: 468e e439 819c 4238 273a ba30 202f 46b0
00000200: 1aae c5ae 357a eb31 cb6a 7d31 0ba9 e431
00000210: bb45 32b3 fcb9 81b1 e6da 28b2 bd1e 0837
00000220: 6bb4 3037 299d 1837 3d39 46b7 61ca e836
00000230: d8b0 1e37 c129 74b7 ada9 4fb7 e3df 8f36
00000240: 8fae c338 bb7f b138 738c 9f38 61b5 1a36
00000250: 9f47 ae38 053e b8b8 4089 f7b8 1aa2 20b7
00000260: 745f 5bb8 fd43 1ab8 862a 34b9 fcf9 8437
00000270: 0320 ac38 c5f1 5939 a959 5d39 aee9 1aba
00000280: 2b80 10ba c530 883a 4f4f 85b8 7ee7 2eb9
00000290: 07c5 4eb9 e4cf 0ab9 6a8b 25ba 7d86 6139
000002a0: 8b2a 05bb 7068 5f3b 0a2b 173a f2f8 94ad
000002b0: cf1c 64ac 888e 0f2a 0081 02b0 8c5c a032
000002c0: af81 962b 0f82 73b2 6764 6931 2649 5532
000002d0: b5be 28b3 6455 0ab5 61f9 efb4 7e0e 25b6
000002e0: 9a38 5835 889c e8b4 a416 53b6 47ed 8734
000002f0: 1dd6 9736 b4e9 bfb9 beb3 29b9 f0e8 04ba
00000300: 268a 87b9 6f08 23ba 2d85 3139 e8a9 8fba
00000310: 3098 8c38 4491 2d3b c464 922e fd2b 9c2b
00000320: 2f07 4c2d 88d7 a82e d1a8 e72c 29f4 ae2c
00000330: 8f65 f2b2 bb1c 7131 1f9e 00b3 d640 1d37
00000340: efaa 9336 9b39 c736 b5e5 8137 cffc 8f37
00000350: 3b5d fa36 2c41 adb7 aea5 d3b6 a184 bdb6
00000360: 1801 7db2 a612 45b2 ea47 74b2 c4f3 a3b2
00000370: 8323 29b2 78b0 5c31 5900 31b3 c67d ce32
00000380: 8b0f b5b0 1c79 30a4 cb0a bc9e 5562 6ea3
00000390: 4e22 a7a9 0cab 5eaa 4734 59a9 1044 21b0
000003a0: e241 322e 5496 16b0 e540 30af 18be b4ac
000003b0: f3e3 022d 2ee5 54b1 2907 33b1 8c65 08b0
000003c0: 6cf0 a831 297c 8930 4092 a331 7c51 4cb2
000003d0: dea3 c2b2 dae6 48b2 baea 2db3 a64f 49b2
000003e0: 4b64 1a32 8c8d a8b3 00bc dc33 d54c f7b3
000003f0: 06f6 4836 cca5 2d36 344b 6f36 0e38 9c36
2.614833e-10 3.2312687e-11 2.1161625e-10 2.5632012e-09 -9.503007e-09 4.5726656e-10 -8.874972e-08 1.2121632e-07
2.4643787e-08 6.090165e-16 1.9589036e-21 8.018155e-21 5.3568903e-12 8.764231e-14 6.7031087e-15 -1.5186477e-09
2.281587e-09 -2.0178077e-09 3.7875887e-12 -1.163141e-10 -8.327528e-10 -2.3184177e-09 -2.0064141e-09 -8.8993024e-10
-8.7303e-09 8.635666e-09 -3.5014902e-10 2.1588109e-08 -1.6867357e-08 4.2360626e-09 -9.6949044e-08 4.2636866e-08
4.426949e-08 -1.6466396e-07 2.0994827e-07 -2.5423784e-08 0.00024249195 -0.00021892703 4.4961518e-05 -3.7134527e-05
-0.00022597087 0.0010910495 -0.00045005087 0.0009494769 -0.0007412697 -0.00013748088 -5.684474e-05 -9.8306824e-05
-0.00022124141 5.100932e-05 9.186974e-05 -0.00047298905 0.0007010398 0.0002894929 2.5014524e-08 4.940365e-09
4.500455e-08 3.803753e-09 5.701948e-08 6.1565345e-08 -2.6707485e-07 4.1385025e-08 -2.7443676e-07 -0.0002368556
-0.00022992239 -0.0001766555 -0.00027530495 -0.0003079619 0.00037028734 -0.00019435896 -0.00027418535 0.0010724637
-5.7278743e-10 -1.5086651e-10 -3.1372438e-10 -7.239133e-10 -1.0455329e-09 -1.0761211e-10 -7.818841e-08 -2.947291e-08
-1.3592824e-08 -4.9144287e-12 -3.8589522e-12 -1.9900134e-12 -8.618194e-12 -1.5016127e-11 -3.453976e-12 -2.3521138e-10
-1.7575379e-11 -2.8247994e-11 -0.00018811357 -0.00033577788 -0.00014584781 -0.00067644526 -0.0008987695 0.00073415664
-0.0011540741 0.0034562228 -0.00021750336 -1.9860295e-07 -1.5372403e-07 -1.6715825e-07 2.562808e-07 1.0402981e-06
-2.9204665e-07 -7.10042e-08 2.1869091e-07 -2.7661528e-07 -2.3998462e-06 -1.7626921e-06 -1.5655561e-06 -3.1400775e-06
-1.6335059e-07 -2.3619223e-06 -9.644682e-07 -5.6060358e-06 1.2695391e-05 -2.0412503e-05 -6.1547835e-05 -6.909768e-05
-3.9942228e-05 -1.2002448e-05 -4.3370193e-05 -0.0001667333 0.0004359355 4.639896e-05 1.3549809e-09 -7.209895e-10
-8.9894495e-11 6.8532935e-09 3.687705e-09 6.6548913e-09 -4.1507274e-08 -3.775538e-09 -9.828659e-09 8.1133885e-06
1.0532424e-05 9.096498e-06 -1.18150465e-05 6.937699e-06 9.4587085e-06 -1.4553255e-05 -1.2377667e-05 4.287796e-06
9.330839e-05 8.463809e-05 7.6078715e-05 2.3053365e-06 8.310307e-05 -8.785356e-05 -0.000118034426 -9.574485e-06
-5.2302566e-05 -3.677978e-05 -0.00017181979 1.5852034e-05 8.207562e-05 0.00020784799 0.00021109603 -0.0005909455
-0.00055122626 0.0010390511 -6.3567066e-05 -0.0001668017 -0.0001971909 -0.00013238151 -0.0006315025 0.00021507773
-0.0020319547 0.003408935 0.0005766606 -1.6936206e-11 -3.241674e-12 1.2750402e-13 -4.7477045e-10 1.8668537e-08
1.0694135e-12 -1.41740335e-08 3.3963035e-09 1.2414864e-08 -3.9288995e-08 -5.1533266e-07 -4.4698666e-07 -2.4595352e-06
8.0548637e-07 -4.332726e-07 -3.1454629e-06 2.5318352e-07 4.5250767e-06 -0.0003660448 -0.00016184055 -0.0005070111
-0.00025852135 -0.0006219213 0.00016929647 -0.001096067 6.704067e-05 0.002648429 6.657211e-11 1.1096676e-12
1.15976525e-11 7.6780415e-11 6.5841573e-12 4.9724847e-12 -2.8218691e-08 3.5086447e-09 -2.9946133e-08 9.373025e-06
4.4008407e-06 5.9373683e-06 1.5484964e-05 1.7164652e-05 7.461434e-06 -2.0653555e-05 -6.3075777e-06 -5.648079e-06
-1.4726787e-08 -1.1471149e-08 -1.4219021e-08 -1.908655e-08 -9.845169e-09 3.2114524e-09 -4.121134e-08 2.4038751e-08
-1.3173901e-09 -3.82665e-17 -1.9909738e-20 -1.29228285e-17 -7.422241e-14 -1.9776905e-13 -4.8229023e-14 -5.866818e-10
4.053103e-11 -5.478331e-10 -1.6030162e-10 -5.1370123e-12 7.440259e-12 -3.0980334e-09 -2.6051998e-09 -4.962082e-10
4.9167763e-09 1.000335e-09 4.760551e-09 -1.189289e-08 -2.265909e-08 -1.1694022e-08 -4.0493184e-08 -1.171785e-08
8.986784e-09 -7.848857e-08 1.0278745e-07 -1.15158095e-07 2.9945527e-06 2.5875515e-06 3.565755e-06 4.655688e-06

exp_avg_sq f4 [2048, 9]
00000000: ed46 1e30 6f04 c52f 7234 e82f 02ad 9f31
00000010: 5e60 ac31 f439 9c30 b5f8 2632 4c15 9432
00000020: 0daa 9032 4c93 a32f 1976 292f e83e 442f
00000030: c58d 6130 9768 fa2f ccd8 d02f eb57 2731
00000040: 03f2 5831 55d6 c931 6807 af2f 6318 fa2e
00000050: d20a 642f c949 e02f 95b3 1d30 bc44 c92f
00000060: 5dea e931 90d5 a830 ec57 d631 e1df 6d30
00000070: 0b9e 1630 969a 4a30 2737 5c31 baf2 8c31
00000080: 6f23 d530 d205 7532 f98e d032 70e9 4432
00000090: 29c6 3a37 9dcc cb36 996a 0437 2703 7f37
000000a0: f63b 8637 061f 7037 b838 c738 9450 ef38
000000b0: f6dc 9138 2954 2b36 d8b0 c735 cba5 ff35
000000c0: 1ca3 c936 ef86 ca36 7673 b636 8264 8637
000000d0: 942f 7137 f1ba 2637 8c56 d92f d351 612f
000000e0: c61e e22f 75f5 3a30 9522 4a30 6e7f 4730
000000f0: 0e5f 1631 40ae dd30 266b 9a31 9a3e a535
00000100: bbce 3b35 6867 9235 9a7d 1a36 1148 b536
00000110: 3453 de35 7635 3b37 18ba 1d37 80cb f436
00000120: d9b1 2530 0e78 aa2f 3529 b32f 04a2 5430
00000130: 66f1 8730 7826 ce30 b131 8232 6807 8a32
00000140: 7ea4 3732 1b1a 6c2f 051c 992e e131 ce2e
00000150: cd27 db2f 88dc 2c30 2c5e 482f b158 b630
00000160: 74f7 d92f f157 8230 f6b0 6537 ceb6 2a37
00000170: 60a3 7837 2851 3e38 b64d 8037 e020 a137
00000180: 41a8 7b39 e5cd 723a 7242 9039 5e99 5130
00000190: e3f9 0630 cc69 d92f 8db4 c730 ee39 1c30
000001a0: dc4a 1a30 4dcb 1431 db4b 2531 872c af31
000001b0: deae 8332 f43f fc31 7cfb 2232 8a0c 5832
000001c0: 2cf3 b032 c51b b732 3cbf bb33 b844 1633
000001d0: 8947 b133 99c1 5c34 d05a 5834 196c cf34
000001e0: 1ca4 8135 7591 0036 a55f 4435 e0b5 9f36
000001f0: 2f4f 1237 cb76 1036 4742 b82e 9ab0 562e
00000200: 3c9a 892e 129c 9a2f 9f48 0230 5c18 3a2f
00000210: 7540 5231 09d4 1431 5e40 1f31 0b36 4d33
00000220: 8481 f832 09fc f031 8f73 7b33 ecb1 9134
00000230: 6f52 b633 7231 8c33 0d2a 8833 dcf5 ee33
00000240: 88a4 2735 6f03 a734 586f ea34 cbb7 8735
00000250: b530 5a36 278a 6c35 2bb7 7836 393f 4435
00000260: 508a 7d36 f11f 8135 48f0 cc34 60e8 d634
00000270: a941 4535 61de 6b35 cc9b 9b35 076f 1c37
00000280: e0b0 b536 9ad3 1837 0c8b fc36 4d8d 8c36
00000290: 67a8 bb36 0727 4837 ea51 0837 1224 3937
000002a0: 0f63 5b39 b34a 4b39 1204 eb38 d47c c72e
000002b0: f428 212e 66de b92e 389b 2230 d0f3 cd30
000002c0: ea37 b02f 6022 ca30 6b94 bd30 05ad 0f31
000002d0: 023c 1531 54b7 6930 fd91 8030 12c3 a031
000002e0: 7605 0c32 c810 8a31 577a dd31 fb5d 1a32
000002f0: da56 f332 7e28 b636 4371 8736 0bcc b736
00000300: e074 8537 c04e b237 386a 7b36 b3c4 4838
00000310: 9970 d437 5ed3 7c39 b849 bf30 58f9 e62f
00000320: 9d4b bd2f 44e6 a130 f586 6630 67eb 7c30
00000330: 563d b931 9061 9d31 48ec e531 c08a 1e33
00000340: 1749 6332 a2f6 b332 0286 0a33 17a4 2233
00000350: f2d2 3e33 9f9b fd33 a9a8 8f33 ad46 5d34
00000360: a4f4 cb2f 04bb be2f 35c9 d22f 4cd5 8e30
00000370: 8aaa 9130 f128 2c30 8507 b531 458e 2a32
00000380: 5c9b ed31 58da eb2e 592a 142e 67ce aa2e
00000390: def6 202f b1a6 4b2f e00b 352f 5d61 a430
000003a0: 7091 0130 748c 8d30 7423 2d2f f103 522e
000003b0: d178 cd2e 7994 4c30 8616 7030 150b 4d2f
000003c0: 59eb 3d31 14dd 0431 94fe 4331 bd14 0930
000003d0: d9bc 482f 6a83 ce2f 29eb 5630 fb70 3730
000003e0: 4cb9 7e30 63df 8e31 ee6f 9131 ca06 0e32
000003f0: 6c69 4f30 ea93 de2f 8506 eb2f 1036 8630
5.7580857e-10 3.5837242e-10 4.223782e-10 4.6471778e-09 5.0168145e-09 1.1366965e-09 9.719021e-09 1.7239152e-08
1.6841136e-08 2.9754188e-10 1.5412417e-10 1.7848445e-10 8.205599e-10 4.554905e-10 3.7989023e-10 2.4351674e-09
3.1569705e-09 5.8742367e-09 3.1837577e-10 1.1373016e-10 2.0740323e-10 4.079779e-10 5.737147e-10 3.6610526e-10
6.8078365e-09 1.2284307e-09 6.2382153e-09 8.653825e-10 5.4794275e-10 7.370685e-10 3.2045564e-09 4.102131e-09
1.550786e-09 1.42622e-08 2.4279403e-08 1.1461779e-08 1.1132602e-05 6.0736916e-06 7.892632e-06 1.5199918e-05
1.6001966e-05 1.4312338e-05 9.499624e-05 0.00011411417 6.955296e-05 2.5529973e-06 1.4878124e-06 1.9047233e-06
6.0092552e-06 6.0357775e-06 5.437464e-06 1.6020847e-05 1.4375797e-05 9.937897e-06 3.9533565e-10 2.04927e-10
4.1131026e-10 6.801522e-10 7.3536316e-10 7.2576867e-10 2.1881905e-09 1.6129391e-09 4.4941713e-09 1.2311677e-06
6.996376e-07 1.0907943e-06 2.3020898e-06 5.40261e-06 1.6564504e-06 1.1158516e-05 9.401258e-06 7.295457e-06
6.0279387e-10 3.1008124e-10 3.258919e-10 7.735539e-10 9.891152e-10 1.4999406e-09 1.5156589e-08 1.6068682e-08
1.0689403e-08 2.147335e-10 6.962612e-11 9.376656e-11 3.9864148e-10 6.288663e-10 1.822335e-10 1.326745e-09
3.9647896e-10 9.483739e-10 1.3690666e-05 1.0175352e-05 1.4819991e-05 4.5375113e-05 1.5294976e-05 1.9208004e-05
0.00023999905 0.0009262248 0.00027515326 7.6251705e-10 4.9104026e-10 3.9547243e-10 1.4530471e-09 5.683479e-10
5.6131255e-10 2.1652398e-09 2.405378e-09 5.0982325e-09 1.5329928e-08 7.341436e-09 9.486822e-09 1.2575706e-08
2.0599678e-08 2.1316632e-08 8.7426514e-08 3.4987096e-08 8.255217e-08 2.0559527e-07 2.0149605e-07 3.8635406e-07
9.659011e-07 1.9158153e-06 7.315487e-07 4.7597423e-06 8.7207145e-06 2.1526819e-06 8.3791245e-11 4.881482e-11
6.257436e-11 2.8123331e-10 4.7396925e-10 1.6925256e-10 3.0595662e-09 2.1657363e-09 2.3174134e-09 4.7779434e-08
2.8929897e-08 7.0135724e-09 5.854559e-08 2.713781e-07 8.49003e-08 6.528252e-08 6.3406425e-08 1.112746e-07
6.245177e-07 3.1108672e-07 4.366691e-07 1.0111775e-06 3.2512883e-06 8.811789e-07 3.7061498e-06 7.310769e-07
3.7780446e-06 9.620545e-07 3.817279e-07 4.002968e-07 7.3483767e-07 8.7867926e-07 1.1593743e-06 9.324175e-06
5.4148113e-06 9.109173e-06 7.5263724e-06 4.1887747e-06 5.592639e-06 1.1930016e-05 8.125304e-06 1.1035258e-05
0.0002092237 0.00019387416 0.000112064314 9.071646e-11 3.6643535e-11 8.452332e-11 5.9155836e-10 1.4985009e-09
3.2053943e-10 1.4707204e-09 1.3793743e-09 2.090759e-09 2.1716464e-09 8.502543e-10 9.354718e-10 4.67879e-09
8.150314e-09 4.0182364e-09 6.445855e-09 8.9853485e-09 2.8328419e-08 5.4287366e-06 4.036499e-06 5.4775787e-06
1.590926e-05 2.1255924e-05 3.7463742e-06 4.7866906e-05 2.5324802e-05 0.00024111333 1.3918031e-09 4.2013926e-10
3.4432626e-10 1.1779737e-09 8.38653e-10 9.2011593e-10 5.3911817e-09 4.580393e-09 6.6916392e-09 3.6913434e-08
1.3229758e-08 2.0950498e-08 3.2252508e-08 3.7867803e-08 4.4429676e-08 1.1809538e-07 6.6896355e-08 2.060794e-07
3.7099313e-10 3.469368e-10 3.8341744e-10 1.0392482e-09 1.0598609e-09 6.2631417e-10 5.268648e-09 9.927651e-09
6.91527e-09 1.07253484e-10 3.3688916e-11 7.7673694e-11 1.463962e-10 1.8521963e-10 1.6466073e-10 1.1960243e-09
4.7136606e-10 1.0299019e-09 1.5746854e-10 4.7751973e-11 9.343782e-11 7.442576e-10 8.73435e-10 1.8648579e-10
2.76369e-09 1.9334196e-09 2.8520946e-09 4.986978e-10 1.8256986e-10 3.7564557e-10 7.818693e-10 6.6735567e-10
9.2667984e-10 4.15814e-09 4.2327803e-09 8.2670315e-09 7.5455975e-10 4.0486664e-10 4.2750883e-10 9.765149e-10

exp_avg f4 [2048]
00000000: cbf5 b0b4 b5a8 49b2 c7b1 5cb2 ff0f beb4
00000010: f175 62ba 4a46 feb9 dc1c 3eb5 52ff c6b9
00000020: d56f c8b3 e1a6 9caf fa37 0ebb 3d31 d134
00000030: da72 6036 38a4 6db9 ebf7 e3b3 9df6 e0b7
00000040: 2211 ddb8 0e3f 11ba 920b 0fbb 618f 82b3
00000050: 49c2 a3b5 d3d6 e4ba a039 61b3 b567 b1b7
00000060: df5d 05b4 5a60 09b1 8c84 cbb3 09b9 51b4
00000070: f669 1937 ad0b acb6 3d5e 09ad 0f33 2635
00000080: c772 8cb8 15b6 493a 61b3 15b6 89e6 30b6
00000090: 2c0b 0936 5467 5838 1483 09b7 12d1 1fb6
000000a0: 0625 e8b3 1c73 31b3 72af 44b9 9827 623b
000000b0: e73a dbb5 4930 77b7 5ddc e8b0 017b 9cb3
000000c0: 3fc5 2a36 1bd1 0c34 4a17 e4b6 93b3 6fb4
000000d0: 5d6f 84b1 1abb 7eb2 c338 ceb2 d646 d135
000000e0: 81d8 efb2 72ee 0ab4 9f96 48b9 516e 9db4
000000f0: 504a 98b6 3bf6 8eb5 3c4f d537 e2c9 adb5
00000100: 0eeb 3135 8136 743a e2f0 90b4 64f4 9eb4
00000110: f663 1cb5 6c83 e8af 9a6c 52bb e51e 53b2
00000120: 953c 11b3 46e3 64b2 8813 65b8 be77 88b2
00000130: 7321 31b5 b9b2 e1b1 30f8 bbb2 d623 f036
00000140: f103 ecb5 cb70 02b4 dbea 54b6 3dcc 2ab1
00000150: 2d1c a7b5 3219 6fb5 f5c0 b1b4 c742 91b5
00000160: 28ea 3138 2493 f1b5 2d3a d4b8 66a9 6cba
00000170: b549 1fb6 8982 55b6 24aa 7cb4 5643 59b4
00000180: d440 b7b9 2ad4 47b6 6fae 11b4 de0a b7b6
00000190: 8aae 12b6 fb86 d735 3219 60b5 ad11 4cb7
000001a0: 77bb 9db8 2fd7 afb8 03cd ca37 a172 81b5
000001b0: ac64 14b3 91f4 11b5 2c54 dcba 81fb 10b8
000001c0: d6e5 fcb3 0729 21b6 5944 a8b4 3551 ed36
000001d0: d191 41b3 1197 d7b0 b376 88b5 1c9d 26b5
000001e0: 8a20 acb3 2f97 11ae ff61 563b 609a 9eba
000001f0: 3f7f 0db4 3b3e 73b6 230f e4b6 1e3e 34b2
00000200: 84d2 3fb6 0e4b 99b5 9ee3 60b4 5650 14b5
00000210: 2270 c2b4 fc40 ed39 2105 a6b9 05d0 92b3
00000220: 45c5 a4ba 7c86 02bb 968c 1db5 2cbf 8bb8
00000230: b557 d137 aa60 cab9 a84d d6b9 7700 a7b6
00000240: fdc8 71b5 a3e0 d7b5 9bf1 873a b538 a4b0
00000250: a5de b2b5 ac58 c1b3 fda2 89ba 362b 96b5
00000260: 2e19 7aba 52cf 65b4 d1b5 66b4 92c4 9eb5
00000270: 39f4 7c38 1fe0 5eb8 f35e bdb6 ebc1 1db2
00000280: e476 16b7 0332 d8b6 6f96 8331 12a2 fdae
00000290: 682a 4ab5 002d 93af 6ab5 97b7 d49c aab3
000002a0: f03d 3db5 9c3f 02ba 87d7 7db5 822f f7b8
000002b0: a4de 92b5 3252 3ab6 91ec 11b3 b0a4 37b6
000002c0: 27b5 07b7 c65a a1b5 9927 e5ae 30ee 34b9
000002d0: ec9c 1bb4 472b b1b5 40f4 0838 de9b 42b6
000002e0: 8767 96b4 de9b 29b5 d0a8 2fba 8933 0db5
000002f0: 03da 8fb3 722f f1b1 b7e6 06b6 9fae d634
00000300: acdc a8b1 7f44 9639 44d2 37b8 fc15 24b6
00000310: 60e3 8bb6 fb50 453a f7d4 a538 0439 47ba
00000320: de39 bbb5 117e 10b6 32e9 44b2 ce9b 3cb6
00000330: 0177 cbb6 b952 acba 3823 88b4 c66e 72ae
00000340: 8004 93b7 f94d b039 8bb4 7f34 dc34 44a9
00000350: 4b5f aab9 0c8e 13a5 802c acb7 b08c 6737
00000360: 3953 b834 51d7 633a 70f0 bdb5 db47 1a38
00000370: 4415 49b5 1c39 bdb2 db5e aea7 ce9b fcb7
00000380: b5b1 24ba bb52 21b6 2422 b6b9 7c12 1c39
00000390: a550 ee35 0838 a2a9 7118 02ba 693d 1a38
000003a0: 01c7 97b4 8aec ebb3 c4e8 45b8 238a bbba
000003b0: a9c5 85b4 7607 eab2 3c6e 18b5 fddc 3eb7
000003c0: eb7d 83b7 41e7 78b5 88f8 91b5 3f53 0737
000003d0: 38cf 13b6 385d 9d35 bf6d 76b0 9b6a f6b9
000003e0: a9a4 34b4 dbd5 02b4 92d0 ae33 4e9e 5036
000003f0: 20da cdb5 d2b8 ddb9 d51c a6b6 2fee 35b7
-3.2961393e-07 -1.1738099e-08 -1.2846107e-08 -3.5401897e-07 -0.00086387905 -0.00048499025 -7.082251e-07 -0.0003795573
-9.333568e-08 -2.849481e-10 -0.0021700845 3.896511e-07 3.3445453e-06 -0.00022663258 -1.0615607e-07 -2.681772e-05
-0.000105412924 -0.0005540707 -0.0021826965 -6.079677e-08 -1.2200991e-06 -0.0017459042 -5.2439304e-08 -2.1148337e-05
-1.242074e-07 -1.9990893e-09 -9.477034e-08 -1.9531957e-07 9.144182e-06 -5.1273587e-06 -7.8084735e-12 6.191412e-07
-6.697099e-05 0.0007694674 -2.2307142e-06 -2.6360233e-06 2.0421094e-06 5.1594645e-05 -8.196355e-06 -2.3814541e-06
-1.08100764e-07 -4.1315715e-08 -0.00018757375 0.0034508463 -1.6333914e-06 -1.47335895e-05 -1.6942853e-09 -7.2866904e-08
2.5446786e-06 1.3114588e-07 -6.7976407e-06 -2.2323938e-07 -3.854366e-09 -1.4827288e-08 -2.4007369e-08 1.5592329e-06
-2.7921716e-08 -1.2938997e-07 -0.00019129597 -2.9323795e-07 -4.538604e-06 -1.0651487e-06 2.5428475e-05 -1.294826e-06
6.627969e-07 0.0009315983 -2.6997355e-07 -2.960761e-07 -5.825999e-07 -4.2293935e-10 -0.0032108189 -1.2288841e-08
-3.3815542e-08 -1.3323023e-08 -5.4616045e-05 -1.5886936e-08 -6.5986313e-07 -6.5686803e-09 -2.1882528e-08 7.156729e-06
-1.7584517e-06 -1.2148227e-07 -3.1727166e-06 -2.4854352e-09 -1.245067e-06 -8.90711e-07 -3.3109214e-07 -1.0822777e-06
4.2418164e-05 -1.7998723e-06 -0.00010119784 -0.0009027928 -2.373575e-06 -3.1815455e-06 -2.3531226e-07 -2.0234197e-07
-0.0003495278 -2.9776807e-06 -1.3567636e-07 -5.45509e-06 -2.185729e-06 1.6058033e-06 -8.3483167e-07 -1.2163463e-05
-7.5212614e-05 -8.384731e-05 2.4175743e-05 -9.64461e-07 -3.4550496e-08 -5.43726e-07 -0.0016809753 -3.4566507e-05
-1.1776471e-07 -2.401475e-06 -3.1342168e-07 7.072604e-06 -4.5068933e-08 -1.5686245e-09 -1.0167336e-06 -6.2068443e-07
-8.015293e-08 -3.310346e-11 0.0032712219 -0.0012100451 -1.317794e-07 -3.6246045e-06 -6.7966917e-06 -1.0491503e-08
-2.8583754e-06 -1.1421232e-06 -2.0944432e-07 -5.52512e-07 -3.6216903e-07 0.0004525258 -0.0003166581 -6.836493e-08
-0.0012570998 -0.0019916585 -5.8691637e-07 -6.663645e-05 2.4955583e-05 -0.00038600463 -0.0004087512 -4.977042e-06
-9.007197e-07 -1.6084126e-06 0.0010371687 -1.1948688e-09 -1.3326832e-06 -9.003392e-08 -0.0010500845 -1.1188447e-06
-0.0009540495 -2.140271e-07 -2.1486564e-07 -1.1829127e-06 6.0308932e-05 -5.3137654e-05 -5.6436925e-06 -9.182695e-09
-8.968378e-06 -6.4431238e-06 3.829704e-09 -1.15338974e-10 -7.5312573e-07 -2.677112e-10 -1.808508e-05 -7.944769e-08
-7.049812e-07 -0.0004968585 -9.456348e-07 -0.00011786727 -1.0942645e-06 -2.7764004e-06 -3.39756e-08 -2.7364986e-06
-8.088805e-06 -1.2021853e-06 -1.0420748e-10 -0.0001725487 -1.4492588e-07 -1.3200123e-06 3.2652402e-05 -2.899898e-06
-2.8015003e-07 -6.318422e-07 -0.0006700875 -5.2601587e-07 -6.6986125e-08 -7.019417e-09 -2.010185e-06 3.998766e-07
-4.914531e-09 0.00028661263 -4.3826425e-05 -2.44507e-06 -4.1689927e-06 0.00075270206 7.907481e-05 -0.00075997435
-1.3949427e-06 -2.1531052e-06 -1.1461724e-08 -2.8104873e-06 -6.0637253e-06 -0.0013147212 -2.53576e-07 -5.5122816e-11
-1.7525861e-05 0.0003362743 2.3814407e-07 -4.356659e-14 -0.00032495926 -1.2798345e-16 -2.052472e-05 1.3801429e-05
3.4333223e-07 0.00086914474 -1.4151574e-06 3.678338e-05 -7.490928e-07 -2.2028466e-08 -4.8397544e-15 -3.0113293e-05
-0.0006282584 -2.4039025e-06 -0.00034739182 0.00014884205 1.7755852e-06 -7.203965e-14 -0.00049627485 3.6773654e-05
-2.8270736e-07 -1.09860665e-07 -4.718524e-05 -0.0014308136 -2.4916997e-07 -2.7244578e-08 -5.6784825e-07 -1.1376335e-05
-1.5675052e-05 -9.272372e-07 -1.0875674e-06 8.066009e-06 -2.2025324e-06 1.1724542e-06 -8.965024e-10 -0.00047000204
-1.682371e-07 -1.2184994e-07 8.140445e-08 3.108656e-06 -1.5337173e-06 -0.00042290107 -4.950542e-06 -1.0843897e-05

exp_avg_sq f4 [2048]
00000000: fe1e 1d32 2dd7 4931 a99b 7b31 e6f2 4932
00000010: 2e16 c438 6962 7337 4f99 1731 39b6 2637
00000020: 19f1 2832 1d5a 8130 5ac5 b639 b701 2f31
00000030: c031 9d33 8237 9a36 3f57 2d31 a367 9c33
00000040: 5542 6c36 dec1 0937 59e5 3d39 9a35 aa30
00000050: 6111 4632 4a86 bd38 64f6 a431 a388 f833
00000060: 494e af31 6b01 8830 4970 0731 da7d b231
00000070: 0677 dc31 e153 8032 c618 a130 3a40 4a32
00000080: 9696 1d34 97ab 2338 4944 4733 c164 0b34
00000090: ec30 8131 1de9 6a35 535c 8a34 b664 1433
000000a0: 7740 1332 b846 c82f 3b18 6037 037a a03a
000000b0: 21d2 1a33 59f0 0932 cc96 1d30 89ce 0932
000000c0: ddbe 9531 cc78 b032 2b5a 2b33 4a5d 3331
000000d0: 2c30 f530 de44 8131 32da 2132 7741 e132
000000e0: 3093 9531 d646 9832 5a61 1337 209b cd31
000000f0: 9878 2d33 d5fc 9032 3f2a ba38 5bd2 9231
00000100: 1a1d 1233 5672 d538 e5c2 2032 169b 2f32
00000110: 04d0 2132 c2b4 3031 afe3 2f3a 7708 3b31
00000120: a296 9c31 fc57 3731 0cbc 0935 6b28 a431
00000130: a1d8 1d32 4e3f 962f bb8a ad31 3cde 3f33
00000140: 14a1 f233 68ec 8532 7ed1 1d33 0309 2631
00000150: 62d6 b532 db34 6c32 2e67 5631 e7e4 b032
00000160: 43f1 3534 8616 ca33 390b ac34 9d71 e337
00000170: e4b8 3533 d2cb 2733 a42b 4732 b1b5 b631
00000180: 4939 7b39 905d 9a32 505f 0632 b3f3 a633
00000190: f36a 1833 9448 b032 9fb4 fc32 ee7b 7436
000001a0: 09f8 a936 ebda 9638 e215 b732 b3c5 0533
000001b0: b78c dc31 b68d 2932 2283 7638 7934 af34
000001c0: 86f9 1832 f0ee b230 d13d 9432 a306 3c34
000001d0: 5c30 a231 1e74 e830 acea 8233 901e 7a33
000001e0: 0a38 0132 49bd 2d30 fbf6 983a c40b 7a38
000001f0: 6ea9 2d32 f8d9 1834 b2ff d333 c425 6031
00000200: 9e61 a633 a48f a432 dab0 c933 603a b231
00000210: 5d40 d232 426e 3537 fe6d 7e36 aef5 d631
00000220: 05d2 1638 6c9a c439 317d 0e35 1862 9235
00000230: 5737 2034 156e 8237 8569 3c37 082e cb34
00000240: 9b4e f632 eca8 1233 3415 a039 701a 2e31
00000250: f736 4332 7efb 9b32 8699 6537 f7ab b531
00000260: f2ea 3139 87aa 0a32 06d2 fc30 b276 eb32
00000270: 6032 9037 0398 0b34 5c68 2c33 3a8d 6d31
00000280: 8248 2134 b45b ab33 da64 c730 6575 1a30
00000290: 2a19 a032 4299 3a31 ac94 3635 a9bc 8331
000002a0: 599a a832 7786 e938 5b30 cc32 64c5 b235
000002b0: a7f1 5233 602a 4c33 ca32 c131 9dd2 da32
000002c0: 4488 a030 6ddb 0d35 e9f1 c530 5fbe a738
000002d0: 99d1 0a32 461c 2133 2607 1e34 22a6 1333
000002e0: 8d9a 6b32 88f7 8932 26cb 3839 b8d5 9f32
000002f0: 59b2 2230 5988 8731 ec1b 1234 82a6 4932
00000300: a647 be31 a669 3336 fc7c 3e35 723d 9a33
00000310: 9a37 8e33 25b8 5d38 59ff 6935 a1ea 2637
00000320: 22c5 f932 40de 6e31 75dc 7f30 7413 6534
00000330: 6912 3433 c282 ee38 0fe1 da31 054f cd30
00000340: e779 9434 c4e2 0b38 c94b 5033 ce37 0230
00000350: c15a 4637 46e4 d92f d293 1034 d987 db34
00000360: dc8f d332 aab2 ae38 c783 a731 9ff0 ee34
00000370: 85f3 0a34 a7ee 6e31 004f eb2f 54da 2f34
00000380: 3053 1238 f303 fa32 7376 a937 e192 8037
00000390: 86d4 af32 c99c 4e30 7b18 4b38 d325 1b34
000003a0: 50b9 1b32 41f2 d031 08e1 5835 cfbb 9839
000003b0: 1fb1 be31 5095 3c32 dd50 2932 7400 ca34
000003c0: c9b1 e032 e971 cd32 ab4c a532 9e50 0830
000003d0: 0576 7b33 6ded c531 5175 ed30 5145 8637
000003e0: c775 a131 aaca 8231 28a7 cd31 7bf1 d832
000003f0: cd5d 6f31 b793 3a38 a081 3a34 6aa8 6a35
9.14565e-09 2.9371663e-09 3.661379e-09 1.17549686e-08 9.3501396e-05 1.4506842e-05 2.2060538e-09 9.936798e-06
9.833706e-09 9.411597e-10 0.00034860783 2.5466826e-09 7.319932e-08 4.5960196e-06 2.5224407e-09 7.2831675e-08
3.520535e-06 8.210975e-06 0.00018109883 1.2384362e-09 1.1529068e-08 9.0372356e-05 4.8010396e-09 1.1573254e-07
5.1020703e-09 9.895705e-10 1.9708912e-09 5.1947895e-09 6.416374e-09 1.4939305e-08 1.1721333e-09 1.1772551e-08
1.4676547e-07 3.9022034e-05 4.6395403e-08 1.2982038e-07 3.759956e-09 8.751102e-07 2.5771678e-07 3.455053e-08
8.571184e-09 3.6430037e-10 1.3357082e-05 0.0012243394 3.604703e-08 8.029098e-09 5.733056e-10 8.02141e-09
4.3581694e-09 2.0544029e-08 3.9896047e-08 2.6100957e-09 1.7839787e-09 3.7622234e-09 9.421045e-09 2.6223217e-08
4.353204e-09 1.7727341e-08 8.784549e-06 5.983921e-09 4.038938e-08 1.6878781e-08 8.87704e-05 4.273074e-09
3.401974e-08 0.00010177928 9.35754e-09 1.0221603e-08 9.418731e-09 2.571412e-09 0.0006709648 2.7216893e-09
4.5573225e-09 2.6680018e-09 5.131012e-07 4.777623e-09 9.1878585e-09 2.7329822e-10 5.0507345e-09 4.4672774e-08
1.1298303e-07 1.5590743e-08 3.6744943e-08 2.4161302e-09 2.1168663e-08 1.3749026e-08 3.119975e-09 2.059319e-08
1.6944709e-07 9.410455e-08 3.2045662e-07 2.7113414e-05 4.2310504e-08 3.906809e-08 1.1593247e-08 5.317553e-09
0.00023958566 1.7970507e-08 7.821498e-09 7.774306e-08 3.5487528e-08 2.0522101e-08 2.9418798e-08 3.643097e-06
5.0654676e-06 7.193334e-05 2.1313955e-08 3.1146282e-08 6.41884e-09 9.869316e-09 5.8773097e-05 3.263447e-07
8.9042995e-09 1.3019115e-09 1.7257578e-08 1.7511279e-07 4.7203184e-09 1.6913224e-09 6.096283e-08 5.8235457e-08
7.52153e-09 6.3206024e-10 0.0011670286 5.9615602e-05 1.0108449e-08 1.42354e-07 9.871964e-08 3.2617757e-09
7.747734e-08 1.9157433e-08 9.391961e-08 5.1871183e-09 2.4476487e-08 1.0814112e-05 3.7912973e-06 6.2561503e-09
3.5958383e-05 0.00037499086 5.30813e-07 1.0906397e-06 1.4921294e-07 1.5548469e-05 1.1230241e-05 3.784519e-07
2.8673915e-08 3.4146908e-08 0.00030533376 2.533536e-09 1.1362991e-08 1.815874e-08 1.3685209e-05 5.2873435e-09
0.0001696756 8.071431e-09 1.8395105e-09 2.7411577e-08 1.7189595e-05 1.3000685e-07 4.0141785e-08 3.4568317e-09
1.5020672e-07 7.979489e-08 1.4507819e-09 5.61917e-10 1.8637895e-08 2.715368e-09 6.801663e-07 3.83405e-09
1.9627963e-08 0.00011135352 2.3770715e-08 1.3319482e-06 4.9114217e-08 4.753599e-08 5.6228133e-09 2.5474316e-08
1.1680261e-09 5.28459e-07 1.4402392e-09 7.99864e-05 8.080314e-09 3.7511448e-08 1.4717497e-07 3.43772e-08
1.3713941e-08 1.6061463e-08 0.00017623286 1.8607224e-08 5.9188704e-10 3.944518e-09 1.3607468e-07 1.1737599e-08
5.5378733e-09 2.6734574e-06 7.096239e-07 7.182361e-08 6.622504e-08 5.2862004e-05 8.7170844e-07 9.949e-06
2.907706e-08 3.4759893e-09 9.308175e-10 2.1334364e-07 4.192626e-08 0.0001137308 6.3702212e-09 1.4938172e-09
2.7655844e-07 3.3351374e-05 4.84977e-08 4.737303e-10 1.182285e-05 3.9634268e-10 1.3464822e-07 4.089077e-07
2.4629053e-08 8.330245e-05 4.875321e-09 4.450603e-07 1.2940843e-07 3.4769216e-09 4.2802384e-10 1.6377572e-07
3.4886587e-05 2.9105626e-08 2.0201527e-05 1.5327185e-05 2.0469326e-08 7.516517e-10 4.842177e-05 1.444926e-07
9.064323e-09 6.081138e-09 8.0793734e-07 0.00029131628 5.549864e-09 1.097699e-08 9.855481e-09 3.7625762e-07
2.615788e-08 2.3916941e-08 1.9243393e-08 4.9591076e-10 5.854783e-08 5.760447e-09 1.7277363e-09 1.6006323e-05
4.6991064e-09 3.806538e-09 5.9852887e-09 2.5255522e-08 3.4832397e-09 4.4483426e-05 1.7369757e-07 8.741687e-07
