Results/CE/Contrast experiment/DFENet/best.pt (torch, 443377 bytes, 132 tensors)

exp_avg f4 [18, 6]
00000000: 2a91 c134 411c c9b8 c978 b4b7 84e9 1e36
00000010: 8e24 9db9 d9b5 29b9 82e8 8036 f1ab 32b9
00000020: c7eb 65b9 27ea 2137 7dcf 96ba 99ec a5ba
00000030: 528e 0235 884a e2b7 7de2 9f36 7e87 0536
00000040: 51ac 50b9 864a d5b8 c684 e831 2afe 2fb8
00000050: 809a 07b7 ec6c bfb5 6d38 d8b8 15aa 0539
00000060: cbb8 4e35 0abd 42b9 37dd 63b8 6f9a d935
00000070: b3f6 54ba eee4 85b9 4b11 7731 9f08 b6b8
00000080: 1872 d537 af66 1634 4e40 cfb9 9bf7 d738
00000090: 4f0c bb34 351e 4f38 426c ff38 1a59 5735
000000a0: 43e2 3d39 e92b bf38 1e64 9235 abf7 89b9
000000b0: b396 a4b9 46a8 1034 7628 56b9 99e5 aab9
000000c0: 0f16 0836 d7e4 67b9 a47b 2ab7 7dab 0736
000000d0: 847a b0b9 261b 1439 ab6f 6d36 050a 85b9
000000e0: 993b c438 9d55 1e36 7abf dbb9 e644 7539
000000f0: 75ae e6b5 f96a 3539 275a d138 2a53 3fb4
00000100: 9f98 ce39 7e51 1bb9 0b1a 2536 ff38 4238
00000110: 87fa bd39 e1a0 bb36 c13b a738 5af5 bd39
00000120: c471 01b5 75a7 9138 dac2 f237 a4d1 5035
00000130: 03c9 0139 5e80 5cb8 a75e 1ab6 5f14 3539
00000140: 4cdb a3b8 f319 00b7 03cb 1239 cd1c 9538
00000150: 2528 ed34 bff0 f836 4fff 7b38 f1b4 9a36
00000160: 5f56 21b9 7d0a 0737 2208 4e36 1561 33b9
00000170: cb5c cf38 e3a7 d136 5cca 53b9 13fd b637
00000180: 05b6 eb36 370f f8b9 ca87 5339 ed3c 8037
00000190: fe9f 0eba d941 ea38 b375 1db6 88e9 6439
000001a0: 3eeb 36b9 5839 68b6 3e18 5f39 eebe 9bb8
3.6054672e-07 -9.5896896e-05 -2.1513917e-05 2.3679759e-06 -0.0002997261 -0.0001618484 3.8417647e-06 -0.00017039456
-0.00021926976 9.650866e-06 -0.0011505928 -0.0012659013 4.863588e-07 -2.6976006e-05 4.764936e-06 1.9897411e-06
-0.00019900619 -0.000101705125 6.7671833e-09 -4.195996e-05 -8.082599e-06 -1.4262309e-06 -0.00010310193 0.00012747229
7.700989e-07 -0.00018571704 -5.432704e-05 1.6212706e-06 -0.0008123919 -0.00025538303 3.595306e-09 -8.680042e-05
2.5444708e-05 1.4007195e-07 -0.00039530027 0.00010298119 3.484042e-07 4.938078e-05 0.00012179512 8.02234e-07
0.00018108734 9.1157686e-05 1.0906986e-06 -0.00026315203 -0.00031392797 1.3472263e-07 -0.00020423703 -0.0003259599
2.027842e-06 -0.00022115126 -1.0161577e-05 2.0216387e-06 -0.00033660617 0.00014124493 3.5380751e-06 -0.00025375202
9.357109e-05 2.3593668e-06 -0.00041913596 0.00023390687 -1.7187109e-06 0.00017301356 9.982689e-05 -1.7818516e-07
0.00039405093 -0.0001481231 2.4602075e-06 4.6306286e-05 0.00036235547 5.591763e-06 7.9743106e-05 0.0003623169
-4.8221796e-07 6.94533e-05 2.8939383e-05 7.7791105e-07 0.00012377281 -5.257164e-05 -2.3002883e-06 0.00017269094
-7.813293e-05 -7.635436e-06 0.00013999273 7.110238e-05 4.41739e-07 7.4190025e-06 6.0080838e-05 4.610622e-06
-0.00015386332 8.049069e-06 3.0701126e-06 -0.00017106936 9.887813e-05 6.24823e-06 -0.00020197913 2.1813938e-05
7.0247356e-06 -0.00047313582 0.00020173113 1.528716e-05 -0.0005440711 0.000111702546 -2.3463333e-06 0.00021830772
-0.00017444507 -3.4604072e-06 0.00021275968 -7.4265394e-05

exp_avg_sq f4 [18, 6]
00000000: 63ad 4b31 386d d236 c37f 8436 22bf 4b31
00000010: fc8a 0038 77f6 0637 d570 a133 3aba bb38
00000020: 87c4 6438 e674 a133 15fc 9839 2bda 1f39
00000030: 2935 dd30 c994 2c36 b9ab 9a35 21ed dd30
00000040: 8903 1f37 2427 3b36 0fb1 1b31 36b3 4136
00000050: 5f13 c235 cbb7 1a31 ca65 7b37 297f 9236
00000060: 719e 4832 55b3 2738 c526 8437 cd44 4a32
00000070: 368c 8c39 0653 0b38 e382 1c31 2c24 2e37
00000080: 9580 4f36 c890 2331 b639 9e38 fcf8 c236
00000090: df70 3532 6af8 3d38 053a 0537 827f 2f32
000000a0: cf4d 4d38 572a 7736 6443 0733 e3d3 4e37
000000b0: 94aa 9f36 1466 0633 b792 a637 a975 6336
000000c0: b73b d432 757d 2b36 c362 9d36 f926 d332
000000d0: c860 df35 fc79 b536 4ac2 1833 79fd aa37
000000e0: 0d45 ef36 ae8d 1833 2651 8537 493a 0137
000000f0: 9d6c 2733 5c7c a838 fa5e 0837 a6d2 2533
00000100: 396a a138 e045 e036 c384 0933 5b64 6438
00000110: 5345 7a37 469d 0833 1881 6538 5fb7 2137
00000120: a2b9 9b31 d3ca 0237 a459 8d35 a934 9b31
00000130: eaa2 0037 b5c2 6135 e46d 9c31 18e4 8a36
00000140: 2e4e 3836 0d6f a731 302a ee36 08ac b135
00000150: 5920 ba31 3a47 7b37 0c40 b335 13f7 b031
00000160: 112a 8837 0f2d 8f35 c5a4 ca31 e0c0 1b38
00000170: d94e e735 3bf3 ca31 2b5a 5438 6dc7 8935
00000180: 2ce9 d632 b2ec 0039 bc57 d336 d8b1 d832
00000190: ce2a 3d39 ea0b 8536 a731 d131 ae68 3b38
000001a0: a716 5c36 fd19 c831 764a 6638 0a31 cd35
2.9638947e-09 6.2712024e-06 3.94878e-06 2.9649034e-09 3.0647017e-05 8.044407e-06 7.517671e-08 8.951542e-05
5.4542466e-05 7.5184104e-08 0.00029179515 0.00015244696 1.6094975e-09 2.5716602e-06 1.1523872e-06 1.6147262e-09
9.477962e-06 2.7887954e-06 2.2656115e-09 2.8863556e-06 1.4459764e-06 2.2514424e-09 1.4984465e-05 4.3659425e-06
1.1677558e-08 3.998292e-05 1.575368e-05 1.1773591e-08 0.00026807346 3.3217504e-05 2.2775388e-09 1.037963e-05
3.0920248e-06 2.380192e-09 7.5447766e-05 5.810636e-06 1.05612505e-08 4.5292465e-05 7.9409265e-06 1.0215333e-08
4.8948274e-05 3.6830513e-06 3.149343e-08 1.23278905e-05 4.758427e-06 3.1292146e-08 1.9857061e-05 3.3894123e-06
2.4707203e-08 2.5554011e-06 4.690462e-06 2.4581356e-08 1.6642962e-06 5.408421e-06 3.5566963e-08 2.0383612e-05
7.1307936e-06 3.5519115e-08 1.5892623e-05 7.70257e-06 3.89815e-08 8.034028e-05 8.128345e-06 3.860864e-08
7.696864e-05 6.6838547e-06 3.2018544e-08 5.44529e-05 1.4917302e-05 3.1808007e-08 5.4718083e-05 9.639042e-06
4.5321977e-09 7.7958275e-06 1.0531407e-06 4.5170805e-09 7.667326e-06 8.410237e-07 4.5526907e-09 4.139274e-06
2.7463643e-06 4.8729647e-09 7.097864e-06 1.3237595e-06 5.41699e-09 1.497735e-05 1.3355179e-06 5.1503632e-09
1.6232052e-05 1.0667444e-06 5.897706e-09 3.713451e-05 1.7233789e-06 5.906626e-09 5.0628714e-05 1.0265336e-06
2.5018913e-08 0.00012295207 6.2985036e-06 2.5226583e-08 0.0001804039 3.965096e-06 6.0883454e-09 4.4681765e-05
3.279574e-06 5.8237206e-09 5.490562e-05 1.5287962e-06

exp_avg f4 [18]
00000000: 7952 19b9 7a8f 46b9 ad6c 92b8 8e2d 0bb9
00000010: 96d0 f4b9 5858 a7b9 c69c 1bac 5a14 dead
00000020: 320d 07ae f8d6 32ae fa80 a6ad 8772 9e2d
00000030: d323 b13a 698f 4ebb e02d bd3a b9fe f43a
00000040: c6c9 633b f9ad b0ba
-0.0001462194 -0.000189362 -6.982065e-05 -0.00013273043 -0.00046694715 -0.00031918543 -2.2113852e-12 -2.5247516e-11
-3.0707166e-11 -4.0663445e-11 -1.8929292e-11 1.801338e-11 0.0013514705 -0.0031518585 0.0014433227 0.0018691636
0.0034757718 -0.0013479582

exp_avg_sq f4 [18]
00000000: 8d74 3637 f99f 1939 ffbb 7836 cc0b 0136
00000010: 90cf 9638 452b 9837 a290 a821 c8e7 a521
00000020: 1cc6 0121 4eb8 5521 6134 f521 84e0 d221
00000030: 34b4 773a 1a1a 5f3b 3e8a 8b3a 3aa9 8c3b
00000040: 442e 6d3c 8143 b53b
1.0875182e-05 0.00014650811 3.7064308e-06 1.9229365e-06 7.191219e-05 1.8139961e-05 1.1422407e-18 1.1242187e-18
4.3969096e-19 7.241113e-19 1.661571e-18 1.4289582e-18 0.00094491546 0.0034042657 0.0010646058 0.0042926343
0.014476363 0.0055317287

exp_avg f4 [6, 6]
00000000: cff4 5eb9 559b 8f39 95b1 ca38 c609 84b9
00000010: adcd b137 713e 31b9 8d08 0bb9 22ba 6e38
00000020: 6f8e da36 17cf 0c39 9786 7039 28e7 4eb9
00000030: 4927 47b8 60c3 1339 192c eeb6 03d4 81b9
00000040: bab8 9ab9 c729 6b39 230b d438 1117 a1b9
00000050: 43c8 0b39 d63a 153a af6c 043a 87ad 64b9
00000060: f897 3d39 693f b6b8 6580 e3b8 cdf8 73b9
00000070: 7982 f1b9 c5a2 d439 29e7 71b9 f1c6 ff38
00000080: ac8d 92b7 d8c2 e8b8 9a8a 0739 6424 eeb6
-0.00021262768 0.00027390817 9.665188e-05 -0.00025184284 2.119582e-05 -0.00016903297 -0.00013259258 5.691697e-05
6.5134877e-06 0.00013428587 0.00022938322 -0.00019731803 -4.7481884e-05 0.00014091795 -7.0980864e-06 -0.00024762758
-0.000295108 0.0002242691 0.00010111022 -0.000307255 0.00013330676 0.0005692666 0.00050515955 -0.00021808418
0.00018081057 -8.690247e-05 -0.00010848119 -0.00023266971 -0.00046064312 0.00040557064 -0.00023069665 0.00012196403
-1.7470527e-05 -0.000110989145 0.00012926236 -7.097189e-06

exp_avg_sq f4 [6, 6]
00000000: 3180 d337 a638 5037 f0c2 7a38 5ab4 0239
00000010: 10b3 e839 36e1 6339 8bc8 5c37 4aba 0a36
00000020: 7404 6537 ebad 6a37 8a7f b438 3902 2f38
00000030: 582e 5336 ff61 3636 573f 1736 0fa9 7936
00000040: d514 5037 6146 d036 4ab2 8036 2bcb 9e37
00000050: ddf8 b237 500d cb38 29a1 5439 d45e 0639
00000060: 0867 3538 f7a0 f136 1909 0e38 bf1f b737
00000070: 9072 4039 c40f a538 be7c 1837 c211 1637
00000080: a2f3 1e37 95fd b037 5dde 8138 82e0 f037
2.5212854e-05 1.2410956e-05 5.9786194e-05 0.00012464952 0.000443839 0.00021732305 1.3159714e-05 2.0672037e-06
1.36505005e-05 1.398798e-05 8.606825e-05 4.172532e-05 3.1468426e-06 2.7177155e-06 2.2537622e-06 3.7202296e-06
1.2402616e-05 6.2070762e-06 3.835453e-06 1.8929675e-05 2.133514e-05 9.682274e-05 0.00020277932 0.00012814562
4.3249718e-05 7.2010985e-06 3.386391e-05 2.1830083e-05 0.00018353225 7.87075e-05 9.08895e-06 8.944831e-06
9.474259e-06 2.1098918e-05 6.192618e-05 2.8714774e-05

exp_avg f4 [6]
00000000: 38cf f83a 2ca9 c7ba 8cde 1f3b 6c5a a5bb
00000010: 6ac6 573b a17a aa3a
0.0018982654 -0.0015232912 0.0024394123 -0.0050461795 0.003292466 0.0013006517

exp_avg_sq f4 [6]
00000000: a0c6 863c 2bfb fb3a 9bb7 da39 c238 743c
00000010: 04c3 463b c0df 293b
0.016452134 0.0019224634 0.00041716997 0.01490611 0.003032864 0.002592072

exp_avg f4 [2048, 6]
00000000: 7d98 a1b4 fcf3 ae34 8826 03b4 f2d6 8cb5
00000010: ec77 5cb4 7755 01b5 cd87 eaad ae06 c6b2
00000020: 3015 28b2 1285 59b2 66e8 89b2 17e1 7bb1
00000030: d5ed 642f 1647 d4ae ecd6 36ac dbcc ecae
00000040: 0502 0530 b077 ba2e 802b c638 a827 d5b7
00000050: 2cfe 3eb7 caa3 1137 b57f 05b8 b780 e437
00000060: d7ef 7334 d9b4 e135 a465 f135 7412 bab5
00000070: e531 4fb7 99ba 2837 8844 5637 6977 8135
00000080: 2870 5a37 4035 02b7 ce2c d9b7 cad3 8f36
00000090: f28d a337 e375 b0b7 707a cd36 4d36 b5b7
000000a0: 6ba3 a937 1aac 45b6 23ba 7336 b93f 91b7
000000b0: 5446 4737 f1e5 6bb7 1869 28b7 ddc0 1938
000000c0: cc4a 11b3 dfbe 9834 3ce1 3c35 872d 0fb4
000000d0: d1f8 97b5 69d5 c634 08e4 ceb7 0458 4b37
000000e0: d31d d636 1561 5c37 1410 a636 fc50 74b7
000000f0: 6ab1 0f38 e5b6 1837 195b fdb7 364b 4438
00000100: e02d 88b8 0c53 cf37 cfdb a535 0763 23b5
00000110: e4c5 02b5 3af2 f3b5 4147 8eb4 b10e 8fb5
00000120: 5042 cb36 6c93 8eb6 8789 0136 1067 a8b6
00000130: 85fb efb6 9c95 9a36 de5f 1f30 178c dc2f
00000140: f04a e02f 541b de2f 667e 7d30 66a6 0a30
00000150: 8a8d 84b7 ee3e 6837 695d 9eb7 f01e 6737
00000160: 9b83 cfb7 6126 2238 0bc3 90b2 688c cf31
00000170: b85f 7eb1 a54f 5734 f79d 5ab3 67b3 2632
00000180: cefe 4337 e5e1 ca37 9494 83b6 f0ef ddb4
00000190: d854 94b8 2648 1a38 b495 7737 d4cc 7ab7
000001a0: 3c7e c7b7 bfc7 0237 bb67 0736 88c5 9937
000001b0: 76cb 4db4 ed4b 3734 1094 05b4 3d71 b6b4
000001c0: a415 e533 6923 0834 2faa 89af 2694 5c2f
000001d0: 429a 3329 6203 b7aa c921 89ae 372a d92e
000001e0: 93bb 02b8 86f6 32b8 2a98 c836 824a 8b37
000001f0: ed6f 1638 6b7a fb37 fc47 cc31 f426 8aaf
00000200: 6758 e1b1 775a 0db2 359f cab2 9c9c 1731
00000210: edac 8436 d934 e836 7c34 6135 229f 4bb6
00000220: f086 a4b7 c83e f736 f307 bf35 e8f6 ddb6
00000230: b7cb 7cb6 af1e 3437 37b8 acb7 fe5e 5b37
00000240: c910 5cb8 d8e2 9936 a9c3 90b7 dd46 8cb7
00000250: 2d61 0139 8dbb 91b8 4a44 e736 9183 2437
00000260: b6ae d035 8a3f 3c36 3d93 8bb7 6e61 5836
00000270: 1b7d 0238 7bad 1f38 15f1 c437 7f64 4cb7
00000280: 84e6 9eb8 a8d2 92b6 7fcc 1235 8b3f b435
00000290: ddad a735 6b77 93b4 c145 08b6 962d b7b5
000002a0: 4846 9337 bcf6 a6b7 1b03 8ab7 35ed d537
000002b0: 0d3e 5ab6 e712 dfb6 8a27 3db5 1dc9 1b36
000002c0: e1cf 5db1 3885 2eb7 1ca0 83b7 af5a bdb5
000002d0: eaec 33b5 2b80 1735 38ef 46b5 cc2a bbb5
000002e0: ed85 06b5 7455 2235 3bd0 2d38 98f6 0938
000002f0: ad2c 93b3 d178 0638 fc11 edb8 5472 4e38
00000300: 095e d8b6 4d21 1737 503a 34b4 9dbb 43b6
00000310: d623 0237 8baf 37b7 9718 ab35 c7de b0b4
00000320: ad62 cf35 0e23 65b4 c34f eeb5 ee0b fbb4
00000330: a60f 3337 556c df36 fb87 0937 7765 87b5
00000340: 44a7 c0b7 92e9 9a35 493d 8ab8 6e6a cfb6
00000350: 2157 10b8 41d6 bc36 d40d 3739 b7a9 b0b8
00000360: f736 e036 f61e 2e37 3389 5136 42b6 4136
00000370: d8ce 47b6 fb2d 58b7 9b49 e0b5 c825 2f36
00000380: 29e5 61b6 21aa b8b5 f13a 9335 35bc c535
00000390: b0f3 5435 4ee8 8435 70cc 4e35 e959 aab3
000003a0: 2d49 02b6 e57d ecb4 f0f4 a2b7 fbe6 3938
000003b0: fd44 87b5 4521 efb7 12a7 e136 ee23 c6b7
000003c0: b832 e638 6120 3237 4545 cc37 ac84 aeb7
000003d0: 37af 63b9 f345 8038 290f 2036 e35c a036
000003e0: 4119 76b5 0782 47b5 aea3 e6b6 653d 24b5
000003f0: 04f0 e930 516e 7db2 fe3f 8932 839e 00b3
-3.0099537e-07 3.2587548e-07 -1.2214343e-07 -1.049337e-06 -2.0532724e-07 -4.818061e-07 -2.6663028e-11 -2.3053271e-08
-9.7837045e-09 -1.2661319e-08 -1.6054582e-08 -3.6653256e-09 2.0820974e-10 -9.653271e-11 -2.5983061e-12 -1.0768427e-10
4.838799e-10 8.4795615e-11 9.449478e-05 -2.5410045e-05 -1.13840615e-05 8.680809e-06 -3.1828607e-05 2.7239656e-05
2.2718392e-07 1.681644e-06 1.798548e-06 -1.386345e-06 -1.2349778e-05 1.0057026e-05 1.277135e-05 9.646002e-07
1.3019926e-05 -7.761002e-06 -2.588928e-05 4.2863876e-06 1.9497213e-05 -2.103573e-05 6.1237297e-06 -2.1602167e-05
2.0222467e-05 -2.9455464e-06 3.6318168e-06 -1.731502e-05 1.1877699e-05 -1.4060629e-05 -1.0038049e-05 3.665766e-05
-3.382847e-08 2.8451083e-07 7.0363217e-07 -1.3334476e-07 -1.1322792e-06 3.703565e-07 -2.4663299e-05 1.2120236e-05
6.381169e-06 1.31356255e-05 4.9490573e-06 -1.4562389e-05 3.4259087e-05 9.1024895e-06 -3.020237e-05 4.6800087e-05
-6.49353e-05 2.4714995e-05 1.2357431e-06 -6.0866336e-07 -4.871674e-07 -1.8175408e-06 -2.6501405e-07 -1.0658606e-06
6.0575912e-06 -4.249092e-06 1.930255e-06 -5.018788e-06 -7.152036e-06 4.6069745e-06 5.79801e-10 4.0117307e-10
4.079861e-10 4.0400983e-10 9.2220487e-10 5.0440574e-10 -1.5801535e-05 1.384293e-05 -1.8878565e-05 1.3775876e-05
-2.4737607e-05 3.8659553e-05 -1.6852502e-08 6.0404552e-09 -3.7016274e-09 2.005241e-07 -5.090075e-08 9.703263e-09
1.1682232e-05 2.4185467e-05 -3.921401e-06 -4.1339035e-07 -7.072993e-05 3.6783655e-05 1.4757203e-05 -1.49488515e-05
-2.3781431e-05 7.795111e-06 2.0176947e-06 1.8331004e-05 -1.9166131e-07 1.7070825e-07 -1.2440455e-07 -3.3982533e-07
1.066758e-07 1.2678869e-07 -2.5041078e-10 2.0061516e-10 3.987978e-14 -3.2509677e-13 -6.23604e-11 9.8755164e-11
-3.1169107e-05 -4.26681e-05 5.9781787e-06 1.6604787e-05 3.5867026e-05 2.9978537e-05 5.945365e-09 -2.5129732e-10
-6.558412e-09 -8.2278495e-09 -2.3588294e-08 2.2062414e-09 3.9540378e-06 6.920291e-06 8.3895407e-07 -3.0341985e-06
-1.9613159e-05 7.3684823e-06 1.4232922e-06 -6.615057e-06 -3.7669504e-06 1.073598e-05 -2.058978e-05 1.3075534e-05
-5.246772e-05 4.5861634e-06 -1.7257249e-05 -1.6722299e-05 0.000123386 -6.949073e-05 6.8922864e-06 9.805794e-06
1.5548055e-06 2.8051168e-06 -1.6638654e-05 3.224322e-06 3.111093e-05 3.807012e-05 2.3477283e-05 -1.2182746e-05
-7.576964e-05 -4.3756627e-06 5.468682e-07 1.3429539e-06 1.249307e-06 -2.7467772e-07 -2.0306181e-06 -1.364783e-06
1.7556493e-05 -1.9903637e-05 -1.6452328e-05 2.5502037e-05 -3.252065e-06 -6.6481184e-06 -7.0465524e-07 2.3213863e-06
-3.2277898e-09 -1.0402226e-05 -1.5690974e-05 -1.410799e-06 -6.702745e-07 5.643839e-07 -7.4108857e-07 -1.3945041e-06
-5.011378e-07 6.0474053e-07 4.1440344e-05 3.2893004e-05 -6.8533474e-08 3.206061e-05 -0.000113043905 4.9220704e-05
-6.4482488e-06 9.008055e-06 -1.678502e-07 -2.916647e-06 7.7569475e-06 -1.0948522e-05 1.2747649e-06 -3.2944646e-07
1.545142e-06 -2.134004e-07 -1.7755596e-06 -4.6761073e-07 1.0672875e-05 6.6585294e-06 8.197497e-06 -1.0087814e-06
-2.2966073e-05 1.1541872e-06 -6.591768e-05 -6.181471e-06 -3.441342e-05 5.627779e-06 0.00017457391 -8.423946e-05
6.682119e-06 1.0378417e-05 3.1223287e-06 2.886533e-06 -2.977371e-06 -1.2885309e-05 -1.6710723e-06 2.6099024e-06
-3.3661001e-06 -1.3758582e-06 1.0969508e-06 1.4732419e-06 7.9330766e-07 9.902376e-07 7.7038476e-07 -7.9325964e-08
-1.9414103e-06 -4.4050026e-07 -1.9425963e-05 4.4322554e-05 -1.0078362e-06 -2.8506513e-05 6.724972e-06 -2.362017e-05
0.00010976702 1.0617166e-05 2.4350951e-05 -2.0804197e-05 -0.0002171368 6.116545e-05 2.3850682e-06 4.779185e-06
-9.167889e-07 -7.432249e-07 -6.873589e-06 -6.11841e-07 1.7021198e-09 -1.4751621e-08 1.5978e-08 -2.9946488e-08

exp_avg_sq f4 [2048, 6]
00000000: e134 d132 563a c832 a9b6 1a32 f1f8 c132
00000010: 339b 6632 8323 0433 bf2d b22f db10 9431
00000020: 814f 0b30 5b97 f430 37d7 b331 0599 bf30
00000030: cce7 b930 9975 c830 8711 0c30 1b96 aa30
00000040: b622 0d31 9e21 a330 ce8b 0a36 4429 5a36
00000050: 0608 9036 393e 1936 7f05 0a36 4594 6835
00000060: eaf1 b631 1790 3232 68ec 8031 1912 3032
00000070: a3a2 df32 6b9d 8931 e8f5 9f32 1bf9 8c32
00000080: f7ae 1e32 830e 0033 20c0 2833 4f6d 5032
00000090: 76ba b433 5f2b 3034 db83 8c33 d648 a734
000000a0: bc63 8234 6727 0534 65f1 7933 bed4 9334
000000b0: 9867 2834 2a70 f733 4e03 0035 d26b fa33
000000c0: f02e 9c2f 365f f330 88f2 0530 6c52 9c30
000000d0: 1a35 3031 b1de 7830 bcdb 3f34 903d 7234
000000e0: 6465 bc33 ea0f 5934 f16a 0035 d91e 6535
000000f0: 4f88 e633 a4ba 2b35 c054 5634 a9e5 c635
00000100: df85 8834 2067 7b35 d879 0231 aa19 5533
00000110: 50ac 4331 0ce3 3c33 021c 3732 3d33 2232
00000120: 5200 7033 46bb 9232 2712 2d32 0095 4e33
00000130: 83f7 0e33 417a 2732 5b51 7c2f a772 7030
00000140: b627 5d2f 7c9c 1e2f 64ea 0031 c0cc a52f
00000150: 615d de34 64a4 b833 dc42 8234 4385 9635
00000160: 64ab 2134 cd24 6233 79c9 2630 658d f130
00000170: bdb9 0830 ad1c 8832 eefe 3932 f813 7330
00000180: 8102 9c32 f36d 6733 7102 7733 bed5 bd32
00000190: bc13 fc33 0387 cd33 1e74 a432 59cd 1735
000001a0: 2760 2733 790d 0b35 fe12 2834 ab4c 9e34
000001b0: 2382 8430 4a41 2d31 b098 8c30 96b1 e831
000001c0: 14f5 b831 e856 c030 c7e1 2931 ca44 0331
000001d0: be05 1030 50d5 1f30 4a35 d630 4595 ed30
000001e0: deff 3434 8e29 b934 5b93 a933 ac9f 5f35
000001f0: 3e68 ba34 157c a335 5a2c 9331 820f 0532
00000200: 4fd1 3531 a7f3 ce31 6d05 7d32 6832 4531
00000210: b77e 0332 7a46 c432 0211 8e32 a755 bc32
00000220: 189a 8433 b449 8e32 2af5 4532 9ec7 3333
00000230: d697 7a32 b053 7034 8fe0 bf34 6030 6533
00000240: 926f a735 ae59 ac35 c5e2 b234 4c47 c334
00000250: c9c2 9636 8e1d b633 977e 3e33 ac14 ee32
00000260: 57ef b132 71be 3334 b47c d033 70d2 5c32
00000270: 6c9e 1c35 2926 8c34 2193 1535 2fcf 6c34
00000280: 8e17 8d34 1e5b 3434 6648 8130 fca4 5232
00000290: bfea 0331 8771 8f31 b074 9232 c09f 6331
000002a0: 92ef 7533 730d 0236 8c89 0833 19be 0134
000002b0: bcb4 c235 3139 de34 1385 4d32 f3f3 dc32
000002c0: b214 8a33 6571 bc33 57f1 ce34 035e 7732
000002d0: cc31 9731 43b6 8e32 e73f 9531 489f b732
000002e0: a57f e932 977c db31 2af9 8935 9678 2d36
000002f0: a82b a634 db02 7336 5691 5035 2a15 8036
00000300: 473e c433 5ec8 8d33 c384 0033 23d5 5c33
00000310: 922b df33 c3a0 0533 2544 5a31 7264 9531
00000320: 6eac 0431 6cdd b931 2cb6 0532 71a7 d730
00000330: 093f f132 bd9d a832 8300 4b32 08cf f032
00000340: 5713 3433 b1e2 c132 183f 0b36 47c2 fb35
00000350: 37bc 1335 643e 0e35 43ba f336 57af 0434
00000360: 2bfa 8e33 3d1d 3033 09b8 9e32 8d00 1a32
00000370: fb3b 5f34 53e4 5032 596f 1031 b8fa fb31
00000380: b5b8 e430 668f 4031 f79d bc32 0c04 da30
00000390: 16dd a531 266a e431 beee c031 ff8c 8231
000003a0: 0ebb ae32 59e3 ec31 6a96 f334 0cc4 e134
000003b0: ae16 3d33 5f9b 7634 d2aa 5b35 b675 6c33
000003c0: 76b5 ac34 2881 cd35 a7c7 0335 009e 2f35
000003d0: 35d5 fb35 ffde 4735 d22e a230 d668 b632
000003e0: 2833 2731 7788 bf32 3254 1e32 1077 bb31
000003f0: 9aaf 632e 2a3f 242f f717 e02d af0f 842e
2.4354849e-08 2.3309592e-08 9.005512e-09 2.2581363e-08 1.342305e-08 3.0765943e-08 3.2410516e-10 4.309283e-09
5.068089e-10 1.7796354e-09 5.2340527e-09 1.394057e-09 1.3526402e-09 1.4585338e-09 5.095661e-10 1.241179e-09
2.0537931e-09 1.1869365e-09 2.064498e-06 3.2508551e-06 4.2924685e-06 2.2834995e-06 2.0566802e-06 8.6642495e-07
5.3243996e-09 1.0393726e-08 3.7521666e-09 1.0248663e-08 2.6034575e-08 4.005121e-09 1.8621861e-08 1.6411425e-08
9.236593e-09 2.981552e-08 3.9290285e-08 1.2132047e-08 8.41582e-08 1.6407056e-07 6.5432424e-08 3.115917e-07
2.4286953e-07 1.2400925e-07 5.8194377e-08 2.7535674e-07 1.5683906e-07 1.1522236e-07 4.7688525e-07 1.16611446e-07
2.8409586e-10 1.7707638e-09 4.8729776e-10 1.137392e-09 2.5641556e-09 9.053834e-10 1.78682e-07 2.2560403e-07
8.772875e-08 2.021549e-07 4.7839336e-07 8.5354037e-07 1.0735004e-07 6.397406e-07 1.9961135e-07 1.481899e-06
2.5429378e-07 9.3654853e-07 1.898675e-09 4.961627e-08 2.8474183e-09 4.397866e-08 1.065837e-08 9.441291e-09
5.5879646e-08 1.7081799e-08 1.0074053e-08 4.8098627e-08 3.3287062e-08 9.748477e-09 2.294817e-10 8.747442e-10
2.0113941e-10 1.4425611e-10 1.8759687e-09 3.015881e-10 4.1418664e-07 8.59807e-08 2.4263034e-07 1.1214655e-06
1.5056645e-07 5.2653196e-08 6.067676e-10 1.7575245e-09 4.974046e-10 1.5845524e-08 1.0826382e-08 8.843126e-10
1.8161929e-08 5.3883877e-08 5.751139e-08 2.2099695e-08 1.1738254e-07 9.570615e-08 1.9144917e-08 5.6550704e-07
3.8970168e-08 5.180114e-07 1.5653129e-07 2.9485577e-07 9.641251e-10 2.5211926e-09 1.0229737e-09 6.772278e-09
5.382967e-09 1.3994539e-09 2.4721076e-09 1.910211e-09 5.2395055e-10 5.8147e-10 1.5585695e-09 1.7286444e-09
1.685689e-07 3.448917e-07 7.8964796e-08 8.3306327e-07 3.4721046e-07 1.2180559e-06 4.2833053e-09 7.745145e-09
2.6457945e-09 6.023089e-09 1.4727772e-08 2.8695926e-09 7.654015e-09 2.2849452e-08 1.653871e-08 2.192503e-08
6.1747585e-08 1.6564492e-08 1.1522653e-08 4.1858236e-08 1.4586439e-08 2.2382187e-07 3.573991e-07 5.3362214e-08
1.2474941e-06 1.2841099e-06 3.332008e-07 3.6373456e-07 4.4930243e-06 8.4804114e-08 4.4352955e-08 2.7716247e-08
2.0714351e-08 1.6739956e-07 9.708438e-08 1.2853533e-08 5.834506e-07 2.6104797e-07 5.5720926e-07 2.2054586e-07
2.6280435e-07 1.6796955e-07 9.406562e-10 1.2261122e-08 1.9196447e-09 4.1747543e-09 1.70497e-08 3.3123655e-09
5.7261396e-08 1.9379338e-06 3.1790066e-08 1.2083218e-07 1.4506727e-06 4.1392335e-07 1.1962828e-08 2.5722306e-08
6.42989e-08 8.7750585e-08 3.8546088e-07 1.4398668e-08 4.4003396e-09 1.6613859e-08 4.3437356e-09 2.1376437e-08
2.7182816e-08 6.387903e-09 1.0279812e-06 2.58492e-06 3.0951674e-07 3.6211484e-06 7.769753e-07 3.817161e-06
9.1382894e-08 6.602271e-08 2.992307e-08 5.141659e-08 1.0392172e-07 3.1112688e-08 3.176191e-09 4.34789e-09
1.9306543e-09 5.4093814e-09 7.78304e-09 1.5690899e-09 2.8084758e-08 1.9629505e-08 1.18162715e-08 2.8033824e-08
4.1927105e-08 2.2571244e-08 2.074934e-06 1.87575e-06 5.5035656e-07 5.298991e-07 7.263648e-06 1.2357246e-07
6.6578956e-08 4.1004785e-08 1.847731e-08 8.964105e-09 2.0790314e-07 1.2159108e-08 2.1018052e-09 7.333565e-09
1.664168e-09 2.802119e-09 2.1957915e-08 1.5862738e-09 4.8272666e-09 6.647741e-09 5.6150773e-09 3.7995274e-09
2.0341329e-08 6.8943504e-09 4.5371718e-07 4.205216e-07 4.402562e-08 2.2967059e-07 8.1832434e-07 5.505509e-08
3.2169527e-07 1.531128e-06 4.9091835e-07 6.54225e-07 1.8763009e-06 7.445778e-07 1.1800358e-09 2.1235262e-08
2.4330777e-09 2.2297383e-08 9.215954e-09 5.455952e-09 5.176979e-11 1.4938153e-10 2.5476494e-11 6.005451e-11

exp_avg f4 [2048]
00000000: 8a6b e5b5 1709 4ab3 6bd2 78b2 eb55 25b9
00000010: ba8e 8734 1901 a6b6 c1af 87b7 f4f6 0cb8
00000020: 3de8 ecb4 a4ad 4038 8638 01b7 70ae 46b6
00000030: 98d0 fcb6 01db 2cb1 505e fe35 40e7 8db4
00000040: 50b6 36b8 b051 e236 89ba 82b4 5415 dbb0
00000050: 28ee 8338 c6a7 8eb3 6d1c 1eb7 540c 8eb7
00000060: 73bd f537 f1d0 3037 e844 92b8 0a0d feb4
00000070: d500 8537 224e 93b7 f239 8cb5 6a34 3bb6
00000080: 5b5f d635 237d 9db4 fc87 1bb7 a02d 9038
00000090: a1a5 18b7 fb87 8235 6514 30b4 79eb 3c37
000000a0: b820 03b9 28b4 75b5 bad3 5632 6060 0bb8
000000b0: bf94 00b1 e5d2 8fb8 b80c b0b6 b5e4 dbb6
000000c0: e3e8 9ab7 eb0a 9738 41e7 d3b6 bbfe 73b7
000000d0: a31a 88b6 cd12 fe36 8b39 4e38 252d 2bb1
000000e0: 4573 3cb2 aeee 2832 8c35 7d37 50d7 bfb7
000000f0: 23ec f1b4 0f43 06b8 7704 81b7 eb5f 1435
00000100: 0fb5 5237 ea2f 42b4 bcd8 d7b7 91d8 7f38
00000110: 04c9 f5b5 bd05 2738 0b8c 03b4 793d a037
00000120: 3102 a1b6 3597 5bb8 ee30 9537 ffe2 36b6
00000130: 8f74 3ab7 03d1 4aa9 918d 6fae f324 1eb8
00000140: 6bda 5fb7 8666 a9b5 9e1c bbb5 42ce fcb4
00000150: 0600 2038 cfda a7b7 2aef 8bb7 7d50 99b6
00000160: 6b07 ba37 8845 629c 4c6e 08b1 e436 cbaf
00000170: 73b9 31b5 8d7f ddb8 3cab e8b6 e947 6538
00000180: 6d56 5fb5 2d31 93b8 74ef 7135 27be 8936
00000190: 2040 7bb5 a1f3 a8b4 d85b 54b4 1d45 f2b4
000001a0: de40 8cb4 3248 c9b3 07be c3b3 bacc e0b8
000001b0: 530f a5b5 a40e 84b8 d199 eeb7 c8b9 c2b7
000001c0: 25f2 adb5 befd b932 cb94 81b1 e047 cab7
000001d0: 68a5 ffb6 1e31 b8b6 85f0 87b7 8605 8db6
000001e0: 59f5 b1b7 c14e 1db5 1b3d bf37 a36d be36
000001f0: 12b6 8db7 436d aa38 1b85 3ab9 21dc 73b7
00000200: a8fa b0b7 d62c 2fa7 ab25 d2b8 9ab8 0eb4
00000210: 6761 92b7 8555 9938 2141 94b6 71dd 21a8
00000220: 85e3 02b5 d712 39b7 e9f6 b9b8 ffc6 c2b7
00000230: 3632 9e37 283a 5fb8 518f 88b3 dfef 80b6
00000240: dcb8 cdb3 fa47 5036 d8e9 b8b7 e43d 2cb1
00000250: cde7 b8b4 cd06 32b6 9485 aeb6 4966 11b6
00000260: 5f05 57ab 83c9 fb32 c296 3db6 6da3 d9b3
00000270: 8fcb 00b8 be5a 0938 b9d5 3fb7 8600 95b5
00000280: 9bdb 06b6 bb3c 55b4 584a 21b3 9551 6eb7
00000290: c201 31b6 f864 aeb5 fe35 61b4 9fd7 5739
000002a0: f0fa f8b7 530e c935 ee90 e4b7 90ab 14b7
000002b0: 2eba bab7 723f 4cb7 39eb 85b8 693f 3535
000002c0: e207 4cb5 1a16 2cb8 8c3f 7837 8f35 2cb7
000002d0: 62e0 88af d9fc 12b8 9047 4ead 2463 0f38
000002e0: 8118 8eb6 3667 b0b6 32ba 22b7 c083 33b6
000002f0: 68d6 10b3 5c4f e337 3dbc 90b4 2c7d 4cb7
00000300: 240a 40b2 f173 c4b8 7b30 1bb8 5652 9737
00000310: b5d4 adb8 227b b7b7 6873 3a38 9afb 83b8
00000320: 0739 e436 25d0 a2b4 4493 b538 dbc4 92b0
00000330: 80ef f8b2 6e30 15b5 9abb 6bb5 7828 92b7
00000340: 64ec d2b5 5408 c937 563e 0fb4 e475 a1b5
00000350: e415 0135 0ccb 02b5 c6da 4338 7820 1d38
00000360: 6546 1cb6 b3db 0139 d0b2 9bb5 1e8d b5b5
00000370: 09a0 dbb6 e788 49b7 4c77 29b3 fae6 a3b6
00000380: f8cb a8b7 7ec5 dcb6 05ec 19b9 a715 cab9
00000390: 38b4 06b8 ab48 a831 e145 a1b2 e24c 09b9
000003a0: d715 9537 97ab a4b6 9022 39ad 371f 07b7
000003b0: 7903 69b8 8537 1038 2a71 06b6 0940 8a38
000003c0: ce54 0cb9 9ffd 0b34 d0b5 f0b6 32e3 27b7
000003d0: 2e7c 0db9 b454 f5b6 0002 75b5 afe0 22b7
000003e0: 1d8b 6fb7 12ad 02b7 3842 53b8 1c32 6c38
000003f0: 59f3 bfb8 6916 a8b4 c0b6 ebb7 e3da c2b7
-1.7093128e-06 -4.7040057e-08 -1.4483343e-08 -0.00015767633 2.5249557e-07 -4.9473133e-06 -1.6175096e-05 -3.3608594e-05
-4.41274e-07 4.5938083e-05 -7.70216e-06 -2.9605835e-06 -7.5344688e-06 -2.5153784e-09 1.8951923e-06 -2.6431553e-07
-4.3561973e-05 6.7448345e-06 -2.435011e-07 -1.5940409e-09 6.290927e-05 -6.642908e-08 -9.424152e-06 -1.693346e-05
2.9294495e-05 1.0539065e-05 -6.974657e-05 -4.7320674e-07 1.5855223e-05 -1.7560149e-05 -1.0447677e-06 -2.789568e-06
1.5971995e-06 -2.9334578e-07 -9.270381e-06 6.8749534e-05 -9.0984695e-06 9.72533e-07 -1.6398697e-07 1.12604985e-05
-0.00012505322 -9.1531774e-07 1.25045805e-08 -3.322994e-05 -1.8711004e-09 -6.8580535e-05 -5.2466894e-06 -6.5533336e-06
-1.8466677e-05 7.202275e-05 -6.3152115e-06 -1.4543238e-05 -4.0562168e-06 7.5719786e-06 4.916782e-05 -2.4909437e-09
-1.09692495e-08 9.8331565e-09 1.50924425e-05 -2.2869237e-05 -4.506156e-07 -3.2010543e-05 -1.5380077e-05 5.5273875e-07
1.2559131e-05 -1.8085089e-07 -2.5730922e-05 6.099843e-05 -1.8312426e-06 3.9821247e-05 -1.2251273e-07 1.9102112e-05
-4.798429e-06 -5.235449e-05 1.7784969e-05 -2.7252242e-06 -1.1113602e-05 -4.50343e-14 -5.4468045e-11 -3.7704547e-05
-1.334269e-05 -1.262132e-06 -1.3940914e-06 -4.708873e-07 3.8146994e-05 -2.0009842e-05 -1.668146e-05 -4.5691254e-06
2.2176382e-05 -7.4866994e-22 -1.9853301e-09 -3.6964487e-10 -6.62075e-07 -0.000105618594 -6.934073e-06 5.4664826e-05
-8.319974e-07 -7.018666e-05 9.0127946e-07 4.105055e-06 -9.35981e-07 -3.1469702e-07 -1.9777451e-07 -4.51263e-07
-2.612423e-07 -9.372924e-08 -9.114961e-08 -0.00010719286 -1.2297918e-06 -6.2969775e-05 -2.8443437e-05 -2.3213113e-05
-1.2959978e-06 2.1652223e-08 -3.77131e-09 -2.4113746e-05 -7.618848e-06 -5.4893453e-06 -1.6205255e-05 -4.2027705e-06
-2.1214293e-05 -5.860166e-07 2.2797429e-05 5.6752046e-06 -1.6893293e-05 8.126583e-05 -0.00017787928 -1.4535181e-05
-2.1097556e-05 -2.4310434e-15 -0.000100205965 -1.3291938e-07 -1.7449913e-05 7.311538e-05 -4.4183257e-06 -8.985313e-15
-4.875986e-07 -1.1031246e-05 -8.867478e-05 -2.3219267e-05 1.8858449e-05 -5.3221505e-05 -6.3590626e-08 -3.842622e-06
-9.579682e-08 3.1036311e-06 -2.2043401e-05 -2.5064475e-09 -3.4441328e-07 -2.6528026e-06 -5.2011546e-06 -2.1666222e-06
-7.63908e-13 2.9311883e-08 -2.8250947e-06 -1.0134577e-07 -3.0707157e-05 3.2747856e-05 -1.1434248e-05 -1.1101517e-06
-2.0095383e-06 -1.9859264e-07 -3.755335e-08 -1.42049e-05 -2.6376078e-06 -1.2993396e-06 -2.09744e-07 0.00020584323
-2.9680756e-05 1.4979836e-06 -2.7247206e-05 -8.861432e-06 -2.2259625e-05 -1.217412e-05 -6.385748e-05 6.752003e-07
-7.6007393e-07 -4.102858e-05 1.4796748e-05 -1.0264469e-05 -2.489769e-10 -3.5044595e-05 -1.1725634e-11 3.418619e-05
-4.2347824e-06 -5.257224e-06 -9.699304e-06 -2.6749767e-06 -3.3722614e-08 2.7097463e-05 -2.6959052e-07 -1.2188491e-05
-1.1178177e-08 -9.367604e-05 -3.700003e-05 1.8038943e-05 -8.2889026e-05 -2.1872638e-05 4.4453336e-05 -6.293431e-05
6.8015684e-06 -3.0326296e-07 8.658183e-05 -1.0678848e-09 -2.8979912e-08 -5.55773e-07 -8.781732e-07 -1.7423401e-05
-1.5715018e-06 2.3964945e-05 -1.334059e-07 -1.2029745e-06 4.80881e-07 -4.8724246e-07 4.669537e-05 3.7461956e-05
-2.3286786e-06 0.00012384243 -1.1600441e-06 -1.3526621e-06 -6.545339e-06 -1.2012409e-05 -3.945688e-08 -4.8846678e-06
-2.0122141e-05 -6.579502e-06 -0.00014679141 -0.00038544575 -3.211593e-05 4.897705e-09 -1.8774644e-08 -0.00013093979
1.7772354e-05 -4.9075566e-06 -1.0523707e-11 -8.053895e-06 -5.5554763e-05 3.4383982e-05 -2.0033426e-06 6.59228e-05
-0.00013383033 1.303765e-07 -7.173723e-06 -1.0006874e-05 -0.00013493068 -7.3114297e-06 -9.127252e-07 -9.708266e-06
-1.42779e-05 -7.7889e-06 -5.036799e-05 5.6313453e-05 -9.152917e-05 -3.1308744e-07 -2.8099283e-05 -2.322853e-05

exp_avg_sq f4 [2048]
00000000: 43db 5a33 e173 1f31 b482 9e31 0756 e236
00000010: 494e 4533 f0ef 0234 493d 0435 d2fa bf34
00000020: d3ee 0231 7a19 9134 1f84 e435 f213 5533
00000030: 2611 c233 e4e4 2e30 d41e 1036 a92c 3032
00000040: f25a 3f33 1404 3e35 13b9 1d32 1ddb 1c31
00000050: a907 bc35 6208 8931 6ee1 a733 78b9 3834
00000060: 4d32 3536 092f 9d34 859e 5835 81d7 4b31
00000070: 4daf 1534 8522 ea33 2012 1733 1508 0137
00000080: 8450 8334 a3d1 9132 bba4 7a33 0190 9a36
00000090: 0f90 2634 51d5 2432 ea05 8b31 1d39 c035
000000a0: 499f 1235 5a61 f832 ea1f 432f 041c 7434
000000b0: 1a5d 6731 5e69 5b36 5302 1232 6d95 cf33
000000c0: 9764 e234 445d 5f34 1748 1e32 9ab4 eb35
000000d0: 283c f633 7942 5a34 3626 6736 bcba d42f
000000e0: 783c dc30 5025 8b32 b611 0c35 b846 3a34
000000f0: 9027 3530 0a21 db36 fee8 9e34 3dd3 9332
00000100: f841 df35 3702 b330 0399 ab35 0ca9 a535
00000110: 6a46 ec32 c432 7f36 d1b8 8231 9351 d534
00000120: 40d9 e431 c331 8736 d7d6 0936 9ecd 5834
00000130: bb8e 5a35 0e1b 3930 ee30 a630 b14b 4d35
00000140: cf64 ed34 7c80 3f33 2f69 c133 421e 3432
00000150: f974 c136 e3fa 4334 a3ad 1034 1bf5 e436
00000160: 0eb6 8835 7866 6f2f ce12 902f 2a28 df30
00000170: c641 e932 2c77 f636 9a4c ce35 90ad ab36
00000180: 194c 5531 5ae1 0535 5797 3234 2d53 1934
00000190: e207 a431 9e21 f72f fcf4 3d32 72ba 0032
000001a0: ff0c f431 2f44 0a31 d15e 2831 06e8 4a34
000001b0: a135 1433 9c02 9b34 5837 b235 10a1 d633
000001c0: 69d9 8631 3d78 8530 a49a 0c31 64ad 1136
000001d0: 133e f235 add6 ec31 ad08 ef33 0ecc db33
000001e0: bd41 8935 74f0 ee32 6767 cb35 4cf9 8c36
000001f0: 8b0a 8834 e78c 6436 6d31 c637 8dea 2e34
00000200: df2d 6235 3c99 0c30 62af 8536 a9fc 2d31
00000210: 1742 a632 4552 0238 44b7 3833 e0c8 1730
00000220: 71a1 3e32 9663 cc33 3cd3 2237 b844 4e35
00000230: face 7035 4c35 0635 81c3 3430 9660 bc33
00000240: 290d b831 81e9 7036 a4da 3437 8128 4c31
00000250: c834 5e32 9d98 1135 a7c1 0634 5f6d 7931
00000260: 0675 8630 fc84 9831 df09 9a32 e166 0032
00000270: 1a22 8d35 0116 7936 b35b c636 0cef 1732
00000280: 0ff0 0c32 097f 8631 9a31 6031 26bd 1f35
00000290: a190 2e33 f1b4 cd32 9704 b031 1ed2 0536
000002a0: e176 9334 a133 e936 7146 5235 bc8a 0134
000002b0: 12d7 a336 d84b 8134 9743 1136 767d bc33
000002c0: 1398 8a31 157a 7b33 5bd4 3236 b392 9e36
000002d0: 1a1a c530 b5e6 7b36 18f7 8630 0cab 9c35
000002e0: 4620 f532 7134 a332 5c5e cd33 0467 d132
000002f0: 6ae9 e030 1979 d135 9f1d d931 4901 4433
00000300: 8076 d12f af68 ff36 0e9d 9536 7ebd e735
00000310: 343e 1e36 a37a 1234 a878 0536 861d a936
00000320: da54 c935 b29e 9e31 e6ab d334 316c c430
00000330: 90c1 0832 c182 3f32 019a cc31 523f 6136
00000340: a29e bc31 8f6a f033 2725 8a31 60db bc32
00000350: cb2d 3935 24a1 c130 5d53 de35 e42b 1d35
00000360: 35df 5732 e31f f036 13f4 cf32 97aa 4732
00000370: 323b 0633 67dc 9633 071f 9831 27c0 ee33
00000380: d8da 0735 c486 0134 0a96 2a37 9f2e 8036
00000390: 8d13 ae34 cffe b033 d28e 802f 507c eb36
000003a0: 4343 ab35 9287 3932 6572 462f 1bfb 1335
000003b0: a877 bd36 67f2 4736 ca32 5033 645a 5336
000003c0: 80d4 0935 8950 f135 be76 1532 bb6d 9233
000003d0: 1b1e 9635 090c 1333 bd6f 1e32 1ccc 5436
000003e0: 35f0 1c35 646e 4334 3e0d 8c35 6962 6536
000003f0: 08a2 0136 fa25 8c33 c2f7 d633 ef43 bc33
5.0956498e-08 2.3203415e-09 4.6132644e-09 6.7453398e-06 4.5938837e-08 1.2194482e-07 4.9263014e-07 3.5759018e-07
1.9053246e-09 2.702689e-07 1.7025776e-06 4.9611067e-08 9.036948e-08 6.3626104e-10 2.1475616e-06 1.0254703e-08
4.4553367e-08 7.078645e-07 9.180684e-09 2.282554e-09 1.4009321e-06 3.988178e-09 7.817549e-08 1.7203809e-07
2.700038e-06 2.9277751e-07 8.0696947e-07 2.9662888e-09 1.394048e-07 1.0902753e-07 3.5173912e-08 7.690881e-06
2.4459234e-07 1.6975553e-08 5.8357482e-08 4.606322e-06 1.5512363e-07 9.594559e-09 4.046105e-09 1.4321737e-06
5.462103e-07 2.891527e-08 1.7746485e-10 2.2734463e-07 3.3667846e-09 3.2694875e-06 8.498847e-09 9.666369e-08
4.216897e-07 2.0802423e-07 9.213202e-09 1.7561426e-06 1.146621e-07 2.0327015e-07 3.4443924e-06 3.8695258e-10
1.6024293e-09 1.6198697e-08 5.2179837e-07 1.7348327e-07 6.590364e-10 6.530555e-06 2.9599317e-07 1.7209112e-08
1.6633994e-06 1.3024594e-09 1.2785025e-06 1.2342657e-06 2.7506037e-08 3.802751e-06 3.804509e-09 3.9733695e-07
6.660372e-09 4.0291065e-06 2.0539644e-06 2.019137e-07 8.141903e-07 6.7341055e-10 1.2091996e-09 7.6478597e-07
4.4218038e-07 4.458751e-08 9.0063956e-08 1.0484259e-08 5.7654656e-06 1.8252062e-07 1.3474214e-07 6.8234635e-06
1.0185774e-06 2.1773328e-10 2.620681e-10 1.6236801e-09 2.715468e-08 7.3452447e-06 1.537049e-06 5.1164025e-06
3.1038836e-09 4.987429e-07 1.6632599e-07 1.4279495e-07 4.7739244e-09 4.4952925e-10 1.1056951e-08 7.492973e-09
7.102812e-09 2.01204e-09 2.4501114e-09 1.8897126e-07 3.450771e-08 2.8872898e-07 1.3278141e-06 9.994449e-08
3.92463e-09 9.711197e-10 2.0460584e-09 2.170761e-06 1.8048471e-06 6.89291e-09 1.1130883e-07 1.02350995e-07
1.0226428e-06 2.7816192e-08 1.5154773e-06 4.201347e-06 2.5339645e-07 3.4056663e-06 2.3626455e-05 1.6290342e-07
8.425831e-07 5.114946e-10 3.984126e-06 2.5318434e-09 1.9354998e-08 3.1071035e-05 4.3007518e-08 5.521894e-10
1.1096163e-08 9.517605e-08 9.705134e-06 7.684098e-07 8.970816e-07 4.999645e-07 6.5761446e-10 8.772001e-08
5.356601e-09 3.5898704e-06 1.0779742e-05 2.970893e-09 1.2934102e-08 5.423879e-07 1.2550173e-07 3.629644e-09
9.783043e-10 4.438901e-09 1.7932448e-08 7.4739726e-09 1.0515244e-06 3.71167e-06 5.911535e-06 8.84371e-09
8.2036555e-09 3.9143555e-09 3.2624485e-09 5.9507363e-07 4.064407e-08 2.3947424e-08 5.122796e-09 1.9940849e-06
2.746738e-07 6.9499515e-06 7.83336e-07 1.2064532e-07 4.882816e-06 2.4083306e-07 2.1646026e-06 8.7772534e-08
4.0336174e-09 5.8551525e-08 2.6647674e-06 4.725845e-06 1.4341055e-09 3.7536204e-06 9.820011e-10 1.1672687e-06
2.853643e-08 1.8999545e-08 9.56322e-08 2.4377648e-08 1.6364485e-09 1.5606958e-06 6.3188987e-09 4.5635975e-08
3.8101078e-10 7.611779e-06 4.4588296e-06 1.7265991e-06 2.3580042e-06 1.3641925e-07 1.9888776e-06 5.0400295e-06
1.5000362e-06 4.616447e-09 3.9426885e-07 1.4291627e-09 7.960253e-09 1.1147393e-08 5.9546896e-09 3.356447e-06
5.4895546e-09 1.1195254e-07 4.0205523e-09 2.198584e-08 6.898451e-07 1.4088397e-09 1.6564551e-06 5.8550927e-07
1.25653985e-08 7.1562695e-06 2.4208964e-08 1.1622112e-08 3.1253144e-08 7.02501e-08 4.4273096e-09 1.1117691e-07
5.060988e-07 1.2063089e-07 1.0167723e-05 3.8201247e-06 3.242425e-07 8.241988e-08 2.3384544e-10 7.0180176e-06
1.2760069e-06 1.0799242e-08 1.8048636e-10 5.5127174e-07 5.6465688e-06 2.9794408e-06 4.8474966e-08 3.1494064e-06
5.1345705e-07 1.7979338e-06 8.69994e-09 6.818615e-08 1.1184633e-06 3.423705e-08 9.222217e-09 3.170927e-06
5.8464076e-07 1.820095e-07 1.0434667e-06 3.4180941e-06 1.9316813e-06 6.526166e-08 1.00102184e-07 8.766789e-08

exp_avg f4 [6, 2048]
00000000: 0157 bcb4 767d deb3 f013 83b4 35fb aab8
00000010: 9f38 9536 33cc 2537 5845 e636 1247 73b7
00000020: e3b5 f6b4 eb25 6338 c05c 82b7 fea3 a6b4
00000030: 724b d136 346d 8333 a674 bd37 03d2 e633
00000040: e090 0636 e18a c836 d4a5 8035 38f8 6734
00000050: 73f9 d538 6435 c3b5 3cfc 93b5 34b5 3eb6
00000060: f930 9738 77da b437 9c8d b737 d40d ef34
00000070: 809b be35 8446 a736 ba50 0f36 bd95 81b6
00000080: 0414 9737 b506 0236 550c fa36 1953 0d39
00000090: e6de 9137 a42d 48b6 a185 ad34 651c 3138
000000a0: e6fb 5337 6a85 7fb5 00b3 8132 053b 1fb7
000000b0: 8c10 8a34 16c7 7037 cd8a 2035 f953 9436
000000c0: d126 6e36 b2ce 4f38 7d67 0eb5 2035 e036
000000d0: 8219 0137 df74 fc36 ed41 a937 4c63 d234
000000e0: 1d20 d1b1 caac 31b6 1ae6 3138 e9cc 4836
000000f0: f5f6 b1b5 7982 24b7 5064 f936 549b 93b5
00000100: 27ed 87b4 767c 0e35 297c 3438 b8af db38
00000110: 7e4f 0936 0dc8 df38 469d d2b5 2c1a c1b5
00000120: c25a d936 a833 f934 0469 8738 5add 02b5
00000130: 4189 7636 c7de cb34 f00d d0b4 e97c d937
00000140: e40c c037 3827 10b5 704b 4836 4c73 15b4
00000150: a7bb 1b39 e5cd 0e36 7ded 9f36 3eae f938
00000160: 6714 7c35 fdb6 11b3 2e5a 69b5 7771 12b3
00000170: db47 6334 d362 ce38 7586 7937 2e6b aa38
00000180: 0ce8 af35 b034 e0b4 529d 0437 f5ff c336
00000190: f2f6 c335 246a 8335 3088 5835 b15b 5336
000001a0: 49a1 0035 191f ddb4 7a30 f2b2 06f8 1536
000001b0: 9df0 7bb6 7b41 d836 c85a 1637 2099 bf36
000001c0: 9586 0937 39f2 abb4 3718 9935 7539 f035
000001d0: cdb4 ae36 17ef 0cb6 a348 5fb6 3c06 9b36
000001e0: 6c26 4e37 5cc7 1936 ab41 3938 e2bb b538
000001f0: f359 3e35 a282 f038 d241 24b8 a66e 2137
00000200: aaeb a4b6 11d8 1b35 8ebb 8a38 1882 aab3
00000210: 72c8 a634 2f6a bab8 243a 3736 2d34 eeb4
00000220: 8f8b 2cb5 06c6 4a37 a804 1937 e1d7 8036
00000230: e65e 8638 52d5 0236 9b70 e234 c39f a235
00000240: d3cb 26b5 6195 c438 0985 c138 217d 5eb2
00000250: ff64 a135 2be4 9cb5 ad21 3837 eace cbb3
00000260: 1fcf 03b1 44d9 9f33 681d 7433 c71e 3231
00000270: c571 ba37 5fc3 2c39 acd0 db37 da53 04b4
00000280: b143 36b5 5704 b9b5 7bd2 dbb4 9248 87b7
00000290: c219 8736 1189 eab5 e326 f9af 8651 e737
000002a0: adb7 09b7 ac49 0238 91da 2a38 0983 d936
000002b0: 5179 0038 fd41 6834 5bcc 1d38 a2fc fd33
000002c0: 1ff7 0f36 be89 cb36 dbe9 0239 a2f5 7938
000002d0: 7699 6535 074e c138 196b bd32 3b8c c536
000002e0: ad3e edb4 bddf 7b36 b76c 14b6 5092 6a36
000002f0: 75d5 29b2 05d3 bc38 9a0a b935 db83 3436
00000300: bfd6 3b34 f991 b2b8 9f22 c837 7b9e 8538
00000310: da39 6338 1766 fe36 32ca b037 0bb0 ee34
00000320: 1563 b338 846b 6f34 9353 0938 fcbf 1535
00000330: 5713 b4b4 3e76 44b4 d5ff c435 e77d 8438
00000340: 911a ac35 0793 2338 f681 d6b2 60d7 38b5
00000350: 8a46 6538 2f81 6f35 ec51 a538 8677 6f35
00000360: 391c 6935 a702 0a39 5e08 7636 2058 d734
00000370: 8998 e035 32b4 5ab6 c9d2 17b4 e10e 0237
00000380: 000b a836 6092 48b5 4348 0236 0958 e634
00000390: de38 0136 5eae b0b4 fc9f 1f35 9609 3938
000003a0: 809e 2038 7793 fdb5 5cfc 88af 1e4f c237
000003b0: f753 c336 779b c837 cbb5 7336 2ad5 5a38
000003c0: 2546 8b37 48dc 5638 785b 6135 ea1d 36b6
000003d0: 7f94 b6b7 ba99 9db5 1abd 00b5 6cd8 5738
000003e0: f8bc be37 1425 e035 da78 11b7 7227 cf38
000003f0: 74a4 1737 71fd e636 955d 4233 7f69 5237
-3.5081032e-07 -1.0360502e-07 -2.4415158e-07 -8.153023e-05 4.4471376e-06 9.88231e-06 6.862607e-06 -1.4500476e-05
-4.595341e-07 5.415633e-05 -1.5540398e-05 -3.103923e-07 6.2374684e-06 6.120027e-08 2.2584874e-05 1.07484105e-07
2.0051884e-06 5.976632e-06 9.585006e-07 2.1603853e-07 0.00010203095 -1.4544171e-06 -1.1025763e-06 -2.841768e-06
7.209363e-05 2.1559403e-05 2.1881242e-05 4.452728e-07 1.420136e-06 4.985197e-06 2.135565e-06 -3.8619314e-06
1.8009923e-05 1.9375414e-06 7.4520162e-06 0.00013477764 1.7389142e-05 -2.9828889e-06 3.232099e-07 4.2226533e-05
1.263523e-05 -9.5189046e-07 1.5098976e-08 -9.49088e-06 2.5716542e-07 1.4351468e-05 5.9806626e-07 4.4205194e-06
3.5487358e-06 4.9545146e-05 -5.304972e-07 6.681905e-06 7.694938e-06 7.523791e-06 2.0177069e-05 3.9187796e-07
-6.0863514e-09 -2.6475632e-06 4.2414387e-05 2.9921596e-06 -1.3259402e-06 -9.80554e-06 7.432456e-06 -1.099756e-06
-2.531826e-07 5.3080237e-07 4.3030977e-05 0.00010475464 2.0460861e-06 0.00010670731 -1.5691992e-06 -1.4387238e-06
6.4776696e-06 4.641745e-07 6.456862e-05 -4.875088e-07 3.6736749e-06 3.7973788e-07 -3.875316e-07 2.5926582e-05
2.2894186e-05 -5.370125e-07 2.9846233e-06 -1.3918651e-07 0.00014851858 2.1279495e-06 4.7662165e-06 0.000119057004
9.3907005e-07 -3.392687e-08 -8.693049e-07 -3.409647e-08 2.1167163e-07 9.841253e-05 1.4872862e-05 8.1261955e-05
1.3106051e-06 -4.1761587e-07 7.904442e-06 5.84125e-06 1.4600503e-06 9.791152e-07 8.066445e-07 3.1494822e-06
4.7918417e-07 -4.1187084e-07 -2.8194552e-08 2.2347099e-06 -3.754197e-06 6.4449246e-06 8.961833e-06 5.7100697e-06
8.197171e-06 -3.2027472e-07 1.1406436e-06 1.7898116e-06 5.206652e-06 -2.1000794e-06 -3.327187e-06 4.6200857e-06
1.2287503e-05 2.291482e-06 4.4168595e-05 8.6657485e-05 7.091141e-07 0.00011468424 -3.9161947e-05 9.62211e-06
-4.915016e-06 5.805642e-07 6.6152876e-05 -7.939906e-08 3.1065753e-07 -8.8889494e-05 2.7302967e-06 -4.4368917e-07
-6.427808e-07 1.2086244e-05 9.120595e-06 3.839829e-06 6.407294e-05 1.9495678e-06 4.2177712e-07 1.2116437e-06
-6.213642e-07 9.373832e-05 9.227737e-05 -1.2950552e-08 1.2024828e-06 -1.1689311e-06 1.0975095e-05 -9.4905616e-08
-1.9180744e-09 7.443535e-08 5.6837422e-08 2.5919904e-09 2.2225906e-05 0.0001647598 2.6204005e-05 -1.2323963e-07
-6.789879e-07 -1.3784837e-06 -4.0945073e-07 -1.6127047e-05 4.026312e-06 -1.747425e-06 -4.5320467e-10 2.7575308e-05
-8.208602e-06 3.1063028e-05 4.0734714e-05 6.4823585e-06 3.0630563e-05 2.163069e-07 3.7622038e-05 1.1827184e-07
2.1452504e-06 6.0659067e-06 0.00012484884 5.959499e-05 8.5532463e-07 9.217491e-05 2.2051198e-08 5.8873825e-06
-4.4190293e-07 3.7532147e-06 -2.2117e-06 3.4953882e-06 -9.885629e-09 9.003844e-05 1.378666e-06 2.689884e-06
1.7493856e-07 -8.514891e-05 2.385798e-05 6.3714535e-05 5.4174896e-05 7.5816747e-06 2.107499e-05 4.4459043e-07
8.5538406e-05 2.2297723e-07 3.274118e-05 5.57862e-07 -3.3541684e-07 -1.8296939e-07 1.4677595e-06 6.3177016e-05
1.282273e-06 3.899916e-05 -2.4971978e-08 -6.8858753e-07 5.466355e-05 8.9222425e-07 7.883072e-05 8.920837e-07
8.6840333e-07 0.00013161694 3.6661727e-06 4.011099e-07 1.6733694e-06 -3.258942e-06 -1.4139654e-07 7.752068e-06
5.0080707e-06 -7.471881e-07 1.9413571e-06 4.2904892e-07 1.92556e-06 -3.2909423e-07 5.9464924e-07 4.4116365e-05
3.8294587e-05 -1.8892887e-06 -2.4917568e-10 2.3163444e-05 5.8212277e-06 2.3914252e-05 3.631564e-06 5.2173775e-05
1.6602755e-05 5.122673e-05 8.3952136e-07 -2.7137526e-06 -2.176524e-05 -1.1742152e-06 -4.7958895e-07 5.1461553e-05
2.273776e-05 1.6700092e-06 -8.670811e-06 9.8778764e-05 9.038591e-06 6.8840386e-06 4.5254257e-08 1.2541538e-05

exp_avg_sq f4 [6, 2048]
00000000: fe6d e633 cfc4 1633 843e ad32 7f53 7836
00000010: 98ba dc34 e933 d835 0999 2e35 9035 1134
00000020: 77a7 2833 0ee9 0436 2204 8234 adb9 f532
00000030: 3034 7d35 9d27 0d34 5058 3f37 1dec c432
00000040: 8858 4733 307f 2134 2e60 9833 3dfc ea32
00000050: f394 9e35 d555 8b34 7c70 8034 d046 6333
00000060: 03ee 3236 27ed 4036 7f19 ea34 fcf6 7533
00000070: 670e c335 228f 7c33 671f 8b34 c1e2 9a35
00000080: d98f 3735 2ec3 ac34 a13a 2b35 581b be36
00000090: 1294 d434 202a ef34 3d34 0034 a65b 4b36
000000a0: f750 4d35 e08e 8d33 de36 c930 fa57 0335
000000b0: af33 5e33 192e 8735 83db 5934 737e 9832
000000c0: d4b7 a034 4d9f 0a36 01b6 7d33 640a b034
000000d0: ac0c b234 fd81 1f35 7496 ab35 14e6 eb32
000000e0: 7336 d732 5bf9 6633 6e71 8235 011b 0e34
000000f0: 663a b633 dfaf a035 6197 df34 1a8c d133
00000100: c929 9134 4f94 8233 11f1 3f35 3dec b735
00000110: aaa9 0734 de4b 4f36 1a91 d734 b9c2 e135
00000120: 4200 0235 692f 2337 7ba2 1436 ab21 4a33
00000130: c385 b435 5825 3733 5d54 5433 6411 af34
00000140: cf1b 3035 3a02 0b34 ce32 7f35 1873 ff31
00000150: 2a91 a736 1d49 1733 181a 8b34 f512 c836
00000160: 5dcf 5134 3734 3732 d759 0332 511f 8833
00000170: 0ea5 3b34 828d d935 1626 ca34 ce66 a136
00000180: e9a1 a633 f7e5 f534 bff7 d134 53f1 4f35
00000190: 45d7 5934 a56c b433 d26e 8d34 2b98 0235
000001a0: c5e7 2533 8601 0733 272c 4132 66f0 b734
000001b0: ea1b e934 e208 1735 3cdb e633 7053 ca33
000001c0: b6dd 4734 a286 a032 18c2 8933 fd59 6d35
000001d0: ea54 e735 eafc 9334 c9c1 1a34 8308 4634
000001e0: 6198 b035 3faf 6533 c894 df35 7461 4136
000001f0: 6c73 4f31 6eac bb36 0588 ef36 737b ee34
00000200: 3517 1535 faaa c833 d1f6 5c34 4ca1 2e32
00000210: 2207 8c33 244e d936 28e3 3634 9818 7633
00000220: 2078 9234 9088 3335 225d 3a35 9d6a 6335
00000230: 43f2 7136 a234 bf32 7362 8833 c9f9 8d33
00000240: 752a be33 3ac4 1436 0719 e834 3a3f e631
00000250: 55a7 6b34 7b69 1034 0cae 5f34 0339 4732
00000260: 6467 e831 bc1c 4831 0e4e 1e31 22a5 bb31
00000270: c147 2235 240a d435 1cb9 1e36 2c91 2834
00000280: df01 0934 d6d3 0234 3a1b 5a33 bc73 7334
00000290: 25cc 1334 75c5 6334 3c09 ea32 c75d b936
000002a0: a6f4 7b34 91e3 1b37 7995 b135 2dc7 4432
000002b0: d078 9336 86e3 0e34 29f4 4234 dd60 4634
000002c0: 5663 8d34 a940 8f33 8a86 d536 6d5e 4936
000002d0: 1c05 4833 9103 6f36 db6f ea32 5255 1d35
000002e0: 2259 3133 1156 4a34 8bf5 8734 0b71 4933
000002f0: 04d3 0032 d890 a336 711b 5f34 822b 8635
00000300: b183 0933 19b7 3e36 3fac b435 b9dd 9b35
00000310: 32c6 2535 3f8f fb35 aeb5 7135 79be 9c36
00000320: 1dca 6436 2c02 6132 e142 f535 0804 0834
00000330: e5ce 2733 b70b 1e32 9b0f fa34 e300 ee35
00000340: 0d00 1c34 e18c 4135 3961 fd31 3d95 c333
00000350: e538 f735 1110 9733 12b6 6236 4002 b534
00000360: 7010 ef32 b320 8e36 c9a5 da33 ff3c 4831
00000370: 4d66 8534 30cf 7632 d7f8 7933 2872 2335
00000380: 5eea 7835 309b 5032 41a9 ad36 7eff 1236
00000390: c1ec 9d35 7729 0134 fc0c 0832 ea9d bc35
000003a0: 92d1 8835 8edc 3134 5069 0531 e1ca 0c35
000003b0: 27c6 5134 9b60 b436 7e14 bc33 bee4 b535
000003c0: b24e ff34 701c 6336 10d1 0b33 1152 3634
000003d0: 9c9f 7a35 110d f833 ea7f c433 98ff 8e36
000003e0: c1d8 9f35 d5e7 ca35 ebae b534 594f cb36
000003f0: bded fc32 8a76 7434 8142 cd33 8bd0 8935
1.0730217e-07 3.5103593e-08 2.016828e-08 3.700348e-06 4.1113958e-07 1.6108362e-06 6.5042747e-07 1.3523663e-07
3.9267857e-08 1.9805188e-06 2.4217394e-07 2.860619e-08 9.432579e-07 1.314606e-07 1.1405049e-05 2.2924775e-08
4.6413817e-08 1.5040564e-07 7.0955466e-08 2.735589e-08 1.1815267e-06 2.595322e-07 2.39237e-07 5.291696e-08
2.6662608e-06 2.874827e-06 4.3604447e-07 5.726814e-08 1.4532824e-06 5.88035e-08 2.5913616e-07 1.1539888e-06
6.838214e-07 3.2179508e-07 6.378778e-07 5.6656245e-06 3.9595812e-07 4.454787e-07 1.1939933e-07 3.0302704e-06
7.648627e-07 6.591813e-08 1.4640269e-09 4.8929326e-07 5.173541e-08 1.00717e-06 2.0289558e-07 1.7752631e-08
2.9936075e-07 2.0656328e-06 5.9071684e-08 3.2790115e-07 3.3164304e-07 5.9421274e-07 1.278428e-06 2.7462228e-08
2.5054055e-08 5.3777836e-08 9.718767e-07 1.3234605e-07 8.485658e-08 1.1972114e-06 4.164713e-07 9.757805e-08
2.7038757e-07 6.080574e-08 7.150384e-07 1.3703317e-06 1.2634578e-07 3.0889564e-06 4.0152446e-07 1.6820478e-06
4.842915e-07 9.726596e-06 2.2148295e-06 4.706241e-08 1.3449975e-06 4.264197e-08 4.9436824e-08 3.2608943e-07
6.5605576e-07 1.2946194e-07 9.5068833e-07 7.4345614e-09 4.993887e-06 3.5223923e-08 2.5909753e-07 5.9626714e-06
1.954008e-07 1.0663874e-08 7.645631e-09 6.33869e-08 1.7475779e-07 1.6208944e-06 3.7653143e-07 4.810142e-06
7.759429e-08 4.5802128e-07 3.9109543e-07 7.746468e-07 2.0288014e-07 8.4016655e-08 2.634393e-07 4.865021e-07
3.862785e-08 3.1433522e-08 1.1244118e-08 3.426132e-07 4.3419942e-07 5.626481e-07 1.0750088e-07 9.421535e-08
1.8613977e-07 1.8687675e-08 6.414865e-08 8.842033e-07 1.7235554e-06 2.7564903e-07 1.4412866e-07 1.8443284e-07
1.315737e-06 5.3477603e-08 1.6658096e-06 2.8815966e-06 3.0188074e-09 5.5931077e-06 7.13859e-06 4.4420776e-07
5.5540596e-07 9.344326e-08 2.0578888e-07 1.0164808e-08 6.5205555e-08 6.4762007e-06 1.703271e-07 5.7298706e-08
2.7282022e-07 6.688142e-07 6.9425926e-07 8.471923e-07 3.6052813e-06 2.2259261e-08 6.350901e-08 6.61126e-08
8.855287e-08 2.2167937e-06 4.3231577e-07 6.701069e-09 2.1946956e-07 1.3449419e-07 2.0831811e-07 1.15962875e-08
6.763843e-09 2.9120164e-09 2.3036395e-09 5.4611897e-09 6.045412e-07 1.5798182e-06 2.3651583e-06 1.5699032e-07
1.27598e-07 1.2184259e-07 5.0781843e-08 2.2673242e-07 1.3764709e-07 2.1212857e-07 2.7245385e-08 5.5243468e-06
2.3465199e-07 9.291704e-06 1.323103e-06 1.1453989e-08 4.395006e-06 1.3307553e-07 1.8156483e-07 1.8475426e-07
2.6335573e-07 6.670718e-08 6.363557e-06 3.0006297e-06 4.6570776e-08 3.5615851e-06 2.7292051e-08 5.8611215e-07
4.129209e-08 1.8844027e-07 2.5324366e-07 4.690177e-08 7.49856e-09 4.8746406e-06 2.0778477e-07 9.99644e-07
3.201757e-08 2.8418783e-06 1.3461175e-06 1.161293e-06 6.17557e-07 1.8742647e-06 9.0043875e-07 4.6713362e-06
3.4092293e-06 1.30972175e-08 1.8273387e-06 1.2667454e-07 3.9070887e-08 9.199474e-09 4.6577483e-07 1.773264e-06
1.452865e-07 7.210311e-07 7.374322e-09 9.1075414e-08 1.8419493e-06 7.034408e-08 3.3782603e-06 3.3715514e-07
2.7830737e-08 4.2357365e-06 1.0181572e-07 2.9138503e-09 2.4847614e-07 1.4366194e-08 5.820115e-08 6.088835e-07
9.272825e-07 1.2142479e-08 5.1755055e-06 2.1904411e-06 1.1766316e-06 1.2029146e-07 7.919194e-09 1.405305e-06
1.0193783e-06 1.6564647e-07 1.941391e-09 5.244929e-07 1.9536729e-07 5.3756644e-06 8.75816e-08 1.3552124e-06
4.755471e-07 3.3842189e-06 3.25536e-08 1.6979926e-07 9.336452e-07 1.1550777e-07 9.150229e-08 4.261685e-06
1.1909507e-06 1.5117645e-06 3.3841147e-07 6.0591087e-06 2.9444772e-08 2.2767395e-07 9.5581534e-08 1.0267989e-06

exp_avg f4 [6]
00000000: 3678 063a 1dcc cb3a 7b25 5bb7 5b31 bcba
00000010: 51e4 b1b9 b950 54b7
0.0005129607 0.0015548501 -1.3062144e-05 -0.0014357971 -0.0003393018 -1.2654979e-05

exp_avg_sq f4 [6]
00000000: fe78 fe39 5343 bc38 96ce 403a b2ea af38
00000010: ca6b 6539 66d2 8439
0.00048536801 8.977079e-05 0.00073550025 8.388366e-05 0.00021879296 0.0002533376

exp_avg f4 [6]
00000000: 9ea6 8ab9 ffc9 3e3a 30f7 5e3a b7c4 30ba
00000010: c943 623b 4d35 00bb
-0.0002644555 0.00072780246 0.0008505462 -0.000674318 0.0034525266 -0.001956302
